saved_models/model_JPM.pt (torch_old, 190423 bytes, 15 tensors)

layer1.weight f4 [100, 5]
000000 4f a5 8e be 34 fb 4c be ca 07 99 be 8c 2c b1 bd
       -0.27860495 -0.20017701 -0.29888755 -0.08651075
000010 3e 48 9c be f3 2c 3e 3d 08 88 04 3e 1d 17 b6 3e
       -0.30523866 0.046429586 0.12942517 0.3556451
000020 6c 4c 3d 3c f0 44 de be 1c a3 18 be 74 2a 4c 3e
       0.011553865 -0.4341197 -0.14905971 0.1993807
000030 64 e9 04 3e fa 49 a8 be 34 98 9f be 0c 64 8c bd
       0.12979656 -0.3286894 -0.3117081 -0.0685502
000040 18 93 d8 be 90 bc b6 3c 36 de 8a 3e f4 d3 c7 bd
       -0.42299724 0.02230671 0.27122658 -0.09757224
000050 3b 46 2e 3e 2f 24 32 3e 2c ff 2d 3e 4a 6a a8 be
       0.17018978 0.17396615 0.16991872 -0.32893592
000060 e3 1d 76 bd 30 62 32 bb 80 d7 b3 3d be 60 60 3e
       -0.060087096 -0.002721917 0.08781338 0.21911904
000070 ce 3c be be a4 d2 f3 bd bf 0c 0e 3d 03 f1 d0 bd
       -0.37155765 -0.11905411 0.034680124 -0.10202219
000080 6d d8 bc be a5 ea da 3e 61 d3 57 3d 6f 44 74 3e
       -0.3688387 0.42757145 0.05269182 0.2385423
000090 b9 d8 33 3e ff d8 94 bb c6 54 04 bd 9b 04 80 be
       0.17563142 -0.0045424695 -0.03230741 -0.25003514
0000a0 56 3b 3c be e0 7a a2 be 39 15 92 be 00 46 42 bc
       -0.1838201 -0.3173437 -0.28531817 -0.01185751
0000b0 e8 fc 8a be c4 29 fb bd 8e 5e 9d 3e 42 a2 9f be
       -0.27146077 -0.122638255 0.30736202 -0.3117848
0000c0 a8 d9 53 bd d5 e1 8f be 0c 60 ec 3e 86 1a 8c bd
       -0.051721245 -0.28101984 0.46167028 -0.068409964
0000d0 72 3a d9 3e d2 34 40 3e 2f 6b bc 3e 51 33 88 3e
       0.42427403 0.1877015 0.36800525 0.2660165
0000e0 bc b8 e7 bd d3 08 69 3e 25 10 c8 bd 0f e5 09 3e
       -0.11314532 0.22757272 -0.09768704 0.13466285
0000f0 0c bf 86 be 01 74 a1 be 30 64 92 bc 3a 06 0c be
       -0.26317632 -0.31533816 -0.017870039 -0.1367425
000100 b4 0b 2a 3e 0c 92 18 3e cb b2 75 bd 76 63 ce 3e
       0.16606027 0.14899462 -0.059984963 0.40310258
000110 8b 19 96 bd d7 1a db 3e d0 01 e1 bd 82 d9 61 be
       -0.07329091 0.42793915 -0.10986674 -0.22055629
000120 bf 64 5c be ce 9b 06 be a0 5b 8a 3d b8 e0 af be
       -0.21522807 -0.13145372 0.06755757 -0.34351134
000130 78 1d 8b bd 10 9b e3 3d 16 18 c1 3e a4 6d 40 be
       -0.0679273 0.1111356 0.3771369 -0.18791825
000140 78 14 ee 3d 04 87 2c 3e b2 36 9f be e9 89 8a be
       0.11624998 0.1684838 -0.31096417 -0.27058342
000150 ce 63 91 be 0c 4e d3 3e 7c ea c0 bd cb 38 1a 3e
       -0.28396457 0.41270483 -0.09419724 0.15060727
000160 fc fa a6 3e 20 56 ba 3e c8 ed 29 3e ad ce 4a be
       0.3261336 0.36393833 0.16594613 -0.19805403
000170 20 90 a2 bc e8 ab cc be 00 34 20 3c 18 93 e1 3e
       -0.019844115 -0.39974904 0.009778023 0.44057536
000180 c0 1f e1 be 76 41 7c be a5 e2 85 be f0 59 ab be
       -0.43969536 -0.24634346 -0.2614948 -0.33467054
000190 70 94 b3 be 3c d5 7a be 90 cb c5 bc cc 0b 32 be
       -0.35074186 -0.24495405 -0.024144918 -0.17387313
0001a0 86 88 8b 3e 7a 2d bd 3e 14 3d cf 3d d6 31 2b bd
       0.27252597 0.36948758 0.101190716 -0.041795574
0001b0 ba 9b aa 3e 5a 72 cc 3e 21 35 6f 3e ae be cb 3d
       0.33321935 0.39930993 0.23360111 0.09948479
0001c0 de bd bc 3e d8 f4 81 be 60 17 ab be 54 bc b6 3e
       0.36863607 -0.25382113 -0.3341627 0.35690558
0001d0 40 71 74 3d 4e 73 de be d5 80 69 be f0 d7 ad be
       0.059678316 -0.43447345 -0.22803052 -0.3395381
0001e0 d2 92 d1 3e 4c 5e b4 3e 84 f6 41 be 06 94 b6 be
       0.40932328 0.35228193 -0.18941694 -0.35659808
0001f0 90 ff c4 be 78 3d 80 3d 80 af e0 3c e0 e0 88 3c
       -0.3847623 0.06261724 0.027427435 0.016708791
000200 68 47 2b 3d 2d bc 7b be 6a 50 5f bd 54 0d 52 3e
       0.041816145 -0.24583502 -0.05452005 0.20512897
000210 71 c7 d5 3e 4c 19 5d bd e2 97 5e be 9b cb cc be
       0.41753724 -0.053979203 -0.21737626 -0.3999909
000220 d4 d9 a5 be 40 a6 44 3e 40 3f 2e 3e 60 f3 ba 3d
       -0.32392752 0.19204044 0.17016315 0.09128451
000230 3c ea ea 3c 09 09 9f 3e 29 4e de 3d bf ea 50 3e
       0.028676145 0.3106158 0.108547516 0.20402049
000240 7a 0e 7c bc 34 e5 35 be bd 83 b3 3e 88 1d a0 3e
       -0.015384311 -0.17763215 0.35061446 0.3127253
000250 3a 80 15 be 68 84 63 bd e8 f8 68 bd 81 38 da be
       -0.14599696 -0.055546194 -0.056878 -0.42621234
000260 d4 eb 06 3e 2c 2b c0 be 0c 03 74 3e 80 54 96 3e
       0.13175899 -0.37532938 0.23829287 0.29361343
000270 26 8a c7 be 10 ee ff 3d ac d7 e4 be a8 eb 46 3e
       -0.38972586 0.12496579 -0.44695795 0.19425833
000280 c4 f0 97 be 82 22 c8 be 86 7d cb 3e b0 a0 11 bd
       -0.29675877 -0.39088827 0.39744204 -0.035553634
000290 3c 0b 85 be a8 27 4b 3e 67 fb b2 be 90 6d b2 be
       -0.25985134 0.19839346 -0.3495743 -0.34849215
0002a0 58 51 f8 3d 04 b6 e4 bd b6 91 1c 3e 78 f4 62 be
       0.1212489 -0.11167529 0.1528996 -0.2216357
0002b0 6d 0e 98 3d 51 7f e6 3e 79 b4 3d 3e 4c c9 6f 3e
       0.074246265 0.4501901 0.18525876 0.23416632
0002c0 90 85 78 3d 9e 10 d6 be 60 3c 5e bd 10 e1 5b 3d
       0.06067425 -0.41809553 -0.054256797 0.053681433
0002d0 fa b3 b5 3e 03 75 b1 bc ca 1a c0 3e 4d bf 05 be
       0.35488874 -0.02166224 0.37520438 -0.13061257
0002e0 72 8a e4 3e 89 55 c2 3e 6a 25 85 be d5 95 cb 3e
       0.44636875 0.37955883 -0.26005107 0.3976275
0002f0 70 8c a5 3e 46 0f c5 3d 28 37 4c be dc 03 ac bd
       0.32333708 0.09622054 -0.19942915 -0.083991736
000300 bc 9c c7 be 64 91 18 3e 74 c3 1d be ed 7e 41 3e
       -0.38986766 0.14899212 -0.1540659 0.18896075
000310 b6 e7 9d 3d 3a 20 c4 3d 50 b1 87 be b3 75 a3 3d
       0.07710211 0.09576459 -0.26502466 0.07981434
000320 43 e2 00 3e b1 46 b3 3e 67 f1 31 3c 3b 14 67 3e
       0.12586312 0.3501487 0.010860777 0.22566311
000330 0c 55 b2 3e 18 39 4d 3b a3 15 fc bd c2 49 8f 3d
       0.3483051 0.0031314548 -0.123088144 0.0699649
000340 56 eb 16 3e 97 46 91 3e 32 9a 8b bd 90 b1 6b 3e
       0.14738211 0.28374168 -0.0681652 0.23016953
000350 a0 29 c3 3e 9f e9 0b 3e 09 52 07 be 08 e9 f6 bd
       0.38117695 0.13663338 -0.13214888 -0.12056166
000360 12 b4 27 be a0 a4 65 3d 6f 7a d4 be 50 3f 0b 3e
       -0.16377285 0.0560652 -0.4149966 0.1359837
000370 ac ee 94 be 8a a3 b0 be f8 7d 45 3e 13 08 d4 be
       -0.29088342 -0.3449977 0.19286335 -0.4141241
000380 b8 b9 8e 3e d4 9f 77 3e db 69 1f 3d 7c cb 84 3e
       0.27876067 0.24182063 0.03891931 0.25936496
000390 7d 00 31 3e 8a c8 0d be a6 e7 80 be 4d 00 0a 3c
       0.17285343 -0.13846031 -0.25176734 0.008422923
0003a0 ec af 22 be f4 07 dc bd 4d 6f e1 3e 1c 9c 4d bd
       -0.15887421 -0.107437044 0.44030228 -0.050197706
0003b0 70 bc 4b be 06 88 de 3e e6 bb b8 3d 2c 06 25 be
       -0.19896102 0.43463153 0.09020214 -0.16115636
0003c0 20 de 47 3e 5e 23 d8 be e0 08 b2 3d 4a c7 ce be
       0.19518328 -0.42214483 0.08693099 -0.4038642
0003d0 94 4f d4 bd 7c 1b b0 3e bb a7 cb be 6c 18 a8 3c
       -0.10366741 0.3439597 -0.39776406 0.020519458
0003e0 37 9f d4 3c ec 3a ae 3d 36 3a 6d 3e 9e 96 8e 3d
       0.025954826 0.08507332 0.23166737 0.06962322
0003f0 55 e0 2d be 23 e2 05 3e 9e 86 51 3e 5d 08 28 be
       -0.16980107 0.13074546 0.20461509 -0.1640944

layer1.bias f4 [100]
000000 1e 1e 19 be 63 e5 cc be 14 74 87 be 34 80 d3 be
       -0.14952895 -0.40018758 -0.26455748 -0.4130875
000010 fc 2a a5 be a5 30 cb 3e 06 ae e4 3e fb d5 02 3e
       -0.32259357 0.3968555 0.4466402 0.1277694
000020 51 42 d4 be b9 9a 65 be 72 86 48 3e 00 33 16 bd
       -0.41456845 -0.22422303 0.19582537 -0.03666973
000030 3c fd b4 3e 9b 09 c2 3e 80 a2 82 3d 1a 88 db be
       0.35349452 0.37897953 0.06378651 -0.42877275
000040 6c fa c9 bd c1 f8 b3 3e 78 33 23 3e c0 e5 f0 bd
       -0.09862217 0.35150722 0.15937603 -0.11762571
000050 c0 64 84 bd 15 59 a3 be 6d 78 0f 3d 87 93 b5 be
       -0.06464529 -0.31903902 0.035026956 -0.35464117
000060 36 b6 b3 be ac 11 bf be 4b 9e d9 be b8 93 b6 be
       -0.35099953 -0.3731817 -0.4250358 -0.35659575
000070 fd 6b ca 3e b9 45 b9 be 8b 39 e0 be 60 83 b8 be
       0.39535514 -0.36186007 -0.43793902 -0.3603773
000080 08 c5 da 3d 28 f4 b9 3e c5 d3 c9 bd ec d6 cc bd
       0.10682112 0.3631909 -0.09854845 -0.100019306
000090 af 9a d0 3d bf 1e 45 be a0 cd c2 3e 54 19 0b 3d
       0.101857536 -0.1925001 0.38047504 0.0339597
0000a0 39 72 ad be a1 f9 95 3e 70 c8 2d 3e c8 31 96 3d
       -0.33876207 0.29292014 0.16970992 0.07333714
0000b0 b4 ba f2 bd 1b 24 a8 3e 9f d3 39 3e d3 18 bd be
       -0.11852017 0.32840046 0.18147133 -0.36933002
0000c0 74 a5 b7 3e 95 2d bc 3e e2 76 88 bc 79 89 86 3e
       0.35868418 0.36753526 -0.01665825 0.26276758
0000d0 0c ff 52 3e 40 22 5c be c2 32 b3 be 48 ad 65 be
       0.20605105 -0.2149744 -0.34999663 -0.22429383
0000e0 8a 5d db be e3 fe b1 3e 05 96 47 3e 04 e3 aa be
       -0.42844802 0.34764776 0.19490822 -0.33376324
0000f0 e7 e4 8d be 1c d9 8d be a8 c1 a4 bd d8 34 f0 bd
       -0.277137 -0.27704704 -0.080447495 -0.11728829
000100 ec f9 56 be 7b f7 eb 3e 40 a9 fb 3b 24 d1 99 bd
       -0.20993775 0.4608725 0.0076800883 -0.075105935
000110 91 7b 54 be 6e 33 75 be f8 93 9f 3d 56 7b 88 be
       -0.20750262 -0.239454 0.07791895 -0.26656598
000120 e8 0c c0 3e c0 99 ee bc b4 29 c8 3e 8f b1 98 3e
       0.37509847 -0.029126048 0.39094317 0.29822966
000130 e0 07 f3 bd 5f 33 3e 3e 3f f7 19 bd 35 bf 5e 3d
       -0.118667364 0.18574284 -0.037589308 0.054381568
000140 d0 5e 15 3e 76 e6 8a 3e 98 43 ad be f8 e2 19 3e
       0.1458695 0.27128953 -0.33840632 0.15027988
000150 ad 93 28 3d 7f 0a b2 be 73 23 d7 3d 4b 81 81 be
       0.04115646 -0.34773633 0.10504808 -0.25293955
000160 ba 65 9b be a9 fb d5 be fb de e4 bc 81 bc 57 be
       -0.3035105 -0.41793564 -0.027938357 -0.21068002
000170 e6 b7 00 3e fa 67 e0 3e 98 68 4b 3d 08 95 a9 3e
       0.12570152 0.43829328 0.049660295 0.33121514
000180 7c 90 be bd 43 93 53 3c 2c 69 97 3e af ad b9 be
       -0.09304902 0.012913528 0.29572427 -0.36265323

layer2.weight f4 [150, 100]
000000 6c 51 88 bc 38 ea 90 bd b6 57 70 3d 88 65 ca bc
       -0.016640387 -0.07075924 0.058677398 -0.024706617
000010 00 cd 1b bd d8 f6 01 3c 0b 23 99 3d 0f 6e 99 3d
       -0.0380373 0.007932387 0.07477387 0.07491695
000020 6e 0d 1f 3d 50 8d dd bb 97 4e 89 3d 28 f9 6c 3c
       0.038831167 -0.0067612305 0.06704443 0.0144637
000030 98 50 af bd 86 bc 0d bd 60 40 81 bc bb 11 bb 3d
       -0.08560294 -0.034603618 -0.015777767 0.09134241
000040 27 05 24 bd a8 59 79 3c c3 86 5e bd 28 8f c6 bd
       -0.040043976 0.01521913 -0.054327738 -0.09695274
000050 9a 28 a9 bd ea 84 ca bd 2e ca 5e 3d 96 06 05 bd
       -0.08259697 -0.098886326 0.054392032 -0.032476984
000060 0c a4 c2 bc eb cf c2 bd 66 97 88 bd 2c 33 ee bc
       -0.023759864 -0.095123135 -0.06669502 -0.029077135
000070 b1 c6 ac 3d e8 c8 42 3c d0 67 48 bd a3 ca 8f bd
       0.08436335 0.01188872 -0.04892713 -0.07021072
000080 5e b3 a1 bd fd 98 b5 3d 8d 5b b3 bd 50 a6 37 bc
       -0.0789554 0.08867071 -0.08757696 -0.011209086
000090 17 9d ad bd a0 01 85 3b 00 26 19 3c 34 3a d8 bc
       -0.08477228 0.0040590316 0.009347439 -0.02639494
0000a0 37 de ad bd 00 f9 b7 bd 64 2c d7 3c 24 c1 02 bd
       -0.0848965 -0.0898304 0.026266284 -0.031922475
0000b0 13 a9 ad bd 43 d7 85 3d e4 b5 e3 3c 70 ac 40 3c
       -0.08479514 0.065351985 0.027796693 0.011759862
0000c0 6f e5 80 3d 42 c6 8a bd 24 56 eb 3c fa 83 19 3d
       0.06293761 -0.06776096 0.028727598 0.03747938
0000d0 82 08 5b 3d ae 8f 06 3d d2 13 16 3d 23 cc b5 3d
       0.05347491 0.032851867 0.036639996 0.088768266
0000e0 b0 d2 90 3b b0 85 a0 3b ee 38 81 bd fe bb 91 bd
       0.004419647 0.0048987493 -0.063096866 -0.07115935
0000f0 80 1f e7 3a 86 da 40 3d 0a 03 24 3d 50 0a bf bb
       0.0017633289 0.0470834 0.04004196 -0.005830087
000100 d3 32 90 3d b7 52 6c bd 3d f1 5d bd a2 5b 29 3d
       0.07040944 -0.05769607 -0.05418514 0.041347153
000110 9b 93 ba bd d2 77 66 3d 90 a8 20 bc 97 3b 94 3d
       -0.09110185 0.056266613 -0.009805813 0.07237928
000120 e2 02 a4 bd 80 6c ab 3c 83 e6 7b bd ba cd 1d bd
       -0.08008362 0.02092576 -0.06149913 -0.038526274
000130 83 55 bd 3d 53 bf a8 3d fb 0e 98 3d 85 ec 92 bd
       0.09244826 0.08239617 0.07424732 -0.07174019
000140 6b e7 c4 bd a5 1b a9 bd 37 ee 57 bd 34 7b 8b 3c
       -0.09614452 -0.08257226 -0.052717414 0.017026521
000150 80 cd ce 3a b0 86 13 bc e3 ac 4f bd 29 20 b3 3d
       0.0015777797 -0.00900428 -0.050701987 0.087463684
000160 86 c0 46 3d 28 82 27 3c 42 13 79 3d 6e dd 1e 3d
       0.04852345 0.010223903 0.06080938 0.03878539
000170 30 cc 4b bd c3 88 61 bd 23 43 91 bd 33 24 29 bd
       -0.049755275 -0.055062067 -0.070928834 -0.041294288
000180 c2 6b 44 3d 2e 63 45 3d 92 3c 72 3d 42 f2 1b 3d
       0.04795433 0.04819029 0.059139796 0.038072832
000190 ca d3 73 3d fd 54 be 3d 3f 4c b1 bd 25 7c bd bd
       0.05952815 0.09293554 -0.08657121 -0.09252194
0001a0 28 d9 8e bd 34 e0 ee bc 26 f8 26 bd 62 0f 6d bd
       -0.06975013 -0.029159643 -0.040763997 -0.057876
0001b0 d2 d8 42 3d a2 83 1b 3d 0c 64 4c 3d 7b d9 4c bd
       0.047570057 0.03796733 0.0499001 -0.050012093
0001c0 21 37 90 3d 49 3c bc 3d 0d 9a 9d bd ca 71 b7 bd
       0.07041765 0.09191186 -0.076953985 -0.089572504
0001d0 c0 8d aa bd 5f 45 80 3d 8d 99 9a bd 40 4b 8a 3c
       -0.08327818 0.062632315 -0.07548819 0.016881585
0001e0 28 be 22 bc 99 0d bf 3d 82 6a 0e 3d 42 d0 32 3d
       -0.009933032 0.093287654 0.034769543 0.04365564
0001f0 40 ef 87 bc 52 55 3a 3d d4 f6 3c bd 41 b9 c6 3d
       -0.016593575 0.045491524 -0.04613383 0.09703303
000200 b9 f4 aa bd 6e 65 5d bd e3 c1 3f bd 37 7f a0 3d
       -0.083474584 -0.05405181 -0.046815764 0.07836764
000210 4d 44 79 bd b2 ed 18 3d 95 8c bc bd d3 ae 25 bd
       -0.060856152 0.03733606 -0.092065014 -0.04044993
000220 c1 da 98 bd c9 2a 66 bd 2a f5 0d 3d 20 3a b1 3b
       -0.07463599 -0.056193147 0.034657635 0.0054085404
000230 b7 ba c1 3d a7 9e 22 3d 4f 7c 82 bd 35 6c 8c bd
       0.09459441 0.039702084 -0.06371366 -0.06856576
000240 20 c1 e9 bc 05 aa 14 bd ca b0 1b 3c 3e 63 80 bd
       -0.028534472 -0.036294956 0.009502599 -0.06268929
000250 d6 fe 35 3d 87 ba 64 bd 2f 87 a1 bd 18 b9 29 bc
       0.044432484 -0.05584195 -0.07887112 -0.010359071
000260 3e 26 b6 bd f5 8a cc bd 98 92 e0 bc c0 38 c0 3c
       -0.08894013 -0.099874415 -0.027413651 0.02346456
000270 b6 a0 9a bd a0 ac d3 bb 4f 1b c7 3d 11 f8 ba 3d
       -0.075501844 -0.0064597875 0.097220056 0.09129346
000280 05 dc 35 bd d8 c8 cf bc c2 01 61 3d f3 89 a7 bd
       -0.04439928 -0.025364324 0.054933317 -0.081806086
000290 98 40 94 3c 01 bd 9c bc 27 50 cb 3d 31 e2 11 bd
       0.018097207 -0.019133093 0.09927397 -0.035616104
0002a0 d7 27 9b 3d 34 1c 83 3c b7 6c 7b bd e7 50 e5 3b
       0.07575958 0.01600466 -0.061382975 0.0069981697
0002b0 34 d8 d7 3c 00 30 81 bd fc 83 bf bc 14 53 b8 39
       0.02634821 -0.063079834 -0.023378365 0.00035157113
0002c0 1a d3 78 3d b9 6e fa bc 2e 55 8c 3c 41 ae 55 3d
       0.060748197 -0.030570375 0.01713046 0.052168135
0002d0 b0 96 bb bd e0 0f 19 bd 98 67 0d bc eb 68 fd bb
       -0.09159601 -0.037368655 -0.008630656 -0.0077334545
0002e0 67 ac 85 bd 4b 59 58 bd d7 d1 77 bc d3 89 8a 3d
       -0.06527024 -0.05281953 -0.015125713 0.06764569
0002f0 23 1a 91 bd d0 b4 bb 3b e1 25 89 3d 88 07 bd bc
       -0.07085063 0.0057283416 0.06696678 -0.02307488
000300 b0 0d 7f 3c f6 c1 cd 3c e2 7c 8a 3d d8 f0 05 bd
       0.015567228 0.025116902 0.06762101 -0.03270039
000310 1b 72 92 bd be 54 98 bd 44 9c b0 bd 8a f5 42 3d
       -0.0715067 -0.07438038 -0.08623555 0.047597446
000320 7b b5 8d 3d 21 6a 06 3d 1f 91 b4 3d da b3 72 bd
       0.0691938 0.032816056 0.08816742 -0.05925355
000330 e7 fd 85 bc 2a 93 30 bd fd 9d a5 bc f1 b7 7d bd
       -0.016356422 -0.043109097 -0.020216936 -0.061943
000340 e8 0b 71 3c 10 4c 5e bd f8 33 e8 3c f4 97 c3 bc
       0.014712311 -0.054271758 0.028345093 -0.023876168
000350 03 86 c0 3d 0c b7 ab bd 70 33 82 bd aa 87 7a 3d
       0.09400561 -0.08384523 -0.06357467 0.061164536
000360 14 70 be bc 0c 7b 4c bc 23 48 1f bd 13 ee 1f bd
       -0.023246802 -0.012480509 -0.038887154 -0.039045405
000370 64 db d2 3c c4 e9 f6 3c 70 bc 82 bd 42 00 27 3d
       0.02573938 0.030140765 -0.06383598 0.04077173
000380 19 65 af 3d 02 ad ab bd 1d b1 8f bd 88 dc 8a bc
       0.08564205 -0.08382608 -0.070162036 -0.01695086
000390 b5 7d 4e 3b 0f c4 9c 3d 73 b4 7c bd cd c6 88 3d
       0.0031508033 0.07654583 -0.061695527 0.06678543
0003a0 a0 c7 e1 bc 30 05 79 bd cd 92 f9 bc 80 6c 81 bb
       -0.027561009 -0.060795963 -0.030465508 -0.003949702
0003b0 9b 84 1e 3d d1 e6 e8 3c c0 54 be bc 8a b7 22 bd
       0.03870068 0.028430374 -0.023233771 -0.039725818
0003c0 20 8a ae 3d 3e 3c 20 bd d8 46 b5 3d 45 bb 88 3d
       0.08522439 -0.03911995 0.08851403 0.06676344
0003d0 50 64 92 bd 21 1c 92 bd 89 05 46 bd 07 3a 00 3d
       -0.07148039 -0.071342714 -0.048345122 0.03130534
0003e0 c0 7c bf 3a 5c 24 94 bd c5 20 bd bd d9 fa a8 bd
       0.0014609322 -0.072334975 -0.09234766 -0.082509704
0003f0 91 05 41 3d dd 91 68 bd 78 26 e6 bc 38 f7 de bc
       0.04712445 -0.05677973 -0.028094515 -0.027217492

layer2.bias f4 [150]
000000 c3 0e 67 bd b2 ae 52 3d 98 50 6d 3d a8 b9 d1 bc
       -0.056410562 0.051436134 0.05793819 -0.025601223
000010 e3 76 a8 3d f2 06 a0 bd 75 6a 94 3d 59 70 cb 3c
       0.08225801 -0.07813825 0.072468676 0.024833845
000020 f5 c1 6d 3d 2e a4 fd bc 4a 78 2f 3d 10 22 8c 3d
       0.0580463 -0.030962076 0.042839326 0.068424344
000030 21 56 3d bd 8c d4 9e bc a6 fb 06 3d 8c 38 33 bc
       -0.046224717 -0.01938846 0.032954834 -0.010938775
000040 0a 17 1b 3d 22 d6 51 3d 60 d1 cd bb d8 57 37 3d
       0.03786377 0.051229604 -0.006281063 0.04476151
000050 bc d2 6b bc d4 cd f1 3c 4a 35 51 bd a0 2c fa bc
       -0.014393505 0.029517092 -0.05107621 -0.030538857
000060 a4 eb 83 bd fc 6f 50 bd 98 33 14 bc 82 60 95 bd
       -0.06441429 -0.050888047 -0.009045504 -0.07293798
000070 d8 04 33 3c 41 87 c9 3b 1d 51 83 bd f2 8a 70 3d
       0.010926448 0.0061501567 -0.064119555 0.05872626
000080 bc 52 68 bd 27 d3 80 3d 3d 3c 82 3d b7 29 34 3d
       -0.056719527 0.06290274 0.06359146 0.043985095
000090 ad 47 77 bd 96 0a 13 3d 4e 3b 95 bd ea c1 1f bd
       -0.06037109 0.035898767 -0.07286702 -0.03900329
0000a0 40 11 af 3d f1 07 a3 3d 41 97 89 3d 59 4b 2a bd
       0.08548212 0.07960499 0.067183025 -0.041575763
0000b0 6d 71 57 bc c1 21 33 3d a0 68 6b bd 08 d5 92 bd
       -0.013149601 0.043733362 -0.057472825 -0.07169539
0000c0 14 ea d6 3d 2a 00 c3 bd a2 5b 6d bd e3 25 ba 3d
       0.104938656 -0.09521516 -0.057948716 0.090892576
0000d0 7a 87 1b 3d 47 c1 22 bd 07 3c 6d bd 60 72 92 3c
       0.037970997 -0.039735105 -0.057918575 0.017876804
0000e0 7d 3f 8a 3d cd ae f6 3c b1 f3 91 3d f4 bc dc 3c
       0.06750391 0.030112648 0.071265586 0.026945569
0000f0 67 ae 35 3b 8c f9 c1 bc 58 b2 34 3c b0 bc 1c bd
       0.002772236 -0.023678564 0.011028849 -0.038265884
000100 ae 99 a8 bd 80 9a 22 bc e3 df 21 bd df cd 83 3d
       -0.08232437 -0.009924531 -0.039520156 0.06435751
000110 64 18 37 3d 75 54 58 bd 25 e5 7c 3d e0 87 e2 bc
       0.044700995 -0.05281492 0.061741967 -0.02765268
000120 30 a6 65 bd 07 47 38 3d b0 dd ff 3b 3e 4a 1c bc
       -0.056066692 0.044989612 0.0078084096 -0.009539185
000130 ed be 5c bd 3e 8e 79 3d b2 ed 0d 3d 80 d6 ce 3a
       -0.05389302 0.06092667 0.034650512 0.0015780479
000140 9e 0e 91 3b bc 4a f8 3c 4d 78 d4 3d 0e 07 a5 3d
       0.0044267913 0.030309074 0.10374508 0.08057986
000150 e6 01 95 3d 1d 5c 97 3a d2 68 30 3d bb 20 da 3d
       0.07275753 0.0011547838 0.043068714 0.10650774
000160 6a 0d 47 3d d2 97 48 3d 9a 7d 21 3d e0 aa 91 bd
       0.048596777 0.048972912 0.039426424 -0.0711267
000170 6a 26 1f bd 9f 49 03 bd 5e a9 71 3d 72 8e c9 bd
       -0.038854994 -0.032052632 0.05899941 -0.098416224
000180 35 a8 37 bd 0a 49 c0 bd cb 87 7c bd 47 48 27 bd
       -0.04483815 -0.09388931 -0.06165294 -0.040840413
000190 00 42 b5 39 51 c8 db 3d 56 3a bc 3d 93 c0 84 bd
       0.00034572184 0.10731567 0.09190814 -0.06482043
0001a0 81 14 d5 3b ca c8 3c 3d ab 69 c7 3d 72 2e c7 3d
       0.0065026884 0.046089925 0.097369514 0.097256556
0001b0 cd fe a5 bd ec 4c 25 bc 4b b2 07 bd c7 ec 07 3c
       -0.0810524 -0.01008914 -0.033129018 0.008296198
0001c0 20 a5 92 bd 9b 56 e2 3b 2d 80 8a bd 56 7a 84 bd
       -0.07160401 0.006907297 -0.06762729 -0.06468646
0001d0 be a2 19 3d 6f 45 70 bd ab 87 94 bd ae 4f a8 bd
       0.03750872 -0.058659967 -0.07252439 -0.08218323
0001e0 d6 9b e5 3b c9 34 89 3d 9f ab d2 3b c5 ae ae bd
       0.0070071025 0.06699521 0.0064291502 -0.085294284
0001f0 f2 48 77 3d fb 74 be bd b2 ce 72 3d 7f 04 13 bd
       0.0603723 -0.09299656 0.05927915 -0.03589296
000200 02 7a 98 3c 28 35 22 bc 88 01 e8 bc 2e 1c 89 bd
       0.018612865 -0.009900369 -0.028321043 -0.06694828
000210 3c 45 5d 3d 96 13 69 3d 22 46 e2 3d a7 68 46 bd
       0.054021105 0.056903444 0.11048533 -0.048439648
000220 f3 88 35 3d 05 34 81 3d fd c6 27 3d 53 a4 7e 3d
       0.044320058 0.0630875 0.040961254 0.06216843
000230 98 63 7b bc 3e 45 62 3d b0 83 8e bd 8a 96 1e bd
       -0.015343569 0.055241816 -0.06958711 -0.038717784
000240 ec 47 10 3d b6 32 3f 3d 8c c7 8d bd b6 93 00 3d
       0.03522484 0.04667922 -0.06922826 0.031390868
000250 f8 d6 f7 3c 3a 4e 42 bd
       0.030253872 -0.047437884

layer3.weight f4 [100, 150]
000000 6e 70 94 3d 45 79 4b bd 08 e0 a0 3c b0 60 a4 bd
       0.07248007 -0.0496762 0.019638076 -0.08026254
000010 25 bd 8d bd 54 24 02 bd 98 bb 65 bc 3c 61 04 bd
       -0.06920842 -0.031772926 -0.014021777 -0.032319292
000020 cc 21 cb 3c a4 e9 34 3d d8 b9 3e 3d 20 80 c4 3b
       0.024796389 0.04416813 0.046563953 0.005996719
000030 6c 4f 4d 3d 1f 39 23 bd a0 38 30 bc 4c 22 42 3d
       0.05012457 -0.039849397 -0.010755688 0.04739599
000040 78 d1 ec bc 98 ba 93 3d a0 a4 8f bb fc 29 ee bc
       -0.028908476 0.07213324 -0.0043836385 -0.029072754
000050 a0 c8 17 3d 00 76 50 bc 00 6a 0d 3c 91 44 55 bd
       0.037056565 -0.012723446 0.008631229 -0.052067343
000060 30 d0 e2 3b 92 6d 2a 3d f8 64 48 3d db 3b 0c bd
       0.0069217905 0.0416084 0.048924416 -0.03423677
000070 3e f6 8c 3d d5 dc 78 bd 98 ec 70 3d de 82 a6 3d
       0.068829045 -0.060757477 0.058819383 0.0813043
000080 30 1d 0d bd 5f 65 17 bd af 46 9f bd b2 f9 a0 bd
       -0.034451663 -0.03696191 -0.07777154 -0.078601256
000090 62 eb 9f bc 95 aa 8a bd 74 3d 50 bd 68 cb 55 bc
       -0.019521419 -0.06770817 -0.050839856 -0.013048984
0000a0 8c 58 80 3d a1 ae 48 bd 80 96 e5 3b 0c 57 50 3d
       0.06266889 -0.048994664 0.0070064664 0.050864264
0000b0 5f be 89 bd dc 68 94 3d d4 4c 9b 3c e0 da 76 3c
       -0.067257635 0.07246563 0.018957533 0.015066832
0000c0 38 b2 4c 3d e0 81 3e 3c 20 b1 45 bc b6 bf c2 bc
       0.04997465 0.011627644 -0.012066156 -0.023773056
0000d0 42 ab 46 bd 44 02 9e bc c0 07 3c 3b 5c 00 70 3d
       -0.048503168 -0.01928819 0.0028691143 0.058594093
0000e0 c0 b8 f7 3b 8c 98 7d 3d ac ad 6d bd 68 66 9e bd
       0.0075598657 0.06191306 -0.058026955 -0.07734376
0000f0 40 32 25 3c f4 84 9b bc d8 61 41 3d 18 e7 95 bc
       0.010082781 -0.018984295 0.04721245 -0.01829867
000100 c2 af a4 3d e0 d3 24 3d 90 04 1d bc d8 02 11 bd
       0.08041336 0.040241122 -0.009583607 -0.035403103
000110 4c 65 a2 bd 44 a1 c8 3c 92 03 a3 bc f0 65 42 bd
       -0.07929477 0.02449096 -0.019899163 -0.047460496
000120 4c 4b 21 3d c0 14 b9 3b ec fc f6 3c 60 36 24 bc
       0.03937845 0.0056482255 0.0301499 -0.01002273
000130 d1 0e 8d bd 00 e1 65 3c 38 9b a0 bc e3 cf 1e bd
       -0.06887592 0.014030695 -0.019605264 -0.038772475
000140 d4 44 08 bd da 4d 60 bd 78 fc 62 bc bf 0f 8f bd
       -0.033268765 -0.054761745 -0.013854139 -0.06985425
000150 2a 4f 22 bd 6c e3 47 3d ac 14 96 bc 40 4e e5 bb
       -0.039626278 0.04880087 -0.018320404 -0.0069978535
000160 b4 e1 90 3d 4c ca ef bc d0 80 d8 bc 1c d3 f0 3c
       0.070742995 -0.029271267 -0.02642861 0.02939754
000170 80 a9 9a 3a f3 31 8b bd db 07 98 bd 50 fa 6e 3d
       0.0011799783 -0.067966364 -0.07423373 0.058344185
000180 40 9a 9d ba 76 2b 00 3d b8 2f 67 3d 58 24 64 3c
       -0.001202412 0.031291448 0.056441993 0.013924681
000190 5c 62 28 3d 4c 02 4c bd e8 be 97 3d 10 0b 80 bb
       0.041109428 -0.049806878 0.07409459 -0.0039075688
0001a0 9b 50 93 bd 20 02 d3 3c a0 e9 fb bb 9f 22 20 bd
       -0.07193109 0.02575785 -0.0076877624 -0.039095517
0001b0 ba 18 07 3d f0 5b 05 3d 48 0e 83 bc 44 0a 75 3d
       0.032982565 0.03255838 -0.01599802 0.059824243
0001c0 84 66 84 bd a0 1e 5c bc 55 c6 57 bd 40 0a a6 bb
       -0.06464866 -0.013435036 -0.05267938 -0.00506714
0001d0 c0 71 25 bd ac 7d 94 3d 80 95 4d 3c 2c ee c2 3c
       -0.040391684 0.072505325 0.012547851 0.02379521
0001e0 90 ee de bc 00 30 37 3d 17 a2 03 bd 28 35 87 3d
       -0.027213365 0.04472351 -0.032137003 0.066019356
0001f0 30 39 44 3c 14 25 49 3d 52 bb 19 bd c0 60 9f bb
       0.011976525 0.049107626 -0.03753216 -0.0048638284
000200 90 a3 7b 3d 4e 02 93 bd 81 44 2d bd 44 2a 8b 3d
       0.061435282 -0.07178174 -0.04230166 0.06795171
000210 40 b4 7f 3d 11 e6 8f bd ab 58 93 bd 50 8c 75 3d
       0.06242776 -0.070263036 -0.071946464 0.059948266
000220 00 77 06 3c 68 e2 2c 3c 12 77 a0 bc 9a d5 9b bd
       0.008207083 0.010552026 -0.019588027 -0.07609101
000230 34 32 09 bd 78 f5 40 3c 58 e5 5d bd 50 eb f6 bb
       -0.033495143 0.011777274 -0.054173797 -0.0075353757
000240 e8 f2 88 3d 16 9c 8c 3d f2 67 c9 bc 1c e9 8e bd
       0.06686956 0.068657085 -0.024585698 -0.06978056
000250 65 80 78 bd 60 c9 70 3b 30 2f f7 3c c2 38 70 bd
       -0.06066932 0.0036741123 0.030173868 -0.05864788
000260 53 56 90 3d 98 ef 74 bc af e0 41 bd 26 d3 2a 3d
       0.07047715 -0.014949702 -0.047333416 0.041705273
000270 e2 d5 a2 bd c6 33 86 3d 0b 3a 84 3d 2e fe 82 bd
       -0.07950951 0.06552844 0.06456383 -0.06396137
000280 26 d1 f8 bc 95 9f 87 bc 3d c4 27 3d 50 90 08 3c
       -0.030373167 -0.016555587 0.04095863 0.008335188
000290 fe c7 b0 3d fa a6 83 bd 7f 45 7c bd df 87 2b bd
       0.086318955 -0.064283326 -0.061589714 -0.041877624
0002a0 a0 b3 00 3d 52 ed 9b 3d 0d 56 61 3c 52 7d c1 bc
       0.031421304 0.07613625 0.013753426 -0.023619328
0002b0 cc f2 5f 3d e4 e7 8e 3c cd 6c 5e bd 43 f4 2b 3d
       0.05467491 0.017444558 -0.05430298 0.041980993
0002c0 38 d5 94 bd ac 1a b9 3d 16 7c 77 bd bb 34 a7 3d
       -0.07267231 0.090382904 -0.060421072 0.081643544
0002d0 14 43 37 bd a0 ee 6a 3b e0 ae 9d 3d 42 f1 b7 3d
       -0.044741705 0.0035847798 0.076993704 0.08981563
0002e0 9f 80 52 bd 18 c1 8a 3d fa 22 95 3d 56 ce a9 3d
       -0.051392194 0.06775111 0.07282062 0.082913086
0002f0 c0 56 3b 3b 6e c3 79 bd 0c 2e 29 3d 04 59 87 3c
       0.0028585643 -0.060977392 0.04130368 0.016521938
000300 70 cc 6f 3d 29 7c 51 3c 0f ed 38 3b 4f d3 bf 3d
       0.058544576 0.01278595 0.002821747 0.09366476
000310 30 72 9d 3d 99 ef 45 3d 05 52 0d 3d 9c 47 9f 3d
       0.07687795 0.0483242 0.034502048 0.0777733
000320 09 92 e6 3c 5e ae a6 bd c4 56 49 bd 78 2a 42 3c
       0.028145807 -0.08138727 -0.04915501 0.011850946
000330 ed da a6 3d 69 b4 37 bd fe e2 45 bd e8 9a 5a bc
       0.081472255 -0.044849787 -0.04831218 -0.013342597
000340 c5 e5 41 bd 20 3e 8b 3d d4 2a ad bc 9a ff 4e 3d
       -0.047338266 0.06798959 -0.021138586 0.05053673
000350 a4 d9 55 3d 55 6b 92 bd ee aa 87 bd 9e 28 95 bd
       0.05220951 -0.07149378 -0.06624399 -0.07283138
000360 08 4c 2e bc 37 f6 0d 3d f0 93 8b bb 8b d2 81 bd
       -0.010638244 0.034658637 -0.004259579 -0.06338986
000370 37 6a 41 3d 50 43 5b 3c e4 fe 5e 3d 5c 44 20 bd
       0.047220435 0.013382748 0.0544423 -0.039127693
000380 18 77 e8 bc 4b c9 94 3d 60 aa 56 bd 00 f7 35 bc
       -0.0283771 0.07264956 -0.052408576 -0.011106253
000390 a0 e4 69 bb 90 cc 9f bc cf 0a c5 3d ad fa 1c bd
       -0.003568925 -0.019506723 0.09621202 -0.038325
0003a0 c9 58 0b 3c 84 a0 24 3d d7 76 35 3b f2 6d 21 3c
       0.008505055 0.040192142 0.0027689242 0.009852873
0003b0 32 77 a4 3d 46 5f 39 3d 00 55 24 bc 30 b0 64 3d
       0.08030547 0.045256875 -0.010030031 0.055832088
0003c0 b2 c3 2a bd 54 64 7a 3d 5c 99 aa bc 4b bf 91 3b
       -0.041690536 0.061130837 -0.02082508 0.0044478527
0003d0 7d c9 3f 3d 43 01 57 bd 9d 68 9b bb a0 f9 4f 3c
       0.046823014 -0.052491438 -0.0047426955 0.012693793
0003e0 9b 9c 84 3d 32 c8 99 bd 5e 75 80 bd ab 4f cf 3a
       0.064751826 -0.07508887 -0.06272386 0.001581659
0003f0 87 3e 41 bc 9b f1 c0 3d e1 79 2d bd 8b 9e 41 bd
       -0.011794693 0.094210826 -0.04235256 -0.04727034

layer3.bias f4 [100]
000000 2d 55 8c bd 5e 6e 59 bc 4b 79 99 3d 0d 8d 48 bd
       -0.068521835 -0.0132709425 0.07493838 -0.04896264
000010 12 84 6c bd 17 69 71 3d 8a af f3 bb 45 57 9e 3c
       -0.05774314 0.058938112 -0.0074366974 0.019328723
000020 60 40 d2 bc ee 49 a6 bc 30 15 ce 3b 5d ac 52 3d
       -0.025665462 -0.020298924 0.006289147 0.05143391
000030 51 1c 4c bc fd 92 32 3c f1 1c 7f bd 69 50 5b bd
       -0.012457923 0.010899303 -0.06228346 -0.053543482
000040 dc 9f 63 3d 70 72 dc 3c ce b5 88 3c a0 d7 23 bb
       0.055572376 0.026910037 0.016688254 -0.0025000349
000050 b8 42 95 bd 62 e3 a4 ba 5a 83 b6 bb 55 40 2a bd
       -0.07288116 -0.0012579972 -0.0055698575 -0.041565258
000060 14 65 01 bd e5 1b 82 bd 51 f2 3e bd 40 99 a6 3d
       -0.031590536 -0.06352977 -0.04661781 0.08134699
000070 43 fa 86 bd 82 02 8a 3d e0 16 d7 bc c2 31 ae bc
       -0.065907024 0.067387596 -0.026256025 -0.02126396
000080 21 50 7b 3d 00 bf 47 3b 3c a8 1a bd 1a d0 cf bc
       0.061355714 0.0030478835 -0.037758097 -0.025367785
000090 99 3f 0a 3d 02 8c 79 bd f4 3c 85 3d dc 73 83 3d
       0.033752058 -0.060924537 0.065057665 0.06418583
0000a0 37 14 96 bc 44 29 16 3d 64 b8 ab bc 20 17 0b bd
       -0.018320186 0.036660448 -0.020961948 -0.0339576
0000b0 57 fb 5b bd e7 f2 07 3d d4 e6 d1 3c ae 63 01 3d
       -0.053706493 0.033190634 0.025622763 0.031589203
0000c0 3a 4a f2 bc 64 28 aa 3c 2a 0b 83 3d 18 58 75 3d
       -0.02957641 0.020771213 0.06398614 0.059898466
0000d0 e2 46 86 bd 80 09 5b 3b 7a ea 8c 3c 7f a5 09 3d
       -0.065564886 0.003342241 0.01720165 0.033605095
0000e0 fd 90 d2 bc b4 9a 19 bd 93 b3 80 3d a0 ac 86 bb
       -0.025703901 -0.037501052 0.06284251 -0.004109934
0000f0 a4 ed 81 bc 34 4f 14 3d d6 49 5c bc 7c 55 f2 3c
       -0.015860386 0.036208346 -0.013445338 0.029581778
000100 50 0b 43 3d d7 79 0b 3d 52 06 83 bd 02 14 8c 3c
       0.04761821 0.034051742 -0.0639769 0.017099384
000110 5e 47 9e bd bf b8 5f 3d 9f f0 1c 3c 70 11 c1 bc
       -0.07728456 0.054619547 0.009578853 -0.023567885
000120 b0 a6 f8 bc 75 40 33 3d 3c 70 97 bc b0 21 e2 3c
       -0.03035292 0.043762643 -0.018486135 0.027603954
000130 c9 10 b1 bd e0 76 7e 3d 78 61 e3 3b fd 2d ac 3d
       -0.0864578 0.062125087 0.0069391094 0.08407209
000140 f9 14 09 bd c5 df 62 3d fc d4 9a 3d 92 f2 54 3c
       -0.033467267 0.055389185 0.07560155 0.012997286
000150 6c e1 8a 3d 74 dc a2 bc ca 66 aa 3d 21 a1 74 bd
       0.06781277 -0.01988051 0.08320387 -0.059723977
000160 16 ab 33 bd 9f 00 76 bc b2 eb fc 3c 5c e7 b6 3b
       -0.043864332 -0.0150147965 0.030874107 0.0055817794
000170 05 28 2f 3d a1 da 55 bc 8c 61 2b bc 20 0d b0 bb
       0.042762775 -0.0130526135 -0.010460269 -0.0053726584
000180 98 91 8d 3d 41 3d 01 bc 4b 81 8a bd a5 18 8d bd
       0.069125354 -0.007888139 -0.06762942 -0.06889466

layer4.weight f4 [80, 100]
000000 3b 3e b2 3d ab 25 ba 3d 06 2f 18 3d d9 44 c4 3d
       0.08703276 0.09089216 0.03715422 0.09583444
000010 77 3e a7 bd 1a 9a c7 3d b7 64 8e bd 7b eb 95 bd
       -0.08166211 0.097461894 -0.069528036 -0.07320305
000020 dc 62 a7 3d 10 5d 52 bc 70 d5 6b 3c 9f ef b0 3c
       0.08173153 -0.012839571 0.014394149 0.021598635
000030 f5 53 2b bc 4d 88 11 3d ba 5a 38 3d a5 e5 b3 bd
       -0.010457029 0.035530377 0.0450084 -0.087840356
000040 12 2e ca bd a4 14 e5 3c 00 0a 03 b9 2f c6 89 3d
       -0.098720685 0.027963944 -0.00012496859 0.06727254
000050 30 a3 28 3d de 36 79 3d 3b 4d ba bc 28 6a 03 3c
       0.041171253 0.06084334 -0.022741904 0.008020915
000060 47 8a 75 3c c0 5e 11 bd 9c 22 ba bc 71 81 4d 3d
       0.014986581 -0.03549075 -0.022721581 0.050172273
000070 07 dc c6 3d 0e d1 87 bd 82 d1 7f 3d 0c 20 96 3c
       0.09709936 -0.06631671 0.06245566 0.018325828
000080 13 3d c2 bd 1b d3 9b bd 62 c8 23 3d c0 3d cc 3c
       -0.09484305 -0.076086245 0.03998602 0.024931788
000090 ce b6 87 3c 31 26 6d bd 4b 7d 8d bd b4 45 9a bc
       0.01656666 -0.05789775 -0.06908663 -0.018832065
0000a0 61 e9 8d 3d bf bc b9 bd 7a fb c7 bd 01 25 6a bd
       0.06929279 -0.090692036 -0.09764762 -0.057164196
0000b0 c3 2d 8b 3c 20 6a de 3c 2e 96 c0 3d b5 82 d0 3c
       0.016989594 0.027150214 0.094036445 0.025452951
0000c0 25 78 9b bd e3 7f 85 3c 20 a2 08 bd b1 4c b0 3d
       -0.07591275 0.016296333 -0.03335774 0.08608378
0000d0 2a 60 a2 bd f3 94 1a bd d1 60 97 3d da 97 e8 bc
       -0.07928498 -0.037739705 0.07391513 -0.028392721
0000e0 69 34 81 3c 04 17 e4 3c 31 a4 ae 3b b8 cd b6 bd
       0.015772061 0.027843006 0.0053296317 -0.089259565
0000f0 54 4d 89 3c 2c 0e 86 bd a6 8f 84 bd d8 68 66 bd
       0.016760506 -0.06545672 -0.06472711 -0.05625233
000100 b5 3d b3 3d 91 c8 51 3d 72 55 c2 bd ed 42 c6 3d
       0.08752004 0.051216666 -0.09488954 0.09680734
000110 cc cc 8c 3c 75 93 a7 3d 54 9a 0f bd 17 b1 4c bd
       0.017187499 0.08182422 -0.03505929 -0.049973574
000120 5a 6c 0d bd 00 8f 79 3a 3a 4a 36 3d 16 01 55 3d
       -0.03452716 0.0009519905 0.04450438 0.05200299
000130 64 01 89 bd 7d 71 3c bd fb 84 4e bd eb b9 9c bd
       -0.06689718 -0.04600667 -0.05041979 -0.076526485
000140 dd 6e 44 3d a4 c1 80 3b 92 84 63 3d 15 13 b5 bd
       0.04795729 0.0039293338 0.05554635 -0.0884153
000150 c3 93 d5 bc d1 73 b7 3d c2 67 65 bd 3e a4 30 bc
       -0.026071435 0.08957637 -0.056007154 -0.010781346
000160 de 6b 24 3d 2f 45 62 bd 2c b3 91 bd ca 8f 7c 3d
       0.040141933 -0.05524176 -0.071142524 0.061660565
000170 b9 63 b5 3d 0e 67 57 bd 1a 20 b7 bd 20 46 9c 3c
       0.08856911 -0.052588515 -0.0894167 0.019076407
000180 80 d4 1d bd 61 8b 1b 3d 70 53 11 bd fb ca 83 3d
       -0.038532734 0.03797472 -0.035479963 0.064352
000190 2d ce a4 3d 12 59 7f 3d 16 4e 75 3d fd 18 a2 bd
       0.080471374 0.062340803 0.05988892 -0.079149224
0001a0 b5 61 97 3c 2f c2 60 3d a4 1a 6f 3d 66 d5 35 bd
       0.018479208 0.054872688 0.058375016 -0.044392966
0001b0 c6 35 c4 3b 8e a6 86 bd 39 e2 bd 3d 54 47 3d 3d
       0.0059878556 -0.065747365 0.09271664 0.046210602
0001c0 d9 5d de 3c be 9e ca bd 81 9f 5a 3d a1 1e b8 3d
       0.02714436 -0.09893559 0.05337477 0.08990217
0001d0 ed 47 c0 bd e5 b3 84 3d c0 59 4b 3d 80 40 90 3a
       -0.09388719 0.06479625 0.04964614 0.0011005551
0001e0 73 74 3f bd e5 e5 43 bd 4c 86 a2 3d ad d3 8d 3d
       -0.046741914 -0.047826666 0.07935771 0.069251396
0001f0 de 0d 57 bd 6c a9 6e bd 5f f8 d0 bc 4b 62 93 3d
       -0.05250346 -0.058267042 -0.025509058 0.07196482
000200 c7 dd 91 3d 0d 8e b6 3d bf 8a 99 3d cb bf 94 3d
       0.07122379 0.08913813 0.07497167 0.07263144
000210 4c 46 3b bd 67 37 2e bd d3 c7 99 3d 74 7e dd 3c
       -0.045721337 -0.042533305 0.075088166 0.027037837
000220 a8 aa 91 3d 28 68 88 3d 51 dd e5 3c ec cf a7 3c
       0.07112628 0.06660491 0.028059633 0.020484887
000230 6f 57 09 3c 15 3e 93 bd f5 76 ed 3c 5f d9 a9 3d
       0.008382662 -0.071895756 0.028987387 0.08293413
000240 7b 8a 07 bd 74 5f 98 3d a8 d7 9b bc d2 79 12 3d
       -0.03309105 0.07440081 -0.019023731 0.03576071
000250 17 9b 2a bd c8 7a ea ba bd 9c 60 3d 02 12 4b 3d
       -0.04165181 -0.0017889375 0.054836977 0.04957772
000260 bd 7e c3 3c 80 1c 76 bd 06 78 1c 3d a0 b6 42 bd
       0.023864144 -0.060085773 0.0382004 -0.047537446
000270 46 1c a3 3d 34 6c e0 3c 7a b1 19 3d 36 fb 6c 3d
       0.07964377 0.027395345 0.03752277 0.05785676
000280 25 3a a7 3d 80 b0 c6 3c 54 e7 8d bd 01 4e 4e bc
       0.08165387 0.024254084 -0.06928888 -0.01259184
000290 47 b9 b3 3d d7 7d 35 bd bf ec c2 3d a4 a8 7e bc
       0.08775573 -0.044309463 0.09517812 -0.015543137
0002a0 c2 b9 7d 3d e3 8e 95 3d 99 62 de 3c b0 3f 47 3c
       0.06194473 0.07302644 0.027146624 0.01216118
0002b0 69 9b a7 3d 7f dd b0 3d 98 b1 cc bc 77 fb 81 bb
       0.08183939 0.08635997 -0.024987027 -0.0039667445
0002c0 49 02 01 bd 14 d8 de 3c db f5 2e 3d 00 26 e7 3d
       -0.03149632 0.027202643 0.042714935 0.11286545
0002d0 3c 34 83 3c d1 44 a4 3d 35 11 b5 bd 5f c5 b2 3d
       0.016016118 0.08020938 -0.088411726 0.08729052
0002e0 8b ce be 3c 5b df 80 3d dd 0e 32 3d 4d 00 c4 3d
       0.023291847 0.06292602 0.043471206 0.0957037
0002f0 c6 f5 d2 3d d0 11 2c bd bb 2b a7 3d 76 34 06 3c
       0.10300784 -0.042009175 0.08162638 0.008191219
000300 44 cc 24 bc 25 bd 17 bc 93 5f d3 3d 78 43 93 bd
       -0.010058466 -0.009261404 0.10320964 -0.07190603
000310 9e 2b 0c 3d 1f 9f a9 bd 60 17 89 bc a2 be 42 bc
       0.034221284 -0.08282303 -0.016734779 -0.011886271
000320 00 2a 57 b9 30 71 bc 3d 14 aa d7 3d 01 fb 9b 3d
       -0.00020519644 0.09201276 0.10530487 0.076162346
000330 e3 60 01 bd 64 02 c9 3d d2 7f 70 3d e7 7f bb 3c
       -0.03158654 0.09814909 0.05871565 0.022888137
000340 64 ef ae bd a2 dc c3 bd 4d bc 1e bd 5a a3 cd 3d
       -0.08541754 -0.09563567 -0.038753796 0.100409225
000350 a6 89 bf 3d c2 a7 56 3d 74 8c 11 bc 0b b9 af bd
       0.09352426 0.05240608 -0.008883584 -0.08580216
000360 98 85 d0 bc 5d ea b1 bd a0 e2 e6 3c d0 5d 43 3c
       -0.025454327 -0.086872794 0.028184235 0.011924222
000370 1c 04 6c 39 e4 69 a2 3d 8d ab 3a 3d 00 00 90 39
       0.00022508245 0.07930353 0.04557376 0.0002746582
000380 bb 83 93 bd 9e a0 0e bd f6 2a 74 bd 24 7b e8 3d
       -0.0720286 -0.034821145 -0.059611283 0.11351612
000390 fe 90 a0 3d d2 cb 18 3d 09 96 a0 3d 3e 43 a0 bd
       0.07840155 0.037303753 0.07841117 -0.078253254
0003a0 5e 3a 34 3d 2b 13 c9 3d 20 21 cc 3c f3 83 6f bd
       0.044000976 0.09818109 0.024918139 -0.058475446
0003b0 b9 1e a2 bb c7 5c 0f 3a 29 b2 7b bd ee fc d0 3d
       -0.00494751 0.0005468842 -0.061449204 0.102044925
0003c0 9d 83 d7 3d fd 0a 80 3c b1 29 3b 3c 7d aa 7e bb
       0.1052315 0.01563024 0.011423514 -0.0038858943
0003d0 23 56 0f bc a5 5d b2 3d 99 67 65 3c 1d 6d db 3d
       -0.008748564 0.087092675 0.01400175 0.10714171
0003e0 a0 c2 de 3b 6f eb 01 3c e9 fb 61 3c 2c 74 c9 bc
       0.0067981035 0.007929667 0.01379297 -0.024591528
0003f0 54 c1 f4 bb 9e a9 69 3d 6e c3 1b bd 2c 9b c4 3c
       -0.0074693356 0.057046525 -0.038028173 0.023999773

layer4.bias f4 [80]
000000 ed 23 85 3d 0c f2 78 3c 9b 54 c7 3d 9c ce d5 3d
       0.06500993 0.015194427 0.09732934 0.10439798
000010 45 4a 25 bd 9e 1d bb 3d 25 9e ed 3c 9b db e2 3b
       -0.040354032 0.091365084 0.029006073 0.0069231517
000020 f8 eb 02 3d 1e 13 8a bd f1 d3 1e 3d ff e9 0c 3d
       0.03196332 -0.067419276 0.03877634 0.034402844
000030 df bf d5 3c 41 01 6e 3d d3 5a 31 3d a8 a4 85 3c
       0.026092468 0.058106665 0.043299507 0.016313866
000040 95 84 76 3d bd 8f b7 3d 48 94 09 bd 60 ac 4d bd
       0.060185034 0.08962963 -0.033588678 -0.050213218
000050 f3 08 d8 3d 96 b6 c3 3d 10 b5 e0 3c d6 30 36 3c
       0.10548582 0.0955631 0.027430087 0.011120042
000060 de 60 5e 3d 2c e4 1d bd 35 ac d5 3c db b3 c7 3d
       0.0542916 -0.03854768 0.026083091 0.097511016
000070 1e d2 94 3c d3 93 7a 3d b3 07 6f 3d de b5 8e ba
       0.018166598 0.061176132 0.058356952 -0.0010887941
000080 6a b5 9f 3c 9a c2 02 3d d2 32 fe bb a1 4a 41 3b
       0.019495685 0.031923868 -0.007757523 0.0029493945
000090 f9 76 a0 3d 6b 45 ac 3c 7b 59 32 38 7d 40 9e bd
       0.07835192 0.021029195 4.2521842e-05 -0.07727144
0000a0 0c 95 78 bc f5 b4 8c 3d 74 d1 8d 3d 96 2a 80 bd
       -0.015172254 0.06870452 0.06924716 -0.062581226
0000b0 ed f6 b5 bd 9a dc bb bd d2 4d 9c 3d 92 c2 67 3c
       -0.08884988 -0.09172936 0.076320305 0.01414551
0000c0 99 66 9e 3d a3 79 92 3d be c6 9d bd be 6b 8c 3d
       0.07734413 0.071521066 -0.07703923 0.06856488
0000d0 78 f5 f7 3c 05 2d 67 bd 55 23 92 bd fa a0 a2 3d
       0.030268416 -0.05643942 -0.07135645 0.0794086
0000e0 cd 78 83 bd e9 97 bc 3c 87 90 2b bd 79 13 a3 bc
       -0.06419525 0.023021655 -0.04188588 -0.019906746
0000f0 b8 9b ae 3d 57 ff 63 bd d8 3a be 3c f4 d3 c3 bc
       0.08525795 -0.055663433 0.023221418 -0.023904778
000100 16 32 bb bc 14 71 88 3d 9d f8 b9 3d cf 85 b7 bd
       -0.022851031 0.06662193 0.09080622 -0.08961069
000110 f1 27 88 3d f8 58 9e bd 5a 9f 8d bd a2 81 a0 3d
       0.06648243 -0.07731813 -0.069151595 0.078372255
000120 46 c6 01 bd 18 83 f4 3a 3b b1 c7 3d c6 b6 71 3d
       -0.03168323 0.0018654792 0.09750601 0.059012197
000130 8a af 89 bd 03 c5 79 bd ae b0 7c 3d 01 6a 0e bd
       -0.067229345 -0.0609789 0.061691932 -0.034769062

layer5.weight f4 [60, 80]
000000 e6 cb 73 bd 54 52 7d 3d 7c 1d 39 bd 26 39 4f bd
       -0.059520625 0.061846092 -0.045194134 -0.05059161
000010 0e ab 0c bd 78 a7 34 3c 23 2f b2 3d c1 20 af 3d
       -0.034342818 0.011026256 0.08700397 0.08551169
000020 90 b1 78 3c 60 17 b3 3c c6 7c de bd 1c 54 6f 3d
       0.015179053 0.021861732 -0.108636424 0.058429822
000030 32 39 85 bd b1 c0 a7 3d 66 38 ca 3d 88 de e6 3c
       -0.0650505 0.0819105 0.098740384 0.028182283
000040 a2 52 8c bd 9c ad fd 3b e6 64 9d bd cc 72 26 3d
       -0.068516985 0.007741643 -0.076852605 0.040636823
000050 b4 c1 0b 3d 32 69 da bd 0e 3b da 3d 82 7b 73 bd
       0.034120277 -0.10664596 0.10655795 -0.059443958
000060 c2 c1 ea bc d1 47 62 3c 4d 3b 8c bd a1 53 0f bd
       -0.028656844 0.013811068 -0.06847248 -0.034991864
000070 1d 3f de bd 17 59 b1 bd 39 c8 44 bc 48 ed a8 3d
       -0.10851882 -0.08659571 -0.012010627 0.08248383
000080 60 d4 00 bd bc 58 af bd 17 27 d7 bc 68 be 9d 3d
       -0.031452537 -0.085618466 -0.026263757 0.07702333
000090 89 8d ac bd 9f da 09 bd ce bb a1 3d 72 4c cc bd
       -0.08425433 -0.03365576 0.07897149 -0.09975518
0000a0 6d 56 8f bd 81 4e 9c 3c 5b 05 b1 3d cb 45 bd 3d
       -0.06998906 0.019080402 0.086435996 0.092418276
0000b0 e8 cd d1 3d b0 71 84 bd 7e dc d3 3d 00 77 b0 bc
       0.102443516 -0.06466997 0.1034479 -0.021541119
0000c0 9e e9 03 bd 1b 41 a6 bd 67 6b ce bd 07 59 92 bc
       -0.032205217 -0.08117887 -0.10079079 -0.017864717
0000d0 c8 31 82 bd 8d 17 6f 3d 4c 1b 13 3d 3a b4 ce bc
       -0.06357151 0.05837207 0.035914704 -0.025232423
0000e0 50 d1 86 bd f0 b1 05 bc 08 aa c7 bc d2 28 89 bd
       -0.06582892 -0.008160099 -0.02437307 -0.06697239
0000f0 96 49 95 bd 4d 42 42 3c 12 ff a8 bd 2d 43 f8 3a
       -0.07289426 0.011856628 -0.08251776 0.0018940918
000100 b8 95 1f 3d 83 6a 88 bd 1d 7d e6 3b dc ed 37 bd
       0.038961142 -0.066609405 0.0070339576 -0.044904575
000110 00 9e 31 3d c0 0e 53 bb bc 5c b0 bc f7 73 5a 3d
       0.04336357 -0.0032204837 -0.021528594 0.05333325
000120 b0 de 75 3d f1 6e 5a 3d 10 2d 04 3d 34 fd c3 3d
       0.060026824 0.05332846 0.032269537 0.09569779
000130 d8 ea 1c 3d 22 04 4c bd 70 7d 45 3d a8 b1 1d 3d
       0.038309902 -0.04980863 0.04821533 0.038499504
000140 00 bc 0f 3c 42 f9 fc 3b 1e bf 6e 3c ee 0f 1b bd
       0.00877285 0.0077201435 0.014571933 -0.03785699
000150 b6 f5 91 3d d7 38 61 bd 26 44 a0 3d c7 e2 81 bd
       0.07126944 -0.054985847 0.07825498 -0.063420825
000160 ba 46 b0 3d fc f3 49 3d c0 5b 26 bb c6 cd 71 3c
       0.0860724 0.049304947 -0.0025384277 0.014758533
000170 29 e1 da bd 5a c3 f6 bd 6a 87 4c 3d 23 60 bf bd
       -0.10687477 -0.12048979 0.04993383 -0.093445085
000180 5e ec bd 3d 66 c7 87 bb 31 e0 cd bd dc 3b 3f 3d
       0.09273599 -0.004143643 -0.10052527 0.046687946
000190 3b 71 a8 3d 03 e0 10 3d 47 94 84 bd 78 e3 96 3c
       0.08224722 0.035369884 -0.06473594 0.018419012
0001a0 fc 2c a1 bd 96 b2 66 bc d6 fe bd bd 93 83 c1 3d
       -0.07869908 -0.014080664 -0.09277122 0.09448924
0001b0 36 17 c1 3d f3 5c 3a bc 0b 75 2d bd 46 b2 96 bd
       0.09428255 -0.0113747 -0.04234795 -0.07358222
0001c0 57 11 94 bd d6 1c cf 3d 94 38 d8 3b 81 e5 8a 3c
       -0.0722987 0.10112922 0.0065985415 0.01695514
0001d0 f4 21 39 bd de f3 18 bd f8 53 e0 3c 2a c9 ca bc
       -0.045198396 -0.037341945 0.02738379 -0.024754126
0001e0 3c 1c 32 bd 2a e2 b3 bb f5 46 12 3c ea d9 b6 3d
       -0.043483958 -0.0054896073 0.00892805 0.089282826
0001f0 40 88 4e bb ca 6b 6b bd df eb 28 3d 84 32 c5 3d
       -0.0031514317 -0.057475843 0.04124057 0.09628776
000200 90 1f 64 3d 33 b8 c0 3d 80 92 e2 bd fd e7 f9 3b
       0.055694163 0.09410133 -0.11063099 0.007626532
000210 10 80 85 3d 3d 23 7b bc 88 33 1d bc 1e 8c ab 3c
       0.065185666 -0.015328226 -0.009594806 0.020940837
000220 34 2b 06 3d 75 8f 2b 3d 5e c3 c7 3d c8 5b f0 bd
       0.032756045 0.04188486 0.0975406 -0.11736256
000230 96 e2 07 bd a4 c0 03 3d 7a 34 bf 3d e9 1a 32 3d
       -0.033175074 0.03216614 0.09336181 0.043482695
000240 a8 ba d3 3d 7e a4 a4 bc 82 c5 a2 bd bc 31 5b bd
       0.10338336 -0.020097967 -0.07947828 -0.053514227
000250 7f bc 27 bd 5a 72 05 bd f8 82 9d 3d df 39 dd 3a
       -0.04095125 -0.032579757 0.07690996 0.0016878209
000260 10 42 4e bc e6 9c e2 bd e0 37 af 3b 08 22 dc 3d
       -0.012588993 -0.11065082 0.005347237 0.107486784
000270 e3 d2 e3 bd 9e 94 6b bd 2f fd e1 bd c1 11 8d 3b
       -0.11124208 -0.05751478 -0.11034619 0.004305095
000280 1a 70 77 bd 81 27 05 bd 4b f3 4f 3c 24 85 4d bc
       -0.060409643 -0.032508377 0.012692283 -0.01254395
000290 0b cb 57 bb 1f cb 18 bd 4e 21 be bb ba ea 07 3d
       -0.003292742 -0.037303086 -0.00580231 0.033182837
0002a0 b2 65 8c bd ac 3d a3 bd e0 39 0c bd 5f c2 3f bc
       -0.06855334 -0.07970747 -0.03423488 -0.0117040565
0002b0 74 7a cf bd de e9 71 3c f2 3e c6 bd 50 04 2f bc
       -0.10130778 0.014765231 -0.096799746 -0.0106821805
0002c0 c9 e7 85 bb bc 09 f2 3c c7 e3 59 3c d0 d2 5a bd
       -0.004086469 0.029545657 0.013298935 -0.053423703
0002d0 dd b0 bf 3d 8e 97 a6 3c b0 87 18 bd 2e 88 22 bd
       0.09359906 0.020335939 -0.037238777 -0.039680652
0002e0 b0 89 3e 3d 9a 30 61 bd 32 9b 74 bd bb 6b a6 bc
       0.046518028 -0.05497799 -0.05971832 -0.020315042
0002f0 aa 24 f6 3d 18 f1 1a bd 07 96 47 bd cd 42 24 3d
       0.12018712 -0.03782758 -0.04872706 0.04010277
000300 86 90 11 3b 8c f7 45 3d 0b fc 3e 3b b4 c3 06 3d
       0.0022211387 0.048331782 0.0029141929 0.03290148
000310 24 1a a3 3d cd 77 8a 3c 8a fa e3 bd 2c ff 57 bd
       0.0796397 0.016902829 -0.11131771 -0.052733585
000320 d9 1f 08 bd 0d 60 4c 3d f9 a6 07 bd 5f 26 dc 3b
       -0.033233497 0.04989629 -0.033118222 0.0067184414
000330 ac f1 15 3d 8c 69 b4 3d 48 86 84 bd ad 04 ca bd
       0.03660743 0.08809194 -0.064709246 -0.09864173
000340 f8 8e bf bd 1f c0 cf bd 80 e0 f5 3a 97 06 a8 bd
       -0.09353441 -0.10144066 0.0018758923 -0.08204382
000350 6d d0 2e bd da 5d 73 bc 44 c9 83 bc 81 a5 5e 3d
       -0.04267924 -0.014853919 -0.016087182 0.054357056
000360 09 d0 69 3d d5 b4 fe bc 5f 34 ae bd b8 87 55 3d
       0.057083163 -0.031092087 -0.08506083 0.052131385
000370 b0 70 fb 3c 70 6b f8 3c b8 0b f8 3c ad eb 10 bd
       0.030693382 0.030324668 0.030279025 -0.035381008
000380 88 05 c1 3d db 32 8f bd 76 57 53 bd b0 fe 07 3c
       0.09424883 -0.06992122 -0.05159708 0.008300468
000390 af 70 3b bd f2 4c 97 3d 23 f9 dd 3d 96 fc c0 3d
       -0.04576176 0.07387723 0.10838535 0.09423177
0003a0 c8 d1 0b 3d 3f 9c 8c 3d b0 12 cd 3d a6 5d ac bd
       0.03413561 0.06865739 0.1001333 -0.084162995
0003b0 ec 77 0b 3d bb bd 9b bd 00 64 cc 3b 32 58 2a 3d
       0.034049913 -0.076045476 0.006237507 0.041588016
0003c0 0c 67 b1 3d 96 84 b0 bd 24 63 8e 3d 83 a9 e6 3c
       0.08662233 -0.08619039 0.06952503 0.028157001
0003d0 ad 0a 7f 3d 13 3f 63 3d 86 61 8e bd ee 05 fc 39
       0.06226604 0.055480074 -0.06952195 0.00048069604
0003e0 08 2c 48 3c 08 39 04 bc 94 02 d9 bc 8f 06 e9 bb
       0.012217529 -0.008070238 -0.026490487 -0.0071113775
0003f0 76 3a 94 3d 33 68 a2 3d a4 d1 47 bd 80 98 7c 3c
       0.07237713 0.07930031 -0.048783913 0.015417218

layer5.bias f4 [60]
000000 32 79 51 bd d3 0c 15 bd 23 29 c9 bc 10 1d 96 bd
       -0.05114097 -0.036389183 -0.024555748 -0.07329762
000010 bf 3e 86 3d 01 67 d4 3d 14 0a 6d bd aa 0c 9e 3c
       0.065549366 0.10371209 -0.05787094 0.019293148
000020 d1 5a 70 bc 16 1e 98 3c 22 31 35 3d af e3 ac 3d
       -0.01467009 0.018569034 0.04423631 0.08441865
000030 c8 13 82 bd f5 e5 49 3b 03 54 88 3d 7a 9a 8c 3d
       -0.06351429 0.003080723 0.06656649 0.068654016
000040 af 4b e0 3d 15 cf bc bd c6 fd 86 bd 20 fe 1e 3c
       0.109519355 -0.09219185 -0.06591372 0.009704143
000050 0b 32 47 3d ec 2a c9 bd 25 c0 40 3c cf bb 2f bc
       0.04863171 -0.0982264 0.011764561 -0.010725929
000060 ca 0f 72 bd 4c f9 8f 3b df 1d 15 3d dc 66 78 bd
       -0.05909709 0.004393732 0.03640544 -0.06064497
000070 9c 2d e4 3c 67 53 a0 bc b4 4a d8 bd 2e 08 24 bd
       0.02785378 -0.01957102 -0.105611235 -0.040046863
000080 18 ee c3 bd 81 d1 a0 bc d3 8d 85 3d 74 51 d7 3d
       -0.09566897 -0.01963115 0.065211914 0.10513583
000090 00 73 9f 3c 15 7b c3 bd 08 40 b7 3c 04 ab db 3d
       0.019464016 -0.095449604 0.0223694 0.10725978
0000a0 5e f7 01 3c 4d 97 8d 39 c1 be 94 3d 2d 8a b5 3d
       0.007932512 0.00027006344 0.07262946 0.088642456
0000b0 5c c5 33 3d 9b 02 42 3d 8a 36 72 3d 7a a7 a4 3d
       0.04388939 0.047365766 0.059134044 0.08039756
0000c0 74 0b 05 3d 60 41 e0 bd 22 8b 2b bd 31 63 81 3c
       0.032481626 -0.10949969 -0.041880734 0.015794368
0000d0 5f 48 a1 3d 9f da b8 3d 90 e6 9a 3d 77 af 9e 3d
       0.07875132 0.09026074 0.075635076 0.07748311
0000e0 9b af 91 3d 95 45 ac bd 30 4b e6 3b 1e d2 f6 bc
       0.07113572 -0.08411709 0.007028006 -0.030129489
