saved_models/model_UNH.pt (torch_old, 190423 bytes, 15 tensors)

layer1.weight f4 [100, 5]
00000000: 0043 eeba 98bc 233e 60bc 273c 604f 43be
00000010: 9bee 83be 5c79 1f3e 4fd4 4b3e f4e5 b03c
00000020: 8cdf bebe 5fd9 00bc fee8 a5be 28a3 24be
00000030: 4060 25bd a840 ec3d 9dfb a8be 0c47 25be
00000040: 0808 be3d f212 34be 423f 1abe 7a54 0dbe
00000050: 0bb4 3c3e c818 893e 93ef babd 0478 32be
00000060: dd87 2fbe 12ff a13e 3dd0 dbbc 0a85 803e
00000070: e1dc 7bbd c1ce 213e eaba e1be 08c5 433e
00000080: 0e3a d73e 7e90 babe 8a4e 3fbe 38df a8be
00000090: 1e02 79bc 81c6 743e 0142 783b c4ff de3e
000000a0: 905b d4be 9c08 c2be 108f 62bd 027a e43e
000000b0: 008f 04be 8e5a 6abe 4c92 483e b4b5 a23e
000000c0: 2e89 8ebe 61d3 bfbe f867 013e db2e 93be
000000d0: a60d 1dbe 2993 dcbe 6a49 8c3e d163 60bc
000000e0: 2167 4a3e 8d55 e73e 8f94 b6be dfd9 d53e
000000f0: 9840 463d 878c 61be 2789 aabe 659a 8ebe
00000100: 3846 de3d cb37 8fbe dd48 923e 990a df3e
00000110: 6c1d 9f3c 51ef 4cbe 0048 dabe 2702 9dbe
00000120: 1da1 afbe 40f4 a73e 2c1d b3be 80e5 64bc
00000130: 2258 22be 1361 82be 40d9 80bc 250e 5fbe
00000140: 02a1 883e 7936 e3be 5417 c53e 3884 2d3d
00000150: 681a cdbe c872 a1be a240 6abe d2f4 65be
00000160: 401b a8bc 32e6 cdbe 87c4 91be 4a22 9c3e
00000170: 03e0 d83e e66d d03e 1b87 44be d243 a0be
00000180: 40bc 023e 7c60 4b3e 474c cbbe 086b e6bd
00000190: 7922 5abe 5aa8 e3be 4a85 06be c699 32be
000001a0: 905c afbd 04db 3dbe 9837 d9be 402c 8d3b
000001b0: c826 43bd 8e08 aabe b608 a13e 82a2 75be
000001c0: e259 863e e4a8 bebe 47a0 7fbe 2c44 9b3e
000001d0: aa28 d0be b0b5 a43d c807 d83d 5c8a e2be
000001e0: c8d2 bcbd 9dbc adbe 8e59 903e 6277 82be
000001f0: 10e3 30be 8b8b abbe 68e9 c33e 3a8e 8cbe
00000200: 2dd9 ec3e 8de4 273e 77ec 40bd 87ba 60be
00000210: 1ee5 e53d cb66 d63d 0a59 083e 4bd2 243d
00000220: 2501 d23e 006a aa3e 06a9 8abe 09be 2bbe
00000230: 67c6 503e 6324 2d3e 9671 bcbe 2d89 c33e
00000240: a3a4 6cbe 0269 06bc c339 3f3e 0f23 bcbe
00000250: e90b 82bd 1573 403c a286 83be 62a9 c53e
00000260: 716c e4be 5ef2 93be 18ae 37bd 9247 48be
00000270: b0a1 d63e 1d50 b7be 420e e2be c8e3 393e
00000280: 2025 e43e f5f0 cfbc bee0 e73e de6c 94be
00000290: 0e13 2c3d e4bc ae3e f7ab c2be cbbf 31be
000002a0: b1a3 6abe 42ee db3e 8a20 9a3e 4aa7 adbe
000002b0: 7c0b 083e e36e d6be c72f a5be ed2c 823c
000002c0: 00f9 fe3c 710d 16bc fe1b 473e 156e 803e
000002d0: f109 cabe f21d 533d 6878 613e ab17 a93d
000002e0: ead3 10be 8e27 dc3d 7ddb 7e3d 131d c53e
000002f0: e881 df3e db10 bdbe 9ad4 b63e 9437 a43e
00000300: 1bcc c2bd 40c3 e6bc fea9 7b3d 684f 513d
00000310: a286 a5be aebf bcbe 9437 74be b08c d0be
00000320: 0886 7dbd ac55 723e 002a 3cba b8bb 3b3e
00000330: 5de8 dbbe 6c07 a9be 3b55 c53e b810 c3be
00000340: b122 4c3e 9266 343e 370e 14be fed5 9d3d
00000350: d958 a03e 9b04 083e 853c 85be 40ff 843c
00000360: a005 df3e a0ef 50be 59d9 c8be 18d2 fdbd
00000370: cc6b b43e ff2c cfbe 9520 d9be e509 86be
00000380: 9853 9d3d 07e5 ddbe 6ab3 89be b896 e23d
00000390: db6e 5ebe 4888 373e b884 c7be 0a84 b0be
000003a0: 0d87 d5be a0da d53e f0ea 1d3d 9642 d1be
000003b0: 90bb f23d 9fae e73c 9f2f e93e 1aea 333e
000003c0: 1a39 953e d801 90be d808 9a3d 0810 84be
000003d0: 68b6 093d f583 ed3d 253f f4bd 05dd e4bd
000003e0: b281 de3e c4b6 913e d805 86be c3da bdbe
000003f0: 1312 b2be 4844 5b3e e843 e63d c98d 013e
-0.0018177927 0.15989912 0.010237783 -0.19073248 -0.2576798 0.15573639 0.19905208 0.021594025
-0.37279928 -0.007864325 -0.3240432 -0.16077864 -0.040374994 0.1153577 -0.33004466 -0.16140383
0.092788756 -0.17585352 -0.15063193 -0.13801757 0.18428056 0.2677672 -0.091277264 -0.17428595
-0.17141671 0.31639916 -0.026832694 0.251015 -0.061489943 0.15801527 -0.44087917 0.1911813
0.4203648 -0.36438364 -0.18682304 -0.32982802 -0.015198259 0.23903848 0.0037881138 0.4355451
-0.41476107 -0.37897193 -0.055312216 0.44624335 -0.12945175 -0.22886106 0.19587058 0.31779253
-0.27839035 -0.37465957 0.12637317 -0.28746685 -0.15337238 -0.43081024 0.2739976 -0.013695673
0.19765903 0.45182458 -0.35660216 0.41767785 0.048401445 -0.22026263 -0.33307764 -0.2785217
0.10853237 -0.27972254 0.28571215 0.43562773 0.01942321 -0.20013167 -0.42633057 -0.30665705
-0.34302607 0.32803535 -0.34983194 -0.013970733 -0.15853932 -0.25464687 -0.015728593 -0.2178274
0.2668534 -0.44377497 0.3849436 0.04236242 -0.4005921 -0.31532884 -0.22876218 -0.22456673
-0.020520806 -0.40214688 -0.2847025 0.3049491 0.42358407 0.40708846 -0.19192164 -0.31301743
0.12767124 0.19861025 -0.39706632 -0.11250883 -0.21302213 -0.4446438 -0.13136783 -0.17441472
-0.08562577 -0.18540579 -0.42425227 0.0043082535 -0.047644407 -0.33209652 0.31451958 -0.23987773
0.2624045 -0.37238228 -0.24963485 0.3032545 -0.40656024 0.08042467 0.10548359 -0.44246185
-0.09219891 -0.33932963 0.28193325 -0.25481707 -0.17274117 -0.335049 0.38264012 -0.2745226
0.46259442 0.16395779 -0.04710051 -0.21946155 0.11225341 0.10468825 0.13315216 0.040239614
0.41016498 0.33283997 -0.2708208 -0.16771711 0.20388184 0.16908412 -0.3680541 0.38190594
-0.23109679 -0.008203747 0.18674378 -0.36745498 -0.06349928 0.011746188 -0.25688654 0.3860579
-0.44613984 -0.2889585 -0.044843763 -0.19558552 0.41920233 -0.3580331 -0.44151503 0.18153298
0.44559574 -0.025383452 0.45288652 -0.2898931 0.04201036 0.34128487 -0.38021824 -0.1735832
-0.22914006 0.42955214 0.3010295 -0.33916694 0.13285631 -0.41881475 -0.32263014 0.015890563
0.031124592 -0.009158478 0.19444272 0.25083986 -0.3946071 0.05154223 0.22018588 0.082564674
-0.14143339 0.10749732 0.06222104 0.38498744 0.43653798 -0.36926922 0.35709077 0.32073653
-0.09511586 -0.028169274 0.061441414 0.05110112 -0.3232928 -0.3686499 -0.23849326 -0.40732336
-0.0618954 0.23665494 -0.00071778893 0.18333328 -0.42950717 -0.33013475 0.38541588 -0.38098693
0.19935109 0.17617252 -0.14458548 0.077068314 0.31317785 0.13283007 -0.26022735 0.016234994
0.4355898 -0.2040391 -0.39228323 -0.12393588 0.35238492 -0.40464017 -0.4240767 -0.26179424
0.0768196 -0.43338796 -0.26894695 0.110639036 -0.21721976 0.17923081 -0.38968444 -0.34475738
-0.41704598 0.4176836 0.038554132 -0.40871114 0.11852181 0.028281508 0.45544145 0.17569771
0.29145128 -0.28126407 0.07521218 -0.2579348 0.03362122 0.115974344 -0.11926106 -0.11174969
0.43458325 0.28459752 -0.26176333 -0.37080964 -0.34779415 0.21412766 0.11243421 0.12651743

layer1.bias f4 [100]
00000000: 007d 42bc d9ff cd3d 406b 773c 3a39 27be
00000010: d111 e0be 0cd0 1bbe 8434 63be beb7 863e
00000020: 00d8 2b3e 581a 1e3d 3666 a83e 9cb2 933e
00000030: 54bc 93bd 567d 223d f433 81be 997c c2be
00000040: 68cc 983e 1b14 8ebe 8a25 93be 5b2f dabe
00000050: c0ea 87be 8cef b63e 0431 a0bd f205 b13e
00000060: 8818 df3e bf74 5ebe ea41 ae3e 376f 30be
00000070: 81d3 b73e 7145 bd3e b5cc 5bbe 361c 5bbe
00000080: 7363 11be 5acb 1cbe 8897 9fbd 5d85 9c3e
00000090: 3138 c13e 7872 d0be f8c9 d93d 3f06 e0be
000000a0: a0f0 44bd 853b 9fbc ebb9 283e d4de 80bd
000000b0: 18e7 583e 08fc f13d 9e41 b03e 4865 bdbe
000000c0: fca1 c3be d397 c13e 486d 3cbe 9e7e ab3d
000000d0: 2aa8 bd3b 2a4a 483d 5e2b e33e ecea 53be
000000e0: f033 c03e d89f 8a3e 2ea7 c7be ea30 b7be
000000f0: 80bd f3bb 40b0 fdbb af39 103c b606 a83e
00000100: 7a48 c23e 3017 59be 026e 80be e4b7 313e
00000110: 07ed 52bc 75d9 fcbd 674a 1fbe 7984 cfbb
00000120: b92c abbd f5b2 60be 3ea0 9ebe a1e0 85be
00000130: e0ec 113c 7c3e e83e e7d7 593e f243 0e3e
00000140: 9239 333c 9528 18be 077e d5bc f016 04bd
00000150: 6d86 8f3d 4c30 0fbe c38f bc3e 3e72 963e
00000160: 7828 8b3d 1a3a 2fbe f7be 5fbe c580 ee3d
00000170: 10c3 863c 22ad 1cbe 4804 cb3e b374 d23e
00000180: 4828 083d 8ff7 54be 543b 543e b0bf c23e
-0.011870623 0.10058565 0.015101254 -0.16330424 -0.43763593 -0.15216082 -0.22188002 0.2631206
0.16781616 0.038599342 0.3289048 0.28847206 -0.07213655 0.03967031 -0.2523495 -0.37985685
0.2984345 -0.27749714 -0.28739578 -0.42614254 -0.26546288 0.35729635 -0.07821849 0.34574848
0.43573403 -0.21724223 0.34034663 -0.17229925 0.35903552 0.36967042 -0.21464808 -0.2139748
-0.14198093 -0.15311947 -0.07792574 0.30570498 0.37738183 -0.40712333 0.106342256 -0.43754765
-0.04808104 -0.01943756 0.16477172 -0.06292501 0.21181905 0.11815649 0.34425062 -0.36991334
-0.38209522 0.37811145 -0.18401062 0.0837376 0.005787869 0.048898853 0.44369024 -0.20695084
0.37539625 0.27075076 -0.38994735 -0.35779506 -0.0074383616 -0.007741958 0.008802815 0.3281762
0.3794592 -0.21200252 -0.2508393 0.17355305 -0.012873895 -0.12346164 -0.15555726 -0.0063329306
-0.083581395 -0.21943267 -0.3098163 -0.2614794 0.008906573 0.45360172 0.21273766 0.13893107
0.010939019 -0.14859231 -0.026061071 -0.032248437 0.070080616 -0.13983268 0.3682843 0.29384035
0.06794828 -0.17112008 -0.21850191 0.116456546 0.016450435 -0.1530042 0.39651704 0.4110466
0.03324154 -0.20797561 0.20725757 0.3803687

layer2.weight f4 [150, 100]
00000000: 756f cb3d 604c febb 4160 a03d 1905 843d
00000010: bbd9 b83d b1eb 8fbc d7d6 853d 76f4 0e3d
00000020: b3e5 38bd ad5f b0bd b0d7 98bb 2f0b 903d
00000030: aeec a4bd 37bb 55bc 57d1 1dbd 77d9 7abd
00000040: 7c6e 573d 82ee 1b3d a135 8f3d 72cb 073d
00000050: 68ec 9abd 9c88 f53c 43b7 b23d 0e8c 303d
00000060: c011 103b 106f ab3d 211d c43c aa42 3e3d
00000070: fa4c 88bd b1b5 943d 702d 173c 1470 cc3c
00000080: 2c25 b4bd 88f3 d0bc 4567 c3bd 960e 97bc
00000090: 7e15 033d 25b9 133d e2a0 583d 34f4 c0bc
000000a0: a086 1f3b e013 d33b 2d7b c83d 0328 6fbd
000000b0: 4f5a a23d 5726 8d3d 0d51 9d3d b871 55bd
000000c0: 68fd bebc cd7e 70bd 58ff 10bc e55d 403c
000000d0: fe2b d8bb a8ee 65bd d62a c33d b646 643d
000000e0: 8a8a 13bd a66e 8d3b 3e89 90bd 00ce 59bb
000000f0: f1df 9a3d 1b03 ba3d 99bf 593d f5e1 af3d
00000100: 5a90 26bd 0d91 c0bd bef4 9fbd c9e6 c7bd
00000110: a96c bb3d f291 acbd 2732 b6bd c6ec 7b3d
00000120: 5443 bd3d 5109 57bc 80f4 dd3b d5e1 993d
00000130: 1209 b3bd 07b8 98bb c558 89bd e792 8e3c
00000140: d33c aa3d 8aef 1ebd 41fb 64bc d076 fabb
00000150: 877e 1abd 003d 84bb 3f8f 38bd 5aff 1a3d
00000160: ba04 6d3d c44c 81bc a114 873d 7f52 aabc
00000170: 7aea 33bd f4a7 d33c 0070 24b9 8a61 d53b
00000180: 8c71 f8bc 5073 07bd 990b a93d 6f31 12bd
00000190: cf3c c73d 00dc 1e3b 5241 293d 055d ab3d
000001a0: ea4a 44bd d705 22bd d266 0b3d c004 64bb
000001b0: 8292 2e3d f2c7 89bd 0adc 603d b0e2 103c
000001c0: 42f6 4c3d 6a76 0d3d fd53 88bd ec04 933c
000001d0: 8603 543d 0b66 aebd ee6f 383d 3046 48bd
000001e0: cb1e a8bd c52f 9abd 3039 edbb 1234 033d
000001f0: 13ae a7bd 9157 ab3d 7b66 c33d 44b0 fc3c
00000200: b352 a6bd 669c 163d 50ae 873b e073 26bd
00000210: 8d95 c13d 74b3 8fbc e375 38bd 9360 55bd
00000220: 722d 84bd 46c6 04bd 30e8 a6bb 925c 5e3d
00000230: 2f44 b0bd a824 be3c d420 82bc e813 243c
00000240: ea8c 43bd 9a35 53bd a044 aabd 4d1b 4abd
00000250: 451c a53d 99de 873d 7a8b 6e3d 444d 87bd
00000260: f883 bebc 10b9 58bc ed7b 88bd 51a7 903d
00000270: a014 c83c a786 7abd 30f6 393c 1636 05bd
00000280: 8f64 aebd b37d 1ebd 328b c4bd 6900 ac3d
00000290: a017 71bb 9aac 3f3d 9543 c23d cd9d c1bd
000002a0: d865 91bd 4077 a53a 0602 acbd 6953 bf3d
000002b0: 93d1 3dbd af18 c1bd ac57 b23c 8707 53bd
000002c0: da9d 04bd 638b a3bd 6cb2 c8bc 70d2 4ebc
000002d0: fab2 91bd 0e18 193d 1561 afbd 8c3c ef3c
000002e0: 9d8c 26bd 4c02 c23c 095f 8e3d 69a0 b53d
000002f0: 7870 a13c b098 1b3c c067 673c 37ac a43d
00000300: 6da0 b43d 1e4f 6d3d 8036 f3bc 62b1 a7bd
00000310: 373d 913d c0d1 473c 8de1 a0bd f05e 45bd
00000320: 70a0 043c f6f1 b93c c317 1abd 5396 2dbd
00000330: 4687 813c 8f72 a63d b56f 863d 5b0f 33bd
00000340: 2185 863d c706 8a3d a719 cc3d b8cf 2e3d
00000350: 6797 bebd 5516 713c 5317 1abd 46a7 453d
00000360: 1b10 61bd ac76 ecbc 5fa5 193c 4d47 80bd
00000370: 5211 3c3d 5ccd 10bd 26d2 a7bd b461 01bd
00000380: 4cc2 bbbc e858 313d 489f a03d 4099 62bd
00000390: b54b 2f3d 2654 58bc 00f4 34bd eda3 b4bd
000003a0: 3221 7f3d 9c7a 1b3d 60af 96bc 8018 a53d
000003b0: 7312 543c e237 40bd 29bf c3bd 81e1 b73d
000003c0: 37cf 8e3d 0f89 b5bd b983 823d 83df 74bd
000003d0: d038 50bd c08e adbd 4060 00bc 7740 213d
000003e0: 09f7 973d cd61 9f3d 5759 3cbd dd8b dc3c
000003f0: e88e 25bb 5812 98bc f948 0b3d f79b b03d
0.09933368 -0.0077605695 0.07830859 0.06446285 0.09025904 -0.017568441 0.06535118 0.034901105
-0.045140933 -0.08611999 -0.004664384 0.07033383 -0.080529556 -0.013045124 -0.03852972 -0.061242547
0.0525956 0.038069256 0.06992651 0.033153005 -0.07564622 0.029972367 0.08726361 0.043102317
0.0021983236 0.08370793 0.023939671 0.046450295 -0.06655307 0.072612174 0.009227142 0.024955787
-0.087961525 -0.02550675 -0.095411815 -0.018439572 0.03200292 0.03606524 0.052887805 -0.023553945
0.0024341717 0.0064415783 0.09789119 -0.058387768 0.07927381 0.06892078 0.07681475 -0.052110404
-0.023314193 -0.058714677 -0.008849941 0.011741136 -0.006597041 -0.056135803 0.09529655 0.055731498
-0.036020793 0.004316169 -0.07057427 -0.0033234358 0.07562245 0.090826236 0.053161237 0.0858802
-0.040665008 -0.09402666 -0.07810353 -0.09760816 0.09151585 -0.08426274 -0.088962846 0.0615051
0.092413574 -0.01312478 0.0067735314 0.07513777 -0.087419644 -0.0046606096 -0.067063846 0.017404033
0.083123825 -0.03880266 -0.013975919 -0.007643558 -0.037718322 -0.004035592 -0.045058485 0.03784118
0.057865836 -0.015783675 0.065957315 -0.02079129 -0.043924786 0.025836922 -0.00015681982 0.0065118717
-0.03032758 -0.033068955 0.08254165 -0.035691675 0.09728395 0.0024240017 0.04132206 0.083673514
-0.047923006 -0.03955635 0.034033604 -0.003479287 0.04262019 -0.0672759 0.054897346 0.008843109
0.050039537 0.034536757 -0.066566445 0.017946683 0.051761173 -0.08515557 0.04502862 -0.04889506
-0.08208998 -0.075286426 -0.0072394833 0.03203208 -0.08187499 0.08366311 0.09541031 0.030845769
-0.081212424 0.036770247 0.0041406527 -0.04063785 0.09452353 -0.017541625 -0.0450343 -0.052094053
-0.064539805 -0.03241565 -0.005093597 0.0542875 -0.08606755 0.023210838 -0.015884794 0.010014512
-0.047741808 -0.05156479 -0.083138704 -0.049342442 0.080620326 0.06634254 0.058238484 -0.06606534
-0.023256287 -0.013227716 -0.06664262 0.07063163 0.024423897 -0.06116357 0.0113502 -0.032522283
-0.08515274 -0.038694095 -0.09596862 0.08398516 -0.0036787763 0.046795465 0.094855465 -0.09453926
-0.07099503 0.001262404 -0.083988234 0.09342081 -0.046342444 -0.09428536 0.02177032 -0.05152085
-0.0323771 -0.0798557 -0.02449914 -0.012623414 -0.07114215 0.037376456 -0.08563439 0.029203676
-0.040661443 0.023682736 0.0695172 0.088684864 0.01970695 0.009496853 0.014123857 0.0804066
0.08819661 0.05793678 -0.029689074 -0.0818813 0.07091754 0.012196004 -0.078555204 -0.048186243
0.008094892 0.022698384 -0.037620317 -0.04237969 0.015811574 0.08127319 0.06564275 -0.043715816
0.06568361 0.06739574 0.0996583 0.042678565 -0.093062215 0.014714797 -0.0376199 0.048255228
-0.054947 -0.02886518 0.009377806 -0.062635995 0.045914955 -0.035352096 -0.081943795 -0.031587318
-0.022919796 0.04329768 0.078428805 -0.05532193 0.04279681 -0.013203656 -0.04417801 -0.08820329
0.062287517 0.037958726 -0.018394172 0.08061314 0.012943852 -0.046928294 -0.09557945 0.08978558
0.06973117 -0.088640325 0.0637278 -0.05978347 -0.05083543 -0.08474493 -0.007835448 0.03936812
0.07420165 0.07782326 -0.04598364 0.02692216 -0.002526218 -0.018563434 0.03400514 0.08623498

layer2.bias f4 [150]
00000000: 12dd 08bd a02d dbbb cd34 e2bd 0220 0d3b
00000010: 75dd ed3b 8489 8fbd 1bcf 013d 9872 803c
00000020: 03a7 733b 1f50 b43d 8e1b dbbc 5c6e 823d
00000030: 62b4 373c e832 b83b 3f56 07bb 9c82 c83d
00000040: 9a85 c5bc b165 aa3d 885a 1cbd e81d babc
00000050: 2f31 eb3b 6ab6 e23d 28fc 8cbd 6b09 b43d
00000060: 192e e33d ae8e d43d d1a5 d2bb 2459 f63d
00000070: b1b4 ca3b a134 d83d dc83 f23d 650f a33d
00000080: 5a04 9e3c 8b1b c43d 4bc8 89bd ae10 e7bc
00000090: 7df4 db3d 4b23 a33d 452e b73c 0fec e5bc
000000a0: 718e a43d 2c11 cb3d 8530 f4bc d094 c1bd
000000b0: adbd 2fbd 5210 173d 0079 e23d af71 1a3c
000000c0: 1fbe 32bd d1ed 2cbd 39c6 a1bd fe90 203d
000000d0: d76e 643d 9a63 2a3d cb5f 9dbd 9477 0abd
000000e0: 15d1 e93d 8cad ca3c a6e4 ccbc a631 ac3d
000000f0: 0296 173d 0763 94bd 9841 3abc 8778 ae3c
00000100: 804a 5f3d 0717 6d3c 762e 84bd b223 b1bd
00000110: ce47 2e3c 0c85 60bd 5e6e 223d 961a 49bd
00000120: ad64 3ebd 96c6 01bd 8d53 88bd 5064 e1bc
00000130: f238 8abc 006d f5bb a056 acbd e41e b2bc
00000140: 96f3 033d e8b8 90bd d781 a0bd 080c 82bd
00000150: 4027 a6bc f5c4 eebb 4041 863a 17b6 81bc
00000160: 4aaf 6cbd fa08 953d c08d 2a3c b60f 9bbd
00000170: ef61 bc3d b5d0 b03d 1586 ba3d e3a3 8e3d
00000180: ca84 44bd 1d8d 5cbd 00f4 6a3c e8b3 70bc
00000190: d012 64bc f423 ad3d 3c2d 9abc 000a 623b
000001a0: 3047 ee3b 6f8c 9e3d f076 50bd 833d fabc
000001b0: e4a4 433d 092f 773d 2faf 9c3d f6f4 b8bc
000001c0: bae1 153d abd0 adbd d02d d3bb 1bfd 393d
000001d0: edaa 913d 2830 9abd 20e4 b43d 795b 213d
000001e0: a9fe aa3d 5d99 173d 1f8c 8bbd 033d 22bd
000001f0: b05a 933d 2018 30bd 0263 403d ba3e 4dbd
00000200: 07b1 8abc 9a86 3abd 7254 143d aca3 cf3d
00000210: acc2 dabc 5a82 c83d 5d7d 253d 19a8 ac3d
00000220: d51d c33b 086b 8bbd 2e14 593d eff7 893d
00000230: b7a2 b43d e85c 013c 191b 653d 1567 8c3d
00000240: fa73 363c 2e2b f1bc ca75 77bb befd be3d
00000250: 0c06 e73c f088 4f3c
-0.033413954 -0.0066887885 -0.11045227 0.002153397 0.0072590658 -0.07008651 0.03169165 0.015679643
0.0037178404 0.088043444 -0.026746538 0.06368706 0.01121244 0.005621303 -0.0020650772 0.09790537
-0.024111558 0.08320177 -0.038172275 -0.022719339 0.007177494 0.11069949 -0.068840325 0.08790859
0.11092777 0.103787765 -0.0064284583 0.12028721 0.006186091 0.10556913 0.118415564 0.07961921
0.019289184 0.09575566 -0.06727656 -0.028206196 0.10739992 0.07965716 0.02236093 -0.028066663
0.08034981 0.09915385 -0.029808292 -0.09452212 -0.0429055 0.0368808 0.11058235 0.009426518
-0.043638345 -0.042218987 -0.07899136 0.039200775 0.055769768 0.041598894 -0.07684287 -0.033805445
0.11416832 0.024740957 -0.025011372 0.08407907 0.037008293 -0.072454505 -0.011368178 0.021297706
0.054514408 0.014470822 -0.06454174 -0.086493865 0.010637237 -0.054814383 0.039656036 -0.04909762
-0.04648273 -0.031683527 -0.06656561 -0.027513653 -0.016872857 -0.0074898005 -0.0841496 -0.021743245
0.032214724 -0.07066518 -0.07837265 -0.06349951 -0.020282388 -0.0072866627 0.0010242835 -0.015833898
-0.057784356 0.07277103 0.010409772 -0.07571356 0.09198367 0.08633558 0.09107605 0.06964853
-0.0479782 -0.053845514 0.014340401 -0.0146913305 -0.013920501 0.08454123 -0.018820398 0.0034490824
0.00727167 0.07741629 -0.050894678 -0.03054691 0.047764674 0.06034759 0.07650601 -0.022577744
0.036592223 -0.08487066 -0.0064446703 0.045407396 0.0711268 -0.07528716 0.08832574 0.039393876
0.08349354 0.037011493 -0.06813835 -0.039608967 0.07195032 -0.042991757 0.04696942 -0.05010865
-0.016930116 -0.045538522 0.036213346 0.1013864 -0.026704155 0.097904876 0.04040276 0.084304996
0.005954484 -0.06807524 0.05299776 0.06736743 0.08820098 0.007895686 0.055934045 0.06855599
0.011136049 -0.029439535 -0.0037759417 0.09325741 0.028201126 0.012666926

layer3.weight f4 [100, 150]
00000000: 1221 0d3d 2aaf 303d b654 b2bc b47b 3b3d
00000010: 422d 92bd c06e d73b 627e 53bd de5f 8a3d
00000020: 8845 0f3d 4496 3abd ce8a 73bd b028 7c3d
00000030: 0c59 9fbc c0fd 4a3d a035 5bbb b031 b13c
00000040: a00a a13d 2489 85bc 980a 363d a4a8 d73c
00000050: 3041 b8bb fe6f 273d dfb4 90bd 0049 88bc
00000060: 7d56 83bd 0c8b 653d ff99 68bd 62f5 aabc
00000070: 8802 64bc 8a96 81bd af00 54bd b85e 9c3d
00000080: 082d 953d cc6f c53c acc1 b5bc d6ef 8dbd
00000090: bc6f c23c a02b 743c 288b 8fbd e18b a3bd
000000a0: 0008 98b8 6c4c 593d e01b 8fbd ee38 903d
000000b0: 002a 3fbb e011 683d 753b 5bbd 4cd8 953c
000000c0: d430 533d f023 713d ae80 50bd d7cb 43bd
000000d0: ea3a a1bd f001 1d3d d055 f3bb 00ed feba
000000e0: 262b a53d f0fe 5f3c 60db 32bc fa97 a13d
000000f0: d020 16bc 60f4 8e3b 8052 243d ad30 a0bd
00000100: 91b4 04bd 0ca6 043d 9c63 6a3d c0d1 da3c
00000110: 3064 52bd f1df 4abd aaf3 e6bc ae21 853d
00000120: 98aa d03c 0267 f5bc 6ce9 56bd c03c 98bd
00000130: de45 8cbd 5070 033c 744a 553d fae7 8cbd
00000140: def9 973d 9aec 8a3d 1e68 9e3d 6ceb 733d
00000150: 2cdd 71bd b04d 43bc c0cf 9eba dce2 cabc
00000160: d0b9 dcbb e6a7 bcbc 5ca1 e9bc 84f0 9abd
00000170: 3024 1a3d f4b0 543d 2390 8ebd 40a7 543c
00000180: f4d9 a23c 3066 483c 3672 9cbd 68c7 50bd
00000190: dcc8 613d f8bc 42bc b01e 9b3d 2cec 393d
000001a0: 9c0a 223d 404e 7c3b 5caa 5f3d dae9 903d
000001b0: 6877 9e3c 38e5 db3c c0d3 e7bc 241a 64bd
000001c0: f6c1 7cbd f023 6d3d 2aa2 23bd 2cc5 c93c
000001d0: 12a0 e1bc b0e9 2abc 5afa d5bc 6042 333c
000001e0: 12c2 953d e0f7 e4bb 88b2 49bd f090 1f3d
000001f0: 3c42 3cbd d4a8 1e3d a403 c9bc d4d3 423d
00000200: 0acc 893d aedc ebbc 9a67 ffbc fca8 6d3d
00000210: 9a7d e5bc 5f69 97bd 366c 07bd c08e ac3a
00000220: 8857 553c b09d b5bc cf55 83bd dc53 b73c
00000230: 28fe 4b3d a0c1 37bc 20dc 783c 7cea cebc
00000240: 383b 48bd 6400 333d 5336 91bd 785f 18bc
00000250: a421 d83c 0cf9 a63c a25e 9b3d ee94 16bd
00000260: 4426 a83d 19c0 d73c 3534 c83c b77a 65bd
00000270: 5bca d6bc 8df8 763b 08f6 863d 656e 133d
00000280: 162d 00ba ca8a 6abd c61c 333d 11ec 4bbc
00000290: 19cc 55bd d140 24bd f159 433d 0676 fbbc
000002a0: 5c12 aa3d 9c01 0c3d a7cd 7c3d 542b ba3d
000002b0: a892 303d 2883 353d d520 9f3c edbd 913d
000002c0: a8ae ddbc 3d6a 283d ed37 5dbd 69fb a83c
000002d0: 6577 843d 94aa 8c3c 70c6 02bc 4277 b73d
000002e0: e123 6dbc d74e f63c 2a1f fd3c b248 87bd
000002f0: d68a 30bd 25b7 b33c 002c bd3c 4edf 933d
00000300: 732a b03d 40ed b33c ac45 bc3c 7391 973d
00000310: a17c 863d 4e11 47bb 855e 81bd 2c3b 2b3b
00000320: 5643 233d ad1e 18bd 6505 1fbd 50ba 973c
00000330: b69e 53bd f067 c7bb 41b7 06bd 1cbf 8dbc
00000340: 5616 9cbd d286 c53c f7e8 4a3d dfa6 41bc
00000350: 8442 87bc b242 9b3c b321 b33d 17d0 90bd
00000360: 1f20 53bd 3c48 773d 4caf 6a3d 5d95 35bc
00000370: 88f5 993c 2905 833d d06b abbb 2e5c 4f3d
00000380: 78ac 9fbc 2f0c 903d cd7c 293c 0cff 533d
00000390: ed61 11bd 70a1 c73d 906f 3d3d d939 babc
000003a0: eaff b73d 7af0 2cbd b95d 39bd 89af a83c
000003b0: 54da a83c 133c 373b 6845 5e3d 1c4a 663d
000003c0: e090 ccbb aad4 19bc 3045 c2bb d9f1 4f3d
000003d0: c23b 0bbb 14b5 1b3d fda0 603d 9064 8f3d
000003e0: 4241 003d ef87 34bd ba13 a4bc 4136 393b
000003f0: bc2d ae3c b807 6a3c ea9b a63d 3871 05bd
0.034455366 0.0431358 -0.021768909 0.04577227 -0.071375385 0.0065744817 -0.0516342 0.067565665
0.03497842 -0.04555346 -0.059458546 0.06156224 -0.01945164 0.0495584 -0.003344871 0.021630138
0.07863355 -0.016300745 0.044443697 0.026325531 -0.0056230053 0.04087829 -0.070657484 -0.016636372
-0.06412981 0.05604081 -0.056787487 -0.02086896 -0.013916619 -0.06327541 -0.051758464 0.07635254
0.0728398 0.02410116 -0.022187077 -0.06930511 0.02373492 0.014902979 -0.07008964 -0.07985664
-7.249415e-05 0.053051397 -0.069877386 0.070421085 -0.002916932 0.056657672 -0.0535235 0.018291615
0.051560238 0.058872163 -0.05090397 -0.04780182 -0.07872565 0.038331926 -0.007426001 -0.0019449294
0.080648705 0.013671622 -0.010916561 0.07890315 -0.009163097 0.004362628 0.04011774 -0.07821784
-0.032398764 0.032384917 0.0572239 0.026711345 -0.051365077 -0.049529973 -0.02819236 0.065005645
0.02547197 -0.029956345 -0.052468702 -0.07433462 -0.068492636 0.008022383 0.052072957 -0.068801835
0.07420705 0.067834094 0.077347025 0.059550688 -0.059048817 -0.011920378 -0.0012116358 -0.024766378
-0.0067360178 -0.023029279 -0.028519325 -0.07565406 0.037632167 0.05192657 -0.06961086 0.012979329
0.019879319 0.012231395 -0.076389715 -0.05097142 0.055123195 -0.011885874 0.075742126 0.045391247
0.0395609 0.003849879 0.054605827 0.07075854 0.019344047 0.026842698 -0.028299212 -0.055688992
-0.061708413 0.0578956 -0.039949574 0.024630152 -0.027542148 -0.010431692 -0.026120353 0.010941118
0.073124066 -0.006987557 -0.049242526 0.038956583 -0.045961604 0.038735226 -0.024537869 0.047565296
0.067283705 -0.028791752 -0.03117733 0.058022484 -0.028013993 -0.07393145 -0.033062182 0.0013165101
0.013021357 -0.022169918 -0.06412851 0.022378854 0.04980293 -0.011215597 0.015189201 -0.025258295
-0.0488846 0.043701544 -0.0709044 -0.009300105 0.026383229 0.020382427 0.07586409 -0.036763124
0.082104236 0.026336716 0.024438957 -0.056025233 -0.026219537 0.003768477 0.065898955 0.035993952
-0.0004889531 -0.057261266 0.043728612 -0.012446419 -0.052196596 -0.040100876 0.047693197 -0.030695926
0.08304283 0.034181222 0.061719563 0.090902954 0.043108612 0.044314533 0.019424835 0.071163036
-0.027060822 0.04111694 -0.054008413 0.020627694 0.06468085 0.017171182 -0.0079818815 0.089582935
-0.014473886 0.03006689 0.03089865 -0.066056624 -0.043101154 0.021937916 0.02309227 0.07220326
0.086018465 0.021963716 0.02298244 0.07400789 0.0656674 -0.0030375305 -0.06316856 0.0026127798
0.03985914 -0.03713863 -0.038823504 0.018521458 -0.05166503 -0.0060853884 -0.03288961 -0.017303042
-0.07621448 0.024112139 0.04953858 -0.01181957 -0.01651121 0.018952701 0.08746662 -0.0707094
-0.051544305 0.060371622 0.057296082 -0.011082974 0.018793836 0.063974686 -0.005231358 0.05062502
-0.01949142 0.07033574 0.010344696 0.051756904 -0.03549378 0.09747589 0.046248972 -0.022732662
0.089843586 -0.042221524 -0.045255397 0.020591514 0.02061192 0.002795939 0.05426541 0.05622302
-0.0062428564 -0.009389082 -0.005928658 0.050767753 -0.0021245335 0.038014486 0.05484103 0.07001603
0.031312235 -0.04407495 -0.020028938 0.0028261098 0.021262042 0.014284067 0.08135207 -0.032578677

layer3.bias f4 [100]
00000000: a469 553d 4432 a63d 7edd 853d 873f 5a3d
00000010: 9652 4e3d de15 343d 5d02 1abd 020a cc3d
00000020: 5dcf c43d 4528 22bd 9004 473c d97f 9f3c
00000030: 6617 ae3d e053 963b 7ac3 2f3d b4ef 633d
00000040: 7ed3 abbc 51f0 163d 07d5 d23c b39b 64bd
00000050: 2207 7cbd a6a6 5a3d a6fc bb3d 7b59 4b3d
00000060: 6eea b2bc e88d a93c b80f fa3c 07d9 b6bc
00000070: f6e1 31bd 0ab7 70bd c05e 64bd 17e3 05bd
00000080: acb4 7a3d 20fc 54bb a481 63bd 549b 963d
00000090: 276c 453d 7a80 853d eba8 2f3d 438b b63c
000000a0: b66e 61bd 28dc 0cbd 40df 773c 557f 323d
000000b0: 2736 9abd ed52 093d 735e 563d 7cee ca3c
000000c0: 506c 19bc b7b2 843d bd1d 86bd e125 4b3d
000000d0: 343b 7d3d 09d8 30bd 4b4b 24bd f506 b23d
000000e0: 989a f6bb 4683 313d 67f7 4d3c ea94 943d
000000f0: 2888 b5bb ef7b b73c c9c7 9bbd 368f eebc
00000100: 4f0f 4cbd c3e2 013d 0018 4838 dcdb 9d3d
00000110: abdc ab3d 476a ddbb cff5 6abd 1e9f 88bd
00000120: eae8 ab3d d84c 733d 1fab de3c 6064 47bb
00000130: 6a08 063d c730 86bd 40b4 9abc 23ed 0d3d
00000140: fe7b 6fbd 207f 6f3d 5ead 093c 1212 7fbd
00000150: e4ca 413d 8e12 d93c d662 62bd 1eca 273d
00000160: d9a0 f8b9 10c8 a3bd 06b8 b73d c33d b43d
00000170: 5c4b 4f3d 0743 093d f7b9 8cbd 64f2 88bd
00000180: 3d13 a4bd 5a87 733d 0a03 b0bd 33fd d13d
0.0521027 0.08115056 0.06536387 0.05328324 0.05037173 0.043966167 -0.03759991 0.09962846
0.09609864 -0.039589185 0.012147084 0.019470142 0.08500557 0.0045876354 0.04291103 0.05564852
-0.02097487 0.036850277 0.025736345 -0.05581255 -0.06153024 0.053381585 0.09179048 0.049645882
-0.0218403 0.020697549 0.030525073 -0.022320284 -0.043428384 -0.05876831 -0.055754423 -0.032687273
0.06120746 -0.003249891 -0.055543557 0.07353845 0.048198845 0.065186456 0.042885702 0.022283202
-0.055037223 -0.034389645 0.015128911 0.043578465 -0.0752986 0.03352635 0.052336168 0.024771921
-0.009364203 0.064794 -0.06548641 0.04959667 0.06182404 -0.043174777 -0.040110867 0.08692733
-0.007525753 0.043338083 0.012571192 0.072549656 -0.0055399127 0.022397963 -0.07606465 -0.029121023
-0.049819287 0.031710397 4.7706068e-05 0.077079505 0.083916984 -0.006757054 -0.057363328 -0.06670974
0.08394034 0.059399456 0.027181206 -0.0030424818 0.032722868 -0.06552272 -0.018884778 0.03464998
-0.058467858 0.058470845 0.00840315 -0.062273093 0.047312632 0.026498105 -0.05527004 0.04096424
-0.00047422087 -0.07997143 0.089706466 0.088008426 0.050608978 0.033511188 -0.068714075 -0.06686857
-0.08011482 0.059455253 -0.0859433 0.10253372

layer4.weight f4 [80, 100]
00000000: d8ff 87bc 6828 c8bd 0292 1c3d 724a c2bd
00000010: 27bc 32bd 6db4 8e3d 84c1 dc3c e6d9 123d
00000020: ecf1 ed3c 1609 323d a056 a1bb 927a 1f3d
00000030: 8da1 ccbd e8ba cbbc b440 b13c 0e00 8bbd
00000040: 40ef 2bbd 2f6c c0bd 6c33 e33c c272 3c3d
00000050: e54a af3d 6321 8fbd 153e bd3d 5a14 443d
00000060: b663 323d 2210 5a3d eade 1cbd 3364 1cbd
00000070: 08d5 eebc 96ff 463d dd60 69bd b7b4 9a3d
00000080: 50e8 93bb 261a 83bd 9433 c93c ade2 843d
00000090: cf49 cb3d c0ee 793c 504d a4bd bd6e a7bd
000000a0: 0d1c 22bd 3079 10bd 4361 5dbd 5028 26bd
000000b0: e6d5 96bd d27b abbd 7b6c 813d 05d6 ba3d
000000c0: 7041 0dbc 1fae 903d d3a1 5fbd 95a5 a63d
000000d0: 7dd1 53bd 60e0 a3bc 1e5f 463d d877 13bc
000000e0: ad0c 30bd aa07 1f3d 00f0 e4bb 1244 2e3d
000000f0: 001d 9fbc e20c 043d cc6a a33c 0083 02bc
00000100: 34d4 d6bc ed89 75bd 5592 b0bd f1bc a03d
00000110: eb62 c4bd 5145 a03d 68c1 87bd 2b3e 9f3d
00000120: 01eb cb3d ccf4 8d3c 5a86 33bd 7f96 8b3d
00000130: 6c23 e33c 358e c6bd d069 e0bb c2ce 083d
00000140: 58a0 143c badf 2abd e817 9bbc 8069 aabb
00000150: 40cb a63c 8036 7fbc 13a6 44bd 925b b9bd
00000160: cce9 11bd 80a5 14bc 508d e53b f6c2 6d3d
00000170: 51ac 9e3d 8486 04bd 30cb 923b c09a a0bc
00000180: 077f ab3d e087 ffbb 1435 87bd 2aed 9cbd
00000190: dd10 c73d 3783 ad3d d64b db3d 5506 7abd
000001a0: 9f66 113c 5daf 323d 9b12 8ebd a867 a8bc
000001b0: eb5c 023c 6222 563d da9b a0bd 51cb e5bc
000001c0: a794 db3d 0081 223b 9c1a d23c d013 853d
000001d0: 4276 283d e7dd 37bc 9dcd cdbc 559e ae3d
000001e0: 2bbf b43d 36d2 983d c3d8 28bd 948f 4ebd
000001f0: b368 80bd 4b84 93bd 0130 9d3d ea1c 603d
00000200: e21d 363d 6a61 7bbd 3dc5 dbbb e962 9abc
00000210: a1a0 913d 7e65 423d 77b2 c23d d985 553d
00000220: 2adb f23c 0b85 d0ba bc5e c1bc 0595 473c
00000230: 90c2 17bb 40a1 543b 7200 233d dc60 8bbd
00000240: e2c4 303d 8b95 a23c 8716 91bd 340a debc
00000250: d0f5 8fbd 5bdf 823d d603 14bd 252b a7bc
00000260: c59a 203c ca91 ef3c b580 b83c 4fd6 c43d
00000270: 6670 2fbb 8728 373d 75e4 0cbd f3f5 9dbd
00000280: 61f4 993d 257f 75bc 23b0 98bd 7ac5 58bd
00000290: 07b4 b0bb 157c 643c 9310 70bd dff5 393d
000002a0: 88e4 2e3d 27a7 813d b62a d9bc 4af8 98bd
000002b0: f465 01bd 1d6f 8f3d 9db0 893b b6a4 4c3d
000002c0: 4439 80bd a501 94bd 527d 7b3d c025 813d
000002d0: 821c b03d caba d9bb d743 6cbd e8b6 4d3d
000002e0: e114 833d e47a 41bc 5469 b33c cda2 843d
000002f0: 8d11 313c a5c6 afbc bbd8 e23d e9f4 c4bc
00000300: a9bd 8f3d 1dd5 a13d 614b 69bd 3f84 bbbd
00000310: d857 8e3d 1d00 ca3d e6af ae3d 0e90 c53a
00000320: 035d 4bbd 3780 ac3d a2c9 093d 0eea 94bd
00000330: 8af9 c6bd 0334 a93d cd17 aebd 6d0a 913d
00000340: 1a4e adbd e802 c6bc 34d3 e4bc e6e6 013d
00000350: 338c c73d 89d1 8c3d 403b a6ba 4c65 dabc
00000360: 3aef 67bd 73a5 79bd eb8c c03d 42fe c9bd
00000370: c69c 573d 6e76 7d3d d481 c43c 31cd 843d
00000380: 6a04 c1bd 02d4 6c3d 065c 603d e8af 15bc
00000390: d030 8dbb b71f a93d d239 413d a0d3 283b
000003a0: 830c 973d 30b5 293c 1864 f9bc e8ff a53c
000003b0: 9ae6 0e3d b092 753c 82f5 323d 4a22 5f3d
000003c0: 2a1e b7bd 60a0 a73c 1a16 4cbd 78cc f7bc
000003d0: 1a34 98bd 05da a4bd 4b99 b53d e8ae 7e3c
000003e0: fa52 87bd 1b5a c43d 8d3c bcbd c03b 573b
000003f0: d01e ac3b 3697 393d 00a4 12bc 2ab5 073d
-0.016601488 -0.09773332 0.03822518 -0.094868556 -0.043636467 0.06968007 0.026947744 0.035852335
0.029046021 0.043465696 -0.0049236566 0.03893525 -0.09991751 -0.024869397 0.021637298 -0.0678712
-0.041976213 -0.093956344 0.02773448 0.04600788 0.08559207 -0.0698879 0.09240357 0.04787097
0.043552123 0.05323804 -0.038298525 -0.038181495 -0.029154316 0.04858359 -0.05697714 0.07554
-0.004513778 -0.06401472 0.024560727 0.064885475 0.09926187 0.015254676 -0.08022559 -0.081754185
-0.039577533 -0.035271823 -0.054047834 -0.04056579 -0.07365017 -0.08373226 0.06319519 0.09122852
-0.008621559 0.07064461 -0.054597687 0.08137051 -0.051713455 -0.020004451 0.048430555 -0.009000741
-0.04298084 0.03882567 -0.006986618 0.042545386 -0.019423008 0.03223885 0.019948386 -0.007965803
-0.026224233 -0.05994599 -0.086216606 0.07848538 -0.095891796 0.07825721 -0.06628686 0.077755295
0.09956933 0.017328642 -0.0438293 0.06815814 0.027726851 -0.096950926 -0.0068485513 0.033400305
0.009071432 -0.04171727 -0.018932298 -0.005200565 0.020360589 -0.015576959 -0.048009943 -0.09050669
-0.035623357 -0.009072661 0.007005371 0.058047257 0.077477105 -0.032354847 0.0044797882 -0.01960504
0.08373838 -0.00779818 -0.06601921 -0.07662423 0.09720013 0.08472293 0.10707824 -0.061041195
0.008874564 0.04362427 -0.069371425 -0.02055724 0.007956724 0.052278884 -0.07842226 -0.02805105
0.107217126 0.0024796128 0.025647454 0.064979196 0.041128404 -0.011222339 -0.025122458 0.08526293
0.08825525 0.074619696 -0.041222345 -0.050429896 -0.0626997 -0.07202967 0.07675172 0.054715075
0.044462092 -0.0613722 -0.0067068622 -0.018845992 0.07110716 0.04746007 0.09506696 0.0521296
0.029645521 -0.001590879 -0.023604743 0.012181525 -0.002315674 0.0032444745 0.039795347 -0.06805584
0.043156512 0.019846698 -0.07084375 -0.027104475 -0.07029307 0.06390258 -0.03613647 -0.020406315
0.009802525 0.029244322 0.02252231 0.096111886 -0.0026769876 0.044716384 -0.03439756 -0.07712927
0.07517315 -0.014983927 -0.074554704 -0.052922703 -0.0053925547 0.013945599 -0.058609556 0.045400497
0.042698413 0.0633071 -0.026509624 -0.074692324 -0.03159137 0.07003615 0.004201962 0.049961768
-0.062609226 -0.07226876 0.06139881 0.06306028 0.085991874 -0.0066445814 -0.057681885 0.05022326
0.06400467 -0.011809085 0.02190081 0.06476364 0.010807407 -0.021457026 0.11076494 -0.024042564
0.07018597 0.07901976 -0.056956653 -0.09156083 0.069503486 0.09863303 0.08529644 0.0015072839
-0.04964925 0.084228925 0.033639558 -0.07271205 -0.097155645 0.082618736 -0.085006334 0.07082067
-0.08462162 -0.024171308 -0.02793274 0.031714343 0.09743538 0.06875903 -0.0012682453 -0.02665963
-0.05662463 -0.0609488 0.09401878 -0.09862949 0.052639745 0.06188052 0.023987688 0.0648445
-0.0942467 0.057819374 0.05477526 -0.009136178 -0.0043087974 0.08258002 0.047174282 0.0025760904
0.07375433 0.01035814 -0.030443236 0.020263627 0.034887888 0.014988586 0.043691166 0.05447606
-0.089413 0.020462215 -0.049825765 -0.030248865 -0.074318126 -0.080493964 0.08867129 0.015544631
-0.066076234 0.09587499 -0.09191237 0.003284201 0.0052526966 0.04531022 -0.008950233 0.033131756

layer4.bias f4 [80]
00000000: 1872 a2bc 9623 573d 98d7 cbbc 4775 a03d
00000010: bf56 823d e046 88bc e01a 8b3d 2d14 84bd
00000020: 1f30 ccbc 7d08 643c bfad 9b3d db51 3d3d
00000030: c7cd 9b3a b432 b73d 64f1 d93c a0e5 7cbd
00000040: df6d 8b3d d6ad 1f3d 8a0f 04bd 0d1c 8c3d
00000050: 535c 273d e232 d33d 20b2 bdbc f008 b8bc
00000060: eea6 b6bd ada0 9c3d 994b 983d 3e53 773d
00000070: 4767 423c 6277 e53d 9d99 503d a0d0 aebd
00000080: f23b 853d 6838 1e3c fe23 98bd dd5d 1e3d
00000090: 4628 8e3d e23f 97bd 23e9 62bd ec98 e43c
000000a0: 1ade bdbc 66e5 a4bd 8a81 643d 167a 8e3d
000000b0: 8960 afbd fa60 ebbc 87ab 173c 30db e6bb
000000c0: 4156 c83d ec57 09bc 94a4 a9bd 8565 cb3d
000000d0: ec50 b93d 377b 51bd 2d49 5abd b7d3 843d
000000e0: 2a19 2c3d 9d5d 33bd 5693 ca3c 7396 ed3d
000000f0: 6a43 cfbd bef4 9b3d fd91 65bd f0ad 0fbd
00000100: 3c8b ce3c 2e17 b93d 0a6c 833d 4226 d4bb
00000110: 6774 b7bd f450 a73b 616a 2abb 7bb7 9c3d
00000120: 1a0f 29bd 89b5 6e3d d5c5 933d ac94 8f3d
00000130: 4c51 06bd 867c 1b3d 1a57 983d e6db 613d
-0.019829795 0.05252417 -0.024883077 0.07834869 0.06364202 -0.016635358 0.067922354 -0.06449161
-0.02492529 0.013918039 0.07601499 0.04622064 0.0011886888 0.08945218 0.026604362 -0.061742425
0.068080656 0.038984142 -0.03224138 0.06841288 0.04085953 0.103124395 -0.023156226 -0.0224652
-0.08918558 0.07647834 0.07436294 0.06038212 0.011865444 0.11204411 0.050927747 -0.08535886
0.06505574 0.009657003 -0.0742874 0.038663734 0.06941275 -0.073852316 -0.055398118 0.02790495
-0.023177195 -0.08051567 0.0557876 0.0695688 -0.085633345 -0.028732765 0.009257204 -0.007045172
0.097820766 -0.008382779 -0.08283344 0.09931473 0.09048638 -0.051142897 -0.053292442 0.06485694
0.042016186 -0.04379045 0.024728458 0.116009615 -0.1012028 0.0761504 -0.05604743 -0.03507799
0.025212876 0.09037624 0.06417091 -0.0064742872 -0.08957749 0.005106086 -0.0026003348 0.076521836
-0.041274168 0.058278594 0.07215468 0.07010779 -0.032792374 0.03796055 0.07438488 0.055141352

layer5.weight f4 [60, 80]
00000000: 04f4 ac3d 286d 21bd 7075 123c d420 573c
00000010: 4e71 253d 0894 ef3c 7798 ea3b dc1a 30bd
00000020: b19b f03b 2d4c b33d 29f3 36bc 973a d8bd
00000030: c7d2 973d 615e dc3c 5424 e1bc f0cf ebbc
00000040: c7f3 aabd 9cb7 c53d 64dd c2bd 55f6 23bd
00000050: 7302 9fbc 4eed a6bc ac87 8a3d 96f7 853d
00000060: 0374 8cbd d09b d2bc 2120 86bc 6ec0 86bd
00000070: ba32 97bd 27da a43d 9031 b6bc 4eec 85bd
00000080: b0f8 613d 4a8b aabd 58e5 2b3d 90d2 913d
00000090: 6fa4 a43c 1e6a 1b3d 20cc ad3c 502d a53c
000000a0: 58f5 4abc 207e c03d 4a07 3dbc f4f0 d5bb
000000b0: 787e 1dbd 6105 c7bd a76c 6d3c 141c 033d
000000c0: 9a43 48bd c126 99bd e9b7 c7bd 3431 053d
000000d0: 78a1 a8bd d80d 9a3d 26eb acbd 6a81 123d
000000e0: e07e 54bb 2a27 95bd f3c2 973d 2e16 2abd
000000f0: 8d93 d03d bb3b 903d f2d6 c9bd dc65 e6bc
00000100: f162 233d 609d 7a3d 7c4f 9fbd 0337 50bd
00000110: 9725 943d 9865 97bd 1f83 e5bd f392 cabd
00000120: 4bf2 0f3d ecf4 80bd c3b4 d13d cef7 33bd
00000130: 79f0 5b3c 8c8c 923d 3b44 c9bd d0b5 bf3d
00000140: 1883 29bd eb18 4bbd 5822 983d 5fec 13bd
00000150: 5f27 02bd cfd4 c6bd 02be 1cbd dec1 20bd
00000160: 65b3 c63d 6235 e43d d25c b1bd c957 c8bd
00000170: a27a 7d3d c686 53bd c268 c9bd f815 863d
00000180: 8ab4 9d3d 903a 783d d8cc 2cbc 0c7e 9cbc
00000190: 903f 8d3d f469 51bd 1061 9a3d a97c 563d
000001a0: eec1 2a3d b0d4 1f3c 117b 82bd 40c6 a03d
000001b0: e62f a0bd 2e3c bdbc aece cfbc 7078 bbbd
000001c0: 57d5 b7bd 2b42 203d 6f43 c0bd e324 b5bb
000001d0: 77fd 533d 4798 3ebd ee76 c33d 4c65 443d
000001e0: 6a82 e0bc a033 b33b ab7a c0bb 873c a83c
000001f0: ff7c b5bd 4c1c 163d 33a6 9bbd f0ba a6bc
00000200: 5659 b93d d2eb 233d 6a9d 8f3d 1d23 dabd
00000210: 4b7b 543d e2c2 c63d 0c30 22bd 5ae7 ddbc
00000220: 0d55 dcbd 8077 ac3a b583 b6bc dfed 81bd
00000230: 6398 25bd 2d4b 9abc a04c 66bb 601d 363d
00000240: 1a17 fa3c d561 9abd 3a4a 82bc f84f 843d
00000250: 57c2 2fbd c7be 9f3d 8283 a23c 8306 0e3d
00000260: fc7c 933d 6448 a63d 4b6b db3b e287 64bd
00000270: 998b 8c3d 655d 8ebd 13cd b93c 2879 373d
00000280: f093 9ebd 5919 2bbb 96dd cb3d f539 af3d
00000290: 523c 1abd 8a22 9e3d 4d00 d03d 2025 35bd
000002a0: 3fcd 363a f1dd 793d f05c b83d ef76 5e3d
000002b0: a9a3 a0bd 2c08 813d e8e6 e23d e83a 803d
000002c0: 7174 c53d b003 44bd 28e6 b43c 97a7 d73c
000002d0: 6764 a63d ab25 ca3c 7004 32bd 7238 2b3d
000002e0: 467d cfbd 6487 663d cfe4 a1bd 2a04 c3bd
000002f0: a1a0 8b3d 26e1 443c ef53 adbd 6cfa 2e3d
00000300: a661 d3bc 57f9 513d 44ad 44bd 7df7 953c
00000310: ac49 333c 29f5 87bc 661d d13d b89f 803c
00000320: 94c1 873d 45af 1cbd 2320 fe3c 2d7d 5cbd
00000330: 8a62 d93c faa3 c33a 4b27 f83c 023c bdbd
00000340: d575 98bd 663c 953d a707 d3bd 68b6 a9bd
00000350: 64ba d73b 8ac7 7abd d452 2dba b415 94bd
00000360: 1a08 b53d b8d5 a83d 4bf3 603c 35db 6e3d
00000370: a8c8 aa3c b9a9 08bd 1040 bf3d 3735 a2bd
00000380: 4737 bfbd cd51 913d 9c16 64bd e1e2 9d3d
00000390: 3bf7 b5bc 8c97 1cbd 0172 b6bc ae16 993d
000003a0: d3a2 083c a880 4dbc 1283 3f3d 4822 ad3c
000003b0: 68b6 92bd bc94 9e3b ac41 b93d 0de3 6b3d
000003c0: e0ac 44bc dcf9 babc 0811 173c 99f3 ffbb
000003d0: 39f6 e33c e492 af3d 2109 41bd 4cfb 403d
000003e0: 84e8 b9bd 5efd a53d 745e 1a3d 5fd8 30bd
000003f0: 8ce7 a83c 8956 ca3b c8f9 89bd d815 243d
0.0844498 -0.03941074 0.008939132 0.013130385 0.04039126 0.029245391 0.0071592885 -0.042994365
0.0073427786 0.08754764 -0.011166372 -0.1055805 0.074132495 0.026900472 -0.027483143 -0.028785676
-0.08347278 0.09654161 -0.09514883 -0.040029842 -0.019410348 -0.020376828 0.067641586 0.06541364
-0.06858065 -0.025709063 -0.016372742 -0.06579672 -0.07382722 0.08049422 -0.02224043 -0.06539212
0.055168808 -0.083273485 0.041966766 0.0712024 0.02009794 0.037942998 0.021215498 0.020163208
-0.012387596 0.093990564 -0.011537382 -0.006528968 -0.038450688 -0.09717823 0.014491237 0.0320092
-0.048892595 -0.07478095 -0.09751875 0.032517627 -0.08233923 0.07522172 -0.084432885 0.03576795
-0.0032424256 -0.072828606 0.074102305 -0.04152506 0.10184393 0.07042643 -0.09855451 -0.028124742
0.03988928 0.06118524 -0.07778832 -0.050833713 0.07233732 -0.07392424 -0.1120665 -0.098913096
0.035143178 -0.06296715 0.10239556 -0.043937497 0.013424032 0.071557134 -0.09827467 0.0936085
-0.041384786 -0.04958431 0.074284256 -0.036114093 -0.03177583 -0.09708559 -0.038267143 -0.039247386
0.097021855 0.111429945 -0.08660282 -0.09782369 0.06188453 -0.0516422 -0.09834434 0.06547159
0.07700451 0.060602725 -0.010546885 -0.019103073 0.06896889 -0.051126435 0.075380445 0.05236498
0.041688852 0.0097552985 -0.06371129 0.07850313 -0.07821636 -0.023099985 -0.025367107 -0.09153831
-0.08976238 0.039125603 -0.09387862 -0.005528079 0.051755395 -0.04653194 0.095441684 0.047948167
-0.027405936 0.0054688007 -0.005873998 0.020536674 -0.08861732 0.03664808 -0.07600059 -0.02035281
0.090502426 0.040019818 0.07012446 -0.106512286 0.051875394 0.0970514 -0.039596602 -0.027087856
-0.1075841 0.0013158172 -0.0222796 -0.063441984 -0.04042853 -0.018834675 -0.0035140887 0.044461608
0.030528594 -0.07538191 -0.015904535 0.06460565 -0.042909946 0.0780006 0.019838098 0.03467418
0.07201573 0.08119276 0.00669614 -0.05579365 0.06862564 -0.06951407 0.022680795 0.044793278
-0.077430606 -0.0026107638 0.099543735 0.08555976 -0.037655182 0.077214316 0.10156307 -0.04422486
0.0006973333 0.061002675 0.090021014 0.054312643 -0.07843716 0.06300387 0.11079198 0.062612355
0.0964135 -0.04785508 0.022082403 0.02632503 0.08124619 0.024676165 -0.043461263 0.041801877
-0.10131316 0.056281462 -0.0790497 -0.095222786 0.06817747 0.01201657 -0.08463275 0.04271929
-0.025803398 0.05126318 -0.0480168 0.018306488 0.010942858 -0.016596394 0.102106854 0.01570116
0.06628719 -0.038253088 0.031021183 -0.053830314 0.026536245 0.0014926188 0.030292174 -0.09239961
-0.0744435 0.07286911 -0.10304194 -0.08286744 0.006583499 -0.06122545 -0.00066117686 -0.07230702
0.08839436 0.082438886 0.013729881 0.05831452 0.020847633 -0.033364985 0.09338391 -0.07920306
-0.09336715 0.070956804 -0.055685624 0.07709289 -0.022212615 -0.038230464 -0.022271158 0.07475029
0.008339602 -0.012542881 0.046755858 0.02113451 -0.071636975 0.004839508 0.09045729 0.05758958
-0.012004107 -0.02282422 0.009220369 -0.0078110215 0.027827369 0.08572939 -0.047127847 0.047114655
-0.09077552 0.081049666 0.037687734 -0.043175098 0.020618223 0.0061748666 -0.06737095 0.040059894

layer5.bias f4 [60]
00000000: 4232 31bd 6a26 863d 8a35 20bd 9065 55ba
00000010: d543 b4bd a365 d33d 4f30 2a3d 2749 aebd
00000020: dfd0 8d3a 0d4b a83c 95e5 0bbc ee10 45bd
00000030: bef1 86bd c784 de3d 4437 48bc a332 a23d
00000040: 908d f4bc f8a2 913c 688c 3d3d f721 c23d
00000050: ffff 5bbc ca0c 46bd 6aa7 483c 1ea4 19bc
00000060: 4504 62bd f049 2cbd 8e7c b63d d5af 4e3d
00000070: fe0e ae3d b847 103c d468 28bd 89c6 c63d
00000080: c407 86bd 7c3a 1b3d 6bf0 a83d d95c cd3c
00000090: 8ae8 52bd c7fa 31bd 902c d23d 9678 f43d
000000a0: 8611 39bd ab80 8abd 2be1 723d f053 4b3d
000000b0: d722 743a 71b1 ac3d 19f0 f03d 1954 663d
000000c0: f11d ac3c 3762 473d b03d b73d 9071 c2bd
000000d0: ddac 913c 6330 acbb c8ea d43d ba6a ebbb
000000e0: eb3a b63c 9c0d b9bc 0165 c03d ac38 733d
-0.04326082 0.06550296 -0.03911356 -0.0008140439 -0.088020004 0.1032212 0.041549977 -0.085100465
0.0010819695 0.0205436 -0.008538623 -0.04811185 -0.065890774 0.10865169 -0.012220208 0.079198144
-0.029852659 0.017777905 0.04627648 0.094791345 -0.013427733 -0.04835204 0.012246946 -0.0093775075
-0.055179853 -0.0420627 0.08910476 0.050460655 0.08498953 0.008806162 -0.041115597 0.09705836
-0.0654445 0.037897572 0.08248981 0.025068687 -0.051491298 -0.04345205 0.10262406 0.119370624
-0.045182727 -0.06762823 0.05929677 0.049640596 0.0009313053 0.08432282 0.11764545 0.056232546
0.02101037 0.04867765 0.08947313 -0.094943166 0.017782623 -0.0052547916 0.103963435 -0.0071843537
0.022244891 -0.022589497 0.09394265 0.05938022

layer6.weight f4 [40, 60]
00000000: 40d1 7f3d cc97 333d b878 ab3c 12d5 b9bd
00000010: a6f4 3ebd 10e7 523c ff89 e4bd bc11 c43d
00000020: d60d 03be 121f 8f3d 5482 93bd 742d 433d
00000030: b826 cdbc 9c13 f13d bcd6 ae3d 2298 ea3d
00000040: 8c7c 3b3d 78a8 b83d 3445 0cbd 72ef 21bd
00000050: 6e46 943d 49e6 013e 70a8 c8bc 6c20 7f3d
00000060: 02a7 36bd 0041 5aba 3266 f0bd 9490 053d
00000070: 282c a2bc 1503 033e 2872 ce3c 485b 6abc
00000080: 2413 49bd f8a9 8b3d c0a6 87bc e8ef 96bd
00000090: 9c77 6abd 2020 11bd 889e 943d 00b4 d33a
000000a0: 9833 013d 0010 213c c048 543b 5a3d eebd
000000b0: f083 d9bd 6460 093d c75a 84bd 0c11 94bd
000000c0: 60dc 93bd cc50 573d 88b5 c3bd a498 bdbc
000000d0: f65f b93d 542e 11bd 3894 863d c557 82bd
000000e0: 40f3 b1bd 39df a4bd 4ea1 9bbd b8f0 b93d
000000f0: 2684 c4bd fc7b 41bd a506 8cbd a206 82bc
00000100: 8037 cd3a 76d1 fd3d 759e 97bd 3912 e8bd
00000110: 0221 fbbd aeb1 69bd 7b6a 103d 3511 be3d
00000120: b477 72ba 9e6f de3d 12e9 bd3d 12f6 dd3d
00000130: a825 5fbc 2c89 08bd 60bb 743c 4102 8a3d
00000140: e3a2 2d3c 974b 0d3d d9c6 e7bd 6078 75bd
00000150: b87f b1bd 7ca6 9ebc 4a3f a33d 48a9 8f3d
00000160: 29b7 7ebd 40d6 7cbb 993e 9ebd b451 713d
00000170: 60a5 bd3b d786 01be abda 14bd e067 853d
00000180: 4b3a f6bc 3bea 423d 54b7 db3d 63bc cbbc
00000190: 1119 8a3d b07a 3ebc 2dd5 d0bd 2e4d a93d
000001a0: d2ab 1e3d e3e7 a93d 696e 953d f656 cebd
000001b0: 72f8 90bd c0fb 2a3c ada7 e53d 8e0a c6bd
000001c0: b4c7 c9bd 94fc d43c 2298 7fbd 8881 d83d
000001d0: cb53 71bd 8c96 3cbd 64b8 dbbd e432 433d
000001e0: d07f dc3d d2ec eb3d a03f cf3b 2e02 c5bd
000001f0: 905d c73d ed93 e5bd 0e15 a43d 602d edbc
00000200: f008 c33c edf1 a0bd 0092 4d3b 9059 ab3d
00000210: 228e a6bd 0896 ccbc 7fc3 003e 5e3d f13d
00000220: 2a56 c5bd 9c47 cebc 6c71 b1bd dc23 36bd
00000230: 118b fcbd 4ec6 81bd 39b6 c4bd e05f c8bd
00000240: d837 503d 166e 16bd 30b6 42bc 38e0 753d
00000250: 580d 82bd 1833 d6bd ced5 943d 90b5 933c
00000260: 4a1d 88bd 2c84 00bd f483 c4bd d833 d43d
00000270: 403e 9a3b 2058 a33c 692e a9bd 04de 513d
00000280: eaef 53bd 5d17 023e 9947 e6bd 58fa edbd
00000290: ec16 583d 7832 a8bc e6d9 a33d 5033 29bd
000002a0: b820 ee3d 68d9 c83c 882d d4bc 6469 6ebd
000002b0: 174d f1bd a8ef 7fbc 747d 0f3d 26c6 28bd
000002c0: 00b8 b43b 9a82 ef3d 0e48 f03d 30ac 4d3c
000002d0: 7542 db3c 0673 cb3d 2978 fabd 70dd 89bc
000002e0: 8c58 8b3d 2c95 6c3b 5d28 723c 9c86 113e
000002f0: 6dc0 9bbc 25e8 8e3d 2887 0c3e 5647 9b3d
00000300: c0ec f03b 8789 a4bb 0e41 23bd f1ac d13a
00000310: 65e2 463d 807e 463b 40b3 233c d389 eabc
00000320: c136 da3b de92 fcbd 5b39 abbd a086 d8bd
00000330: f212 e7bc 5a58 ab3d 28a5 3cbd 4b2f fa3d
00000340: 84b8 ce3c 6c42 19bd 6669 00bd 87a7 c03d
00000350: b834 36bc 9baa e73c f807 95bd 465b 003e
00000360: bf9b 9f3d 6582 50bd fb5c fcbc ff6f 2abd
00000370: f736 b63d 50dc d43d 752a c5bd e42c 12bd
00000380: 5311 2dbd 0bbb e93d 9b8d d4bd 88f6 f13d
00000390: f15c 533d 1af7 d6bb c74e 613d 9a90 47bd
000003a0: e71e c63d 4cb1 a53d 1707 dfbc 88a3 c3bd
000003b0: a2b2 d7bd 8c5d aebc 4c62 9d3d a781 ccbd
000003c0: 5f4f 053e 0547 9fbb aff3 b03d 3ce7 f6bd
000003d0: 3a23 30bd 0c44 9fbd f1f4 2ebd 4f28 7ebc
000003e0: 9f2a 9c3d ace6 42bc 1329 033e c5c3 1ebd
000003f0: 4329 0e3e f4fc a3bd b015 00be 44f1 24bd
0.062455416 0.043845937 0.020931587 -0.09073843 -0.046620034 0.012872472 -0.11159133 0.09573695
-0.12798247 0.06988348 -0.072025925 0.04765077 -0.025042877 0.11771318 0.08537051 0.11454798
0.045773074 0.09016508 -0.034245685 -0.039534993 0.07239996 0.12685503 -0.02449438 0.06228678
-0.044592865 -0.0008325726 -0.11738242 0.032608584 -0.019796446 0.12794144 0.025200918 -0.01430399
-0.04909052 0.06819528 -0.016559005 -0.07369977 -0.057242975 -0.035431027 0.072568 0.0016151667
0.031543344 0.009830475 0.0032391995 -0.11632796 -0.10620868 0.03353919 -0.06462627 -0.07229814
-0.072197676 0.05256729 -0.09556109 -0.023144074 0.09051506 -0.035444573 0.06571239 -0.06364397
-0.086889744 -0.08050389 -0.07599126 0.090791166 -0.09595518 -0.04723738 -0.06837205 -0.015872303
0.0015656799 0.12393467 -0.0740327 -0.11331601 -0.12262155 -0.057054214 0.035257798 0.09280626
-0.00092494045 0.10861133 0.0927297 0.1083795 -0.013619818 -0.033333942 0.014937252 0.06738711
0.010597917 0.034495916 -0.11317224 -0.05992925 -0.086669385 -0.019366495 0.07971056 0.0701471
-0.062186394 -0.0038579851 -0.07726783 0.05891581 0.0057875365 -0.12649094 -0.03634135 0.06513953
-0.030057093 0.04758666 0.107283264 -0.024870103 0.06743062 -0.011625931 -0.1019691 0.08266674
0.03873808 0.08296182 0.0729645 -0.1007518 -0.07078637 0.010435998 0.11213622 -0.09669982
-0.098525435 0.025999345 -0.062400945 0.10571581 -0.0589178 -0.04604201 -0.10728529 0.047655955
0.10766566 0.11519779 0.0063247234 -0.09619556 0.097346425 -0.11209855 0.08011828 -0.0289523
0.023807973 -0.07858644 0.003136754 0.08366692 -0.081325784 -0.024973884 0.12574576 0.11779283
-0.09635575 -0.02518063 -0.08664212 -0.044467792 -0.12331212 -0.06336652 -0.09605069 -0.09783912
0.050834507 -0.03672608 -0.011884257 0.060028285 -0.06350201 -0.10458964 0.072673425 0.018030912
-0.066462114 -0.03137605 -0.095954806 0.10361451 0.004707128 0.019939482 -0.08260805 0.05123712
-0.05174247 0.12704225 -0.11244125 -0.11620015 0.052756235 -0.020531878 0.08000545 -0.0413087
0.11627334 0.02451773 -0.025900617 -0.058205977 -0.11782282 -0.015621103 0.03503175 -0.041204594
0.0055150986 0.11694832 0.11732493 0.01255326 0.026765088 0.09934048 -0.1222995 -0.016829222
0.06803998 0.0036099656 0.014780131 0.14211506 -0.019012654 0.06977872 0.13723433 0.075819656
0.0073524415 -0.0050212773 -0.039856963 0.0015996975 0.04855575 0.0030287802 0.009991467 -0.028630173
0.006659359 -0.123327 -0.08360549 -0.10572553 -0.028207276 0.08366461 -0.046055943 0.12216052
0.025234468 -0.03741686 -0.031350516 0.09406953 -0.011120968 0.028279593 -0.072769105 0.12534818
0.07793378 -0.050905604 -0.030806055 -0.041610714 0.088972025 0.10393584 -0.09627239 -0.035687342
-0.04225285 0.11412629 -0.103785716 0.118146 0.051602308 -0.0065602185 0.05500677 -0.048721887
0.09673863 0.08090457 -0.02722506 -0.095526755 -0.105321184 -0.021284841 0.07684764 -0.09985667
0.13018559 -0.004860761 0.08640229 -0.12055823 -0.043002345 -0.07776651 -0.042714063 -0.01551254
0.07625317 -0.011895817 0.12808637 -0.03876092 0.13882928 -0.08007231 -0.12508273 -0.04026915
