saved_models/model_MRK.pt (torch_old, 190423 bytes, 15 tensors)

layer1.weight f4 [100, 5]
000000 f4 11 93 be 00 79 d7 3c 28 43 96 bd ac 0f a3 be
       -0.28724635 0.026302814 -0.07337028 -0.31847894
000010 fe b1 8e be 20 5c 71 3d 43 30 4a be 90 49 c4 be
       -0.27870172 0.058925748 -0.19744973 -0.38337374
000020 be 6e 82 3e c0 77 9b 3b f8 7a 2c bd d0 93 de bc
       0.25475115 0.0047445 -0.04210946 -0.027170092
000030 a4 76 83 3e 05 cf c4 be 73 af cc be 31 df 6a 3e
       0.25676453 -0.38439193 -0.39977607 0.22936703
000040 4a 28 62 bd 2d ad 85 3e c9 e7 d4 3e 6f c3 4c be
       -0.055214204 0.26108685 0.41583088 -0.19996427
000050 6c 24 d7 be 26 4a 97 bd 45 5d 3e 3e 2f 73 af 3e
       -0.42019975 -0.073871896 0.18590267 0.34267566
000060 9a 45 c1 3e 36 d8 af be 70 63 8d 3c 5e 99 a8 be
       0.37748414 -0.34344643 0.01725933 -0.3292951
000070 5c b6 c9 bd c8 b4 2d 3e 25 60 96 3d 2e 36 89 be
       -0.098492354 0.16963494 0.07342557 -0.26799148
000080 83 1a 95 3e 4b d6 05 be 91 af 15 3e 40 30 b2 bb
       0.2912179 -0.13070028 0.14617755 -0.0054378808
000090 6a 24 1d be 88 3d 37 be a0 bf 1c 3d 76 76 8f be
       -0.15345922 -0.17894566 0.038268685 -0.28020066
0000a0 43 9e 93 be 83 86 bc 3e aa 5b 52 be ff c1 10 3e
       -0.28831682 0.36821374 -0.2054278 0.14136504
0000b0 d5 a4 c9 3e 32 5b 1d be a0 45 63 3e 94 da 12 be
       0.3938357 -0.1536682 0.22194529 -0.14341193
0000c0 78 e4 a2 be 36 52 32 be 51 91 7c be 80 7c a0 bd
       -0.31814933 -0.17414173 -0.24664809 -0.078362465
0000d0 b8 8a 16 3e 09 35 ab be e8 86 3a 3e 80 29 7f be
       0.14701355 -0.334389 0.18215525 -0.24918175
0000e0 1a bb 65 be c0 a0 ce 3d 40 d2 72 bd b8 87 cc be
       -0.22434655 0.100892544 -0.05928254 -0.39947295
0000f0 28 f4 82 be c0 4c 9d 3d b0 88 72 3d ca 5f 9f be
       -0.255769 0.076806545 0.059212387 -0.3112777
000100 e4 42 eb bd 98 e3 7e 3e c5 a0 80 3e 85 86 ec 3d
       -0.11487368 0.24891508 0.25122657 0.11549095
000110 ac 0d b6 be c4 a3 4c be 2e 74 01 be 98 a8 1e be
       -0.35557306 -0.19984347 -0.12641975 -0.15494001
000120 f0 3a 93 be a8 8d d3 be f4 d6 c8 3e 2e d5 a9 3e
       -0.28755903 -0.41319013 0.39226496 0.33170456
000130 50 8c 81 be db c9 62 be 9c ff 86 3e cd 14 ab be
       -0.25302362 -0.22147314 0.2636689 -0.33414307
000140 a0 d8 43 be b4 2f 42 be 90 2d 42 be 1e 3b 98 3e
       -0.19125605 -0.1896351 -0.18962693 0.29732603
000150 00 bf 93 bc 39 2b a0 3e 0c 57 d4 be b5 a1 08 be
       -0.018035412 0.31282976 -0.41472661 -0.13342936
000160 55 0d 4f 3e e0 3c 80 3e aa ef 8c be a0 7a 86 3e
       0.2021993 0.25046444 -0.275266 0.2626543
000170 2b bd 4c be 5a 16 c2 3e d9 a9 c2 be 20 d3 2c 3d
       -0.19994037 0.37907678 -0.38020208 0.042193532
000180 0c dd 58 3e b0 11 b9 be da a0 3b be 38 37 45 3e
       0.21178073 -0.36146307 -0.18323079 0.19259346
000190 08 07 3e bd e3 e9 63 3e bd 6a 2b 3e 9f c5 08 3e
       -0.046393424 0.2225719 0.16739936 0.13356636
0001a0 8f 32 df 3d 01 38 a2 bd c6 78 14 be f2 22 ae 3e
       0.10898315 -0.07920838 -0.14499196 0.34011036
0001b0 fc d5 a9 3d a8 10 23 bd 10 5c f4 bd 10 f0 dd 3e
       0.082927674 -0.039810807 -0.11931622 0.43347216
0001c0 78 e5 31 be 64 69 3e 3e a4 7b a7 be f8 02 ad bd
       -0.17372692 0.18594891 -0.32711518 -0.08447832
0001d0 42 78 9c be d8 92 c0 3d 8a c5 a1 be cc df de 3e
       -0.305605 0.09403008 -0.31596023 0.43530118
0001e0 10 6c d8 3e 18 f8 3f be 94 26 68 be d8 c9 d7 be
       0.42269945 -0.18746984 -0.22670966 -0.42146182
0001f0 30 c2 99 bc e5 b9 d3 be 4f c2 8e be 89 13 c2 be
       -0.018769354 -0.41352764 -0.2788262 -0.3790553
000200 c8 92 de bd 64 34 a0 be 2a 3d b5 3e 33 80 8f be
       -0.1086784 -0.3128997 0.35398227 -0.28027496
000210 f0 10 23 3d 80 7a e0 be c8 e5 04 3d f2 9e 9b be
       0.039811075 -0.4384346 0.0324457 -0.30394703
000220 8c c4 94 be f8 43 14 bd 0a 54 9f 3e c8 5b 2b 3e
       -0.29056203 -0.036197633 0.31118804 0.1673423
000230 17 92 aa 3d 8d 36 6c 3d cd 14 a5 3e c0 41 ca 3e
       0.08328646 0.05766921 0.32242432 0.39503288
000240 03 0d 6d be f7 55 2a 3e 80 ef 6c 3e 8a d9 01 be
       -0.23149495 0.16634355 0.23138237 -0.12680641
000250 8e a6 a3 3d 70 fc 93 bd 8f bc d1 3e bd 41 db bd
       0.07990752 -0.07225883 0.4096417 -0.10705898
000260 9b 11 92 3e 4f 99 91 be 9e a6 6a be 00 ce 2a 3b
       0.28529057 -0.28437278 -0.22915122 0.0026062727
000270 c0 76 bd 3c 0b 38 8e be e0 12 69 3e 90 3c ad be
       0.023127913 -0.27777132 0.22761106 -0.33835268
000280 7c b4 d8 3e a8 11 ee bd 48 2d 25 3e 77 c2 db be
       0.423252 -0.116244614 0.16130555 -0.42921802
000290 9a 30 0d be b7 f5 d1 be 5c b6 5b be 90 d5 44 bd
       -0.13788071 -0.41007778 -0.21456283 -0.04805523
0002a0 b0 99 c6 3d a8 3d d3 3e 24 a0 be be 69 46 b0 be
       0.09697282 0.41257977 -0.37231553 -0.3442872
0002b0 99 84 ba be 7e e5 db 3e 80 2b a1 3d 02 e9 10 bd
       -0.3642929 0.42948526 0.07869625 -0.035378464
0002c0 bc 67 59 3e e9 74 72 bb 13 9b 0c be f3 5e 22 bd
       0.21230978 -0.0036995953 -0.13731031 -0.039641332
0002d0 4d b8 c0 bd 0c 41 ab 3d 0f ea d9 bd ee ec 7b be
       -0.094101526 0.08362016 -0.10640346 -0.246021
0002e0 8d 5a 63 3e 01 4b 24 bc db fb e4 3e ea e5 cb 3e
       0.22202511 -0.010027648 0.447234 0.39823848
0002f0 6c d1 19 3e 1c 34 2f 3e b4 74 0e be 13 ec 16 3e
       0.15021294 0.17109722 -0.13911706 0.14738493
000300 8c 0d df 3e 73 34 a1 3d b0 91 8e be 4f 39 78 3e
       0.43565023 0.07871332 -0.27845526 0.24240611
000310 77 ff cc 3e 52 ef 22 3d 77 14 05 be f8 1b b1 be
       0.40038654 0.039779015 -0.12996088 -0.3459165
000320 30 dc 78 3e 74 05 47 be ec 67 57 3e cc 8b cf be
       0.24302745 -0.19435674 0.21035737 -0.40536344
000330 80 d5 27 3b 78 ae 47 be 90 1d 34 be f0 35 8d 3c
       0.0025609434 -0.19500148 -0.17589402 0.017237633
000340 40 49 4b bd d4 c2 f7 bd 50 c1 84 3e 0c 7d b0 be
       -0.049630404 -0.120977074 0.25928736 -0.34470403
000350 d0 84 91 be 28 a0 25 3e c8 13 94 bd 13 2d 1d be
       -0.2842164 0.16174376 -0.072303355 -0.15349226
000360 76 9f 9a 3e ac 60 db bc d5 04 93 bd 87 6c d7 3d
       0.30199784 -0.026779495 -0.07178656 0.10518747
000370 d5 d2 a4 be 58 4e 19 be d8 99 12 3e 14 f0 1c be
       -0.32192102 -0.14971292 0.14316499 -0.15325958
000380 c4 40 a8 bd b8 e2 c9 bd e0 9c 7d be 98 d1 ca 3e
       -0.08215478 -0.09857696 -0.24766874 0.39613032
000390 d8 df db bd 80 e5 5b 3b 81 8d c0 be 30 a0 02 3d
       -0.10736054 0.003355354 -0.3760796 0.031891048
0003a0 10 2a c1 3c 84 a9 3a 3e 72 79 0a be c8 af 9b 3e
       0.023579627 0.18228728 -0.1352289 0.30407548
0003b0 fc 55 9a bd e0 00 86 3d 5c d5 d0 be 72 90 3e be
       -0.075359315 0.06543136 -0.4078778 -0.18609789
0003c0 d9 5b cf 3e 8d 12 6a 3e 6b e4 60 bc 86 6c 82 3c
       0.40499762 0.22858639 -0.013726334 0.015920889
0003d0 2b 72 b1 bb 15 1e b3 3e 10 e6 4d be 08 64 bb 3e
       -0.005415221 0.34983888 -0.20107293 0.36599755
0003e0 b4 50 18 be 54 79 e6 3e 7d 02 84 bd e7 5a a8 be
       -0.14874536 0.4501444 -0.06445787 -0.32881853
0003f0 46 a2 ec 3e 71 c7 bb 3e 2f 42 97 be 08 09 06 3d
       0.46217555 0.366756 -0.29542682 0.032723457

layer1.bias f4 [100]
000000 02 9f 80 3e 44 6f 5b 3e ec 18 90 3e d4 7c 18 3d
       0.25121313 0.21429163 0.28144014 0.03722842
000010 bd 4d 7e 3e e4 3f a6 3e 56 5f c5 3a 6c f1 d3 3e
       0.24834342 0.3247062 0.001505832 0.41395128
000020 fd 4a 7c be 80 7e a6 be 3c 8b 97 3e 9c 64 52 3e
       -0.24637981 -0.32518387 0.29598415 0.20546192
000030 dc be 13 3e 95 4e a8 3e a1 a4 ce be 60 e6 fd 3c
       0.14428276 0.32872453 -0.40359977 0.03099364
000040 3c af 23 3e 60 89 84 3e 18 7f 83 3e 09 70 8a be
       0.15984815 0.2588606 0.25682902 -0.270386
000050 db 2c 9d be 8a 47 70 3e ce d0 82 be 58 10 2e 3e
       -0.30698285 0.2346479 -0.2554993 0.16998422
000060 18 0f 8a bd ee 96 5a be 48 15 df bd 00 5e 8e bc
       -0.0674116 -0.21346638 -0.10892731 -0.017378807
000070 12 56 a4 3e 7b 1d 71 3e e2 8f a1 3d a0 bf df be
       0.32096916 0.23546402 0.078887716 -0.43700886
000080 06 4e 28 be f0 9d 21 be d0 4c 8b be 66 e7 53 3d
       -0.16436014 -0.15782905 -0.2720704 0.05173435
000090 9d 32 a1 3e 10 36 a5 3e dc df f6 bc f5 47 d4 3d
       0.31483927 0.3226781 -0.030136041 0.10365287
0000a0 7b 49 a3 be d4 59 84 3e ce bf 33 be 06 80 b7 3e
       -0.31892 0.25849783 -0.17553636 0.35839862
0000b0 12 73 ca 3e a5 67 8b be 28 5e 63 3e b0 13 35 3e
       0.39540917 -0.27227512 0.22203887 0.17683291
0000c0 9d 59 1b 3e 41 1b 92 be 10 20 41 3e c6 6b ab 3e
       0.15170904 -0.28536418 0.18859887 0.33480662
0000d0 9a af 75 be c2 b8 92 be 54 f7 22 be 84 8b 4b 3e
       -0.23992768 -0.28656584 -0.1591466 0.1987744
0000e0 8d d0 a3 be 44 0c c5 3e 04 cb 27 be f0 9d ac bc
       -0.3199505 0.3848592 -0.16386038 -0.021071404
0000f0 36 1b b4 be 3b 32 47 be e8 e9 e1 bd de 9b 5d be
       -0.3517701 -0.19452755 -0.11030942 -0.2164149
000100 c8 48 0f bd 35 4c 91 3e 14 c9 bf 3e 2b f4 ad be
       -0.03498152 0.28378454 0.37458098 -0.33975348
000110 54 0c 8d 3d 90 ee db 3e 78 12 dd 3e b8 d1 a1 3d
       0.06887117 0.42955446 0.43178153 0.07901329
000120 5a 63 d0 3e 46 e6 36 be 07 0a 17 3c 38 04 5a be
       0.407008 -0.1786128 0.009218699 -0.21290672
000130 6d 19 68 be 98 06 84 be 3e e0 c1 3e 0f ee 7b 3e
       -0.22665949 -0.2578628 0.37866396 0.24602531
000140 04 0f a4 be 66 3d bd 3e 61 c4 cf 3e e6 63 8e 3e
       -0.32042706 0.36960906 0.40579513 0.2781059
000150 53 f6 95 be 17 d0 8e bd ba f9 6c be 2e 0e a6 be
       -0.29289493 -0.06973284 -0.23142138 -0.32432693
000160 a0 37 c4 be 44 b6 84 3e 0d e2 75 be dd 50 ae be
       -0.38323689 0.25920308 -0.24012013 -0.3404607
000170 cc 63 03 bc 40 95 b7 bb 46 8c 66 be 83 af c6 3e
       -0.008019399 -0.005602509 -0.22514448 0.3880578
000180 27 1a 7b be fc 3d b1 3e 60 42 37 3e d1 24 28 3e
       -0.24521695 0.34617603 0.17896414 0.16420294

layer2.weight f4 [150, 100]
000000 8d 88 1e bd 50 93 c5 bb 0c 32 b2 bc 18 c7 c9 3c
       -0.038704444 -0.006029524 -0.02175238 0.024631068
000010 f8 1f 80 bc 23 4a 39 bd e8 20 0f 3c 09 12 b2 3d
       -0.015640244 -0.045236718 0.008735873 0.08694846
000020 25 49 8b 3d 6d 34 84 bd 07 27 5e bd f0 e1 02 3c
       0.068010606 -0.06455312 -0.054236438 0.007988438
000030 a1 f5 82 3d d9 4e b3 3d 03 7f 3c bd 04 71 d2 3c
       0.06394506 0.08755273 -0.046019565 0.025688656
000040 30 f3 82 3b 12 d3 35 3d 45 89 cb 3d 34 f0 dc bc
       0.0039962754 0.044390745 0.099382915 -0.026970007
000050 13 2b 26 bd bd 03 9e bd e0 dd 33 bd f3 37 91 bd
       -0.040568423 -0.07715557 -0.04391277 -0.070907496
000060 89 9d b7 3d b5 19 b9 3d 5a 6b 52 3d 60 59 f0 bb
       0.08965594 0.09038106 0.05137191 -0.007334873
000070 d0 e7 26 3c 20 3b 7f bd 70 47 2a bc 15 d0 af bd
       0.010187104 -0.062312245 -0.010393009 -0.085846104
000080 a4 e3 d6 3c 88 5e c0 3c d1 c3 ba 3d 40 13 8c 3a
       0.026231594 0.023482576 0.0911938 0.0010686889
000090 ba 6f 06 bd f4 f2 b4 3c 09 62 a5 3d 3c 1f df 3c
       -0.032821395 0.022088505 0.08075339 0.027236573
0000a0 e4 91 f2 3c 25 08 b5 bd 52 a5 7e 3d c0 0b 1e 3c
       0.029610582 -0.08839444 0.06216938 0.009646356
0000b0 00 bc 11 3c e3 69 a9 bd 38 ac 8a 3c b5 68 88 3d
       0.00889492 -0.082721494 0.016927823 0.06660596
0000c0 95 a8 c2 3d 08 11 b0 3c fe a8 2e 3d 08 df af bc
       0.09504811 0.021492496 0.042641632 -0.021468654
0000d0 fa 17 50 3d 4d 8e bb bd 10 30 17 bd cb 03 c5 3d
       0.050804116 -0.09158001 -0.03691107 0.09619864
0000e0 25 74 c4 3d 1d fc c7 bd 00 6c ca 38 12 a0 52 3d
       0.09592465 -0.09764884 9.652227e-05 0.051422186
0000f0 0b c7 c3 3d 50 5c c7 bd d1 2f af 3d 20 12 0f bd
       0.09559449 -0.09734404 0.08554042 -0.034929395
000100 ca fa 74 3d c0 08 38 bd 40 ff 56 3c 95 41 ab bd
       0.059809484 -0.04493022 0.01312238 -0.08362118
000110 f7 00 bc bd 12 bb 0e 3d b7 e3 4d bd 0d 84 4d bd
       -0.091798715 0.034846373 -0.050265994 -0.05017476
000120 06 83 7e 3d 72 f5 4b 3d ac 0e 94 bc c2 38 bb bd
       0.062136672 0.04979462 -0.018073402 -0.09141685
000130 18 08 78 bc da 9f a8 bd 62 85 c2 bd 50 ab 15 3c
       -0.015138648 -0.08233614 -0.09498097 0.009135082
000140 a0 f6 fb bc 4c 26 aa 3c 49 fc 9b 3d 00 26 93 3a
       -0.030757248 0.020770214 0.07616479 0.0011226535
000150 68 4a 13 3c b0 cf 9a bd 10 d4 00 bd 8c dc a2 3c
       0.008989908 -0.075591445 -0.03145224 0.019880556
000160 57 52 58 bd 2a f7 67 bd a8 bd 60 3c 2f 7c 95 3d
       -0.0528129 -0.0566322 0.013717093 0.07299077
000170 9e a1 34 3d 18 80 ca bc 4a 13 3a bd 35 68 9b 3d
       0.044099443 -0.024719283 -0.04542855 0.07588235
000180 22 d4 54 3d 1f aa b4 3d f5 20 a4 bd d3 35 20 bd
       0.051960118 0.088215105 -0.080140986 -0.03911383
000190 8e 03 84 bd 58 24 7c bc c5 49 c3 bd aa d7 63 bd
       -0.064459905 -0.015389524 -0.09535555 -0.055625595
0001a0 ca 65 01 3c 14 a9 82 bc be 6c e1 bc 76 a0 59 3d
       0.007897804 -0.015949763 -0.027517673 0.053131543
0001b0 61 5f b0 bd 49 0a 90 3d 98 9a ab 3c 62 f9 62 3d
       -0.08611942 0.07033212 0.02094774 0.05541361
0001c0 68 49 b8 bd f5 b7 dc bd cc b7 d9 bc 82 92 18 3d
       -0.08998376 -0.107772745 -0.026576899 0.037249096
0001d0 22 27 0d 3d b9 a3 09 3d 8c 93 c1 bc d6 d0 6b 3d
       0.034461148 0.033603404 -0.023629926 0.05757221
0001e0 2c 73 25 bd ff d4 d5 bc e8 94 81 3c b1 3d c2 3d
       -0.04039304 -0.026102541 0.015818074 0.09484423
0001f0 69 ff 95 3d 00 a7 2b bd 22 fe 4a 3d 30 3f 3f bc
       0.07324106 -0.04190731 0.049558766 -0.01167278
000200 a2 34 97 3d 3d 24 af 3d 4c 3c 5a 3d 50 7a 27 3c
       0.07383086 0.08551834 0.05328016 0.010222033
000210 24 8e f9 3c cb 18 a8 3d cb 3f ba 3d 02 bc d6 3b
       0.030463286 0.08207854 0.09094199 0.006553174
000220 23 a8 7d 3d 4f 2d 72 3c b8 0d 52 3d 57 af b6 bd
       0.061927926 0.01478131 0.051282614 -0.08920162
000230 7b ff a7 3d 30 be 5c 3c d3 38 a3 bd 25 a4 b7 bd
       0.08203026 0.013473079 -0.07969823 -0.08966855
000240 43 90 3f bd ab c2 ac 3d 38 e3 d6 bc 10 95 6b bd
       -0.046768438 0.084355675 -0.026231393 -0.057515204
000250 ce e0 6e 3d 0c 1d ce bc 3a 18 90 3d f6 ed 62 3d
       0.05831986 -0.025160335 0.07035871 0.05540272
000260 f0 73 16 bc e4 a9 88 3d 09 34 bd 3d b7 67 4b bd
       -0.009182915 0.06673029 0.092384405 -0.049659457
000270 6d ba 05 3c 87 78 f1 3c 69 47 9d bd 03 fa 2c bd
       0.008162123 0.029476417 -0.07679636 -0.042230617
000280 de 6c 12 3d 91 f5 7c bd 80 d0 14 bc bb 32 fb 3c
       0.035748355 -0.061757628 -0.009082913 0.030663839
000290 43 dd 82 3d 1c 6f 9b bc 96 ec 87 bd d8 0b 82 3c
       0.063898586 -0.01897388 -0.06636922 0.015874788
0002a0 65 9c 22 bd b3 60 a6 bc c0 e5 94 bd 27 6a 51 bd
       -0.03969993 -0.020309782 -0.07270384 -0.051126625
0002b0 14 6c b4 3c 19 b1 c3 3d b5 c6 4c 3d 0a 0d 8c bd
       0.022024192 0.09555263 0.04999419 -0.068384245
0002c0 58 bf a8 bd ca 54 a9 3b 30 87 1b bd df 75 88 bd
       -0.08239621 0.0051675783 -0.03797072 -0.06663107
0002d0 b2 31 00 3d 42 2a 7f 3d 78 cc 16 3c 1a e5 7a bd
       0.031297393 0.06229616 0.009204023 -0.061253645
0002e0 00 5d c9 bb c8 e3 34 3d 40 df aa bc 2e 39 b7 bd
       -0.0061451197 0.04416254 -0.020858407 -0.08946453
0002f0 18 52 5c bc ab fe 9d bd a8 8d b2 3b f9 c4 c9 bc
       -0.013447307 -0.0771459 0.0054490156 -0.024630057
000300 dc 9b a9 bd 1a 7f 3f bd a0 94 0e 3b 2a ae 71 bd
       -0.08281681 -0.046752073 0.0021756068 -0.059003986
000310 a2 59 ab 3d 27 12 92 bd 59 4c 06 bd 01 0c 03 3d
       0.083667055 -0.071323685 -0.032787655 0.03199387
000320 f3 36 ba bd fc 29 8a bd f2 e0 7e 3d 96 da 8b bd
       -0.09092512 -0.06746289 0.062226243 -0.06828801
000330 5b a8 ec bc a0 09 38 bd d1 f0 17 bc ae 17 5d 3d
       -0.028888872 -0.044931054 -0.009273724 0.05397766
000340 0c 91 ad 3d 1f 5f a8 3d be 1c 80 bd b4 75 df 3c
       0.08474931 0.08221268 -0.06255482 0.027277805
000350 47 9f 7e bd ee 0c 07 3c 4a 09 9e bd ac 95 c1 bc
       -0.062163617 0.008242829 -0.077166155 -0.02363094
000360 64 1d e0 3c 47 99 b8 bc 18 1c b5 3c bb 05 a4 bd
       0.027357765 -0.022534026 0.022108123 -0.080089055
000370 86 53 3a bd 2a 87 f0 bc 61 c7 8e 3d ef 22 ca bd
       -0.04548981 -0.029361326 0.06971622 -0.09869944
000380 db b5 90 3d b8 f1 cd bc b0 8d 10 bc 2a d6 8b bd
       0.07065936 -0.025139675 -0.008822843 -0.06827958
000390 79 61 6e 3d a2 b6 e8 3c 89 1e 73 bd 78 60 c0 3c
       0.058198426 0.028407399 -0.059355292 0.0234835
0003a0 b6 c3 22 3d fe 27 55 3d 90 79 36 bc 5f b4 c6 3b
       0.039737426 0.052040093 -0.011137381 0.0060639824
0003b0 36 b4 89 bd 44 4c 4f 3d bb ce 9e 3c ec 54 6c 3d
       -0.06723826 0.050609842 0.019385686 0.057698175
0003c0 92 14 79 3d 0a 7e b9 bd ea c3 06 3d 2c b0 f1 3d
       0.060810633 -0.09057243 0.032901682 0.1180118
0003d0 7a 3b 1e 3d c0 1d 79 bb 20 1f f4 3b b7 7c 88 3d
       0.03863094 -0.0038012117 0.0074499995 0.066644125
0003e0 bf 86 32 bc 40 1d 7c 3c a5 81 8e bd c7 07 86 3d
       -0.010896384 0.015387833 -0.069583215 0.06544452
0003f0 97 0f 34 bd 49 6a 96 3d 45 fc 8d 3d 40 5f 77 3b
       -0.04396018 0.07344491 0.06932882 0.0037745982

layer2.bias f4 [150]
000000 c8 14 90 bc 74 42 68 3d 47 26 83 3d 76 f4 18 3d
       -0.017588034 0.056704 0.06403785 0.03734251
000010 0c b0 86 bc 9d 98 9c bd d3 2f 68 bd 07 da 25 bd
       -0.016441368 -0.07646296 -0.056686234 -0.04049113
000020 4a cc a9 bd 4c 58 ad 3c 39 5a 48 bc 02 f3 1d bd
       -0.08290918 0.021160267 -0.012228542 -0.03856183
000030 03 ab f6 3c d8 47 af bc dc bf 00 bd da 91 0c 3d
       0.030110842 -0.021396562 -0.03143297 0.034318782
000040 9f 3c d8 3c 20 db a3 bb 40 cf 3d bb 06 14 75 3d
       0.026396094 -0.005000487 -0.0028962642 0.05983355
000050 cd 43 82 3d 84 7e 87 3d 7d ca c5 3d 80 32 98 3d
       0.06360588 0.06615928 0.09657762 0.07431507
000060 48 62 9f 3d 61 ba cb 3d 5f 34 b7 3d 7b 6d aa bd
       0.077824175 0.09947658 0.08945536 -0.08321663
000070 29 e9 1e bd ed bb c1 3d 3e 4c d2 3c 98 70 72 bd
       -0.038796578 0.09459672 0.02567112 -0.05918941
000080 e2 04 a0 bd b0 30 05 3d fa 07 94 bc 7f f2 93 3d
       -0.07813431 0.032517135 -0.01807021 0.07223987
000090 cc ac ae bc 00 68 79 bd 79 2d e3 3c 4c b3 f7 3c
       -0.02132263 -0.060890198 0.027731644 0.030236863
0000a0 dc 87 9c 3d 74 91 33 bd 8e cd 84 bd 16 f1 ac 3d
       0.076431006 -0.043839887 -0.06484519 0.08444421
0000b0 81 be 88 3d 33 65 2a bd 06 f5 9b bd 43 6f be 3d
       0.06676961 -0.041600417 -0.07615094 0.09298565
0000c0 ec db 82 bc 70 af 48 bc 50 56 52 3d 50 df ad 3b
       -0.015974008 -0.012248859 0.051351845 0.005306162
0000d0 e6 16 24 3d 40 a3 e2 ba 70 6d 3c bd b4 e6 81 3d
       0.0400609 -0.0017291084 -0.046002805 0.06342831
0000e0 45 0d 25 bd 68 c9 1b bc 4f 0a 22 3d 23 b0 18 bd
       -0.040295858 -0.009508468 0.039560612 -0.037277352
0000f0 cc 40 cc bc 43 c7 83 3d 36 b0 56 bd f9 21 9d 3d
       -0.024933241 0.064344905 -0.05241414 0.076724954
000100 36 5b 39 3d c7 f1 4a bd 9c 50 7e 3c 40 da 39 3b
       0.045253 -0.049546983 0.015522148 0.0028358847
000110 b9 04 55 3d 68 ce 9a bd 58 a0 8f bd df 64 5b 3d
       0.052006457 -0.075589 -0.07013005 0.053562995
000120 eb 86 c6 bd 57 5a d4 3d f0 92 2d bc 60 be e9 3b
       -0.09693702 0.103687935 -0.010594115 0.00713329
000130 e0 6d 5c bd 2d 26 a7 3d 86 93 68 3d 5a e4 8a bd
       -0.053815722 0.08161578 0.056781314 -0.06781836
000140 90 58 9b bd d7 de 96 3d f5 20 88 bd ee 98 19 3d
       -0.07585251 0.07366722 -0.06646911 0.03749936
000150 7a 86 83 bd 24 43 8b 3d 20 f5 a7 3d 91 bf bc 3c
       -0.06422134 0.067999154 0.08201051 0.023040565
000160 b7 b6 bc 3d 94 80 d9 3d 02 b6 b3 bd c2 fc 34 3d
       0.092145376 0.106202275 -0.087749496 0.04418636
000170 3b a9 6a 3d 60 ef 2d 3b a3 08 96 3b 3a db 08 3d
       0.057290297 0.0026540384 0.0045786663 0.033412196
000180 01 fa 7b 3d 87 c8 05 3d 32 bb cc bd c7 f1 16 3d
       0.06151772 0.03266194 -0.09996642 0.03685167
000190 c0 58 d0 3d eb 50 b5 bd a3 30 9c 3d 6a f9 82 bd
       0.10173178 -0.088533245 0.07626464 -0.06395228
0001a0 16 c3 a3 bd 2e bd bb 3b 68 43 d1 bc 15 9f e1 3d
       -0.07996194 0.005729339 -0.025544837 0.110166706
0001b0 90 3c 1b bd a0 35 19 bb 16 52 a4 bd d0 83 b3 bb
       -0.037899554 -0.002337791 -0.08023469 -0.0054783598
0001c0 45 a9 c5 bd 30 47 d2 3b 70 90 19 bc 31 96 78 bd
       -0.09651426 0.0064171776 -0.0093728155 -0.06069011
0001d0 34 c4 c2 bc 80 b2 be 3a 38 e7 21 3d 57 77 0a 3a
       -0.023775198 0.0014549047 0.039527148 0.0005282065
0001e0 3c 35 71 3d 64 39 78 bd 6f 77 c8 bd 82 88 9d bd
       0.05888866 -0.060601607 -0.09788405 -0.076920524
0001f0 41 c5 ea 3d 9f e2 7e 3d f2 ed ac bd bb dd 3a 3d
       0.114634044 0.06222784 -0.08443822 0.045621615
000200 80 a1 91 3a 8d 9f 1f bc ae dd 35 bd 11 ea c8 3d
       0.0011110753 -0.00974263 -0.044400863 0.098102696
000210 46 fc 35 3c 82 f6 10 3d 37 fc b7 bd 6e 02 de 3d
       0.01110751 0.03539134 -0.08983653 0.10840307
000220 21 bc 83 3d 62 5b 35 3d 08 96 c8 3c c5 2a bb bd
       0.06432367 0.044276603 0.024485603 -0.09139017
000230 8e 19 8b bd 9c 01 2a 3d 21 da 20 bd 06 69 1c 3d
       -0.067919835 0.04150544 -0.039270524 0.038186096
000240 54 74 8d 3d e1 e5 8e 3d 31 08 89 3d aa ae 62 bd
       0.069069535 0.0697744 0.066910155 -0.055342354
000250 8b b4 54 bd e8 4c 21 bc
       -0.05192999 -0.009844996

layer3.weight f4 [100, 150]
000000 30 b8 c2 bb 5b 0e 3c 3d e2 b9 96 3d b0 75 c9 bb
       -0.005942367 0.045912128 0.07359673 -0.0061480626
000010 39 a5 a9 bd b8 67 1c 3d b6 8f 42 bd 59 8c d5 3c
       -0.08283467 0.03818485 -0.047500335 0.0260679
000020 83 19 8e 3d 50 37 09 bc d4 2b 8c 3d 52 f6 b9 3c
       0.0693846 -0.008375004 0.06844297 0.022700462
000030 88 35 ac bd 21 26 88 bd 34 c7 32 bd e0 bc e8 3b
       -0.08408648 -0.066478975 -0.043647006 0.007102594
000040 58 47 08 bd d9 ae a0 bd a0 07 58 3d 26 1a 41 bd
       -0.033271164 -0.078458495 0.052741647 -0.047144078
000050 30 9f 7e bd 70 99 16 3d 2c 30 68 3d 1f 2a c0 bc
       -0.06216353 0.036767423 0.056686565 -0.023457585
000060 41 42 aa 3c 34 ca f6 3c 74 40 a7 3c c6 58 1a 3d
       0.020783545 0.030125715 0.020416476 0.037682317
000070 67 f1 ce 3b 65 e2 a2 3c e1 4a 9d 3d 51 43 cc 3c
       0.0063153985 0.019883344 0.07680298 0.024934443
000080 2a a9 8c 3d e8 28 20 3d 2a 8f 96 bd d8 c8 70 3c
       0.06868203 0.03910151 -0.07351525 0.014696322
000090 0a 31 60 bd e0 33 33 3b 19 ee 91 bc 20 8f f9 3b
       -0.054734267 0.0027344152 -0.01781373 0.007615939
0000a0 4b c0 43 bd 91 de e0 3a 8d 02 43 3d d5 54 9b bd
       -0.047790807 0.0017156174 0.047609854 -0.0758454
0000b0 a8 3b 30 3c ac 75 89 bd a3 50 83 3c a8 23 25 3c
       0.010756411 -0.06711897 0.016029662 0.010079302
0000c0 c4 f3 31 3d 98 24 f1 3c 42 32 61 3c 66 d1 8f bd
       0.043445364 0.029436395 0.013744893 -0.070223615
0000d0 c8 7c 6b bd 2f 5d 3a bd 01 88 93 bd 6a e9 1f bd
       -0.057492048 -0.045499023 -0.07203675 -0.03904096
0000e0 28 8d 9a bc c0 3b 0d 3c 89 94 9c 3d 4d f2 b4 3c
       -0.018866137 0.008620203 0.07645518 0.022088194
0000f0 9a 5c 31 3d 66 e3 51 3d fd d6 95 3d d8 d6 0a bc
       0.043301202 0.051242255 0.073163964 -0.008474074
000100 8e c5 22 3d 12 ed 36 bd 48 0a 84 bc 50 e2 a1 3d
       0.039739184 -0.04465968 -0.016118184 0.07904494
000110 13 64 3e bd 6a 79 90 3d b0 05 9f bd 0d b0 17 bd
       -0.046482157 0.07054408 -0.07764757 -0.03703313
000120 89 6f 06 3d 37 6e 25 bd 30 5c 78 3d 5c 2d 72 3d
       0.032821212 -0.040388312 0.06063479 0.05912529
000130 50 c8 97 3c 39 f4 6c bd a4 b5 56 3d 7c 7d 85 bc
       0.018528134 -0.057850096 0.05241932 -0.016295187
000140 d2 74 8d 3d c7 f8 6b bd 52 5b 9f 3d c4 91 0e bd
       0.06907047 -0.0576103 0.0778109 -0.03480698
000150 a8 18 53 bd b5 e4 ea ba b7 f6 17 3d 00 c3 1b 3d
       -0.051537186 -0.0017920943 0.03710052 0.038027763
000160 75 27 49 bd 31 58 fe bc f0 38 d8 3b 8b 3c 8d bd
       -0.049109895 -0.031047912 0.0065985844 -0.06896313
000170 79 ea 37 3d e0 78 6a 3d 67 2c 05 bd f8 5e 04 3d
       0.044901345 0.05724418 -0.03251305 0.03231713
000180 34 df 25 bc 88 92 85 3d 44 9c 6d 3d 59 d2 89 3d
       -0.010124017 0.06522089 0.058010355 0.06729574
000190 b2 77 5c 3b a4 81 8b 3d 41 eb 2c 3d 1b ed 1f 3d
       0.003364068 0.06811836 0.042216543 0.03904448
0001a0 e1 92 17 bd 53 70 0a 3d 40 7a 70 3c 5d e3 ff bc
       -0.03700531 0.033798527 0.014677584 -0.031236345
0001b0 60 4d 53 bb 8e 91 df bc 7a d5 07 3d 70 ec 8b 3d
       -0.0032242164 -0.027291086 0.03316257 0.06832206
0001c0 f1 24 83 bd 10 42 aa bc 01 cf 9b bd 41 24 b1 3c
       -0.064035304 -0.020783454 -0.07607842 0.021623733
0001d0 42 77 41 bc 50 38 cb 3b 12 3c 85 bd f4 d6 db bc
       -0.011808218 0.0062017813 -0.06505598 -0.026835896
0001e0 4a df b5 bc 24 01 74 bc 04 ea a3 bd 00 fd 9c bd
       -0.0222012 -0.01489285 -0.08003619 -0.076654434
0001f0 7c 80 d1 3c 0b a4 66 bd 72 ea 0d bd 83 7c 81 bc
       0.025573961 -0.056308787 -0.034647413 -0.015806442
000200 58 ce f3 3c 1c ac 91 bd d2 f3 a2 bd e0 fd 56 3b
       0.029761478 -0.071129054 -0.07956661 0.003280513
000210 f6 d0 8a 3d 7f 60 86 bd ef f6 94 bd a7 5c a1 bd
       0.067781374 -0.06561374 -0.07273661 -0.07879
000220 fe 95 89 3d 07 d0 9f bd d0 16 0b 3c 02 33 66 bd
       0.06718062 -0.0780335 0.008489326 -0.05620099
000230 b9 34 de 3c a2 36 64 bc 0b 16 c8 3c 0e 89 ed bc
       0.02712475 -0.013929041 0.024424573 -0.028996017
000240 40 69 9c bc 08 f2 87 3d da b6 10 bd 30 37 2e 3d
       -0.019093156 0.06637961 -0.03533063 0.0425331
000250 6d 73 81 bd 30 b3 a5 3d aa d2 92 bd 4e bc 2c 3d
       -0.06320844 0.08090818 -0.07169087 0.04217177
000260 cc c0 76 3d 80 1f 8a bb 97 08 3f 3d e0 3d 4b 3d
       0.06024246 -0.004215181 0.04663905 0.049619555
000270 a0 27 33 bd 6a 23 a0 bd 02 c6 26 3b e4 87 4d bd
       -0.04373896 -0.07819255 0.0025447612 -0.050178424
000280 28 a9 29 3b 2c bb 2d 3d b4 0e 7d 3d 16 67 68 bd
       0.0025888178 0.04241483 0.0617816 -0.056738935
000290 a0 74 c7 bb f6 19 25 3d 92 70 e3 bc c6 9f 9a 3d
       -0.006086901 0.04030796 -0.027763639 0.075500056
0002a0 4c f8 84 3d b8 6b 98 bd fe 92 9f 3d b7 a8 6c 3d
       0.06492671 -0.07442421 0.077917084 0.057778087
0002b0 99 b1 09 bd 62 1c a6 3d b9 78 81 bd 4c 12 a2 3d
       -0.033616636 0.08110882 -0.06321854 0.07913646
0002c0 18 e5 40 bd ec 72 a3 3c ff 62 87 3d bf e6 b0 3c
       -0.04709348 0.01995226 0.06610679 0.021594403
0002d0 0e f3 91 bd 42 cb 42 3d d8 b8 ef bc df a2 9d bd
       -0.07126437 0.047557123 -0.029262945 -0.07697081
0002e0 fd 43 a3 bd a0 af ca bb 30 15 51 bd f4 6c 58 3d
       -0.07971952 -0.006185487 -0.051045597 0.05283828
0002f0 7e a0 30 3d b4 83 c4 3c 7e 03 f4 bc 9c 13 99 bc
       0.043121807 0.023988582 -0.029786821 -0.018686108
000300 df 49 a1 bd 2c 78 ce 39 8c 6a cf bc 40 40 90 3d
       -0.07875418 0.00039380917 -0.02531936 0.07043505
000310 61 7d 9c 3c b4 46 ab bc d8 1f 93 bd 00 92 ab 3a
       0.019102754 -0.020907737 -0.07183808 0.0013089776
000320 04 62 0c bd 28 d3 49 3d 92 b2 c1 bc df bf 41 bd
       -0.034273162 0.04927364 -0.02364472 -0.047302123
000330 06 4a 98 3d 7f b9 bb bc 85 c6 48 3d 80 37 69 bd
       0.07435994 -0.0229156 0.049017448 -0.056937695
000340 46 1e 2d bd 2c bf d1 bc 18 69 0f 3d 4e 2d 08 bd
       -0.0422652 -0.025603853 0.035012335 -0.03324633
000350 90 89 4d bc 28 96 7e bc 08 7a 5b 3d f0 0c a2 bd
       -0.0125450045 -0.01553873 0.053583175 -0.07912624
000360 ab 33 10 bd 4a 5d 06 3d fb 59 50 3d ac 25 8b 3d
       -0.035205524 0.03280381 0.050867062 0.06794295
000370 48 a1 ac 3c 27 f2 08 bc d8 a4 96 3c e2 0a 09 3d
       0.021072999 -0.008358515 0.01838915 0.033457644
000380 ac b1 8e 3d 00 0f a6 b9 b8 07 52 3c 20 84 4c 3d
       0.06967482 -0.00031673163 0.012819223 0.04993069
000390 8a 27 3c 3d b9 19 a0 bd e0 06 0f 3d c0 74 82 3c
       0.045936145 -0.07817406 0.034918666 0.015924811
0003a0 9c 4c 8e 3d 34 65 97 3d 34 dc 81 bc e8 4d 80 bc
       0.06948206 0.0739235 -0.015852071 -0.015662149
0003b0 27 47 f6 3c a4 54 6f 3d 0d 13 13 3c 35 e1 7d 3d
       0.030063225 0.05843033 0.00897671 0.061982352
0003c0 84 94 55 3d 8e 8d 8f 3d 9e 96 a0 bd 20 1d 76 3b
       0.05214359 0.07009421 -0.07841228 0.003755398
0003d0 83 0c 59 3c 66 8b 92 bd 98 7b c3 3c 9f 10 93 3c
       0.013247612 -0.071554944 0.023862645 0.017952261
0003e0 78 47 77 3d 6d 29 4b 3c 2c b3 43 bd c1 83 4e bd
       0.060370892 0.012400013 -0.047778293 -0.05041862
0003f0 8b 0e 7e bd 08 5e c4 bc 0f ca 8b bc f8 b7 2a bd
       -0.062025588 -0.023970619 -0.017064122 -0.041679353

layer3.bias f4 [100]
000000 1e 88 96 bd 26 83 9d bd ee e6 a2 3d ae 33 80 3d
       -0.07350181 -0.0769103 0.079542026 0.06259857
000010 2f f5 8c 3a 4d 31 fb 3c 75 57 d7 3c 80 08 90 3c
       0.0010754223 0.030663157 0.02628682 0.017582178
000020 03 f1 f3 3c 70 4b 6a 3d a1 20 74 3d 10 29 ad 3c
       0.02977801 0.05720085 0.05960143 0.021137744
000030 fb 9a 62 bc 96 7f 24 bd 60 67 48 3d e2 35 c2 bc
       -0.013830896 -0.040160738 0.04892671 -0.023707334
000040 40 35 06 3c 95 09 11 bc aa f9 f3 3c 3c b2 f3 39
       0.008191407 -0.008852382 0.029782135 0.00046481367
000050 9b 2c a2 3d 22 ba 91 3d 29 00 91 3c f2 2f 81 3c
       0.07918664 0.0711558 0.017700272 0.015769932
000060 02 e0 8d 3d 46 8c 56 3d 00 6b 93 bd e0 41 8d bd
       0.06927492 0.05237987 -0.07198143 -0.0689733
000070 60 1f 5c 3b 68 ae 8d bd 68 aa 10 bc e7 7d 94 3d
       0.0033588037 -0.06918031 -0.0088296905 0.072505765
000080 95 6b 7f 3d 59 a0 99 ba 5a 7b 50 bd 9d 32 9c bd
       0.062358458 -0.0011720761 -0.050898887 -0.07626841
000090 34 7e 44 3d 0f 22 82 3d 80 48 af 3d e7 93 78 bd
       0.04797192 0.063541524 0.0855875 -0.060687926
0000a0 80 86 01 bd 2c b3 e5 3c e4 8e 99 bc 1e c0 a1 3d
       -0.03162241 0.028039537 -0.018744893 0.078979716
0000b0 b6 50 99 bd 66 0d 2c 3d c6 31 3c bd 7e b3 0d 3d
       -0.074860975 0.042004965 -0.045945905 0.034595005
0000c0 e4 5e 3b 3d 03 24 94 3d 93 10 a6 bd 02 fa c6 bb
       0.04574479 0.07233431 -0.0810863 -0.0060722837
0000d0 b3 04 56 bd ba 02 51 3d 6d a1 44 bd a3 22 65 3b
       -0.052250575 0.05102799 -0.04800551 0.0034963272
0000e0 da d2 50 3d 3a 35 a3 3d 6a dc 06 3d dd 5a 45 3d
       0.050982334 0.079691365 0.032925047 0.048182357
0000f0 16 28 a5 bd 1e b3 a1 3d d3 49 2d bd 46 ce af bc
       -0.080642864 0.07895492 -0.042306732 -0.021460664
000100 01 2e a9 3d d6 89 27 3d e8 73 60 bd e8 98 82 bd
       0.08260728 0.040902935 -0.054798037 -0.06376821
000110 8f 3b 39 3d 9a 67 8c 3d 32 05 81 bd 4b 39 c3 bc
       0.045222815 0.06855698 -0.06299819 -0.02383103
000120 c3 87 a7 3d 1a 10 ae bc 40 99 e2 bc d5 0f 27 bc
       0.08180191 -0.021247912 -0.027660966 -0.010196646
000130 00 61 a2 3d e6 e3 28 3d 08 6e a7 3d c4 f0 bd 3d
       0.079286575 0.041232966 0.08175284 0.09274438
000140 00 1e 0a 3b f2 1a 30 3d 6e 00 96 bd 01 48 06 3d
       0.002107501 0.042994447 -0.07324301 0.032783512
000150 11 b2 88 3d e0 4a 3f 3b 1e c7 b9 3c 5c fa 4a 3d
       0.066745885 0.0029188916 0.022677954 0.049555168
000160 de 0e 9b 3d 5e 80 4b 3d 8b c2 71 3d 5b 17 a2 3d
       0.07571195 0.049682967 0.05902342 0.07914611
000170 49 0c c9 3d 40 06 00 bc a6 a7 14 bd f1 0f 36 bd
       0.09816796 -0.00781399 -0.036292695 -0.044448797
000180 d6 bd 80 bd 8f 49 32 3d 79 43 04 bd 6b d4 d5 bc
       -0.06286208 0.043527182 -0.03229091 -0.026102265

layer4.weight f4 [80, 100]
000000 2c 3f a3 bc 1a 87 79 3d 63 88 b4 3d 8c dc c5 bc
       -0.019927584 0.06091986 0.08815076 -0.024153017
000010 50 e6 fd 3b b1 fa ba 3d ce 57 58 bd 9c 0d 05 bd
       0.0077484027 0.09129847 -0.052818112 -0.032483682
000020 b5 53 76 3c 52 7b 86 bd 6f a2 9f bc a8 fc 1a 3d
       0.015034606 -0.0656649 -0.019486634 0.037838608
000030 73 cd 7c bd 85 b9 50 3d 39 ee 85 3d 50 36 5b 3d
       -0.06171937 0.050958175 0.06539578 0.053518593
000040 ed f3 bb 3d 42 4f 97 bd 86 9c 8e bd 56 2c 75 bd
       0.091773845 -0.07388164 -0.06963448 -0.059856735
000050 14 4d b8 3d 4b dd 8a 3d a2 77 84 3c f8 bf 8d 3d
       0.089990765 0.067804895 0.016170327 0.06921381
000060 41 b8 88 bd 55 56 7c 3c ed be 62 bd 86 32 5f bd
       -0.06675769 0.015401443 -0.055357862 -0.054491542
000070 ae 6e 21 3d 0e 3d 02 3d 9a ce 3c 3d 24 6e 5d 3c
       0.039412193 0.031796508 0.046095468 0.013515029
000080 ff 2f a4 ba b3 cf b2 ba 13 41 5f bd 7e 5f 0a 3d
       -0.0012526511 -0.0013642221 -0.05450542 0.033782475
000090 52 c3 d9 3c a9 79 32 bb c9 f8 04 ba 01 a8 33 3d
       0.026582394 -0.002723316 -0.0005072472 0.043861393
0000a0 b8 d6 ac bc 68 f3 99 bc c7 fc b2 3c 40 c3 8d 3a
       -0.02109848 -0.018792823 0.02184905 0.0010815635
0000b0 19 5f b2 3d 66 c3 98 bd 50 21 95 bd 87 60 b6 3d
       0.08709545 -0.07459144 -0.072817445 0.0890513
0000c0 30 ce d7 ba 7b 8a 82 bd 19 92 87 3d e5 54 0a 3d
       -0.0016464647 -0.06374069 0.06619663 0.033772368
0000d0 e5 7d 82 3d 67 68 11 bd 87 13 81 3d 00 4f 02 3b
       0.06371669 -0.035499956 0.06302553 0.0019883513
0000e0 91 28 6a 3d 58 f4 bc 3c ea 5c 8e bd ce ed a3 bd
       0.057167593 0.02306573 -0.06951316 -0.08004342
0000f0 10 0d 8c bd 91 23 b1 3d 05 69 0f 3d 68 79 9d bd
       -0.06838429 0.08649362 0.035012264 -0.07689172
000100 23 16 42 bd ef 6f 5c bd 73 ae ac bd 14 44 ab 3c
       -0.047384392 -0.053817686 -0.08431711 0.020906486
000110 d4 60 a1 3d c2 c4 04 3d 68 33 be 3c 0d 4c 06 3a
       0.078797966 0.032414205 0.023217872 0.0005123027
000120 d3 67 6d 3d ed 2f 6e bd e0 d6 b6 bb 4f 36 f1 ba
       0.057960343 -0.058151174 -0.0055798143 -0.0018403026
000130 ca a7 64 3d 52 98 0e 3d 63 50 51 3d a4 77 5f bd
       0.05582408 0.034813233 0.051102053 -0.054557458
000140 e2 87 ba bd 7a bb 41 3d 94 9d a9 bc e6 e3 c4 bc
       -0.09107949 0.047297932 -0.020705022 -0.024034452
000150 a2 fa 96 bd 8c c1 8c 3c d1 5e 31 bd f2 d1 30 3d
       -0.07372023 0.017182134 -0.043303315 0.04316897
000160 79 20 98 3d c7 0e 89 3d 7c 67 a6 3d 40 8f dd 3a
       0.07428069 0.06692272 0.08125207 0.0016903654
000170 4e 1b 95 3d e0 95 b9 3b 9c 99 80 bd cc cf 83 bc
       0.072805986 0.0056636184 -0.06279299 -0.016090296
000180 00 d0 be b9 61 f6 8b 3d b0 b1 c0 3b c2 63 c4 3c
       -0.00036394596 0.068341024 0.005880557 0.02397335
000190 d2 0e ef ba 4c 4f f8 3c 18 e1 a3 bd 6d cb 3b bd
       -0.001823867 0.03031125 -0.080019176 -0.0458483
0001a0 f5 12 04 bd f7 d8 5e bd 2f 73 87 3d 49 50 a9 3d
       -0.03224464 -0.054406133 0.066137664 0.08267266
0001b0 9a 20 9d bd da c5 80 3d 9c 18 99 3d 43 4c f1 bc
       -0.07672234 0.06287737 0.07475397 -0.02945531
0001c0 62 4e 7d bc 9e 2e 41 bd cd 4d b0 bd 25 61 0a 3c
       -0.015460582 -0.0471636 -0.08608589 0.008446013
0001d0 3a 0a 6b 3d 23 f2 b2 bd 06 1f 40 bb d1 8b ad 3d
       0.0573828 -0.0873759 -0.0029315366 0.084739335
0001e0 a8 36 4f bd dd 37 ed 3b 3d 32 5a 3d 82 fe 6c bd
       -0.050589234 0.0072393254 0.053270567 -0.057859905
0001f0 f3 15 c9 bd 7f 20 99 3d f3 d7 22 bd b3 04 7b 3d
       -0.098186396 0.07476901 -0.039756726 0.06128378
000200 a5 3d 93 3d 2c 4d 8c 3c 23 74 a8 bd 8a 9a 00 3d
       0.07189492 0.017126642 -0.08225276 0.03139738
000210 f3 d6 95 3d 22 31 9a 3d 67 0c bc bd 44 42 de 3c
       0.07316389 0.075289026 -0.09182053 0.027131207
000220 70 db d9 bc 8e 0a 23 bd db 3c 89 bc 37 29 b2 3d
       -0.026593894 -0.039804988 -0.016752651 0.08699267
000230 7d 06 9b 3d f3 e5 cb bd 05 d9 56 bd e6 ff c7 3d
       0.07569597 -0.09955969 -0.05245306 0.09765606
000240 6d cf c1 3d d0 f3 34 3c 07 1a d6 bc db d4 95 3d
       0.094633915 0.011044458 -0.026135458 0.073159896
000250 a4 6a 57 bd af 82 d0 bd 0d d2 7c bd 62 5b 2b bd
       -0.052591935 -0.10181176 -0.061723758 -0.041835196
000260 63 50 96 3d 95 9f 06 3d 0d 44 63 bd ff 96 b6 bd
       0.07339551 0.032867033 -0.05548482 -0.08915519
000270 a1 b2 9e 3d a7 60 a8 3d 2a e9 6d 3d b8 09 b9 3d
       0.077489145 0.0822156 0.05808369 0.09035057
000280 72 69 42 3d f3 eb 22 bd 3f 3f 80 bd 9a d9 19 bd
       0.04746384 -0.0397758 -0.06262063 -0.037561037
000290 9b e8 4e 3c e4 c2 14 3d 2a 12 c3 bd b8 84 a3 3c
       0.0126287 0.036318675 -0.09524949 0.019960746
0002a0 e1 72 50 bd 40 79 4f bc 18 40 aa bc ff d4 b7 3d
       -0.050890807 -0.012663186 -0.020782515 0.08976173
0002b0 62 41 d8 bc 1e 72 be bc fb c4 a6 bd 79 19 9d bd
       -0.026398364 -0.023247775 -0.0814304 -0.07670874
0002c0 2e 11 82 bd 2d 37 62 bd 64 e9 0a 3d 74 b3 94 bc
       -0.06350933 -0.0552284 0.033913985 -0.018151976
0002d0 4e 48 a7 bd 45 91 88 3d 6b 82 c4 bc 39 5b 7e 3d
       -0.08168088 0.06668333 -0.02398797 0.062098715
0002e0 e2 3f 9e 3b 46 cb 52 3d 0a 88 ab bc 0a bd 1d bd
       0.004829393 0.051463388 -0.020938892 -0.03851036
0002f0 8a fe 93 bd 96 a4 02 bd 15 cf 5d 3d ce 4e 31 bd
       -0.07226284 -0.031895243 0.054152567 -0.043288045
000300 26 fd c2 bd 17 fa 4d bd ec 96 b0 bd de 86 55 3d
       -0.095209405 -0.050287332 -0.08622536 0.052130572
000310 58 5a a9 bc 4f 28 02 3d a5 6b 9c bd e2 5c 81 3d
       -0.020672962 0.031776723 -0.07637719 0.06316544
000320 9a 9d 5e bc f0 28 a4 3d 66 b3 11 bd 62 cf 34 3d
       -0.01358738 0.08015621 -0.03557148 0.04414309
000330 1a 54 3b bd 45 d7 21 3d 83 9f 16 3d 43 c4 7b bd
       -0.045734502 0.039511938 0.036773216 -0.061466467
000340 af 51 7a bd 2e 31 82 3d e7 78 a2 3c 85 16 a5 bc
       -0.061113056 0.063570365 0.019833041 -0.02015234
000350 4e 00 88 3d 5e 54 2b bd f8 ec c4 bd 74 9a 54 3d
       0.06640683 -0.041828506 -0.09615511 0.05190511
000360 40 c9 5f bd b7 1c ed bc 4d e9 f5 3c ec 8e 53 bd
       -0.054635286 -0.028944356 0.030018473 -0.051649973
000370 e2 87 c2 3b d4 7f 9a bd ce 8f cc bb 71 74 8d bd
       0.0059366086 -0.075439125 -0.006242729 -0.06906975
000380 b2 aa ca 39 2a 8a 89 3b 7d a9 8b 3d 88 7d c9 3b
       0.0003865562 0.0041973786 0.06819437 0.0061489977
000390 50 20 a6 3b 96 9f 82 bd 5e 12 02 3d a5 f9 25 bd
       0.00506977 -0.06378095 0.031755798 -0.040521283
0003a0 82 26 bd 3d b3 b3 a3 bd be fe 60 3d 00 47 11 ba
       0.092358604 -0.07993259 0.05493044 -0.0005541891
0003b0 b0 82 9a 3c 8e 03 bf 3d e4 47 48 bd 4a d4 82 bd
       0.018861145 0.0932685 -0.048896685 -0.06388147
0003c0 81 32 9d 3d 00 63 75 bc 96 6c 4d 3d a9 fc 01 3b
       0.076756485 -0.014977217 0.050152384 0.0019834435
0003d0 09 c2 c2 3d 7a bc ba bd 3e e1 2d 3d 62 7e b5 bd
       0.095096655 -0.0911798 0.042451136 -0.08861996
0003e0 ff 68 ad 3c d3 02 f4 3d ef fe 9d 3d bb 3d 4a 3d
       0.02116823 0.11914601 0.0771464 0.049375277
0003f0 c3 99 93 3d 77 64 d0 3d f0 b8 7c bd a4 65 3e bd
       0.07207062 0.10175412 -0.061699808 -0.04648365

layer4.bias f4 [80]
000000 ae e5 11 bd c2 ac bf 3d b1 4c 5c 3d a2 b9 0a 3d
       -0.03561943 0.09359123 0.053784076 0.03386844
000010 03 93 37 bd f4 fc 9c bc 55 f7 e3 3d b3 c2 a5 bd
       -0.044817936 -0.019163586 0.11131159 -0.080937766
000020 8a 9c 80 bd fb 74 87 3c 97 d4 7d bd be ee e1 3d
       -0.062798575 0.016535273 -0.06197032 0.110318646
000030 9a fa 16 3d ca 79 e1 3c 2d af 18 bd 39 3e 55 3d
       0.036860086 0.027523894 -0.037276436 0.052061293
000040 bb fb a2 3c 6d 17 b5 3d c6 57 c4 3c 6c 24 17 bd
       0.019895425 0.08842359 0.023967635 -0.03689997
000050 35 75 b7 3c b8 1f 49 3c eb 49 95 3d f2 d1 83 bb
       0.022394756 0.012275629 0.07289489 -0.00402283
000060 26 20 60 bc 0b 35 ae bd 96 00 93 bd ee 0e 8f 3d
       -0.01367954 -0.08506211 -0.07177846 0.069852695
000070 d0 c0 5c 3c 99 ba 81 bd d0 1f 66 bd 19 e5 9e 3c
       0.013473704 -0.06334419 -0.056182683 0.019396352
000080 12 3a aa 3d 4b cb b0 3d 18 c6 11 bd 9e 0a 59 3d
       0.08311857 0.08632525 -0.035589308 0.05298864
000090 a9 07 03 3d b6 62 32 3d 02 a4 14 3d f2 04 c9 bd
       0.031989727 0.04355117 0.036289223 -0.09815396
0000a0 30 dd 16 bc 05 62 1f 3d 77 b3 2f 3d 3d 39 83 3c
       -0.009208009 0.038911838 0.04289576 0.016018504
0000b0 38 24 47 bd 46 eb 27 3d 55 54 39 3b 8a 22 97 bd
       -0.048618525 0.04099586 0.0028279026 -0.07379635
0000c0 2a 5a 3a 3d c8 19 d2 bd 32 9f ff 3b ce 1c 94 bd
       0.045496143 -0.10258824 0.00780096 -0.072320566
0000d0 e8 43 a9 bc 17 26 06 bd 89 53 7c 3d 22 c2 9e bd
       -0.020662263 -0.03275117 0.061603103 -0.07751872
0000e0 c0 04 3b bd 02 51 51 3d 41 29 4c 3d 78 67 e8 3c
       -0.045658827 0.051102646 0.04984403 0.02836965
0000f0 bf cf d0 bd 9c 1c a8 3d e3 40 ad 3d fb 5d 41 3c
       -0.101958744 0.08208582 0.08459642 0.011802192
000100 fe 64 22 bd de cb b9 3d 85 51 97 3d 68 4c b7 bd
       -0.039647095 0.09072088 0.073885955 -0.0895012
000110 89 8d 85 bc 15 23 8a bd d2 ec c6 3d d7 3c 58 3d
       -0.01630284 -0.067449726 0.09713139 0.052792396
000120 f6 4f a2 3d f3 8e 35 bd bc ea 7d 3d cc 74 ba bc
       0.079254076 -0.04432578 0.06199144 -0.022760771
000130 cc 0d a7 bc db 12 8e bd 87 e0 bb 3c f7 09 8f bd
       -0.020392321 -0.0693719 0.022934211 -0.069843225

layer5.weight f4 [60, 80]
000000 6d 77 79 bd c2 0b 83 bd c9 7a bc 3d 4d b2 af 3b
       -0.06090491 -0.06398727 0.09203107 0.0053618313
000010 26 c1 e4 3d 08 a9 2e bd f9 9e ff 3c 26 4f 34 bd
       0.11169653 -0.04264167 0.031203734 -0.044020794
000020 0c a8 df bb 5a 04 72 3c da 12 2f bd dc de 6f bd
       -0.0068254527 0.014771545 -0.042742588 -0.058562145
000030 1a 27 02 3e 36 42 a1 bd b5 63 d2 39 ad 20 be 3d
       0.12710229 -0.07873957 0.0004012861 0.09283576
000040 0f dc a0 3d 10 10 25 3d 28 fd 25 3d a2 71 69 bd
       0.07854473 0.04029852 0.04052463 -0.056993134
000050 71 4d d0 bc 45 d2 47 3c 34 10 cf bd 29 9f f2 3b
       -0.025427552 0.012196128 -0.101105124 0.0074042273
000060 63 f3 06 3e 22 a2 84 3d f3 14 b0 bd 50 c1 0b 3d
       0.13178782 0.06476237 -0.08597746 0.034119904
000070 c8 7c e5 3c 62 99 80 bd 28 cd 30 3d 25 8a a3 bd
       0.028013602 -0.062792554 0.043164402 -0.07985333
000080 49 63 1f 3d 51 d3 39 bc 2f 75 14 bb f1 c8 6e bd
       0.038913045 -0.011341886 -0.0022652855 -0.0582971
000090 2a 5d 34 3d 22 db 85 bd 7a 41 bd bc d1 5a d8 bd
       0.04403416 -0.06535937 -0.02310251 -0.10564197
0000a0 84 37 a1 3d 7f bf 9a bd c3 4c d2 3c 17 b4 8c bd
       0.07871917 -0.07556056 0.025671368 -0.06870287
0000b0 ea f9 49 bd ba b4 88 3d d2 91 40 bc 80 44 59 3d
       -0.049310602 0.06675096 -0.011753516 0.053043842
0000c0 c2 e7 da bc 7a 66 87 bd 64 f0 e8 3d cd d8 97 3d
       -0.026721839 -0.06611343 0.11373976 0.07414398
0000d0 f4 07 30 bd aa 48 5d bd 97 b1 4b 3d e4 96 98 bd
       -0.042976335 -0.054024376 0.04972991 -0.07450655
0000e0 d7 46 b5 3d cc 19 aa bc f7 8b 20 3d c4 ce e8 3d
       0.08851402 -0.020764254 0.03919598 0.113675624
0000f0 4b ad ba bd 80 4f f7 3c ca 77 8e 3d fd a2 7a 3d
       -0.09115084 0.030189276 0.06956442 0.061190594
000100 1e e5 93 3d 59 00 82 bd 93 eb a5 bd 09 84 b9 bd
       0.07221435 -0.063477226 -0.08101573 -0.09058387
000110 0c 4f 64 3d ad 8d 70 3d fc d7 70 3d ac eb 85 bd
       0.055739447 0.058728863 0.05879973 -0.065390915
000120 95 dd 84 bc 00 f0 d2 bd cb f9 cc 3d a8 c5 de 3c
       -0.01621894 -0.102996826 0.10008582 0.02719386
000130 f8 f6 bf 3c 08 ef 48 3d 34 1a 05 3d 98 1f fc bc
       0.023433194 0.049056083 0.032495692 -0.030776784
000140 1f fd 94 3d 6c 84 4a bd d4 13 36 3d 6c ce 77 bd
       0.072748415 -0.049442694 0.044452503 -0.060499594
000150 c6 99 09 bd 48 04 b8 bc 77 7c a4 3d a2 e4 2b bd
       -0.033593915 -0.022462979 0.08031552 -0.041966088
000160 ef 0d cd bd fc de b5 bc f0 89 74 3d 13 18 4e bd
       -0.10012423 -0.022201054 0.05970186 -0.050315928
000170 48 36 39 3d 42 20 6c bd d6 93 c1 3d 0f 78 d8 bc
       0.045217782 -0.05764795 0.094520256 -0.026424436
000180 d2 5f 43 3d 71 fd 3f 3d f3 91 64 38 37 70 0d bd
       0.047698803 0.04687256 5.4495362e-05 -0.034530845
000190 e4 04 de bd 1e 44 9f bd d5 fa b2 bc d9 83 b9 bd
       -0.108407766 -0.07776664 -0.021848122 -0.09058351
0001a0 70 92 b9 bb a2 6d 15 bd 32 b5 31 bd f7 a9 d4 bd
       -0.0056632087 -0.036481507 -0.043385692 -0.10383981
0001b0 68 08 20 3d 65 98 b0 bd 54 ea d6 3d 20 d6 8d bd
       0.039070517 -0.08622817 0.10493913 -0.06925607
0001c0 d7 95 e4 3c 94 0e 9a 3d e7 9e 30 3d b6 9d 93 bd
       0.02790348 0.07522312 0.04312029 -0.07207815
0001d0 68 d4 1e bd 3e af c7 3d 26 5d b0 3d 3a f3 a5 3d
       -0.038776785 0.09750222 0.08611517 0.081030324
0001e0 d0 7b f0 bc 25 b8 de 3d 33 12 9a bd c0 d2 a0 bd
       -0.029355913 0.108749665 -0.075230025 -0.07852697
0001f0 5a ca bc bd 88 36 1c 3d fc 38 ba 3d 38 8d 54 3d
       -0.09218283 0.038137943 0.090929 0.05189249
000200 aa 77 3a 3d fb fb 98 bd b8 14 96 bc 76 57 e2 bd
       0.045524277 -0.074699365 -0.018320426 -0.11051838
000210 40 80 92 3c c3 59 c5 bc f5 86 0d bd 2e 93 77 bd
       0.01788342 -0.024090653 -0.034552533 -0.060443096
000220 40 a4 b1 bd 4d f0 d2 bd dc 0c 13 bd 9f 22 f1 bc
       -0.08673906 -0.1029974 -0.035900936 -0.029435454
000230 0c 53 24 3d ab 01 95 3d 57 27 47 bd 7c fb 22 3d
       0.040118262 0.07275709 -0.0486215 0.039790615
000240 92 f6 06 bd 99 2a aa 3d 48 0b 67 bd 68 a9 5f 3d
       -0.03294999 0.08308906 -0.056407243 0.054604918
000250 0e 29 b6 bb 1b 54 6e 3d fc e8 4d bd e6 ad 0d 3d
       -0.0055590933 0.058185678 -0.05027102 0.03458967
000260 07 fe 5d bd c8 78 01 3d ea 22 25 3d f0 64 2a bd
       -0.054197337 0.031609327 0.0403165 -0.041600168
000270 a0 0e db bc 40 9c 42 bc b5 3b 84 bc e9 74 1e 3d
       -0.026740372 -0.011878073 -0.016141752 0.038685713
000280 fa be 8e 3d 27 4f 30 3d 59 6b 98 bc 25 9a d5 3b
       0.0697002 0.043044236 -0.018605875 0.0065186196
000290 24 94 74 3d 20 f6 c0 bc ae 20 17 bc a8 f0 4d 3d
       0.05971159 -0.023554862 -0.0092241 0.050278336
0002a0 f2 db f0 bd 84 d5 bc 3d 17 6f 73 bd e9 3f 8a 3c
       -0.11760701 0.092204124 -0.059432115 0.016876178
0002b0 95 66 6b bd e5 34 04 3c 39 36 e8 bd 02 ba 87 bc
       -0.057470877 0.008069252 -0.11338467 -0.016568188
0002c0 c3 c2 9e 3d 66 da 57 bb bd e7 d4 3d 23 ca 9c bc
       0.077519916 -0.0032936572 0.10395763 -0.019139355
0002d0 9d fc 86 bd 87 e1 85 bd 68 18 97 3d 41 c5 6a 3d
       -0.06591151 -0.065371566 0.07377702 0.057317022
0002e0 2c 65 f2 bc 68 b5 42 3d 74 8e d1 3d 02 42 4a bd
       -0.029589258 0.047536284 0.10232249 -0.049379356
0002f0 be 9f d2 3d 6c 1c 27 3c 30 03 b8 bc 2b f4 b4 ba
       0.10284375 0.010199647 -0.022462457 -0.0013805678
000300 cc dc 08 3d a2 64 c3 3d 41 59 11 3d f0 08 25 3c
       0.033413693 0.095406786 0.03548551 0.010072932
000310 3c 51 21 bd d0 80 65 bc 1a fc 5f 3b 5b b1 cf bd
       -0.03938411 -0.014007762 0.0034177364 -0.1014125
000320 ec b4 6b 3d b1 e8 c4 3c 4e bf 43 3d c9 9d 8d bd
       0.057545587 0.024036737 0.047789864 -0.06914861
000330 8c f8 87 3d 80 19 bc bc 33 92 de 3d b6 f0 40 bd
       0.066392034 -0.022961378 0.10867729 -0.04710456
000340 ca 88 3f 3d d3 1f a6 bd 9c 8d 57 bd 6e e9 e8 bd
       0.04676131 -0.08111539 -0.052625284 -0.11372648
000350 38 9f bf bc 3d 99 b0 bd 3d a6 c7 bc ce cd 81 bd
       -0.023391351 -0.08622978 -0.02437126 -0.06338082
000360 b7 0e 92 3d f8 3e f6 bc 6a 41 9d bd 48 73 8c 3d
       0.07131713 -0.030059323 -0.07678492 0.06857926
000370 80 80 84 bd 6b 41 86 3d dd 09 67 bd 66 ca 58 3c
       -0.06469822 0.06555446 -0.05640589 0.013231849
000380 d1 27 30 3a ad 07 d5 bb b1 2f 89 3d 4a 7f 89 bd
       0.00067198003 -0.006501159 0.066985495 -0.067137316
000390 44 61 b6 bd 06 fb 67 3d 10 4b dc bd a2 ec 4e 3d
       -0.08905271 0.05663588 -0.107565045 0.05051864
0003a0 df b4 9b 3d fd f4 a8 3d 0a 9e 88 3d ab 12 5c bd
       0.07602858 0.08249853 0.066707686 -0.05372874
0003b0 1e 98 c3 3d 3a 35 cf bd d3 29 3b 3d 75 ad b3 bc
       0.095504984 -0.10117574 0.045694184 -0.021933297
0003c0 85 40 54 bd 87 21 6c bd 5f 5a c6 bd c0 9e 2b 3d
       -0.051819343 -0.05764916 -0.09685206 0.041899443
0003d0 32 10 63 bd b8 4b d2 3c c8 65 21 3c 8c 57 9c 3d
       -0.055435367 0.025670871 0.009850927 0.07633886
0003e0 2c a8 8a 3d e8 b6 13 3d 9c 9a 08 bd 04 0e a7 bd
       0.067703575 0.036063105 -0.033350572 -0.0815697
0003f0 ec 7a 5e 3d 9e 9d da bd 04 14 5b 3d 40 af 05 3d
       0.054316446 -0.10674594 0.053485885 0.032637835

layer5.bias f4 [60]
000000 38 b1 a1 3d 23 34 c3 3c 4b 81 d3 3d ff 0c dd bd
       0.0789513 0.023828572 0.10327395 -0.107934944
000010 2b b1 57 bd 34 4c 8f 3d 15 bd a3 bb 80 e4 ab 3b
       -0.052659195 0.069969565 -0.0049969056 0.005245745
000020 c8 30 bd 3d cb b1 69 3d 8b 9f 58 3d 78 fb 8e 3c
       0.0923782 0.057054322 0.052886527 0.017453894
000030 f1 e2 72 3d 4c 15 ac bd d0 0b a1 bc 71 69 38 bd
       0.05929846 -0.084024996 -0.019658953 -0.04502243
000040 cc d0 89 bd e2 cf 3f bd 73 38 62 3d 1c 17 9d bd
       -0.06729278 -0.046829112 0.055229615 -0.076704234
000050 16 0d 22 bd f0 81 c0 3d 7a 6c b0 3b c1 95 bb bd
       -0.03956326 0.093997836 0.005384025 -0.09159423
000060 d6 68 6f 3d e6 7b 8a 3d ae 5f c6 3d f6 5c 2e bd
       0.05844959 0.06761913 0.09686218 -0.042569123
000070 bb 91 9e bd 77 3f b3 3a 80 ae 95 39 f1 fe a5 bc
       -0.0774264 0.001367553 0.00028549507 -0.020263167
000080 7c fc 84 3d 5a 4b 35 3c d2 28 8c 3d 52 b8 53 3d
       0.0649347 0.0110653285 0.06843723 0.051689453
000090 29 44 a5 3c d7 51 01 3d ea 90 82 3c b4 c8 a9 3d
       0.020174103 0.03157219 0.015938241 0.08290234
0000a0 aa 72 61 3d 32 85 af bd fc 5c da 3c 48 26 c4 bd
       0.055040993 -0.08570327 0.026655667 -0.09577614
0000b0 34 b6 29 3d 71 e6 b0 bd 2b 51 2c 3c d5 0c f3 3d
       0.041433528 -0.08637703 0.010517399 0.11867682
0000c0 9b 2a 6b bc 29 83 95 bd 29 d7 e1 3d 81 c1 a9 3d
       -0.01435342 -0.073004074 0.11027367 0.08288861
0000d0 1b 79 b4 bd e0 a5 8a 3b bd 6f 74 bd ae 79 9b bd
       -0.088121615 0.0042311996 -0.059676874 -0.07591568
0000e0 09 4d 75 bd c9 bb e0 bd a5 95 31 bc 15 a4 9e 3c
       -0.05988792 -0.10973317 -0.010838901 0.01936535
