saved_models/model_HD.pt (torch_old, 190423 bytes, 15 tensors)

layer1.weight f4 [100, 5]
0	0xbe9a9f7d	-0.30199805
1	0xbdca543d	-0.098793484
2	0x3ec86699	0.39140776
3	0x3eee0ef0	0.4649577
4	0x3e92481f	0.2857065
5	0x3e756f39	0.2396821
6	0xbebeb694	-0.3724867
7	0x3e32fc75	0.17479117
8	0x3e994078	0.29931998
9	0xbe5f22cb	-0.21790616
10	0x3e9be8f8	0.3045118
11	0x3e23d320	0.15998507
12	0x3c3dbfa8	0.011581339
13	0x3e1a0feb	0.15045135
14	0xbddf25fc	-0.10895917
15	0xbec594e6	-0.38590163
16	0x3ed25e3c	0.4108752
17	0x3ebad377	0.3648946
18	0xbcd3cbd5	-0.02585403
19	0xbe7ab25b	-0.244821
20	0xbe28ba52	-0.16477326
21	0x3e5df5a0	0.2167573
22	0xbdd789f0	-0.10524356
23	0xbed7c381	-0.42141345
24	0xbec028d5	-0.37531152
25	0x3e397fb8	0.18115127
26	0x3ed021cc	0.40650785
27	0xbe9972a0	-0.29970264
28	0xbea89689	-0.3292735
29	0xbed70f8b	-0.42004046
30	0x3e228730	0.15871882
31	0xbea195da	-0.3155964
32	0xbedd3b16	-0.43209141
33	0xbe65cc20	-0.22441149
34	0xbd7c6bc8	-0.061626226
35	0xbe8d1de4	-0.27561867
36	0xbdaf145c	-0.08548805
37	0x3cfaa8c0	0.030598044
38	0x3e5da2dc	0.21644157
39	0xbdd58f38	-0.104277074
40	0x3e9e6e5e	0.30943578
41	0x3d93d218	0.072178066
42	0x3ebc47c8	0.36773515
43	0xbece420e	-0.4028477
44	0xbebf1a9c	-0.3732499
45	0x3db3b656	0.08775012
46	0xbdb0354e	-0.08603917
47	0x3e253001	0.16131593
48	0x3db9b235	0.090671934
49	0x3e9612c1	0.29311183
50	0x3e575ab4	0.21030694
51	0x3e6246d5	0.22097333
52	0x3db96ce3	0.090539716
53	0x3e4e31d1	0.20136191
54	0x3ee02d24	0.4378444
55	0x3df6107d	0.12014864
56	0xbe05819d	-0.13037725
57	0xbd33ccbe	-0.04389643
58	0x3b95b9cb	0.0045692674
59	0x3ea3c9d9	0.31989935
60	0x3de9d4e0	0.11417556
61	0xbe872790	-0.2639737
62	0xbe7dca65	-0.24784239
63	0xbd924320	-0.07141709
64	0x3e3d4ed0	0.18487096
65	0xbd884c54	-0.066551834
66	0x3ed54b52	0.41659027
67	0x3dda7f94	0.10668865
68	0x3edf9091	0.43664983
69	0x3ecb762f	0.39738604
70	0xbea8bcbf	-0.32956502
71	0x3ea7bf74	0.32763255
72	0xbdd39140	-0.103304386
73	0x3ed845c9	0.42240742
74	0x3e750693	0.23928289
75	0xbe86eefb	-0.26354203
76	0xbdaa9388	-0.083289206
77	0x3e933ac6	0.28755778
78	0xbe819895	-0.25311723
79	0xbe1fd7b2	-0.15609625
80	0xbe45c484	-0.19313246
81	0x3e182104	0.14856344
82	0xbebef6b5	-0.37297598
83	0xbc4641a0	-0.012100607
84	0xbdd173bc	-0.10227153
85	0xbd81fbd4	-0.063468605
86	0xbed5d655	-0.41765085
87	0xbe4be485	-0.19911392
88	0x3e88ec4c	0.2674278
89	0xbeac1680	-0.33610916
90	0xbe4a3f57	-0.19750725
91	0xbdc8c988	-0.09804064
92	0x3eac7881	0.33685687
93	0x3e5be625	0.21474512
94	0x3ecd5cbf	0.40109822
95	0xbe9e3e8c	-0.30907094
96	0x3e4abb3c	0.19797987
97	0xbeba46a0	-0.36382008
98	0x3dfe1ac8	0.12407452
99	0xbe2fe020	-0.1717534
100	0xbe043fc6	-0.12914953
101	0x3ec4e2e8	0.38454366
102	0xbe63940a	-0.22224441
103	0xbe6d215c	-0.23157257
104	0xbea0a2e8	-0.31374288
105	0xbea9291e	-0.33039182
106	0xbea6d8b3	-0.32587203
107	0x3da905e8	0.0825308
108	0x3e0c1ef4	0.13683683
109	0x3e656868	0.22403109
110	0xbe1b337d	-0.1515636
111	0x3eed445f	0.46341226
112	0x3e200b16	0.15629229
113	0xbc3220a6	-0.010872042
114	0x3eba464a	0.3638175
115	0xbec7a0b0	-0.38989782
116	0xbd3b944a	-0.045795716
117	0x3ef139d3	0.4711443
118	0x3c9b2af8	0.018941388
119	0x3de3dbd6	0.11125915
120	0x3ebd1d8e	0.3693661
121	0xbcefb060	-0.029258907
122	0xbe8d2d1e	-0.27573484
123	0x3e9f0aa3	0.31062803
124	0xbe116437	-0.14198385
125	0xbedf1ba5	-0.4357578
126	0x3eca6c0c	0.39535558
127	0x3e07bbb8	0.13255203
128	0xbeb800e4	-0.3593818
129	0xbe7d8dfe	-0.24761197
130	0x3e3f297b	0.18668167
131	0x3e0b9afe	0.13633344
132	0x3e35b662	0.17745355
133	0x3dfec1e1	0.12439323
134	0x3e2f300f	0.17108177
135	0xbea02aa9	-0.31282547
136	0xbeae06f3	-0.33989677
137	0x3e358fe8	0.17730677
138	0x3ed5d776	0.41765946
139	0xbe9fa808	-0.31182885
140	0xbe3ef374	-0.18647557
141	0xbecfb734	-0.4056946
142	0xbea9d032	-0.33166653
143	0xbe44bfd2	-0.19213799
144	0x3ed1b2f4	0.40956843
145	0x3d32e7e0	0.043678164
146	0x3ea8875e	0.32915777
147	0xbe34496c	-0.17606133
148	0xbeb69ac5	-0.35664955
149	0xbda6f770	-0.08152664
150	0xbdc7fb40	-0.09764719
151	0x3ea1abc4	0.3157636
152	0xbca36ee0	-0.01995033
153	0xbd2bb548	-0.04192093
154	0xbeda8d89	-0.42686108
155	0x3d0c6791	0.034278456
156	0x3e5ba8bd	0.21451087
157	0x3c727cc7	0.014800257
158	0x3de08bc1	0.10964156
159	0x3ed2a679	0.41142634
160	0x3edbbb49	0.42916325
161	0xbe5f4b96	-0.21806177
162	0x3d8a7f72	0.067625895
163	0xbebd61f5	-0.36988798
164	0x3e254917	0.16141163
165	0x3e4d017c	0.20020097
166	0xbe35608e	-0.17712614
167	0xbedf1fc3	-0.4357892
168	0xbeadb72a	-0.33928806
169	0xbe8755be	-0.26432604
170	0x3e8b66de	0.2722692
171	0xbe9f334a	-0.31093818
172	0xbe85d82c	-0.2614149
173	0x3dae0258	0.08496541
174	0xbe327f0a	-0.17431274
175	0xbe90fdd9	-0.2831867
176	0x3d2f2640	0.042761087
177	0x3ed88c66	0.42294616
178	0xbec28b2c	-0.37996805
179	0x3d6c4d20	0.05769074
180	0x3e0f23ec	0.13978547
181	0xbebe6d48	-0.3719275
182	0xbec23322	-0.37929636
183	0xbd848440	-0.06470537
184	0xbeba8719	-0.36431196
185	0x3eb27cc0	0.34860802
186	0xbde52d81	-0.1119032
187	0x3d123934	0.035699084
188	0x3c777068	0.015102483
189	0x3e2978ab	0.16549937
190	0xbea0be10	-0.31395006
191	0x3eb4d104	0.35315716
192	0xbe80c68a	-0.25151473
193	0xbe1f8328	-0.15577376
194	0x3e9b1f76	0.3029744
195	0x3eaca825	0.33722034
196	0xbed05ef4	-0.40697443
197	0x3cd47f6e	0.02593967
198	0x3ed5ef4f	0.4178414
199	0x3e10034e	0.1406376
200	0x3d9c5bfb	0.076347314
201	0xbd5f3948	-0.054497987
202	0x3ee631d3	0.44959888
203	0xbcfdf4ad	-0.03100046
204	0xbd864d14	-0.0655767
205	0x3ebca52a	0.3684476
206	0xbeb22a39	-0.34797838
207	0xbe6b89bd	-0.23001762
208	0xbe323434	-0.17402726
209	0xbdc06354	-0.09393945
210	0x3b59a590	0.0033210255
211	0x3ecdf517	0.4022605
212	0x3e3e1968	0.18564379
213	0xbe491dd8	-0.1964029
214	0xbdbe4a5b	-0.09291526
215	0xbe82d703	-0.25554666
216	0xbe73b86b	-0.23800819
217	0x3d839448	0.06424767
218	0x3e950234	0.29103243
219	0xbe809f08	-0.2512133
220	0xbc9678e1	-0.018368186
221	0x3ea06798	0.31329036
222	0xbe802bcc	-0.25033414
223	0x3eae3d59	0.3403118
224	0x3e9e970a	0.3097461
225	0xbeaa0b93	-0.33211955
226	0x3bc20ac0	0.0059216917
227	0xbeb6bfdc	-0.35693252
228	0x3cd0aab0	0.025472015
229	0x3e0ea8e4	0.13931614
230	0x3e9eb99a	0.31000978
231	0x3e46aeb8	0.19402587
232	0xbe9d877a	-0.30767423
233	0xbe894970	-0.2681384
234	0xbea1781b	-0.31536946
235	0xbe8308d6	-0.2559268
236	0x3bbbb8c0	0.005728811
237	0x3eedd3f3	0.46450767
238	0x3e9b36c7	0.3031523
239	0xbdd19326	-0.102331445
240	0xbd69e94c	-0.057107255
241	0xbe777649	-0.24166216
242	0x3c6805ca	0.0141615365
243	0x3e02981e	0.1275334
244	0x3e9e8e49	0.3096793
245	0xbe8e3de0	-0.27781582
246	0xbeb56355	-0.35427347
247	0x3cb85820	0.022502959
248	0x3e822516	0.2541892
249	0xbe2e7f2c	-0.170407
250	0xbe846186	-0.25855654
251	0xbea8b5e9	-0.32951286
252	0x3e9fe4ac	0.3122915
253	0x3eb67b40	0.35640907
254	0xbe3dc68c	-0.18532771
255	0x3eb00eb0	0.34386206

layer1.bias f4 [100]
0	0x3eeacf22	0.45861155
1	0xbd9fdaf1	-0.07805432
2	0xbd98e004	-0.074646026
3	0x3eb20607	0.34770223
4	0x3e8f560e	0.27995342
5	0xbe898009	-0.26855496
6	0x3e4000c0	0.18750286
7	0xbdc5361c	-0.09629461
8	0xbebac661	-0.36479476
9	0x3d36af22	0.044600613
10	0xbe66ee0e	-0.22551748
11	0xbc75e44c	-0.0150080435
12	0x3e857e00	0.26072693
13	0xbe4f0f90	-0.2022078
14	0x3e03b5b9	0.1286229
15	0xbedffc10	-0.43746996
16	0x3ecd3c0c	0.40084875
17	0x3e1dfff4	0.1542967
18	0x3da2efba	0.079558805
19	0x3e242338	0.1602906
20	0x3e843970	0.2582507
21	0xbeca7609	-0.3954318
22	0xbd7a2a9b	-0.061075788
23	0x3db2d14a	0.08731325
24	0xbe5630cb	-0.2091705
25	0xbe326750	-0.17422223
26	0xbdcadde2	-0.09905602
27	0xbe7dd614	-0.24788696
28	0xbe80bde2	-0.2514487
29	0xbd45ac00	-0.048259735
30	0x3e7d917c	0.24762529
31	0xbde14bbd	-0.11000774
32	0x3e4a47c4	0.19753939
33	0x3ee27554	0.4423014
34	0xbe001ac2	-0.12510207
35	0xbd455290	-0.04817444
36	0x3ea28e0a	0.31748992
37	0xbe1d8afd	-0.15385051
38	0xbed33919	-0.412545
39	0x3eae609d	0.34058085
40	0xbe2acb8f	-0.16679214
41	0xbc461b60	-0.012091488
42	0xbe7a10df	-0.24420498
43	0xbb6aa580	-0.0035804212
44	0xbeba35a9	-0.36369064
45	0xbdc80880	-0.09767246
46	0xbe1fab2e	-0.15592644
47	0xbe794c74	-0.24345571
48	0x3ef159c1	0.4713879
49	0xbee02853	-0.43780765
50	0x3d1decd8	0.03855595
51	0x3e8a090c	0.26960027
52	0xbce685ad	-0.028139913
53	0xbead1e16	-0.33812016
54	0xbed126b9	-0.40849856
55	0xbd0abbc0	-0.03387046
56	0x3dacb1b2	0.0843233
57	0xbe51f664	-0.20504147
58	0xbe5f85c0	-0.21828365
59	0xbd9a104c	-0.0752264
60	0xbde12494	-0.10993305
61	0xbede43cf	-0.4341111
62	0xbcd854e5	-0.026407668
63	0xbcd66aa6	-0.0261739
64	0xbe9d6428	-0.30740476
65	0xbe86bab2	-0.26314312
66	0x3dd22148	0.10260254
67	0xbed2afb7	-0.41149685
68	0x3e9ec1b0	0.31007147
69	0xbe6dfad5	-0.23240216
70	0x3e879206	0.26478595
71	0x3ee3fb84	0.4452783
72	0xbc215aa0	-0.009848267
73	0x3dcb1cf8	0.09917635
74	0xbe8005d9	-0.2500446
75	0xbe876782	-0.26446158
76	0x3e978948	0.29596925
77	0xbe5f4923	-0.21805243
78	0x3e425d28	0.18980849
79	0x3ecc5297	0.3990676
80	0x3e9af1a6	0.30262488
81	0xbe7ca99f	-0.2467408
82	0xbe2a0c82	-0.16606334
83	0xbdca20cb	-0.09869536
84	0xbeab9af3	-0.33516654
85	0x3eb35df8	0.3503263
86	0x3e546ceb	0.20744674
87	0x3e2076c0	0.156703
88	0x3e748117	0.23877369
89	0x3cb0b8f0	0.02157256
90	0x3ed4e41f	0.41580293
91	0xbea2d585	-0.31803527
92	0xbecd8f75	-0.40148512
93	0x3e1d8cdc	0.15385765
94	0xbd4b1f78	-0.049590558
95	0xbd00d5f0	-0.031454027
96	0xbeac1a90	-0.33614016
97	0x3ed58efc	0.4171065
98	0xbec36c00	-0.38168335
99	0xbe602687	-0.21889697

layer2.weight f4 [150, 100]
0	0x3da3fe2f	0.08007466
1	0x3d2b439c	0.041812524
2	0x3c9c2165	0.019058893
3	0x3d797ccc	0.06091003
4	0x3c5fcf00	0.0136601925
5	0xbda89e32	-0.08233298
6	0x3d89db6f	0.06731307
7	0x3da93961	0.08262897
8	0xbd7caf33	-0.06169052
9	0x3d5e100d	0.054214526
10	0x3df39f21	0.11895586
11	0x3d89ea8d	0.0673419
12	0xbd6c9e90	-0.057768404
13	0x3cb48efc	0.022040837
14	0x3da71577	0.08158391
15	0x3dc6c4c1	0.097054966
16	0x3cda3a7c	0.026639216
17	0xbd3e8a67	-0.04651871
18	0x3dc2950d	0.095010854
19	0x3dc5a751	0.09651054
20	0xbdb4060a	-0.08790214
21	0xbd897bd0	-0.067130685
22	0xbc9cd116	-0.019142669
23	0x3d5032b4	0.050829604
24	0xbc62ebd5	-0.013850172
25	0xbca51bd8	-0.020154878
26	0x3de00633	0.109386824
27	0x3d1c2a4a	0.038126267
28	0xbc9817c8	-0.018566027
29	0xba9f3140	-0.0012145415
30	0xbc464bf0	-0.012103066
31	0x3cfd06c2	0.030887011
32	0xbbac5a3e	-0.005259781
33	0xbc2f8198	-0.01071205
34	0xbdbbccbd	-0.0916991
35	0x3db049bd	0.086078145
36	0x3d52c0d6	0.051453434
37	0x3c1ce61c	0.009576347
38	0x3c5d1330	0.013493344
39	0xbd4004a5	-0.04687943
40	0x3dccfd3f	0.1000924
41	0x3cb38934	0.02191601
42	0x3cf5b61f	0.029994069
43	0x394b2a00	0.00019375235
44	0x3d2f27de	0.04276263
45	0xbcfb7460	-0.03069514
46	0xbcd4d2c8	-0.025979415
47	0x3c670212	0.014099615
48	0x3d27dfff	0.040985104
49	0xbcf110ac	-0.029426895
50	0xbc095150	-0.008381203
51	0xbd1d0e73	-0.038343858
52	0xbd517fd8	-0.051147312
53	0x3d50156b	0.050801676
54	0x3cc91d56	0.024550121
55	0x3dba3d67	0.09093743
56	0x3dcc2ab8	0.099690855
57	0xbd9b354d	-0.07578526
58	0x3d438c78	0.047741383
59	0xbd90d040	-0.070709705
60	0x3da6c1f7	0.081424646
61	0x3b2c6ba0	0.0026309267
62	0x3dc2d1d9	0.095126815
63	0x3c1bdf92	0.009513753
64	0xbd75a703	-0.059973728
65	0xbb4fd771	-0.0031714106
66	0x3d2b4778	0.041816205
67	0x3cd2e6a8	0.025744751
68	0xbdb274d8	-0.087136924
69	0xbd3202a3	-0.043459546
70	0xbcb98928	-0.022648409
71	0x3c7cd11d	0.015430716
72	0x3d45218e	0.048127703
73	0xbcb47060	-0.02202624
74	0x3df5b879	0.11998076
75	0x3de9e36d	0.11420331
76	0xbc1a1b50	-0.009405926
77	0xbab746c0	-0.0013982877
78	0xbd2c84b3	-0.04211874
79	0x3da4e4aa	0.08051427
80	0xbc55be28	-0.013045825
81	0x3de2ad26	0.11068182
82	0x3d1b2342	0.03787542
83	0xbd80cbdb	-0.06288882
84	0x3dcc2e26	0.099697396
85	0x3c85ae00	0.016318321
86	0x3c6068f2	0.013696896
87	0xbd0cc846	-0.034370683
88	0xbd9991c2	-0.07498504
89	0x3c8de788	0.017322317
90	0x3d3034ed	0.043019224
91	0xbd77ceb1	-0.06049985
92	0x3dad4cf9	0.08461947
93	0xbdc90032	-0.098144904
94	0xbc90e358	-0.017686531
95	0x3d8e5879	0.069504686
96	0x3bf7b550	0.007559456
97	0x3d738afa	0.05945871
98	0x3dc2d76a	0.09513743
99	0xbda61b57	-0.081106834
100	0x3c809aa3	0.015698737
101	0x3d2c47f7	0.04206082
102	0x3d0dd164	0.03462352
103	0x3d75b623	0.059988152
104	0x3dc5b6af	0.09653985
105	0xbd7464b0	-0.059666336
106	0x3c9afb48	0.018918648
107	0x3a9c6340	0.0011931434
108	0x3c95d588	0.018290296
109	0x3dda72da	0.106664374
110	0x3d092147	0.033479
111	0xbd979a40	-0.07402468
112	0x3d129b02	0.03579236
113	0x3da53866	0.08067398
114	0x3dd93214	0.10605255
115	0xbd101fc0	-0.03518653
116	0x3d073aba	0.03301499
117	0x3d7c9be2	0.0616721
118	0x3c530f9f	0.012882142
119	0x3dc5bf21	0.096555956
120	0xbcc0baa8	-0.023526505
121	0xbdcbae25	-0.09945325
122	0x3d11b64d	0.035574246
123	0xbccfe740	-0.025378823
124	0xbd8be5bc	-0.06830928
125	0x3d01f082	0.031723507
126	0xbd6bea5e	-0.057596557
127	0x3db45807	0.088058524
128	0xbc3a8198	-0.011383437
129	0x3dcc0065	0.09961013
130	0xbc2a00f0	-0.0103762
131	0x3caa6568	0.020800307
132	0xbd743c04	-0.059627548
133	0xbd202f0a	-0.03910736
134	0x3d2b4a36	0.04181882
135	0x3bc63a00	0.0060493946
136	0xbd01efca	-0.03172282
137	0x3d572855	0.052528698
138	0xbd0c7566	-0.034291647
139	0xbd8a30d0	-0.067475915
140	0x3d527e7d	0.05139016
141	0x3b5601c0	0.0032654852
142	0x3c4f0b32	0.0126369465
143	0xbd1056b6	-0.035238944
144	0x3d7c91cb	0.061662477
145	0x3da7edf9	0.081996866
146	0xbc9d9760	-0.01923722
147	0xbbd8d948	-0.006617699
148	0xbb6b9da5	-0.0035952118
149	0xbdc79ccb	-0.09746703
150	0xbd1914da	-0.0373734
151	0x3da9b909	0.08287246
152	0x3d8f394c	0.069933504
153	0x3ddfc77f	0.10926723
154	0x3db43310	0.08798802
155	0x3d15c492	0.036564417
156	0x3d53eafe	0.051737778
157	0xbd626920	-0.055276036
158	0xbcacf683	-0.02111364
159	0x3c8233cc	0.01589384
160	0xbd06a2aa	-0.032869972
161	0x3d6c5bc6	0.05770471
162	0xbd46ee08	-0.048566848
163	0x3d33e6e6	0.043921374
164	0x3c2dd5a8	0.010610022
165	0x3beaab43	0.0071615293
166	0x3d4b4327	0.04962459
167	0x3dca2a65	0.09871367
168	0x3d8c1465	0.068398274
169	0x3cbf9d14	0.02339033
170	0x3d85e9aa	0.065387085
171	0xbd82e9ea	-0.06392272
172	0x3d4aa81a	0.04947672
173	0xbd4d9c43	-0.05019785
174	0x3d9e640c	0.07733926
175	0xbce539c4	-0.027981646
176	0xbd9bb655	-0.076031365
177	0xbc820380	-0.01587081
178	0xbd0fa89c	-0.035072908
179	0xbdace80c	-0.08442697
180	0xbd0248d0	-0.03180772
181	0xbd52f07f	-0.051498886
182	0x3b2ac300	0.002605617
183	0xbd3a02f1	-0.04541296
184	0xba2f0aab	-0.000667731
185	0xbd2afec3	-0.041746866
186	0xbd91a895	-0.071122326
187	0x3d218362	0.039431937
188	0x3d49997b	0.049218636
189	0xbda1fbe8	-0.079093754
190	0xbccdf1dc	-0.025139742
191	0x397e056e	0.0002422535
192	0x3cb0b414	0.021570243
193	0xbd5e7c63	-0.054317843
194	0x3d991aa1	0.07475782
195	0x3c7ac390	0.015305415
196	0x3d4cd272	0.050005384
197	0xbd9e5a98	-0.07732123
198	0x3d81f19f	0.06344914
199	0x3d588d66	0.052869223
200	0xbd242034	-0.040069774
201	0xbc36ceeb	-0.0111577315
202	0x3d39008d	0.04516654
203	0x3cf7e6e3	0.030261463
204	0x3ab15cc0	0.001353167
205	0x3d00e23a	0.031465746
206	0x3b715f00	0.0036830306
207	0xbdc98840	-0.09840441
208	0x3ce9d97c	0.028546087
209	0xbd7f813d	-0.06237911
210	0xbc69355f	-0.014233916
211	0x3c661667	0.014043427
212	0x3c5c1e80	0.013435006
213	0x3da2caaf	0.07948815
214	0x3c1264c5	0.008935158
215	0x3d7a45ba	0.061101653
216	0x3d9ba833	0.07600441
217	0xbd4963b0	-0.049167335
218	0xbd3ddf82	-0.04635573
219	0x3d9a5ac7	0.07536846
220	0x3dc193e5	0.09452037
221	0x3dc1f249	0.0947004
222	0xbb3ca0ba	-0.0028782324
223	0x3d445eef	0.0479421
224	0x3de576c3	0.112042926
225	0x3d7aa4d2	0.06119234
226	0xbd88aeec	-0.06673989
227	0x3d318012	0.043335028
228	0x3d5efaa2	0.05443824
229	0xbd83165a	-0.064007476
230	0x3daff5fd	0.085918404
231	0x3dafebbd	0.085898854
232	0xbbf74470	-0.007546
233	0x3cfa3484	0.03054262
234	0xbda8ad32	-0.082361594
235	0x3d86444d	0.06555996
236	0xbac70ac0	-0.0015185699
237	0x3df7e139	0.12103505
238	0xbdb8cc43	-0.09023335
239	0x3d3572ec	0.04429905
240	0x3ce351ae	0.027748909
241	0x3c37f318	0.011227392
242	0xbc911d0c	-0.017714046
243	0x3da0b85d	0.078476645
244	0x3d98d883	0.07463171
245	0xbb2e65c0	-0.002661094
246	0x3d3ebec2	0.04656864
247	0x3c83fd08	0.016111866
248	0x3d2dc640	0.042425394
249	0xbda44c1b	-0.080223285
250	0x3d26bafe	0.040705673
251	0x3d65476a	0.05597631
252	0x3defd7f0	0.11711109
253	0xbba89551	-0.005144753
254	0x3dbf59fd	0.09343336
255	0x3d58574a	0.05281762

layer2.bias f4 [150]
0	0x3d79acd9	0.060955856
1	0xbb9221a1	-0.0044595753
2	0xbd397ad5	-0.045283157
3	0xbd327813	-0.043571543
4	0x3d277327	0.040881302
5	0x3d6d5587	0.057942893
6	0xbdc96518	-0.09833735
7	0xbd61e854	-0.055153206
8	0xbd4e03ed	-0.050296713
9	0xbd7725e7	-0.06033888
10	0x3d595286	0.053057216
11	0xbdaa2235	-0.08307306
12	0x3dd0c08b	0.10192975
13	0xbdb80843	-0.08985951
14	0xbd64401d	-0.055725206
15	0xbdbdd822	-0.0926974
16	0xbb3523ef	-0.0027639826
17	0x3dc1533b	0.09439703
18	0xbd819734	-0.06327668
19	0x3d440963	0.047860514
20	0xbd0683fb	-0.03284071
21	0xbd612127	-0.054963257
22	0x3d9969b7	0.07490867
23	0x3df0ef0e	0.11764346
24	0x3d771252	0.060320206
25	0x3d98cfb3	0.074614905
26	0x3d512352	0.051059075
27	0x3d0fd1ae	0.035112076
28	0x3dba7c29	0.09105713
29	0x3d4c982a	0.049949802
30	0x3d886215	0.06659333
31	0xbd18cec3	-0.03730656
32	0xbcb2fe28	-0.021849707
33	0xb8900933	-6.8681686e-05
34	0x3c9b32c4	0.018945105
35	0xbd121df3	-0.035673093
36	0xbdb5dd57	-0.08880108
37	0x3c0990ee	0.00839637
38	0x3c0c7228	0.008572139
39	0x3e026fd7	0.12737976
40	0xbd19fd33	-0.037594985
41	0x3c0e6118	0.008690141
42	0xbdad7adb	-0.084706984
43	0xbd0707b1	-0.03296632
44	0x3c93ff58	0.018066093
45	0xbdc89ee7	-0.09795933
46	0xbd7d3eac	-0.061827347
47	0x3db522bc	0.08844516
48	0x39d03e9c	0.000397195
49	0xbcb166d0	-0.02165547
50	0xbc590dc4	-0.013247911
51	0x3d00df2b	0.03146283
52	0xbc41244e	-0.011788441
53	0xbce44cad	-0.027868593
54	0x3c80e42d	0.015733803
55	0xbd812a0c	-0.06306848
56	0xbdb30be0	-0.08742499
57	0xba239180	-0.0006239638
58	0xbd827a45	-0.06370977
59	0x3d5cc156	0.053895317
60	0xbd8c05af	-0.068370216
61	0x3c1a2058	0.009407125
62	0xbd8848b0	-0.06654489
63	0xbcd55fa4	-0.026046582
64	0xbcea074c	-0.028567933
65	0x3d31650e	0.043309264
66	0x3db0b85e	0.08628915
67	0x3c1ebc90	0.0096885115
68	0x3cfd24fe	0.030901428
69	0x3d7cb3cf	0.061694916
70	0x3c6457b1	0.013936923
71	0x3dfbd7e1	0.12297035
72	0x3c437a68	0.011931039
73	0x3d6332dc	0.055468425
74	0xbd7cd8fc	-0.06173037
75	0xbcf6f1d8	-0.030144617
76	0x3cfaff8c	0.030639432
77	0xbd8deafa	-0.06929584
78	0x3d2911aa	0.04127661
79	0x3dbf5f50	0.09344351
80	0xbda22de3	-0.079189084
81	0x3da7b0cb	0.081880175
82	0x3da93bbe	0.08263348
83	0xbd2d9e45	-0.042387266
84	0x3cbe2d2e	0.023214903
85	0x3d95eb3c	0.07320258
86	0x3db1af44	0.086760074
87	0x3deb572a	0.114912346
88	0x3ce74ce3	0.028234905
89	0xbcdf0ebb	-0.027228704
90	0x3d0f02a8	0.034914643
91	0x3d3beac5	0.04587819
92	0x3d1d9862	0.0384754
93	0x3ca40513	0.02002195
94	0x3cdf650a	0.027269859
95	0xbd1fe573	-0.03903718
96	0xbc612528	-0.013741769
97	0x3daa217b	0.08307167
98	0x3d67085c	0.056404456
99	0x3e030e9a	0.12798539
100	0x3c65ee6c	0.014033895
101	0x3ddfd8af	0.10930001
102	0xbd69a055	-0.05703767
103	0xbc55ad58	-0.013041817
104	0xbcd79f00	-0.026320934
105	0xbd918200	-0.07104874
106	0xbd6f444e	-0.05841475
107	0xbdc06b92	-0.093955174
108	0xbd790457	-0.060795154
109	0xbc402891	-0.011728422
110	0xbb8358d0	-0.00400839
111	0x3d15f4cc	0.03661041
112	0xbd2dcc2b	-0.042431038
113	0x3d4fa48e	0.05069404
114	0xbd480e1d	-0.048841584
115	0x3d63b372	0.055591054
116	0xbd35e3fa	-0.04440687
117	0xbd481a04	-0.048852935
118	0xbdbffd7a	-0.09374519
119	0xbcf148b7	-0.029453618
120	0xbd81d124	-0.063387185
121	0xbd6360f7	-0.055512395
122	0x3da77325	0.08176259
123	0x3a908c08	0.0011028061
124	0xbda3cf12	-0.0799848
125	0xbca9a311	-0.020707639
126	0x3d23f66e	0.040029936
127	0x3c4e84ad	0.012604875
128	0xbc3ad637	-0.011403612
129	0x3d8de119	0.069276996
130	0xbd7a09e7	-0.0610446
131	0xbd6fba28	-0.05852714
132	0xbd1bd18b	-0.038041633
133	0xbcc9f209	-0.024651544
134	0xbd206758	-0.039161056
135	0xbd56005a	-0.05224643
136	0x3e0221ba	0.12708178
137	0xbd952cdc	-0.07283947
138	0xbdc9cf08	-0.09853941
139	0xbdbdb5c7	-0.09263187
140	0x3ca77fe0	0.020446718
141	0xbc219a3a	-0.009863431
142	0x3d429932	0.04750938
143	0xbd5c3aa7	-0.053766873
144	0xbafd5400	-0.0019327402
145	0x3d40f935	0.047112662
146	0xbac666c0	-0.0015136823
147	0xbcf67f98	-0.030090138
148	0x3d436036	0.047699176
149	0xbb9f49d9	-0.0048610982

layer3.weight f4 [100, 150]
0	0x3d887764	0.06663397
1	0xbcd3a7cc	-0.025836848
2	0x3be8936e	0.007097653
3	0x3d8d4ad8	0.06899041
4	0xbd71daf8	-0.059046715
5	0xbcb0d5c1	-0.0215863
6	0xbd89c548	-0.067270815
7	0x3be98170	0.007126026
8	0xbcc1dc63	-0.023664659
9	0xbd251805	-0.04030611
10	0xbd9cb2d3	-0.076512955
11	0xbd203b01	-0.03911877
12	0xbc1e886e	-0.009676082
13	0x3d667fc4	0.05627419
14	0xbbbf79e0	-0.005843386
15	0x3d62195c	0.055199966
16	0xbd8cd8f9	-0.06877322
17	0xbd6a3909	-0.0571833
18	0x3d88b136	0.06674425
19	0xbc5f68ef	-0.013635858
20	0xbc355014	-0.011066455
21	0xbd9ecdc9	-0.07754094
22	0xbd1f13df	-0.03883731
23	0xbd4418eb	-0.047875326
24	0x3d9ba502	0.07599832
25	0x3da20d58	0.07912701
26	0x3c4e18ea	0.012579182
27	0x3cd0a037	0.025467021
28	0xbc2a9290	-0.01041092
29	0x3b229ae1	0.0024811553
30	0xbd79f215	-0.061021883
31	0x3da2ec21	0.07955194
32	0x3d9fae7c	0.07796952
33	0xbc943c60	-0.018095195
34	0x3c4e7ca0	0.012602955
35	0x3d1126d4	0.03543742
36	0x3d779118	0.060441107
37	0xbd5a233e	-0.053256266
38	0xbda25216	-0.07925813
39	0x3d941f0a	0.07232483
40	0xbd3c3f94	-0.04595907
41	0xbd350412	-0.044193335
42	0xbd349346	-0.044085763
43	0x3d2b8791	0.041877333
44	0x3cf1179c	0.029430203
45	0x3c9788a5	0.018497774
46	0x3d35b88c	0.04436545
47	0xbd9bc224	-0.07605389
48	0xbcd83c62	-0.02639598
49	0xbd18e673	-0.03732915
50	0xbda3021d	-0.079593875
51	0xbcd3d028	-0.025856093
52	0xbda54354	-0.080694824
53	0x3d656279	0.056002114
54	0xbcb587d0	-0.022159487
55	0xbd9ac8c3	-0.075578235
56	0x3c6b4838	0.01436048
57	0x3d5ec050	0.054382622
58	0x3d3a8968	0.045541197
59	0x3d65c090	0.056091845
60	0xbcd4be23	-0.02596957
61	0x3da2130e	0.07913791
62	0xbd5156fb	-0.05110834
63	0xbc7ed379	-0.015553349
64	0xbd049fe9	-0.032379065
65	0x3d60eba3	0.05491222
66	0x3d5172e6	0.051134966
67	0x3d34cab0	0.04413861
68	0x3d1bd11a	0.03804121
69	0x3d3fbd3d	0.04681133
70	0x3be3c8c4	0.0069514234
71	0xbbc81f48	-0.0061072446
72	0xbd829d0e	-0.06377612
73	0x3d7e4ad3	0.062083077
74	0xbd2d264f	-0.042272862
75	0x3d3a9258	0.04554972
76	0xbceee770	-0.029163092
77	0xbd856d07	-0.06514936
78	0x3c639660	0.013890833
79	0xbda4d3a1	-0.080481775
80	0xbd881e29	-0.066463776
81	0x3d46ff5c	0.048583373
82	0xbd9e52b5	-0.07730619
83	0x3cf222fa	0.029557694
84	0x3d456320	0.048190236
85	0xbd3e8839	-0.04651663
86	0x3c2b956d	0.010472638
87	0x3d16adb0	0.036786735
88	0xbd0b23f5	-0.03396984
89	0x3d9176c3	0.0710273
90	0x3bf8ba88	0.0075905956
91	0x3d70bca4	0.05877365
92	0xbcf2162c	-0.029551588
93	0x3c667c60	0.014067739
94	0xbcbda810	-0.023151428
95	0x3d6881b5	0.056764323
96	0x3b211040	0.0024576336
97	0x3c0a8919	0.008455538
98	0xbd62b7a5	-0.05535092
99	0x3ca00a73	0.019536233
100	0x3d5b73d2	0.05357725
101	0x3d2984c4	0.04138638
102	0xbc540160	-0.012939781
103	0x3d925650	0.07145369
104	0xbd9145f2	-0.07093419
105	0xbcc120fe	-0.023575302
106	0x3c850bb2	0.016240928
107	0x3cde9450	0.02717033
108	0x3d31265f	0.043249484
109	0x3d8ab0fc	0.06772038
110	0xbc976480	-0.01848054
111	0xbd07ebec	-0.033183977
112	0x3cc06720	0.023486674
113	0xbcf63330	-0.030053705
114	0xbd876ab1	-0.06612147
115	0x3da62858	0.08113164
116	0x3d2746ce	0.04083901
117	0x3d8fc9cd	0.07020912
118	0x3d91c4e4	0.07117632
119	0x3d1636f1	0.03667349
120	0xbd45fc91	-0.04833657
121	0xbd3088ea	-0.04309932
122	0x3d3d8a91	0.046274725
123	0xbd894421	-0.06702448
124	0x3cdb60e0	0.026779592
125	0xbb116b4f	-0.0022189205
126	0xbd97fa79	-0.07420821
127	0x3c9b0e90	0.018927842
128	0xbc55165a	-0.013005817
129	0x3d75d838	0.060020655
130	0x3d05ae30	0.03263682
131	0x3bd53890	0.006506987
132	0xbd828ce2	-0.063745275
133	0xbd620ed2	-0.055189915
134	0x3da4ce82	0.08047201
135	0x3d9cf9b4	0.076648146
136	0x3b6ce4bf	0.0036147085
137	0x3d467d94	0.048459604
138	0x3d8a3b24	0.067495614
139	0x3d2e6310	0.042574942
140	0xbcda965e	-0.026683029
141	0xbb2ff449	-0.0026848486
142	0x3cff4088	0.0311587
143	0xbd5f5d71	-0.054532472
144	0x3d1b7242	0.03795076
145	0xbc4bf3a0	-0.012448221
146	0x3c1098b0	0.008825466
147	0xbd9febf9	-0.0780868
148	0x3da427d4	0.08015409
149	0x3cfb50ca	0.030678172
150	0x3d623e10	0.05523497
151	0x3d87d43e	0.06632279
152	0xbcd9c98e	-0.026585367
153	0xbc94728c	-0.018121026
154	0x3ba6ebf5	0.0050940462
155	0x3d1b1839	0.037864897
156	0x3c9018b4	0.017589904
157	0x3da26493	0.07929339
158	0x3cfa98c1	0.030590417
159	0xbd8c92d5	-0.068639435
160	0x3c1cfc0a	0.009581575
161	0x3cfba357	0.030717535
162	0x3d794cc3	0.06086422
163	0x3b79b740	0.003810361
164	0x3d33b9f0	0.043878496
165	0x3d2f015a	0.0427259
166	0x3b77b64a	0.0037797862
167	0x3d9540dd	0.07287762
168	0x3c3a0578	0.011353843
169	0xbcd43a4e	-0.025906708
170	0xbd460fc0	-0.048354864
171	0xbd6c8b98	-0.057750314
172	0x3d801d94	0.062556416
173	0x3d60f824	0.054924145
174	0xbb6b0a60	-0.0035864338
175	0x3d197858	0.037468284
176	0x3cd8a2b9	0.02644478
177	0x3d784b9c	0.06061898
178	0xbc85d178	-0.016335234
179	0x3d45675d	0.048194278
180	0x3d238001	0.039916996
181	0x3d76e011	0.06027228
182	0x3bdcb9c0	0.0067360103
183	0xbd5c93e1	-0.053851966
184	0x3c1dbd01	0.009627582
185	0x3d7f9ba6	0.062404297
186	0xbd96cd15	-0.07363335
187	0xbdaced47	-0.084436946
188	0xbd1cb905	-0.038262386
189	0xbc0d65a1	-0.008630187
190	0x3d90567b	0.07047745
191	0xbc82c29c	-0.015961938
192	0xbd3a47fc	-0.045478806
193	0x3d16df66	0.036834143
194	0x3d58b2d4	0.05290492
195	0xbd313cb0	-0.043270767
196	0x3d4226eb	0.047400396
197	0xbccd4860	-0.025058925
198	0x3c654d22	0.013995441
199	0xbd1b18c9	-0.037865434
200	0xbd877de4	-0.066158086
201	0x3acedef8	0.0015783003
202	0x3d553aa8	0.052057892
203	0x3c6930b4	0.014232803
204	0x3d856d71	0.06515015
205	0x3a0e9c46	0.00054401567
206	0xbd5e0032	-0.054199405
207	0x3d96ec88	0.073693335
208	0x3d4e7f7c	0.050414547
209	0x3d4b3a30	0.04961604
210	0x3c0f86df	0.008760183
211	0x3cc0d7b0	0.023540348
212	0x3afef8c0	0.0019452795
213	0xbd19624b	-0.037447255
214	0xbd11e896	-0.0356222
215	0xbd56a1a4	-0.052400246
216	0xbd903830	-0.07041967
217	0x3b7fe960	0.0039049014
218	0xbbfc3180	-0.0076963305
219	0xbcda3629	-0.026637154
220	0xbd74a22c	-0.05972497
221	0xbcf0d030	-0.029396147
222	0xbd5b3586	-0.05351784
223	0x3c3e7bca	0.011626193
224	0x3c047f93	0.008087057
225	0x3c88f45d	0.016718084
226	0x3cac6ab8	0.021046981
227	0x3d7589ec	0.059945986
228	0x3d33d884	0.043907657
229	0x3d10ec36	0.03538152
230	0xbd2c978d	-0.042136718
231	0xbacb79c0	-0.0015523955
232	0x3c5aa4fe	0.013345001
233	0x3cc79d53	0.02436701
234	0xbc2049c5	-0.009783213
235	0x3d9f6517	0.07782953
236	0x3d2f21ef	0.04275697
237	0x3d8aa2fd	0.06769369
238	0xbd948106	-0.07251172
239	0xbd5ecd33	-0.054394912
240	0xbd243e98	-0.040098757
241	0x3d2d7eb6	0.04235717
242	0x3bd27060	0.0064220876
243	0x3c85f080	0.01635003
244	0xba734a06	-0.00092807447
245	0x3d680679	0.056646798
246	0x3c2f1920	0.010687143
247	0xbd7e56dc	-0.062094554
248	0xbd85ec3d	-0.065391995
249	0xbda87837	-0.08226054
250	0xbd816e8d	-0.06319914
251	0xbcfe4438	-0.031038389
252	0xbd2412d9	-0.040057037
253	0xbd963ea8	-0.073361695
254	0x3d5dea40	0.054178476
255	0xbd917750	-0.07102835

layer3.bias f4 [100]
0	0xbc6c630a	-0.01442791
1	0x3d58913b	0.052872878
2	0x3d2f512d	0.042802025
3	0x3dbba393	0.09162059
4	0xbd3203b0	-0.043460548
5	0xbcbfa2c0	-0.023393035
6	0x3db4baef	0.08824717
7	0xbd4aa041	-0.049469236
8	0xbd754a90	-0.05988556
9	0x3d07ff50	0.03320247
10	0xbd7b87a6	-0.06140866
11	0xbda43f27	-0.08019858
12	0x3d23a0bd	0.039948214
13	0x3cbc2f3d	0.022971744
14	0x3d0cae00	0.034345627
15	0xbca728e7	-0.020405246
16	0x3d1f0558	0.038823456
17	0x3ce59b9a	0.028028298
18	0xbd5d10b7	-0.05397102
19	0xbc584fc0	-0.013202608
20	0xbcd43680	-0.025904894
21	0x3d7542bc	0.059878096
22	0x3d8684dc	0.0656831
23	0x3dc6c7e7	0.09706097
24	0x3d0ceb18	0.03440389
25	0x3d9f5cf8	0.07781404
26	0xbd4ccdd2	-0.050000973
27	0xbb961450	-0.004580058
28	0x368b283c	4.1472067e-06
29	0xbd142e35	-0.03617688
30	0xbd24e339	-0.04025576
31	0xbd7c39fb	-0.061578732
32	0x3d801ae8	0.06255132
33	0xbc94443f	-0.018098949
34	0xbc974134	-0.018463708
35	0xbb1cc2c0	-0.002391979
36	0x3da2acec	0.079431385
37	0xbd87dd55	-0.066340126
38	0x3d9a93db	0.075477324
39	0xba8cee40	-0.0010752156
40	0x3d1a1e21	0.03762639
41	0xbd9b3498	-0.07578391
42	0x3cac13c3	0.021005517
43	0x3c392cea	0.011302212
44	0xbd161c92	-0.03664834
45	0x3d39e61b	0.04538546
46	0x3d18b4a2	0.03728164
47	0x3cb7248c	0.022356294
48	0xbd759730	-0.059958637
49	0xbd2139ef	-0.03936189
50	0x3d91d3a3	0.071204446
51	0xbd056f28	-0.03257671
52	0x3bf910f0	0.007600896
53	0xbb9bfd60	-0.0047604293
54	0x3b8918e0	0.0041838735
55	0xbc715548	-0.014729805
56	0xbcd3b26f	-0.02584192
57	0x3c956e2e	0.018241014
58	0x3d4ed58b	0.05049662
59	0xbd5c6256	-0.053804718
60	0xbd0bd22d	-0.034135986
61	0x3d4cac81	0.0499692
62	0xbcba4d3d	-0.022741908
63	0xbda22ba7	-0.07918482
64	0xbd6729f8	-0.05643651
65	0xbd0b1381	-0.033954147
66	0xbc96696a	-0.018360812
67	0x3d1188b2	0.035530753
68	0x3d88bd91	0.06676782
69	0xbb95f800	-0.004576683
70	0x3da1c806	0.078994796
71	0x3d6c1350	0.057635605
72	0x3d980dc8	0.074245036
73	0xbd8816cd	-0.06644974
74	0xbd64be35	-0.055845458
75	0xba1ba146	-0.00059368124
76	0x3b638c20	0.0034720972
77	0xba9788ec	-0.0011561192
78	0x3d2f2ab1	0.042765323
79	0x3d6b7cf5	0.057492215
80	0xbd6d9d4c	-0.058011338
81	0xbd896977	-0.06709569
82	0xbd3cf069	-0.04612771
83	0xbc98a130	-0.018631548
84	0x3cbcafc7	0.023033036
85	0x3d8a412a	0.0675071
86	0xbc1a4f94	-0.009418387
87	0x3d99cf9f	0.07510304
88	0x3d2ba323	0.041903626
89	0xbda07ca4	-0.07836273
90	0xbd75637b	-0.059909325
91	0xbd189013	-0.037246775
92	0xbc64c573	-0.013963091
93	0xbb14f270	-0.0022727512
94	0xbce1900e	-0.027534511
95	0xbd3ddd71	-0.04635376
96	0xbd2a237b	-0.041537743
97	0x3dbe642b	0.09296449
98	0xbd416cce	-0.047222905
99	0x3d8c6e0b	0.068569265

layer4.weight f4 [80, 100]
0	0xbdc3660e	-0.0954095
1	0xbd9dd770	-0.07707107
2	0x3dd2445e	0.10266946
3	0x3d4ff897	0.050774183
4	0x3d94fef6	0.072751924
5	0x3d0694ea	0.03285686
6	0x3d98de1e	0.074642405
7	0xbd9f2756	-0.077711746
8	0x3d6c330a	0.057665862
9	0x3d0dcd1a	0.03461943
10	0xbdb8e76b	-0.090285145
11	0x3dc667f5	0.09687797
12	0xbdc568c0	-0.0963912
13	0x3d04cfd3	0.03242476
14	0xbd0e9bdd	-0.03481661
15	0x3d50309d	0.05082761
16	0x3bc5ac20	0.006032482
17	0x3de68cc1	0.112573154
18	0x3d7d843b	0.061893683
19	0x3d8a8c58	0.0676505
20	0x3d2176b8	0.03941986
21	0x3dc56bd7	0.096397094
22	0x3daca96b	0.084307514
23	0x3d69499d	0.05695497
24	0x3da4b221	0.08041788
25	0xbd2602e0	-0.040530086
26	0xbafdf140	-0.0019374266
27	0xbd9b32c9	-0.07578046
28	0x3db198c6	0.08671717
29	0x3d6e6736	0.0582039
30	0xbd7290ba	-0.059220053
31	0xbdae7c83	-0.085198425
32	0xbcbce7cf	-0.023059754
33	0x3d1f4145	0.038880605
34	0x3d901889	0.0703593
35	0x3c1be5a8	0.009515204
36	0xbd86478e	-0.06556617
37	0xbd8ea640	-0.069653034
38	0xbd2865b1	-0.041112605
39	0xbc4bd770	-0.012441501
40	0xbd1becaa	-0.038067497
41	0xbb79e360	-0.003812991
42	0xbd9e9e44	-0.077450305
43	0x3d99f9eb	0.07518371
44	0xbc141b77	-0.009039751
45	0xbd37444c	-0.044742867
46	0x3ae075af	0.0017124916
47	0x3b816db0	0.0039498433
48	0xbd962edb	-0.07333156
49	0xbd0bd080	-0.034134388
50	0x3dc52283	0.09625723
51	0xbdba98aa	-0.091111496
52	0x3d5f1916	0.054467283
53	0x3d92565b	0.07145377
54	0xbdb52e5f	-0.08846735
55	0xbcfc7cd8	-0.030821249
56	0x3dc036d9	0.09385461
57	0x3cb7e4e4	0.02244801
58	0x3ccf4f85	0.025306473
59	0x3d817427	0.063209824
60	0x3cef62f9	0.029221999
61	0xbd95825b	-0.07300254
62	0x3d67f29e	0.056627862
63	0x3d3cede3	0.046125304
64	0x3daa1ddd	0.08306477
65	0x3d34b527	0.044118073
66	0x3b229332	0.0024806974
67	0xbd83ee8b	-0.06441983
68	0x3d85dd09	0.065363
69	0xbc979360	-0.018502891
70	0x3d2591ad	0.04042213
71	0x3dbcc86e	0.092179164
72	0x3dd53e21	0.10412241
73	0x3d83feed	0.064451076
74	0x3d2790c8	0.04090956
75	0xbd7ffb62	-0.062495597
76	0x3bd293a0	0.0064262897
77	0x3dbe1090	0.09280503
78	0xbcd3f802	-0.025875095
79	0x3d3cbdae	0.04607933
80	0xbda3ee5b	-0.08004447
81	0x3d30a609	0.043127093
82	0x3cf8758c	0.030329488
83	0x3da812ca	0.08206709
84	0x3d57b8d1	0.05266649
85	0xbc46c495	-0.01213183
86	0xbd81925b	-0.06326743
87	0x3d24d575	0.04024263
88	0x3dd03a9f	0.10167431
89	0x3d914fb9	0.07095284
90	0x3df12177	0.11773961
91	0x3d8fe04f	0.07025205
92	0x3ddf375a	0.10899229
93	0x3da7deab	0.081967674
94	0xbdb773d7	-0.089576416
95	0x3d9523cf	0.072822206
96	0x3d8a9789	0.06767184
97	0x3d288f68	0.041152388
98	0xbd2330fd	-0.03984164
99	0x3d153338	0.0364258
100	0xbd25bb27	-0.040461686
101	0x3d191166	0.037370108
102	0xbccedfa8	-0.025253132
103	0xbdbd1a6a	-0.09233554
104	0x3cf71a24	0.030163832
105	0x3daa7799	0.08323593
106	0xbda74b53	-0.08168664
107	0x3bacba50	0.0052712336
108	0xbd586c60	-0.05283773
109	0xbda59d4a	-0.08086641
110	0x3d6524d2	0.055943318
111	0xbd3a3017	-0.04545602
112	0x3dace545	0.08442167
113	0x3d982781	0.0742941
114	0x3d590672	0.052984662
115	0x3ba91b20	0.0051607043
116	0x3d2292da	0.03969083
117	0xbc218e90	-0.00986065
118	0xbd2675c3	-0.04063965
119	0xbd0b3d3c	-0.033993945
120	0xbd4778e3	-0.04869927
121	0xbd9d3f3e	-0.07678078
122	0xbd63a0a3	-0.055573117
123	0x3dbaaa09	0.09114463
124	0x3c94b0c8	0.018150702
125	0xbdac91cd	-0.08426247
126	0xbdc901c8	-0.09814793
127	0xbcbe78f4	-0.023251034
128	0xbd69e36a	-0.057101645
129	0x3d5b8836	0.053596698
130	0xbdb33898	-0.08751029
131	0xbd0ed6b0	-0.03487271
132	0xba3e0000	-0.0007247925
133	0xbdbb57f3	-0.09147634
134	0x3d3e3ebe	0.046446554
135	0x3d8f6c3d	0.07003067
136	0xbd60a920	-0.05484879
137	0xbd39c66a	-0.045355238
138	0x3d9710f7	0.07376283
139	0x3db4a391	0.0882026
140	0xbda747ce	-0.081679925
141	0x3c72de50	0.014823511
142	0x3d627592	0.055287905
143	0x3d7ac456	0.061222397
144	0xbc80eeb4	-0.015738823
145	0xbda9201b	-0.08258077
146	0x3c84abb4	0.016195156
147	0x3cbdb1c8	0.023156062
148	0xbb22bda0	-0.0024832264
149	0x3ce761bc	0.028244846
150	0xbd3e0cd3	-0.04639895
151	0x3d189e3a	0.03726027
152	0x3d790ec2	0.06080509
153	0x3d42f706	0.04759886
154	0xbd972d92	-0.07381739
155	0xbd7c4e97	-0.061598387
156	0x3da22e07	0.07918935
157	0xbda289ab	-0.07936414
158	0xbc55fc90	-0.013060704
159	0xbdb57c7d	-0.08861635
160	0xbb5c92c0	-0.0033656806
161	0x3d9409a9	0.07228405
162	0xbda0478b	-0.07826146
163	0xbd39ca9d	-0.045359243
164	0x3da6a0db	0.081361495
165	0x3dac4777	0.08412068
166	0x3cb38d0c	0.021917842
167	0x3d82f5d7	0.063945465
168	0xbda8a2c5	-0.08234171
169	0x3d5b16be	0.053488486
170	0x3cc967cc	0.024585627
171	0x3d6591b6	0.056047164
172	0xbca63ef8	-0.020293698
173	0x3c64ee40	0.013972819
174	0x3d644cee	0.05573743
175	0x3c44b658	0.012006365
176	0xbd9f0096	-0.07763784
177	0x3dbcd37b	0.09220024
178	0x3bb83560	0.005621597
179	0xb9136000	-0.00014054775
180	0x3d115e8e	0.035490565
181	0xbd7df177	-0.061997857
182	0x3d81e539	0.06342549
183	0xbdc23605	-0.0948296
184	0x3db3d159	0.08780164
185	0xbd8141b2	-0.063113585
186	0x3aa35d40	0.0012463704
187	0xbd991193	-0.07474055
188	0xbdbd097b	-0.09230324
189	0x3c480968	0.012209274
190	0xbda769ed	-0.081745006
191	0xbdac1082	-0.08401586
192	0x3d3611c2	0.04445053
193	0x3d9b64b1	0.07587565
194	0xbd1c4c17	-0.038158502
195	0x3ca5566c	0.02018281
196	0x3b9925b0	0.004673682
197	0x3da45e63	0.08025815
198	0xbba6b0e0	-0.005087003
199	0xbce1f674	-0.027583338
200	0xbd8e81c2	-0.06958343
201	0xbd12a461	-0.035801295
202	0xbb90b56d	-0.004416159
203	0xbd933ac0	-0.0718894
204	0xbd854013	-0.06506362
205	0x3d8b452d	0.068003036
206	0xbd91cbff	-0.07118987
207	0xbc129d50	-0.008948639
208	0xbcd13460	-0.02553767
209	0xbd2081ba	-0.039186217
210	0xbdc8f1bd	-0.09811733
211	0xbc961bb4	-0.018323757
212	0xbcf214d2	-0.029550944
213	0x3d575c0a	0.05257801
214	0xbd9579e1	-0.07298637
215	0xbd4968d0	-0.049172223
216	0x3c30dcc0	0.010794818
217	0x3d4a3ec3	0.04937626
218	0x3c378aa8	0.011202492
219	0x3cd72111	0.026260884
220	0x3c4a6ba2	0.012354763
221	0x3db9891b	0.09059354
222	0xbcb9bec8	-0.02267398
223	0x3c1822c7	0.009285635
224	0x3da8f999	0.08250732
225	0xbc805380	-0.015664816
226	0xbdbe72aa	-0.09299214
227	0x3db63c3f	0.0889821
228	0xbda3e37b	-0.08002373
229	0xbcb35e4c	-0.02189555
230	0x3dc94287	0.09827142
231	0x3ce7fda4	0.028319187
232	0x3d56c754	0.052436188
233	0x3b18c835	0.0023312692
234	0xbc0e2630	-0.008676097
235	0x3c0102e8	0.007874228
236	0x3b9db6a0	0.0048130304
237	0x3d9ccd63	0.07656362
238	0xbdab770a	-0.08372314
239	0x3d6a160e	0.05714994
240	0x3c83bb16	0.01608042
241	0x3d33d122	0.043900616
242	0xbd98b190	-0.07455742
243	0x3da36620	0.07978463
244	0x3dc0d002	0.09414674
245	0x3c37c5c4	0.011216585
246	0x3d1dcf9a	0.038528062
247	0x3ca29408	0.019845977
248	0xbd154554	-0.03644307
249	0xbd824a48	-0.06361824
250	0x3d93c9cc	0.07216224
251	0x3da6d3c9	0.081458636
252	0xbdad8b73	-0.084738635
253	0xbd6d98fd	-0.05800723
254	0xbd431013	-0.04762275
255	0xbdb5964f	-0.0886656

layer4.bias f4 [80]
0	0xbb87cf2f	-0.0041445713
1	0xbd67be13	-0.056577753
2	0x3d1ad1bc	0.037797675
3	0xbd4ceb9a	-0.050029375
4	0xbda09e15	-0.07842652
5	0xbcb7deec	-0.022445165
6	0x3b06d400	0.002057314
7	0xbc9b68a1	-0.01897079
8	0x3d8ab3db	0.06772586
9	0xbd03ceaa	-0.032179512
10	0xbc6f92a2	-0.014622362
11	0xbdbb7933	-0.09153976
12	0xbba16b97	-0.004926156
13	0x3cad6196	0.021164697
14	0x3d873e0d	0.06603632
15	0x3d4ac228	0.049501568
16	0xbd08a7da	-0.0333632
17	0xbdbee8d9	-0.09321756
18	0xbd3e5e00	-0.046476364
19	0x3d0e1516	0.034688078
20	0xbccb0e09	-0.024786966
21	0x3dc29433	0.09500923
22	0x3c14230d	0.00904156
23	0xbd0b7ec5	-0.034056444
24	0x3b2980c0	0.0025864094
25	0x3d84e707	0.064893775
26	0xbda0d5fd	-0.07853315
27	0xbdaa1dc2	-0.08306457
28	0x3d06e11a	0.032929517
29	0x3d634bfc	0.055492386
30	0xbd1bf6d4	-0.03807719
31	0xbda06643	-0.07832005
32	0xbd8975a1	-0.06711889
33	0x3bae9180	0.0053274035
34	0x3d79851c	0.06091796
35	0xbb2f5840	-0.0026755482
36	0xbd765513	-0.060139727
37	0xbd00bbcd	-0.0314291
38	0x3cb0de80	0.021590471
39	0xbcfc8e8b	-0.030829689
40	0x3caef28c	0.02135589
41	0x3ddfefe9	0.10934431
42	0x3d18627e	0.037203304
43	0xbd911596	-0.07084195
44	0xbd71a7c0	-0.05899787
45	0x3d8546f9	0.065076776
46	0x3cb69054	0.022285618
47	0x3d39684d	0.045265485
48	0xbc8564ba	-0.016283382
49	0x3afcb180	0.0019278973
50	0x3c9e2809	0.0193062
51	0xbb5f53da	-0.003407708
52	0x3d9a41e0	0.07532096
53	0x3da070e5	0.07834033
54	0xbd1bf2dd	-0.03807341
55	0x3c0c2fec	0.008556347
56	0xbda22e20	-0.07918954
57	0xbb9b26e8	-0.0047348626
58	0x3be8b620	0.007101789
59	0x3dc6ef31	0.09713591
60	0x3d63fb4d	0.05565958
61	0x3d149744	0.03627707
62	0xbd9b385c	-0.07579109
63	0x3d580743	0.0527413
64	0xbdaaeb46	-0.08345656
65	0xbcd14718	-0.025546595
66	0x3cb3c04b	0.021942278
67	0x3dc565e5	0.096385755
68	0xbd3c6000	-0.04598999
69	0x3cc3e1ab	0.023911318
70	0x3d930416	0.07178514
71	0x3b86676d	0.004101685
72	0x3db3f161	0.08786274
73	0xbd36fbc2	-0.04467369
74	0x3c694ac5	0.014239018
75	0xbb62902b	-0.0034570794
76	0x3cb3ca14	0.021946944
77	0x3b237560	0.0024941787
78	0x3d453562	0.048146613
79	0x3d0a4eaa	0.033766426

layer5.weight f4 [60, 80]
0	0xbcd694cd	-0.026194
1	0x3cc298c0	0.023754478
2	0x3d437908	0.047722846
3	0x3de02ccc	0.10946044
4	0x3dbdd72a	0.09269555
5	0x3c5dcf50	0.013538197
6	0xbd0c4356	-0.034243904
7	0xbdc7a165	-0.097475804
8	0xbda4bc54	-0.08043733
9	0x3d3279b0	0.04357308
10	0xbdc8881b	-0.09791585
11	0x3d5007d8	0.05078873
12	0xbdc41005	-0.09573368
13	0xbdb302ab	-0.08740743
14	0x3d3880c4	0.045044675
15	0xbddde5e5	-0.108348645
16	0xbc7e0628	-0.015504397
17	0xbd053c22	-0.03252805
18	0x3d5be0c8	0.053681165
19	0xbdd23ffe	-0.10266112
20	0x3baadbf3	0.0052142083
21	0xbb42f9a9	-0.002975086
22	0xbce3fc48	-0.027830258
23	0xbd9dd5bd	-0.07706783
24	0xbc340660	-0.010987848
25	0x3c82b97d	0.015957588
26	0x3dd416ce	0.10355912
27	0xbd769c73	-0.060207795
28	0xbd615640	-0.055013895
29	0x3dd46e55	0.10372607
30	0xbcda770a	-0.02666809
31	0x3aef0440	0.001823552
32	0xbd6c7afa	-0.057734467
33	0xbb9ca2e0	-0.0047801584
34	0xbcd2d271	-0.025735112
35	0xbcbf70dc	-0.023369245
36	0x3ce15eb0	0.02751097
37	0x3d8f08e6	0.06984119
38	0x3db71ba3	0.08940818
39	0xbcacc595	-0.021090308
40	0xbcdaa6e8	-0.026690915
41	0xbc1c74d3	-0.009549337
42	0xbd4767ac	-0.048682854
43	0x3ca54bd0	0.020177752
44	0x3c2bd7b0	0.010488436
45	0xbdbe57bc	-0.09294078
46	0x3dcd0acb	0.10011824
47	0x3da5acdd	0.08089612
48	0x3d1f7ea8	0.03893915
49	0xbca00208	-0.019532219
50	0x3d031268	0.031999975
51	0xbd769585	-0.060201187
52	0xbc23cfde	-0.00999829
53	0x3d8563d4	0.06513181
54	0xbb5ba720	-0.0033516362
55	0x3dd9cafa	0.10634418
56	0x3c046ce8	0.008082606
57	0x3d08c5d5	0.033391792
58	0xbc45a668	-0.0120636
59	0x3dbea0d6	0.09308021
60	0xbdd47703	-0.10374262
61	0xbd2e2aa0	-0.04252112
62	0xbda70900	-0.081560135
63	0x3dc8621f	0.0978434
64	0xbde25a36	-0.110523626
65	0xbddb4dd0	-0.10708201
66	0x3d9c0574	0.076182276
67	0xbd24c140	-0.04022336
68	0xbadd7855	-0.0016896824
69	0xbd917aff	-0.07103538
70	0x3cf81ab6	0.030286174
71	0xbdb32adb	-0.087484084
72	0x3c09abd1	0.008402781
73	0x3d5fa065	0.054596324
74	0xbd9f93b0	-0.07791841
75	0x3daa169a	0.08305092
76	0xbd5eda38	-0.05440733
77	0x3d4c2ab4	0.049845412
78	0xbcc7c4a4	-0.024385758
79	0x3c978523	0.018496102
80	0x3ddcb349	0.107763834
81	0x3db78dd0	0.089625955
82	0x3d9de10e	0.077089414
83	0x3dccabdc	0.09993717
84	0xbd815950	-0.06315863
85	0x3d3401e4	0.043947116
86	0xbde17ca5	-0.11010102
87	0x3dde87bd	0.10865734
88	0xbc936dd5	-0.017996708
89	0xbdb98b3e	-0.090597615
90	0xbd121db1	-0.035672847
91	0x3d615788	0.055015117
92	0x3c666860	0.014062971
93	0x3cdc5e51	0.026900442
94	0xbd2e03df	-0.04248416
95	0x3d8caf31	0.068693526
96	0xbde2c7b8	-0.110732496
97	0xbdcecb91	-0.10097421
98	0x3dcb917e	0.0993986
99	0x3d69378c	0.05693774
100	0x3cfaba38	0.030606374
101	0xbdaa6689	-0.08320338
102	0x3e02683e	0.12735078
103	0xbdbf3642	-0.09336521
104	0x3dd520c4	0.1040664
105	0x3daa78d0	0.083238244
106	0x3d2f0b5c	0.042735443
107	0x3d246c2a	0.040142216
108	0x3d057a60	0.03258741
109	0xbdd6139c	-0.10452959
110	0xbd3410cc	-0.04396133
111	0xbd345e2c	-0.04403512
112	0x3d953fc6	0.072875544
113	0xbdb96731	-0.09052885
114	0xbd137f36	-0.03600999
115	0x3d0fd2a4	0.035112992
116	0x3d9309d8	0.07179612
117	0xbc57e59b	-0.013177301
118	0x3dcc86a3	0.099866174
119	0xbcc95c80	-0.02458024
120	0x3d58fbd4	0.052974537
121	0xbd70fb55	-0.05883344
122	0x3c20f828	0.00982479
123	0x3d81b124	0.06332615
124	0x3ddefd26	0.10888128
125	0xbd118b64	-0.035533324
126	0xbd9d9f8b	-0.07696446
127	0xbdaaa90f	-0.083330266
128	0xbcc7713c	-0.024345987
129	0x3d9d1524	0.07670048
130	0xbd3e5b79	-0.046473954
131	0x3df70ea0	0.12063336
132	0x3d037c0c	0.032100722
133	0xbd4b5fe8	-0.04965201
134	0x3c6dba70	0.014509782
135	0x3d063cea	0.032772936
136	0xbd89d198	-0.0672943
137	0x3dba64ac	0.09101233
138	0x3ce6e9b8	0.028187618
139	0xbb15a2bc	-0.0022832593
140	0xbce16328	-0.027513102
141	0x3c95157a	0.018198717
142	0xbcc5602a	-0.024093706
143	0xbd2e5dfa	-0.04257009
144	0x3d1be4c8	0.03805998
145	0xbd34eece	-0.044173054
146	0xbd595adc	-0.053065166
147	0xbd767050	-0.060165703
148	0x3d4b1fc1	0.04959083
149	0xbdb5b71c	-0.08872816
150	0x3c5042f8	0.012711279
151	0x3da70f54	0.081572205
152	0x3c9773d0	0.01848784
153	0xbd27e0c6	-0.040985845
154	0x3dc4ebd0	0.0961529
155	0xbd18f6de	-0.037344806
156	0x3dd6658d	0.10468588
157	0x3d3bf1c4	0.045884863
158	0x3de2cb0a	0.11073883
159	0xbcb4d89f	-0.02207595
160	0x3cf9fa7d	0.03051495
161	0xbd0e3bfa	-0.034725167
162	0x3d49bfd0	0.049255192
163	0xbdcf6ef4	-0.101285845
164	0xbd2f2f0d	-0.04276948
165	0x3d1e434c	0.038638398
166	0xbdd114eb	-0.10209068
167	0xbd8f3d58	-0.06994122
168	0x3e0896f5	0.13338836
169	0x3d995c94	0.07488361
170	0x3da348f8	0.07972902
171	0xbdd1ad29	-0.10238106
172	0xbd0852b6	-0.033282004
173	0x3ca69f5c	0.02033966
174	0x3d2fae97	0.04289111
175	0xbcbf5443	-0.023355609
176	0x3cb34a60	0.02188605
177	0xbd45212c	-0.04812734
178	0x3d960e7d	0.07326982
179	0xbcfba770	-0.030719489
180	0xbcd0f3b8	-0.02550684
181	0xbc8083ba	-0.015687812
182	0x3cb4e8a4	0.022083588
183	0xbdb2eff4	-0.08737174
184	0xbd7a8ab0	-0.06116742
185	0x3b8d1770	0.0043057725
186	0x3d55f2e3	0.052233588
187	0xbd1dbd3e	-0.038510554
188	0x3dd6070f	0.10450565
189	0x3c92a00d	0.017898584
190	0xbd6f0307	-0.058352496
191	0xbd71d391	-0.059039656
192	0xbc0194e6	-0.007909035
193	0xbd6fedc8	-0.058576375
194	0x3d0d1fe2	0.034454234
195	0x3de2b102	0.11068918
196	0x3ddfb4e6	0.109231755
197	0x3c8d37ed	0.017238582
198	0x3dec45de	0.115367636
199	0x3cbaebb4	0.02281747
200	0x3d836d82	0.06417371
201	0x3dfbcfa4	0.12295464
202	0xbc9bafa0	-0.019004643
203	0xbccfc6f0	-0.025363415
204	0x3db3d88a	0.08781536
205	0x3d4ed54a	0.050496377
206	0xbd5f5706	-0.05452635
207	0x3db16363	0.08661535
208	0xbbb26c30	-0.005445026
209	0xbdc8f4ac	-0.098122925
210	0x3d8a0be5	0.0674055
211	0x3d0abf8a	0.033874072
212	0x3c8bd5e3	0.017069763
213	0x3d742fd0	0.05961591
214	0x3d6d1064	0.05787696
215	0x3dfd798b	0.12376698
216	0x3ccc1ba8	0.024915531
217	0x3dae61fd	0.085147835
218	0xbdc3d64b	-0.095623575
219	0x3dea222d	0.114323
220	0xbd0b2fbe	-0.033981077
221	0xbadcb9ae	-0.0016840005
222	0xbd95c239	-0.07312436
223	0xbd62a6ea	-0.055334963
224	0xbd2c14e0	-0.042012095
225	0xbd5b6f9e	-0.053573243
226	0xbd848255	-0.06470171
227	0xbc6380c9	-0.013885685
228	0xbca07825	-0.01958854
229	0xbca99024	-0.020698614
230	0xbd7f97d8	-0.06240067
231	0xbca3562c	-0.01993855
232	0xbd0fc99c	-0.03510438
233	0xbd507c75	-0.05089994
234	0x3d0913a0	0.03346598
235	0x3d29dc61	0.041469935
236	0xbb1c8919	-0.0023885428
237	0xbd8a7b5c	-0.0676181
238	0x3b0ea8a0	0.0021767989
239	0x3db7ac43	0.08968403
240	0xbd7432a0	-0.059618592
241	0x3db1b7a2	0.08677603
242	0x3d65d4f0	0.056111276
243	0xbdbfbd5a	-0.09362288
244	0x3b6fbefe	0.0036582346
245	0x3d2c3c5c	0.04204975
246	0x3d3f36a4	0.04668297
247	0x3cef1bee	0.029188123
248	0x3d95fb77	0.07323354
249	0xbd5137a4	-0.051078454
250	0xbd0a73f5	-0.03380199
251	0xbcda79a0	-0.026669323
252	0x3d97d45a	0.0741355
253	0xbd8135ac	-0.06309065
254	0x3d96e704	0.073682815
255	0xbcfe844d	-0.031068945

layer5.bias f4 [60]
0	0x3da1479b	0.07874986
1	0xbd09010d	-0.033448268
2	0xbd5972e1	-0.053088073
3	0x3dc7b9d7	0.09752243
4	0x3cd39c92	0.025831494
5	0xbd85585b	-0.06510993
6	0x3d5327da	0.051551677
7	0xbcf1dbd2	-0.029523764
8	0x3d3e064f	0.046392735
9	0x3c122295	0.008919378
10	0x3d18ae56	0.037275635
11	0xbd67b44d	-0.056568433
12	0x3cc6d649	0.024272101
13	0xbd193454	-0.03740342
14	0xbc0272a8	-0.0079619065
15	0xbd33d9bb	-0.043908816
16	0xbcb040f8	-0.021515355
17	0xbd7c077c	-0.061530575
18	0xbb99231e	-0.0046733757
19	0xbd80324b	-0.062595926
20	0x3ddfe302	0.1093197
21	0x3ce86c3e	0.028371926
22	0x3c4955a4	0.012288485
23	0xbba7d000	-0.005121231
24	0xbdc2cd5c	-0.095118254
25	0xbd3b4f6c	-0.04573004
26	0xbdbb79fa	-0.091541246
27	0xbc99ae8c	-0.018759988
28	0xbd92fd29	-0.07177193
29	0x3c07e430	0.00829415
30	0xbda547c6	-0.0807033
31	0xbdc82f5e	-0.097746596
32	0xbd02f9c4	-0.031976476
33	0x3d601d28	0.054715306
34	0x3d8ddca9	0.06926853
35	0xbdf61e4f	-0.120175
36	0x3da404a2	0.08008696
37	0x3dcffc98	0.101556
38	0x3da2e7d5	0.07954375
39	0x3d2cfffd	0.042236317
40	0x3db25ac7	0.08708721
41	0x3dc9fd62	0.09862782
42	0xbd001254	-0.03126748
43	0xbd453126	-0.048142575
44	0x3da1228a	0.07867916
45	0x3d1ceb48	0.03831032
46	0xbdc6a847	-0.09700065
47	0x3db3355b	0.08750411
48	0xbceccd5d	-0.028906519
49	0x3cba76f4	0.0227618
50	0x3d659339	0.056048606
51	0x3daebe10	0.08532345
52	0x3d23f722	0.040030606
53	0xbc513c61	-0.012770743
54	0x3db06b55	0.08614222
55	0xbda8d3fd	-0.082435586
56	0xbd7855b9	-0.060628626
57	0x3dbd2a95	0.092366375
58	0x3d318474	0.043339208
59	0x3d9619dd	0.07329152
