saved_models/model_INTC.pt (torch_old, 190423 bytes, 15 tensors)

layer1.weight f4 [100, 5]
0	0x3eb1510f	0.34632155
1	0xbbb8c956	-0.0056392355
2	0x3ebb1435	0.36538854
3	0xbe1bbf39	-0.15209664
4	0x3e85dea2	0.26146418
5	0x3d3525d2	0.04422552
6	0x3ec4e20d	0.38453713
7	0x3e60a2cf	0.21937107
8	0xbd669c84	-0.05630161
9	0xbe99c542	-0.30033308
10	0x3dd7d966	0.10539512
11	0x3c8316df	0.016002117
12	0x3d9c57b9	0.07633919
13	0x3d6199da	0.055078365
14	0x3e7eb956	0.24875388
15	0xbe0c0388	-0.13673222
16	0x3e9c6207	0.3054354
17	0x3e4781ae	0.19483063
18	0x3eaa05fa	0.33207685
19	0xbe0a00ce	-0.1347687
20	0xbd14f890	-0.03636986
21	0x3e8064e6	0.2507698
22	0xbe84d20e	-0.2594151
23	0xbdd80b1e	-0.105489954
24	0x3ee0ca81	0.43904498
25	0x3d85bcb2	0.065301314
26	0x3e8f03b8	0.27932525
27	0xbe448972	-0.19193056
28	0x3e07a974	0.13248235
29	0xbeca51ad	-0.3951544
30	0x3e9ad5bd	0.30241194
31	0x3ec56983	0.38557062
32	0x3d3aa361	0.045565967
33	0xbebf8e21	-0.37413123
34	0x3e76683d	0.24063201
35	0x3e93e9b0	0.28889227
36	0xbcea8800	-0.028629303
37	0x3e8abad2	0.27095658
38	0xbe61e14a	-0.22058597
39	0xbee22686	-0.44170016
40	0x3ed2f46c	0.41202104
41	0x3e0e6b39	0.1390809
42	0x3e56644e	0.209367
43	0xbe329bd3	-0.17442255
44	0x3eb92f01	0.36168674
45	0xbeb8a8f3	-0.36066398
46	0x3e86cf8c	0.2633022
47	0x3e61f992	0.2206786
48	0x3ed37ea2	0.4130755
49	0xbe340f54	-0.17583972
50	0x3eaad5bd	0.33366194
51	0x3ee1f747	0.4413397
52	0x3ee34568	0.4438889
53	0x3e429cb2	0.19005087
54	0xbeb9306b	-0.36169752
55	0x3ec8c9ae	0.3921637
56	0xbed434e1	-0.41446593
57	0x3ea61586	0.32438296
58	0xbe22a3d3	-0.15882806
59	0xbe0577f1	-0.13034035
60	0x3e8e45d4	0.2778765
61	0x3e730f23	0.23736243
62	0xbed5b91a	-0.41742784
63	0x3e97c702	0.29644018
64	0xbe489129	-0.19586624
65	0x3ea92782	0.33037955
66	0xbcc03010	-0.023460418
67	0xbecfad8e	-0.405621
68	0xbd2e10a8	-0.042496353
69	0x3d898538	0.067148626
70	0xbebacb42	-0.36483198
71	0xbeabf130	-0.3358245
72	0xbeae72b5	-0.3407189
73	0x3dc6da30	0.09709585
74	0x3dd44098	0.10363883
75	0xbeb43f2f	-0.35204455
76	0xbed19048	-0.4093039
77	0xbe4c20b6	-0.19934353
78	0x3e6dfd3c	0.23241132
79	0x3ebd8c20	0.3702097
80	0x3e3807b5	0.1797169
81	0x3e995958	0.29950976
82	0x3e955b47	0.29171202
83	0x3e9645c4	0.29350102
84	0x3e8b8862	0.2725249
85	0x3edbb29b	0.42909703
86	0x3ddb25cb	0.10700568
87	0x3dd739d6	0.10509078
88	0xbe181bd0	-0.1485436
89	0x3e3540ee	0.1770055
90	0xbec182de	-0.37795156
91	0x3d1194c8	0.03554228
92	0x3ebdf3ce	0.3710007
93	0xbe3ba3cc	-0.18324202
94	0xbeb98e4f	-0.36241385
95	0xbe963a27	-0.29341242
96	0x3da92d0f	0.08260547
97	0x3e7de145	0.24792965
98	0xbd827b9e	-0.06371234
99	0xbdb98f5d	-0.090605475
100	0x3e0386c8	0.12844384
101	0x3e161e5c	0.14660019
102	0xbdc2d760	-0.09513736
103	0xbe2a2e52	-0.16619232
104	0xbe9eabcc	-0.30990446
105	0x3e83c48a	0.25735885
106	0x3df96f49	0.12179429
107	0x3d8ca83a	0.06868024
108	0x3e767c51	0.2407086
109	0x3e801f93	0.2502409
110	0xbe97c1dd	-0.29640093
111	0xbc5f0a00	-0.013613224
112	0xbe80064b	-0.250048
113	0xbeb57d34	-0.35447085
114	0xba3ef600	-0.00072845817
115	0xbea1622e	-0.31520218
116	0xbe9c2212	-0.30494744
117	0xbe7fda6a	-0.24985662
118	0x3e15d6a0	0.14632654
119	0x3e99e4b4	0.300573
120	0xbc59dc77	-0.013297192
121	0xbdb69210	-0.08914578
122	0x3e5aa9c7	0.21353827
123	0x3d8b5cef	0.06804835
124	0x3df61dcf	0.12017404
125	0x3c000b63	0.007815215
126	0x3da40f78	0.08010763
127	0x3dd7aeb9	0.105313726
128	0x3e928ed9	0.2862461
129	0xbdbee079	-0.093201585
130	0xbcd47150	-0.025932938
131	0xbe43083a	-0.19046107
132	0xbea0c4cc	-0.31400144
133	0xbdb2f29c	-0.0873768
134	0x3d537b58	0.0516313
135	0xbe928482	-0.2861672
136	0x3e16dfac	0.14733762
137	0xbe7084f1	-0.23488213
138	0x3e7740b0	0.2414577
139	0x3dc2dd28	0.095148385
140	0xbeb49745	-0.3527166
141	0xbecbb790	-0.39788485
142	0x3d6d2f30	0.05790633
143	0xbde63590	-0.11240685
144	0xbdf06488	-0.11737925
145	0x3e8c90ac	0.27454126
146	0xbedc9068	-0.43078923
147	0xbea87def	-0.3290858
148	0xbd355f28	-0.0442802
149	0xbc95a7e0	-0.018268526
150	0x3c45ba60	0.012068361
151	0xbe969886	-0.2941324
152	0xbd86bcb0	-0.06578958
153	0xbea59fcc	-0.32348478
154	0xbd9a3878	-0.07530302
155	0x3dbdf149	0.09274537
156	0x3deb92ed	0.11502633
157	0x3e9500a3	0.29102048
158	0x3ed386fc	0.41313922
159	0x3e35bd11	0.17747904
160	0x3ec1ab37	0.3782594
161	0x3e82621a	0.2546547
162	0x3ddd3e73	0.10802927
163	0x3e24623e	0.16053101
164	0xbe1761e5	-0.14783438
165	0xbe9a5c41	-0.3014851
166	0xbe4c49b0	-0.19949985
167	0x3da21438	0.07914013
168	0x3e4c2ffc	0.1994018
169	0xbeb1dc7e	-0.34738535
170	0xbeade367	-0.33962557
171	0xbeb3cac3	-0.35115632
172	0xbeba91d8	-0.36439395
173	0x3d666200	0.056245804
174	0xbeacbf0a	-0.337395
175	0xbec54eda	-0.3853672
176	0xbe33a044	-0.17541605
177	0xbdd68c74	-0.10476008
178	0x3e0fccf0	0.14043021
179	0x3cd308e0	0.025761068
180	0x3ecfcba8	0.40585065
181	0xbeb6c0f1	-0.35694078
182	0x3e8cce9c	0.2750138
183	0xbec9235c	-0.3928479
184	0x3da60c06	0.08107762
185	0x3cb8a9d2	0.022541914
186	0x3eb10034	0.34570467
187	0xbddc22b0	-0.107488036
188	0x3e6da44b	0.23207204
189	0xbdd0ec8a	-0.10201366
190	0x3ec05744	0.37566578
191	0x3c57ba33	0.013166952
192	0x3e8fcde7	0.2808678
193	0xbe04326a	-0.12909856
194	0x3db3b3b2	0.087745085
195	0x3ebdbc6d	0.3705782
196	0x3d28cbdb	0.041210037
197	0x3dbb8abe	0.09157322
198	0xbd8c4896	-0.06849782
199	0xbe5858bd	-0.21127601
200	0x3ec46650	0.38359308
201	0x3e4ed904	0.20199972
202	0x3e5ef23a	0.2177209
203	0x3e23edfb	0.16008751
204	0x3eca4a29	0.39509705
205	0xbd4b4512	-0.049626417
206	0x3d61be74	0.05511327
207	0xbd9fdb4c	-0.078054994
208	0x3e937eed	0.28807774
209	0x3eaea331	0.3410888
210	0x3ef01438	0.46890426
211	0x3ea6eb62	0.32601458
212	0x3ea5039b	0.32229313
213	0xbd8a3abc	-0.06749484
214	0x3e25db1c	0.16196865
215	0x3ea26517	0.3171775
216	0xbcc9bddd	-0.024626667
217	0xbe442987	-0.19156466
218	0x3dcb0a95	0.09914128
219	0xbeb06841	-0.3445454
220	0x3e1ef75a	0.15524045
221	0xbe684826	-0.22683772
222	0x3ed44c3a	0.41464406
223	0xbc79ae32	-0.015239285
224	0x3e296767	0.16543351
225	0xbbe43a67	-0.00696497
226	0x3e8523fb	0.26004013
227	0x3c9ccb9e	0.019140061
228	0xbee01d96	-0.43772572
229	0xbe21de92	-0.1580756
230	0x3ea0a528	0.31376004
231	0x3e8c562c	0.27409494
232	0xbe93f609	-0.28898647
233	0x3e8ac1f3	0.27101097
234	0xbec51572	-0.38492924
235	0x3e252ac1	0.1612959
236	0x3b1992a3	0.002343335
237	0x3eea8325	0.4580318
238	0x3eb7521a	0.35804826
239	0xbe066ba6	-0.13127002
240	0xbe982774	-0.297176
241	0x3eca7431	0.39541772
242	0x3e8c8143	0.2744237
243	0x3ed2f073	0.41199073
244	0xbeb82a5b	-0.35969815
245	0xbd4c1250	-0.04982215
246	0xbe8faa04	-0.280594
247	0xbedaeb87	-0.42757818
248	0x3e29e6a8	0.16591895
249	0xbea0382a	-0.3129285
250	0xbed7485c	-0.42047393
251	0xbe141fcc	-0.14465255
252	0xbed8f3c5	-0.4237348
253	0xbebf1b66	-0.3732559
254	0xbe75dd8a	-0.24010292
255	0xbe375e41	-0.17907049

layer1.bias f4 [100]
0	0xbe80b8bb	-0.25140938
1	0x3ea71481	0.3263283
2	0x3d919409	0.071083136
3	0x3eb67073	0.35632667
4	0xbe8ccc46	-0.27499598
5	0x3e7026a9	0.23452248
6	0xbe002c60	-0.12516928
7	0x3d60c360	0.054873824
8	0x3e541163	0.20709758
9	0xbe313183	-0.17304043
10	0xbe953c78	-0.29147696
11	0x3ec56465	0.38553157
12	0xbe06cc22	-0.13163808
13	0xbee2ce46	-0.44298
14	0x3e0e6ba8	0.13908255
15	0x3e8d0586	0.27543277
16	0x3eb621da	0.35572702
17	0x3dc21bce	0.094779596
18	0x3eb0b074	0.34509623
19	0x3e1436e6	0.14474067
20	0x3e5d8c34	0.21635514
21	0xbe0d79e4	-0.13816029
22	0xbbe18bc0	-0.0068831146
23	0x3e70b824	0.23507744
24	0xbddde442	-0.10834552
25	0x3e9fd3c0	0.3121624
26	0x3e260b9c	0.16215366
27	0xbe3ca58c	-0.18422526
28	0x3c18c980	0.009325385
29	0x3e918bb6	0.28426903
30	0xbe159902	-0.14609149
31	0xbe347afa	-0.17625037
32	0xbe079e2e	-0.13243935
33	0x3e3492fc	0.17634195
34	0x3ed67774	0.4188801
35	0xbeb07a86	-0.34468478
36	0x3e59f0a1	0.21283199
37	0xbea93395	-0.33047166
38	0x3e867814	0.26263487
39	0x3dc8571a	0.09782238
40	0x3ece1918	0.4025352
41	0x3e57a631	0.2105949
42	0xbea98f84	-0.33117306
43	0x3e4bcfe2	0.1990352
44	0x3eb41c63	0.35177907
45	0x3ed7e246	0.4216482
46	0x3d075503	0.033040058
47	0x3d6520a9	0.05593935
48	0xbe19e473	-0.15028553
49	0x3dd92458	0.10602635
50	0xbda8198c	-0.08207998
51	0xbdecbd49	-0.11559541
52	0x3e4a0f01	0.19732286
53	0xbe553382	-0.2082043
54	0xbecd1c08	-0.4006045
55	0x3e86911a	0.2628258
56	0x3daee2ee	0.08539377
57	0xbdba729c	-0.09103891
58	0xbe7e809c	-0.24853748
59	0xbeade074	-0.33960307
60	0x3e8f4bdd	0.27987567
61	0xbd83d978	-0.06437963
62	0x3d85ca55	0.065327324
63	0xbe928d9f	-0.28623673
64	0xbeab19a3	-0.33417997
65	0xbe9b9f82	-0.30395132
66	0xbe9c2807	-0.30499288
67	0x3e9d2966	0.30695647
68	0xbe8e4a46	-0.2779104
69	0x3e78252c	0.2423293
70	0x3e9981ca	0.29981834
71	0x3e335ee4	0.17516667
72	0x3e20afbc	0.15692037
73	0x3dc7b170	0.097506404
74	0x3e98732e	0.29775375
75	0xbde3f0f7	-0.11129945
76	0xbed90acf	-0.4239106
77	0x3e047344	0.12934595
78	0xbe108f7f	-0.1411724
79	0xbe3eb051	-0.18621947
80	0x3ecc1756	0.39861554
81	0xbe716c6e	-0.23576519
82	0xbec2c0de	-0.3803777
83	0xbd8e3ec4	-0.06945565
84	0x3e98b279	0.29823664
85	0x3e95ba4e	0.29243702
86	0x3e785ab0	0.24253345
87	0x3edcf87c	0.4315833
88	0xbe6d2834	-0.23159868
89	0x3e4ea674	0.20180684
90	0xbebd04f0	-0.3691783
91	0x3e6522a2	0.22376493
92	0x3eaa8460	0.3330412
93	0xbe5ebc3c	-0.21751493
94	0x3d4d6e33	0.050153922
95	0x3e1b9fc0	0.15197659
96	0x3e8782cd	0.2646698
97	0xbeb30d63	-0.3497115
98	0xbe379d05	-0.17930992
99	0xbedc064e	-0.4297356

layer2.weight f4 [150, 100]
0	0x3c2aca2b	0.010424177
1	0x3d547a7c	0.051874623
2	0xbd84229b	-0.06451913
3	0x3d45a19f	0.048249837
4	0x3d983d30	0.074335456
5	0x3b6f6640	0.0036529452
6	0x3d2d9238	0.042375773
7	0xbdb32d62	-0.087488905
8	0x3d770089	0.060303245
9	0xb939c3bc	-0.00017715892
10	0xbdab2be1	-0.083579786
11	0x3d2fc1e7	0.04290953
12	0x3d3635da	0.04448495
13	0xbcf728b8	-0.030170783
14	0xbd60fec7	-0.054930475
15	0xbd993d3b	-0.07482382
16	0x3d866c88	0.065636694
17	0xbce3003c	-0.027710073
18	0xbcb69d34	-0.022291757
19	0x3b3f7000	0.0029211044
20	0xbdc94b17	-0.098287754
21	0x3d256025	0.040374894
22	0xbdb83b9b	-0.08995744
23	0x3cb1b1d8	0.021691248
24	0xbbfc6f43	-0.007703693
25	0xbd88968d	-0.0666934
26	0xbccf9d54	-0.025343575
27	0xbd6859fa	-0.056726433
28	0x3d3e08e2	0.04639519
29	0xbd4abc77	-0.04949614
30	0xbbecb850	-0.00722412
31	0x3d26269a	0.040564157
32	0x3d32c53b	0.043645125
33	0xbd52cf2d	-0.05146711
34	0xba910d40	-0.0011066571
35	0xbb57c100	-0.0032921433
36	0xbd3d4f4b	-0.046218198
37	0x3c2741ef	0.010208591
38	0x3d165ce7	0.036709692
39	0x3c898582	0.016787294
40	0xbbdaf79d	-0.00668235
41	0xbcf7a387	-0.030229343
42	0xbc252384	-0.010079268
43	0xbd173b46	-0.036921762
44	0x3db741f1	0.08948124
45	0xbd1d0d33	-0.038342666
46	0xbd2e9833	-0.042625617
47	0xbd5c7908	-0.053826362
48	0x3b91ce97	0.0044496763
49	0xbcb935d8	-0.022608683
50	0xbd4aa203	-0.049470913
51	0x3dc83261	0.09775234
52	0xbdb9eb92	-0.090781346
53	0x3d9a8d71	0.07546509
54	0xbbeb2100	-0.0071755648
55	0xbdcbeb6e	-0.09957014
56	0xbce0ee3c	-0.027457349
57	0x3d6d73b2	0.057971664
58	0xbad485fb	-0.0016214246
59	0x3ce9ef7c	0.028556578
60	0xbd786dc1	-0.060651544
61	0x3c6f7130	0.014614388
62	0xbd9eb64b	-0.077496134
63	0xbd9afae6	-0.07567386
64	0x3cc9f7a0	0.02465421
65	0x3d95775e	0.07298158
66	0x3d85427d	0.06506822
67	0xbd024a04	-0.031808868
68	0xbc6c2edc	-0.014415469
69	0x3d8fc413	0.0701982
70	0xbd556554	-0.052098587
71	0x3d6cf883	0.057854187
72	0xbdc3c22d	-0.095585205
73	0xbd18fc2c	-0.037349865
74	0xbd8f4d1b	-0.069971286
75	0xbd5d69c3	-0.05405594
76	0x3d99a5f7	0.075023584
77	0x3c700930	0.014650628
78	0x3d568a21	0.052377824
79	0x3cf7ee66	0.030265044
80	0x3cccf3fc	0.025018685
81	0x3d8650e5	0.06558398
82	0x3cb0104b	0.021492144
83	0x3da3eb7d	0.080039
84	0x3d45267e	0.048132412
85	0xbdaf253b	-0.08552023
86	0xbdac32ca	-0.08408125
87	0xbd54a7dc	-0.051917896
88	0xbce08b05	-0.02741004
89	0x3ca09001	0.019599916
90	0xbd940fa5	-0.072295465
91	0xbcd72b2c	-0.026265703
92	0x3dcc4b5f	0.099753134
93	0xbd1bf063	-0.038071048
94	0xbda160fe	-0.07879828
95	0xbd6eff0d	-0.058348704
96	0x3d9f028d	0.077641584
97	0x3bcabc6c	0.0061870124
98	0xbb08175d	-0.0020765879
99	0xbdab466d	-0.08363042
100	0xbd8741f3	-0.06604376
101	0x3da0fa8b	0.07860287
102	0xbd9bc4a9	-0.07605869
103	0xbd8b9922	-0.06816317
104	0xbd6386dd	-0.055548538
105	0xbd2743e2	-0.040836222
106	0x3cb8342a	0.022485811
107	0x3db76159	0.089541145
108	0xbd43e54c	-0.047826096
109	0xbc49dfac	-0.012321394
110	0xbb1e18b1	-0.0024123604
111	0xbcb6216a	-0.02223273
112	0xbd5fc5ae	-0.05463188
113	0x3d4826fa	0.048865296
114	0x3d9f54a7	0.07779818
115	0xbcfef920	-0.031124651
116	0x3db8de39	0.090267606
117	0x3dd569c0	0.10420561
118	0xbd46ba2d	-0.048517395
119	0xbdaebc3a	-0.08531995
120	0x3d86ce09	0.06582267
121	0xbd5cadcd	-0.053876687
122	0xbdc79f93	-0.09747233
123	0x3c956fb8	0.018241748
124	0x3d31dcfb	0.043423634
125	0x3cefe090	0.029281884
126	0xbd88bd78	-0.06676763
127	0xbdbfc1d2	-0.0936314
128	0x3cfb36e4	0.030665822
129	0xbc39f798	-0.011350535
130	0x3d3acf26	0.04560771
131	0x3dcb173b	0.0991654
132	0x3dc591b1	0.09646929
133	0xbd908be6	-0.070579335
134	0x3c0fda80	0.008780122
135	0x3d560796	0.05225333
136	0x3d9ac20f	0.07556545
137	0xbcb05350	-0.021524101
138	0x3dca06a2	0.09864546
139	0xbd818ead	-0.06326041
140	0x3d1b2d18	0.0378848
141	0x3d10d013	0.035354685
142	0x3cf32401	0.029680254
143	0x3d0e2a1e	0.034708135
144	0x3d78a670	0.060705602
145	0xbc54875f	-0.012971728
146	0xbc898db9	-0.016791211
147	0x3c884c01	0.016637804
148	0xba4b3409	-0.00077515893
149	0x3d60d59e	0.05489122
150	0x3c34e240	0.01104027
151	0x3decff12	0.11572088
152	0xba705b12	-0.0009168844
153	0x3d8e46c4	0.06947091
154	0xbc804288	-0.015656725
155	0x3cb8cf2c	0.022559725
156	0x3d7eb8ea	0.062188067
157	0x3c58df10	0.013236776
158	0x3da63373	0.08115282
159	0x3dbb3ceb	0.091424786
160	0xbd99710c	-0.07492265
161	0x3dbcd621	0.09220529
162	0xbca2e355	-0.019883791
163	0x3d853f55	0.0650622
164	0xbc159e68	-0.009132005
165	0x3c0a1789	0.008428463
166	0xbc8863ea	-0.016649205
167	0x3dcb57ad	0.09928832
168	0x3d9ac524	0.07557133
169	0xbd5c6ccd	-0.053814698
170	0x3da2cbbd	0.07949016
171	0xbd9c7e6f	-0.07641303
172	0xbd0e15a0	-0.034688592
173	0xbce3f755	-0.027827898
174	0x3dac8ae9	0.084249325
175	0xbd9c70ec	-0.07638726
176	0x3dbf5517	0.093424015
177	0xbd6d72c3	-0.057970773
178	0x3daca20b	0.08429345
179	0xbd97fda6	-0.074214265
180	0x3d517d4a	0.051144876
181	0x3d53abda	0.051677562
182	0x3d4a6848	0.049415857
183	0xbd3895e3	-0.045064818
184	0xbd3ff805	-0.04686739
185	0xbd049b70	-0.0323748
186	0x3d8bdc29	0.068291016
187	0x3dca01c5	0.09863619
188	0x3bd12a4c	0.006383216
189	0x3d9d97cc	0.076949686
190	0xbd9d41b6	-0.07678549
191	0x3de19a10	0.11015713
192	0xbce841a0	-0.028351605
193	0x3d424f86	0.04743912
194	0x3d95241d	0.07282279
195	0xbdc13130	-0.0943321
196	0xbc56bbf7	-0.013106338
197	0x3de5e2c5	0.112248935
198	0x3db97f52	0.090574875
199	0x3d4b21df	0.04959285
200	0x3dacc25b	0.08435508
201	0x3c65f966	0.014036512
202	0x3d7875d3	0.06065924
203	0xbd92cf05	-0.07168392
204	0xbccfdb7c	-0.025373213
205	0xbdcb66bb	-0.09931704
206	0xbd12df8e	-0.03585773
207	0xbcc1cfd8	-0.023658678
208	0xbd8ac8fb	-0.06776615
209	0xbcab8454	-0.020937122
210	0x3d2fa7e3	0.04288472
211	0xbd7c6650	-0.06162101
212	0x3d6bb709	0.057547603
213	0xbd017f2a	-0.031615414
214	0xbdc8f06f	-0.09811484
215	0xbc9dae94	-0.019248284
216	0x3d98cdec	0.074611515
217	0xbdb16b66	-0.08663063
218	0x3d2530a6	0.040329598
219	0xbd5783c6	-0.052615903
220	0xbdc965ed	-0.09833894
221	0x3d2e2e31	0.04252452
222	0x3cb7c9a8	0.022435024
223	0xbcd503a8	-0.02600272
224	0x3ce52792	0.02797297
225	0xbd958847	-0.073013835
226	0x3d7836e6	0.06059923
227	0x3dcadf21	0.0990584
228	0xbd3b0aa3	-0.04566444
229	0xbc84c738	-0.016208276
230	0x3d168a66	0.03675308
231	0x3d9e2d64	0.07723501
232	0xbc8d3740	-0.01723826
233	0xbd19d92d	-0.03756063
234	0x3daa7df3	0.08324804
235	0x3cd08c24	0.02545745
236	0x3d902319	0.07037944
237	0x3dc6eaf6	0.09712784
238	0x3caff0cc	0.021477126
239	0x3dc8fbab	0.09813627
240	0x3cf82da7	0.030295206
241	0x3d2a803f	0.04162621
242	0x3d242baf	0.040080722
243	0x3daaff24	0.083494455
244	0x39d79edf	0.00041126364
245	0x3d7bdfd4	0.061492756
246	0x3dc91c3f	0.09819841
247	0x3dbebd2f	0.09313428
248	0x3cb58146	0.022156369
249	0xbd5419dd	-0.051782478
250	0xbdc4908f	-0.09597885
251	0x3cc177f8	0.023616776
252	0xbc95880d	-0.01825335
253	0x3d1663fc	0.036716446
254	0x3c8806e0	0.01660484
255	0x3c16a770	0.009195194

layer2.bias f4 [150]
0	0x3cf651fc	0.03006839
1	0x3cd5a9f7	0.026082022
2	0xbc0dc3ef	-0.008652671
3	0xbd74553f	-0.05965161
4	0x3db48b7f	0.08815669
5	0xbdafdd2a	-0.085871056
6	0x3d978c21	0.07399774
7	0xbd603d02	-0.05474568
8	0x3d6cd6c6	0.05782201
9	0x3d588d15	0.05286892
10	0xbbe64531	-0.007027291
11	0x3da456b9	0.080243535
12	0x3d5f01b2	0.054444976
13	0x3d9a92fc	0.07547566
14	0x3d8044c2	0.062631145
15	0xbd672cba	-0.05643914
16	0xbd7414ba	-0.05959008
17	0xbd3d78b7	-0.0462577
18	0x3d480520	0.048833013
19	0x3dbc0446	0.091805026
20	0xbcb668e0	-0.022266805
21	0xbc9806bb	-0.018557897
22	0x3dbef53a	0.09324117
23	0x3d81d605	0.06339649
24	0x3d96eb05	0.07369045
25	0xbc8e0acc	-0.017339133
26	0xbcc75522	-0.024332587
27	0x3dc8e485	0.09809212
28	0xbd4cdf50	-0.050017655
29	0x3cf0fcb3	0.029417371
30	0x3d254f2d	0.04035871
31	0x3bbe672b	0.0058106384
32	0xbdb1e6f0	-0.08686626
33	0x3ddd5735	0.10807649
34	0x3dc7e58d	0.0976058
35	0xbdcbcd40	-0.09951258
36	0x3cd04f06	0.025428306
37	0x3d693d0a	0.056942977
38	0xbbbcb360	-0.005758688
39	0xbc36541f	-0.0111284545
40	0xbd25dc1d	-0.04049312
41	0x3dd43e4c	0.10363445
42	0x3d1b2a82	0.037882335
43	0x3db82b4c	0.08992633
44	0xbdc19ccd	-0.094537355
45	0x3d32c3c6	0.043643735
46	0xbd7a5d98	-0.061124414
47	0xbcb21a34	-0.02174101
48	0x3d5c6915	0.05381115
49	0x3de6e5f6	0.1127433
50	0xbcbfe2c2	-0.023423556
51	0x3df235dc	0.11826679
52	0xbb955e6d	-0.0045583756
53	0x3d9fc2f9	0.0780086
54	0xbb714a5c	-0.0036818003
55	0xbdbbc9bf	-0.091693394
56	0xbcb58a07	-0.022160543
57	0x3c8f4868	0.01749058
58	0xbda3bcca	-0.07994993
59	0x3db75f51	0.08953727
60	0xbd861a7e	-0.06548022
61	0xbd842e2b	-0.06454118
62	0x3d6600f3	0.05615325
63	0x3d8efdef	0.06982028
64	0xbd426e1d	-0.047468293
65	0xbb73ff02	-0.0037230854
66	0x3dc8011a	0.09765835
67	0x3db8f02d	0.09030185
68	0x3d413b0e	0.04717546
69	0x3d6eae0e	0.05827146
70	0x3cb422a0	0.021989167
71	0x3d497515	0.049183924
72	0xbd90962e	-0.070598945
73	0xbc8f231e	-0.0174728
74	0x3dae4225	0.0850871
75	0x3ce17bda	0.027524877
76	0xbd126f74	-0.03575082
77	0x3d71eb56	0.059062324
78	0x3dba28cb	0.09089812
79	0x3c83ed4b	0.016104361
80	0xbd8c6e42	-0.068569675
81	0x3d95ba26	0.073108956
82	0xbd6589b4	-0.056039527
83	0xbd23ca14	-0.03998764
84	0x3d0b0f8b	0.03395037
85	0x3d574582	0.052556522
86	0x3db7f5e9	0.089824505
87	0x3d8432cf	0.064550035
88	0x3d9f5476	0.077797815
89	0x3d5189c6	0.05115678
90	0xbd6880dc	-0.056763515
91	0xbd33b367	-0.043872263
92	0x3d225bbf	0.039638277
93	0x3d2849d2	0.041086026
94	0xbd8584a1	-0.065194376
95	0x3ce40de3	0.027838653
96	0x3db3f71c	0.08787367
97	0xbd9404b8	-0.072274625
98	0x3c08095b	0.008303012
99	0x3d30eadd	0.043192733
100	0x3d3734b0	0.04472798
101	0xbd52abb8	-0.051433295
102	0x3cfdefe9	0.030998187
103	0x3dcca155	0.09991709
104	0x3c39a0e6	0.011329865
105	0x3ce4f844	0.027950414
106	0x3ccb3448	0.024805203
107	0x3cb7bdf4	0.022429444
108	0x3cd67d77	0.026182873
109	0x3dc8c037	0.09802287
110	0x3dba2de1	0.09090782
111	0x3daaabab	0.08333524
112	0x3dafe5b6	0.08588736
113	0x3d8192cb	0.06326827
114	0x3d2ac81e	0.041694753
115	0x3d65eb56	0.056132637
116	0xbd66aea2	-0.056318887
117	0x3dc1e72b	0.0946792
118	0xbda75565	-0.081705846
119	0x3db543f5	0.088508524
120	0x3c5baed0	0.013408378
121	0xbd27c0fd	-0.040955532
122	0x3da172b5	0.07883207
123	0xbd38bb67	-0.045100596
124	0xbd7524eb	-0.05984966
125	0xbd54e127	-0.051972535
126	0x3cd667f4	0.026172616
127	0xbd99130b	-0.07474335
128	0xbc4e46b2	-0.012590097
129	0x3d33c68e	0.04389053
130	0x3c00e080	0.007866025
131	0x3d776852	0.060402222
132	0xbd11a570	-0.035558164
133	0x3d68312a	0.05668751
134	0xbd8f169d	-0.06986735
135	0x3cd8e4df	0.026476322
136	0x3cd8b72f	0.026454536
137	0xbd636417	-0.055515375
138	0x3d0286dc	0.031866893
139	0x3d1c851e	0.038212888
140	0x3d986529	0.0744117
141	0xbd82f92a	-0.063951805
142	0xbd71ec39	-0.05906317
143	0x3d53ef32	0.051741786
144	0xbca999f8	-0.0207033
145	0x3d5c73b1	0.05382127
146	0x3d15dcf4	0.03658767
147	0xbc2110a8	-0.009830631
148	0x3d717cab	0.058956783
149	0x3d3e0dbb	0.046399813

layer3.weight f4 [100, 150]
0	0x3d8f4269	0.069950886
1	0xbd71def8	-0.05905053
2	0x3bc6ab5b	0.0060629076
3	0x3d9016cf	0.070356004
4	0xbd4cc31e	-0.049990766
5	0x3d949d8a	0.07256611
6	0x3dad4d55	0.084620155
7	0x3d544064	0.05181922
8	0xbd969f2d	-0.07354579
9	0xbd5709b5	-0.05249949
10	0x3db7f170	0.089815974
11	0xbc3f5721	-0.011678488
12	0xbcdfbe4c	-0.02731242
13	0xbbc39228	-0.005968351
14	0xbd751714	-0.059836462
15	0x3d427cbc	0.047482237
16	0xbb8b677e	-0.0042542806
17	0x3d8c47c4	0.06849626
18	0x3d7026bd	0.058630694
19	0x3d1522b8	0.036410064
20	0x3d112ca6	0.03544297
21	0x3d5ea2b6	0.054354392
22	0xbd142fa6	-0.036178254
23	0x3d056a73	0.03257222
24	0xbd336909	-0.04380134
25	0x3ccb40f0	0.024811238
26	0xbbfb2fde	-0.0076656183
27	0x3cc83ba4	0.024442501
28	0xbd4bd038	-0.04975912
29	0xbcb06e38	-0.021536931
30	0xbcd1161d	-0.02552324
31	0x3d74dcc4	0.05978085
32	0x3c89f517	0.0168405
33	0x3ccf9f4f	0.025344519
34	0xbd3c0d8a	-0.04591135
35	0xbda2e574	-0.07953921
36	0x3d8805f8	0.066417634
37	0x3d0059b5	0.03133555
38	0x3d8ca082	0.06866552
39	0x3da906bc	0.082532376
40	0x3d99e27c	0.075139016
41	0xbce21ff2	-0.027603123
42	0xbd0b2888	-0.0339742
43	0xbc95ca3b	-0.018284908
44	0xbd710104	-0.05883886
45	0x3da530bc	0.08065936
46	0x3ca2eccb	0.019888302
47	0x3d5d85c8	0.054082662
48	0xbcbbfa1e	-0.022946414
49	0x3d9f767d	0.07786272
50	0x3da5c2ea	0.080938175
51	0x3dab71d2	0.08371319
52	0x3d21e09a	0.039520837
53	0xbd20e49c	-0.03928052
54	0xbb9900dd	-0.0046692924
55	0xbcfeacc4	-0.03108824
56	0xbc7914fc	-0.015202757
57	0x3ca07174	0.019585349
58	0x3d31f404	0.043445602
59	0x3dbb01fa	0.091312364
60	0x3ce6a3bc	0.028154247
61	0xbc1ba34b	-0.009499381
62	0x3d0cf16f	0.034409937
63	0xbd1ccc70	-0.038280904
64	0xbc34c788	-0.0110339
65	0x3c975e58	0.018477604
66	0x3d21b664	0.039480582
67	0xbd2c2cee	-0.042035036
68	0x3d500644	0.050787225
69	0x3d45112f	0.04811209
70	0x3ce39d4c	0.027784966
71	0x3b9b12cf	0.004732467
72	0x3c16bed0	0.009200767
73	0x3d5d8a87	0.054087188
74	0x3cf909c7	0.03040017
75	0x3c26b6b6	0.010175398
76	0xbda2b671	-0.07944954
77	0x3d8a0e46	0.06741004
78	0xbd8c63b4	-0.06854954
79	0x3d926809	0.071487494
80	0x3da0b9a6	0.0784791
81	0x3d8e8a16	0.069599316
82	0x3db3b485	0.08774666
83	0x3d92aefd	0.071622826
84	0x3bb4f087	0.005521837
85	0xbc8277f4	-0.015926339
86	0xbd655fc3	-0.05599953
87	0xbd5c2591	-0.053746764
88	0x3cd3c732	0.02585182
89	0x3dad47dc	0.08460972
90	0x3c1874f6	0.009305229
91	0x3d5e485c	0.054268226
92	0x3d821d06	0.06353192
93	0x3c594179	0.013260239
94	0xbd5e72db	-0.054308753
95	0xbd73cf56	-0.059523903
96	0xbd2630fe	-0.040574066
97	0x3d0a8618	0.033819288
98	0x3af58fa9	0.0018734831
99	0x3a72ecea	0.00092668703
100	0xbd6e297b	-0.058145028
101	0x3c97c00d	0.018524194
102	0xbc36ef50	-0.011165455
103	0x3d2f8bae	0.04285782
104	0x3d92e307	0.07172208
105	0xbd57888e	-0.052620463
106	0xbd44157f	-0.047872063
107	0xbd8d444c	-0.06897792
108	0xbd7fcda0	-0.06245196
109	0x3d8f8074	0.07006922
110	0x3a8ef1c0	0.0010905787
111	0xbce72c4e	-0.028219368
112	0x3d5c5a30	0.053796947
113	0xbb0519b7	-0.0020309517
114	0x3d7b1e18	0.061307997
115	0x3d641abe	0.055689566
116	0x3d468115	0.048462946
117	0x3d2b29d2	0.04178793
118	0xbce657d8	-0.028118059
119	0xbd978a42	-0.073994175
120	0xbd9a621e	-0.075382456
121	0xbcbcc8d2	-0.023044977
122	0x3d0247f6	0.03180691
123	0x3d5e5e0c	0.05428891
124	0xbcb7dd12	-0.022444282
125	0xbd280200	-0.041017532
126	0xbd0629f6	-0.03275486
127	0xbd9f677c	-0.0778341
128	0x3d946714	0.07246223
129	0x3d9b76f4	0.07591048
130	0xbd8d68c6	-0.069047496
131	0xbd6d98d6	-0.058007084
132	0x3d765b40	0.060145617
133	0xbd27bb9c	-0.040950403
134	0xbc2ab808	-0.010419853
135	0x3cf567ba	0.029956687
136	0xbd8dd8fb	-0.06926151
137	0xbd285bfa	-0.04110334
138	0x3d81196b	0.06303676
139	0x3d12fe2c	0.03588693
140	0x3d821c00	0.06352997
141	0xbcdc58ac	-0.02689775
142	0x3d1897de	0.037254207
143	0xbd0ae775	-0.03391214
144	0xbd578269	-0.052614603
145	0xbc5f53d1	-0.013630823
146	0x3da94b7d	0.08266351
147	0x3d6fa4f8	0.058506936
148	0x3d7c1ea1	0.061552648
149	0x3d21dda9	0.039518032
150	0x3d91755e	0.07102464
151	0x3d47b1f8	0.04875371
152	0x3d734152	0.059388466
153	0x3cd50e5b	0.026007822
154	0xbd0354fa	-0.03206346
155	0xbd81f988	-0.063464224
156	0x3ce0db0b	0.027448198
157	0xbd504695	-0.050848562
158	0xbd4c9a3f	-0.049951788
159	0x3d00d3b1	0.031451885
160	0x3dad6854	0.08467165
161	0x3d06dae1	0.032923583
162	0xbd4c455d	-0.049870837
163	0xbd1386f4	-0.036017373
164	0x3d5d04c9	0.05395964
165	0xbd95fc57	-0.07323521
166	0xbcc6f548	-0.024286881
167	0x3dbe2608	0.09284598
168	0x3d2112c2	0.03932453
169	0x3ce63e27	0.028105808
170	0x3d8aef40	0.067839146
171	0xbc89b92e	-0.016811933
172	0xbd3413da	-0.043964244
173	0x3d9a3588	0.075297415
174	0xbcc31782	-0.02381492
175	0xb96e9a00	-0.00022754818
176	0xbc26508c	-0.01015104
177	0x3cac7685	0.021052608
178	0xbccc3f3a	-0.024932493
179	0x3d4e8c32	0.05042667
180	0x39f1d230	0.00046123704
181	0x3da1c0d1	0.07898105
182	0xbc59e700	-0.013299704
183	0xbd379a83	-0.04482509
184	0x3cadfb6c	0.021238051
185	0x3d6574ac	0.05601947
186	0x3daa5de0	0.083186865
187	0x3cd41457	0.025888605
188	0xbd9f5495	-0.077798046
189	0x3d76d2f8	0.06025979
190	0xbd136f3b	-0.03599475
191	0x3b5b6d45	0.0033481878
192	0xbd9ce83c	-0.07661483
193	0xbd87c600	-0.066295624
194	0x3cc3b280	0.023888826
195	0x3c407ff8	0.01174926
196	0x3cc85e2b	0.024458965
197	0xbd5ef2f0	-0.054430902
198	0xbd258aae	-0.04041546
199	0xbd5c3882	-0.053764828
200	0x3d8e9870	0.06962669
201	0xbcedcc36	-0.02902804
202	0xbd527802	-0.05138398
203	0x3d24d1ee	0.040239267
204	0x3cbe5066	0.023231696
205	0x3d67a60c	0.05655484
206	0x3d96b9de	0.0735967
207	0x3d45696c	0.04819624
208	0xbd7e5f0e	-0.06210237
209	0xbd223bfa	-0.03960798
210	0xbd8f5633	-0.06998863
211	0xbd0260e4	-0.031830683
212	0x3c237ba9	0.009978213
213	0x3daf29e4	0.08552912
214	0x3d0e82b8	0.034792632
215	0x3cf093a5	0.029367277
216	0xbd07f3b0	-0.033191383
217	0xbd9386be	-0.072034344
218	0x3d898cfe	0.06716345
219	0xbc9e1ace	-0.01929989
220	0xbbd47cd0	-0.0064846054
221	0x3d640135	0.055665214
222	0x3d6ac1e0	0.0573138
223	0xbd2d1df6	-0.0422649
224	0x3d1f5ef0	0.0389089
225	0x3d0da6b9	0.034582827
226	0xbd4622df	-0.0483731
227	0x3c86922c	0.016427122
228	0xbc4a7801	-0.012357713
229	0x3d1c41f0	0.03814882
230	0x3b8dae80	0.0043237805
231	0xbcbbfe4f	-0.022948412
232	0x3ae55d9a	0.0017499209
233	0x3d5f8599	0.054570768
234	0x3dad0f77	0.08450215
235	0xbd9a9571	-0.07548035
236	0x3c4cf9a0	0.012510687
237	0xb9c34600	-0.00037245452
238	0x3d16de08	0.03683284
239	0xbc35ba62	-0.0110918
240	0x3d8f0caa	0.06984837
241	0x3d618d98	0.055066675
242	0xbd5e9934	-0.054345325
243	0xbb1d394a	-0.0023990446
244	0xbccf86d9	-0.025332855
245	0xbd03de5e	-0.032194488
246	0xbc1ca788	-0.009561427
247	0x3d95733a	0.07297368
248	0xbd0c8757	-0.034308758
249	0xbc21959d	-0.009862331
250	0x3dc38a28	0.095478356
251	0xbd445f48	-0.04794243
252	0xbc88b9aa	-0.016690094
253	0x3d5eaedc	0.054365978
254	0x3d5c495b	0.053780895
255	0xbcae00c0	-0.021240592

layer3.bias f4 [100]
0	0x3d1b4249	0.03790501
1	0xbd871b6f	-0.065970294
2	0x3d80e722	0.06294085
3	0x3dc44256	0.09582965
4	0x3d970ab8	0.07375091
5	0xbcdb10e8	-0.02674146
6	0xbd9bd377	-0.07608693
7	0x3d12f800	0.035881042
8	0x3d8b8898	0.068131626
9	0xbd289dd4	-0.04116614
10	0x3c2bf7d0	0.010496095
11	0x3d0cbda2	0.034360535
12	0xbd27dc7e	-0.040981762
13	0x3c839be3	0.016065544
14	0xbc536f48	-0.0129049495
15	0xbca3c006	-0.019989025
16	0x3c411020	0.01178363
17	0x3dbdaba0	0.092612505
18	0x3ceecabc	0.029149406
19	0x3daf4507	0.08558088
20	0x3cd98ec0	0.026557326
21	0x3d349321	0.044085626
22	0x3d0b2ca2	0.033978112
23	0xbd49c258	-0.049257606
24	0x3d7a317f	0.06108236
25	0xbc28d92d	-0.010305685
26	0x3d9b10c0	0.07571554
27	0x3da505bc	0.08057734
28	0x3d4d0db3	0.050061893
29	0x3d052c77	0.032513108
30	0x3dc912e3	0.098180555
31	0x3b901a10	0.004397638
32	0x3d01163b	0.03151534
33	0x3d833145	0.06405882
34	0x3cc32d82	0.02382541
35	0x3d3bab08	0.045817405
36	0xbd2a42bb	-0.041567545
37	0x3d418c42	0.0472529
38	0xbd5050e0	-0.05085838
39	0xbc9e97e4	-0.019359536
40	0x3dc8b05e	0.09799264
41	0x3b7bfcaf	0.0038450172
42	0xbd824e8a	-0.063626364
43	0x3d41f6bd	0.04735445
44	0x3cfe7cdc	0.031065397
45	0xbd07a7fe	-0.033119194
46	0xbcc9a2c9	-0.024613755
47	0x3d1ff971	0.039056245
48	0xb9b79700	-0.00035016984
49	0xba6fa982	-0.0009142385
50	0x3cd32947	0.025776519
51	0x3d240fe2	0.04005421
52	0x3d94148a	0.0723048
53	0xbd097576	-0.033559285
54	0x3d9ae0f4	0.07562438
55	0xbd28f1cb	-0.041246217
56	0x3d781fd1	0.060577217
57	0x3a007500	0.0004900247
58	0x3cb585af	0.022158472
59	0x3dbe3195	0.09286801
60	0xbca30eef	-0.019904582
61	0xbd840787	-0.06446748
62	0x3ce1d888	0.02756907
63	0x3d80379d	0.062606074
64	0xbce843c7	-0.028352631
65	0x3d493810	0.04912573
66	0xbd9289a3	-0.07155158
67	0x3d9660d4	0.07342687
68	0x3db5a26a	0.08868869
69	0xbcb6c5ee	-0.022311177
70	0xbb9819c0	-0.0046417415
71	0x3db4a944	0.08821347
72	0xbd0f8b20	-0.03504479
73	0xbaaede43	-0.0013341386
74	0x3d9c1bcd	0.0762249
75	0x3d033286	0.032030605
76	0x3c0152bc	0.007893261
77	0x3d2ac940	0.041695833
78	0x3c013788	0.007886775
79	0x3d12ddd0	0.035856068
80	0x3caa5d64	0.020796485
81	0xbcffb6c2	-0.031215075
82	0xbd54e0e6	-0.051972292
83	0xbd9186bd	-0.071057774
84	0x3da1ead0	0.07906115
85	0x3d0faf32	0.03507919
86	0xbd8b8939	-0.068132825
87	0x3c3dd0f8	0.011585467
88	0x3d8025f6	0.062572405
89	0x38688800	5.543977e-05
90	0x3b028bb5	0.0019919698
91	0x3d69e7e6	0.05710592
92	0x3cffaf59	0.031211542
93	0xbd4b897d	-0.049691666
94	0x3d49d76a	0.0492777
95	0x3da010ca	0.07815702
96	0x3d221e7e	0.03957986
97	0xbd6d078d	-0.05786853
98	0x3d3f3b91	0.046687666
99	0xbc51aaf9	-0.012797111

layer4.weight f4 [80, 100]
0	0xbd415add	-0.047205795
1	0x3da15397	0.078772716
2	0xbd0c4a6a	-0.034250654
3	0xbce491b4	-0.027901508
4	0x3dc54d45	0.096338786
5	0x3d1abb56	0.037776314
6	0x3d55534a	0.052081384
7	0xbdc5a4e2	-0.096505895
8	0xbd323187	-0.043504264
9	0xbd5b1a63	-0.05349196
10	0xbd99e653	-0.07514634
11	0x3d217222	0.039415486
12	0xbda3ec9b	-0.08004113
13	0xbda4a805	-0.0803986
14	0xbd8dca90	-0.06923401
15	0xbda96286	-0.08270745
16	0x3c973b48	0.018460885
17	0xbd72aef0	-0.059248865
18	0x38ddcc00	0.00010576099
19	0x3da9b205	0.08285908
20	0x3ca397d4	0.019969858
21	0x3d97f7c9	0.07420308
22	0xbd6860fd	-0.05673312
23	0x3da78a41	0.08180667
24	0xbd77732a	-0.060412563
25	0x3ccf87ac	0.025333248
26	0x3d7a6a92	0.06113679
27	0x3d76779a	0.060172655
28	0x3d70b172	0.058762975
29	0x3d50aec2	0.050947912
30	0x3da9b7f3	0.08287039
31	0xbd8969d8	-0.06709641
32	0xbc0d4f68	-0.008624889
33	0x3d18b4c6	0.037281774
34	0xbc3aca28	-0.011400737
35	0xbd9abac0	-0.07555151
36	0x3cb3ee2c	0.021964155
37	0xbdab16ea	-0.0835398
38	0x3d919fc9	0.07110555
39	0xbca47acc	-0.020078085
40	0x3cd1e444	0.02562154
41	0x3d0757f2	0.033042856
42	0x3d6d299e	0.057901017
43	0x3d17a12a	0.037018932
44	0xbc543c70	-0.012953863
45	0xbdc183b0	-0.094489455
46	0xbcea2fe0	-0.028587282
47	0xbc5e7070	-0.013576612
48	0x3d00da76	0.03145834
49	0xbbd4f9d0	-0.0064995065
50	0xbd989150	-0.07449591
51	0xbd69b257	-0.057054844
52	0xbda4bc5e	-0.08043741
53	0x3c04fe28	0.008117236
54	0x3ca4e7e8	0.020130113
55	0xbdcb9dad	-0.09942184
56	0x3d365e52	0.044523545
57	0xbd1000b0	-0.035156906
58	0xbcaa46c0	-0.02078569
59	0xbc5e3158	-0.013561569
60	0xbdb0f61d	-0.086406924
61	0xbc5e2d58	-0.0135606155
62	0x3da8c4e9	0.08240683
63	0xbd7e1f6a	-0.062041678
64	0x3be4e360	0.006985113
65	0xbd271e30	-0.040800273
66	0x3d992c1d	0.07479117
67	0xbdca4a58	-0.09877461
68	0xbd8bf1d4	-0.068332344
69	0x3daea8b7	0.085282736
70	0x3dc5534d	0.09635029
71	0xbdc4adc7	-0.09603458
72	0xbdc98a4f	-0.098408334
73	0xbce16ae8	-0.027516797
74	0xbdc647a2	-0.096816316
75	0xbdbb013a	-0.09131093
76	0x3cc96634	0.024584867
77	0xbab1f680	-0.0013577491
78	0xbd6fc31a	-0.058535673
79	0xbcb4d768	-0.02207537
80	0xbd4026ea	-0.04691211
81	0xbdb4a117	-0.08819788
82	0x3dbb8fbd	0.09158275
83	0x3b4a0e40	0.0030831248
84	0xbda1aaa3	-0.078938745
85	0xbd389f4a	-0.045073785
86	0xbd422727	-0.04740062
87	0xbdcbe227	-0.099552445
88	0xbac81200	-0.0015264153
89	0x3cbfc594	0.023409642
90	0xbd7c0c93	-0.06153543
91	0xbd15618c	-0.03646998
92	0xbdb86507	-0.090036444
93	0xbd882daa	-0.06649335
94	0x3d2e923a	0.04261992
95	0x3d0975a2	0.03355945
96	0x3d28f5ce	0.041250043
97	0x3db740bb	0.08947893
98	0xbd680d60	-0.05665338
99	0xbcd48600	-0.025942802
100	0xbd3ac3da	-0.045596935
101	0x3b281e60	0.002565287
102	0x3b3af235	0.0028525714
103	0x3cc9374c	0.0245625
104	0x3c77100d	0.01507951
105	0x3a6bd400	0.0008996129
106	0x3dc1dfc9	0.09466512
107	0xbd9cc75e	-0.07655214
108	0x3c9a122a	0.01880749
109	0xbca7d02c	-0.020485006
110	0xbc07c018	-0.008285545
111	0x3db50576	0.08838932
112	0x3d4f1efe	0.050566666
113	0xbda37783	-0.079817794
114	0x3daf1f73	0.0855092
115	0x3d04ad39	0.03239176
116	0xbdadce63	-0.08486631
117	0x3c930975	0.017948845
118	0xbcae784c	-0.021297596
119	0x3d497932	0.049187846
120	0x3cf46834	0.029834844
121	0xbcc357d1	-0.023845585
122	0x3cc10d20	0.023565829
123	0xbc9808fc	-0.018558972
124	0xbdc0e047	-0.094177775
125	0xbd04c4eb	-0.032414358
126	0x3c5bb21f	0.013409167
127	0xbd4f3c0c	-0.050594375
128	0x3d840993	0.06447139
129	0x3d3f36f7	0.046683278
130	0x3dbefcb0	0.0932554
131	0x3d81cdf3	0.0633811
132	0xbd1aeb52	-0.037822075
133	0x3d98127e	0.07425402
134	0xbd39756d	-0.045278
135	0x3d47b96e	0.048760824
136	0x3d587995	0.052850325
137	0xbd226f5d	-0.039656986
138	0xbcbca64c	-0.023028515
139	0xbd9d34fc	-0.076761216
140	0xbdc8d0b9	-0.09805436
141	0xbd14cdeb	-0.03632919
142	0x3cbde998	0.023182675
143	0xbaa412d4	-0.0012517818
144	0x3d9cef83	0.07662871
145	0xbd574ffd	-0.052566517
146	0xbc253c1c	-0.010085132
147	0x3d7e48bb	0.06208108
148	0xbdb4e1a0	-0.08832097
149	0x3d214f4c	0.039382264
150	0x3db31a65	0.08745269
151	0xbd199c7a	-0.037502743
152	0xbcd35aa0	-0.02580005
153	0xbd800b34	-0.06252137
154	0xbd4f2cf3	-0.050579976
155	0xbdca71eb	-0.098850094
156	0xbdb94cbf	-0.09047841
157	0x3db07e19	0.08617801
158	0x3d6d9972	0.058007665
159	0x3d66cb93	0.056346487
160	0xbc74b076	-0.01493465
161	0xbd944036	-0.0723881
162	0xbd985d7a	-0.07439704
163	0xbd9ed156	-0.077547714
164	0xbd918f1d	-0.07107375
165	0xbcbd7758	-0.023128197
166	0x3d01416a	0.031556524
167	0xbbc65eb0	-0.006053768
168	0x3d88f97b	0.066882096
169	0xbce64774	-0.028110243
170	0x3d849167	0.06473046
171	0xbd9a8de6	-0.07546596
172	0x3cc54ab3	0.02408347
173	0xbdca94ae	-0.0989164
174	0xbd84bbee	-0.06481157
175	0xbdb58f7b	-0.08865257
176	0xbda164fa	-0.07880588
177	0xbd3642dd	-0.04449736
178	0xbcad55d8	-0.021159098
179	0x3bfc80b3	0.007705772
180	0xbd7a76b7	-0.06114837
181	0xbdba1403	-0.09085848
182	0x3cdc8beb	0.026922187
183	0x3d437f96	0.047729097
184	0x3dc51ead	0.096249916
185	0xbc76c468	-0.015061475
186	0x3bd96160	0.0066339225
187	0xbd429f80	-0.047515392
188	0xbd946fe2	-0.072479025
189	0x3dc66043	0.09686329
190	0x3db2942b	0.08719667
191	0xbd49abd5	-0.049236137
192	0x3ad94736	0.0016577009
193	0xbbe2615d	-0.0069085793
194	0xbd35261a	-0.04422579
195	0x3dacfd91	0.084468015
196	0xbd89491e	-0.06703399
197	0x3d37c421	0.044864777
198	0xbd24d01f	-0.040237542
199	0x3cb862c0	0.022508025
200	0xbd707707	-0.058707263
201	0x3d7871ac	0.06065528
202	0x3ce6d812	0.028179202
203	0x3b6254da	0.0034535439
204	0xbdab1de7	-0.08355313
205	0x3d32d19e	0.043656938
206	0xbcbe4e8b	-0.023230812
207	0xbca8b648	-0.020594731
208	0xbd781e87	-0.06057599
209	0x3d9b495d	0.07582352
210	0xbd82599d	-0.063647486
211	0xbda11dcc	-0.078670114
212	0x3ca0c67b	0.019625893
213	0xbd229b49	-0.039698873
214	0xbc4fb4ca	-0.012677381
215	0xbc3d9abe	-0.011572538
216	0x3d8ce131	0.06878889
217	0x3d7e93cd	0.062152673
218	0x3d5d745a	0.05406604
219	0x3d82d1a9	0.06387646
220	0xbda10dea	-0.07863982
221	0x3d784dbf	0.06062102
222	0x3d1aedbb	0.037824374
223	0xbd2055f0	-0.039144456
224	0x3db0670d	0.086134054
225	0x3ccccded	0.025000537
226	0xbdb74778	-0.089491785
227	0xbb544127	-0.0032387467
228	0x3d458264	0.048220053
229	0xbdab886a	-0.08375628
230	0xbd554eb6	-0.052077018
231	0x3ccb33f0	0.02480504
232	0xbdb529f3	-0.08845892
233	0xbd063053	-0.03276093
234	0x3ce1ec96	0.027578633
235	0xbc64a098	-0.013954304
236	0x3c8cd6e3	0.01719231
237	0x3dbc03da	0.09180422
238	0x3bfa6580	0.0076414943
239	0x3d4d4e7b	0.050123673
240	0xbda32d98	-0.07967681
241	0x3c16dcb7	0.009207896
242	0x3ceb28c2	0.028705958
243	0xbcc0348c	-0.023462556
244	0xbcb44b98	-0.022008702
245	0x3c82004a	0.015869278
246	0x3dba6978	0.09102148
247	0x3d967e62	0.07348324
248	0xbcda6ef8	-0.026664242
249	0x3c25e993	0.010126489
250	0xbd7fb9f6	-0.062433206
251	0x3c9f73a8	0.019464329
252	0xbd3aafbd	-0.045577753
253	0x3ca56912	0.020191703
254	0xbdad9885	-0.084763564
255	0x3da20659	0.07911367

layer4.bias f4 [80]
0	0x3d510ca6	0.051037453
1	0x3da8808c	0.08227643
2	0x3d354e77	0.044264283
3	0x3d86c90b	0.06581315
4	0xbd399ad1	-0.04531366
5	0x3d1039dd	0.035211433
6	0x3dc1f7e5	0.0947111
7	0x3d0b5621	0.034017686
8	0xbc0991f0	-0.008396611
9	0xbd8f1bf0	-0.069877505
10	0xbd176674	-0.03696294
11	0xbd98fc73	-0.07470026
12	0x3da2ed8f	0.07955467
13	0x3dc37d32	0.095453635
14	0x3d675411	0.056476656
15	0xbccef501	-0.025263311
16	0xbc90f930	-0.017696947
17	0x3d919e61	0.071102865
18	0x3d856262	0.06512906
19	0x3ceef2e6	0.029168557
20	0x3ab85ff9	0.0014066688
21	0xbd294510	-0.04132563
22	0x3da1d53a	0.07901998
23	0x38f5c4de	0.0001171918
24	0xbda1b975	-0.07896701
25	0xbcd8345b	-0.026392153
26	0xbdc19d27	-0.094538026
27	0x3d9bd8c1	0.07609702
28	0xbd9ceb22	-0.076620355
29	0x3d300db3	0.042981815
30	0xbc16b288	-0.009197839
31	0x3d530892	0.051521845
32	0x3dabd019	0.08389301
33	0xbd977262	-0.07394864
34	0xbd35db48	-0.044398576
35	0xbcc22820	-0.023700774
36	0xbbad4868	-0.0052881725
37	0xbca96e14	-0.020682372
38	0xbdc0c0f5	-0.09411804
39	0xbd4efdd0	-0.050535023
40	0xbab86800	-0.001406908
41	0xbbc99e50	-0.0061529055
42	0x3de448fa	0.11146732
43	0x3cd722f3	0.026261782
44	0x3dbf260b	0.09333428
45	0x3c713f12	0.01472451
46	0xbd66c8ac	-0.05634372
47	0x3d9a50e1	0.07534958
48	0x3dd44352	0.10364403
49	0xbc9de3ec	-0.01927372
50	0x3d6405da	0.055669643
51	0xbdc74760	-0.097304106
52	0xbc1139b7	-0.008863858
53	0x3d606b12	0.05478961
54	0xbc7379f8	-0.014860623
55	0xbd1c05a6	-0.038091324
56	0x3c05ea3a	0.00817352
57	0x3da05fc0	0.07830763
58	0x3ca5f108	0.020256534
59	0xbd8f5dc9	-0.0700031
60	0xbd4cc6e9	-0.049994383
61	0x3d7575c6	0.05992677
62	0xbd64d807	-0.055870082
63	0x3c24d030	0.010059401
64	0x3c988b2c	0.01862105
65	0xbd3f5c8d	-0.046719123
66	0xbc7725a8	-0.015084662
67	0x3d70965e	0.05873715
68	0x3d5c08fc	0.053719506
69	0xbda36f03	-0.07980158
70	0xbdcebdf9	-0.10094828
71	0x3d6a0ac3	0.05713917
72	0x3c2b1708	0.010442503
73	0xbd7ecc4d	-0.062206555
74	0x3b88ddc3	0.0041768267
75	0x3d1a80da	0.03772054
76	0xbd432430	-0.047641933
77	0x3dc82bb2	0.09773959
78	0xbad7a600	-0.001645267
79	0xbd90cd36	-0.07070391

layer5.weight f4 [60, 80]
0	0x3d5bac08	0.05363086
1	0x3c8849e8	0.016636804
2	0xbd9ab5c2	-0.07554199
3	0xbde5acb5	-0.11214582
4	0x3d1870a9	0.037216816
5	0xbdc89a0d	-0.09795008
6	0x3d2ff080	0.042953968
7	0xbde008ec	-0.10939202
8	0x3b602938	0.0034204256
9	0x3db32842	0.08747913
10	0xbd67d378	-0.056598157
11	0x3c4a9494	0.012364525
12	0xbd0b863a	-0.034063555
13	0xbd53fea0	-0.0517565
14	0x3d27ad4c	0.040936753
15	0xbd1bb11f	-0.038010713
16	0xbd57332a	-0.05253903
17	0x3cd9e651	0.026599081
18	0xbdd44833	-0.103653334
19	0x3d46e91e	0.04856216
20	0x3dda5582	0.106608406
21	0x3c33387a	0.010938758
22	0xbd4f9765	-0.05068149
23	0xbdba27f4	-0.09089652
24	0x3d0a0ab8	0.03370163
25	0xbd3b21e7	-0.04568663
26	0xbd6a1c44	-0.057155862
27	0x3cab9df0	0.020949334
28	0xbddc62a3	-0.10761001
29	0xbdbe57bc	-0.09294078
30	0x3b3c1b37	0.0028702745
31	0xbdd4c2c9	-0.10388715
32	0xbd353a11	-0.04424483
33	0xbdd0ac3c	-0.10189101
34	0x3d381916	0.0449458
35	0x3dd97596	0.10618131
36	0x3d485bce	0.048915677
37	0x3ba77230	0.0051100478
38	0xbda8f636	-0.08250086
39	0x3cdd35f8	0.027003273
40	0x3c8032c0	0.0156492
41	0x3d9cff60	0.076658964
42	0x3c732207	0.014839656
43	0xbdc73c6a	-0.0972832
44	0x3db5858b	0.08863362
45	0x3c3a9024	0.011386905
46	0x3d092a1d	0.033487428
47	0xbcc243e8	-0.02371402
48	0xbd350bbf	-0.044200655
49	0x3dbdb6f2	0.0926341
50	0x3d821f01	0.0635357
51	0xbd2cbba8	-0.04217115
52	0xbcbc5a7a	-0.022992361
53	0x3d98bfec	0.07458481
54	0xbdc6cb69	-0.09706766
55	0xbd35b6f5	-0.044363935
56	0x3c9c67b3	0.019092416
57	0x3d304570	0.04303497
58	0xbd4007ee	-0.046882562
59	0x3db39a7c	0.087697
60	0x3d7abc88	0.061214954
61	0xbd1d793e	-0.038445704
62	0x3d62c636	0.05536481
63	0x3cb7f4e0	0.022455633
64	0x3d755e68	0.059904486
65	0x3dadd4ce	0.08487855
66	0x3d508236	0.05090543
67	0x3d54ee64	0.05198516
68	0xbbea18f0	-0.007144086
69	0x3c21eaec	0.00988267
70	0xbdb101e1	-0.086429365
71	0x3b9e0af0	0.004823081
72	0xbc67a188	-0.014137633
73	0x3d222284	0.039583698
74	0xbd9b7e05	-0.07592396
75	0xbd05e081	-0.032684807
76	0x3ddffdca	0.10937078
77	0x3db2115d	0.08694718
78	0xbd91f092	-0.07125963
79	0xbda6064c	-0.0810667
80	0x3dd20aac	0.10255942
81	0xbd949258	-0.07254475
82	0xbd5d9418	-0.05409631
83	0x3cdc4b9b	0.02689152
84	0xbd61ad3c	-0.05509685
85	0xbc38bb44	-0.011275116
86	0x3d010680	0.03150034
87	0xbdad9d2b	-0.08477243
88	0x3d8ee5fb	0.06977459
89	0xbd86097c	-0.06544778
90	0xbd144d8c	-0.036206767
91	0x3cbbd800	0.022930145
92	0x3d1cb1df	0.03825557
93	0x3caa50e4	0.020790525
94	0x3d248958	0.040170044
95	0x3d5ed4f3	0.054402303
96	0xbdb1a351	-0.08673728
97	0xbdcdc2a0	-0.100468874
98	0x3d8a49b0	0.06752336
99	0x3d1fcff0	0.039016664
100	0xbd51c345	-0.051211614
101	0x3dd43c3c	0.10363051
102	0xbdc41894	-0.095750004
103	0x3cc2e7fc	0.02379226
104	0x3d9f1576	0.07767765
105	0x3c3c6cf8	0.01150059
106	0xbdcbe60b	-0.099559866
107	0xbdc5437d	-0.09632013
108	0xbda47cff	-0.080316536
109	0x3dca29e1	0.09871269
110	0xbdcb304b	-0.099213205
111	0xbb048ba0	-0.0020224825
112	0x3cc02be7	0.023458434
113	0xba760e00	-0.00093862414
114	0xbd6889a9	-0.056771908
115	0x3da43472	0.08017816
116	0xbd941316	-0.07230203
117	0x3dd54166	0.104128644
118	0xbdd7aa70	-0.10530555
119	0xbdd01402	-0.10160066
120	0xbcefc278	-0.029267535
121	0x3d9e6fb2	0.07736148
122	0xbda2826e	-0.07935034
123	0xbdb7e9c9	-0.08980138
124	0x3d8d56aa	0.069012955
125	0x3d979eca	0.074033335
126	0x3da964f4	0.082712084
127	0x3d873d96	0.066035435
128	0x3d0ef893	0.034905028
129	0xbd8b3758	-0.06797665
130	0xbdce5092	-0.10073961
131	0x3dc0cd2a	0.09414132
132	0x3d26d3b1	0.04072923
133	0x3bf5e1a0	0.0075037032
134	0xbd00debd	-0.03146242
135	0x3dc279d1	0.09495891
136	0x3b12f203	0.0022422082
137	0x3dabb014	0.083831936
138	0xbd861aa0	-0.06548047
139	0xbdb589b9	-0.08864159
140	0x3dbd79b7	0.09251731
141	0xbc88ac3c	-0.01668369
142	0xb862264f	-5.3918277e-05
143	0xbdba0136	-0.09082262
144	0xbd240586	-0.04004433
145	0xbca3bcb8	-0.019987449
146	0x3d88e4e9	0.06684286
147	0xbdcbb85b	-0.099472724
148	0x3dd26957	0.10273998
149	0x3ddc82cd	0.10767136
150	0xbba7e246	-0.0051234094
151	0xbd2a9888	-0.04164937
152	0xbd573631	-0.052541915
153	0xbdb8a1d6	-0.09015243
154	0xbd62e6c3	-0.055395853
155	0x3cdfc557	0.027315779
156	0xbd36614e	-0.04452639
157	0x3d040ea3	0.03224052
158	0x3d6ef650	0.05834037
159	0x3d8398bc	0.06425616
160	0xbdb8c86a	-0.09022601
161	0xbd58cd80	-0.052930355
162	0xbce2d242	-0.02768815
163	0x3d83d384	0.06436828
164	0xbd044816	-0.03229531
165	0xbd346051	-0.044037167
166	0xbddf47c6	-0.109023616
167	0xbc9d7ab1	-0.019223543
168	0x3d3753b4	0.04475756
169	0x3c5bb5b0	0.013410017
170	0x3d9d577b	0.07682701
171	0x3dae58e8	0.08513051
172	0xbb598548	-0.0033191014
173	0xbda92564	-0.08259085
174	0x3baf0e65	0.005342292
175	0x3ce64fb2	0.028114174
176	0xbdd0c986	-0.101946875
177	0x3d8d3d9e	0.06896518
178	0xbdd3321e	-0.103122935
179	0x3dca583f	0.09880113
180	0x3cfb4084	0.030670412
181	0x3d4e2546	0.050328515
182	0x3da2cce5	0.07949237
183	0x3d04fca8	0.032467514
184	0xbd12e06e	-0.035858564
185	0x3bcc224b	0.006229674
186	0xbd8c07af	-0.06837403
187	0x3d3d3c7f	0.04620027
188	0xbda546ad	-0.08070121
189	0xbda211c8	-0.07913548
190	0x3b101242	0.0021983539
191	0xbdd6a99d	-0.1048157
192	0x3d9b7c73	0.07592096
193	0xbdc965cb	-0.098338686
194	0x3d9358c0	0.07194662
195	0xbcadba38	-0.02120696
196	0x3bba8f9d	0.0056933896
197	0x3d51b6b8	0.051199645
198	0x3c9f0b20	0.019414485
199	0x3d9ad6c2	0.07560493
200	0x3c670270	0.014099702
201	0xbcab9ac4	-0.020947821
202	0xbdbb6321	-0.09149767
203	0x3cb54cba	0.022131313
204	0xbdea0938	-0.114275396
205	0xbccac4f0	-0.02475211
206	0xbd03770c	-0.032095954
207	0xbd161b9c	-0.036647424
208	0x3cdba945	0.026814112
209	0x3de33b12	0.11095251
210	0xbd290649	-0.04126576
211	0x3d392800	0.045204163
212	0x3d8a2220	0.0674479
213	0xbc82f38c	-0.015985273
214	0xbdb3cfa1	-0.087798364
215	0xbc9cd7b5	-0.019145826
216	0x3cd561cb	0.026047608
217	0xbb8a9d40	-0.0042301714
218	0x3d280cf8	0.041027993
219	0xbd817759	-0.06321592
220	0xbc8293d5	-0.015939632
221	0x3dac8318	0.08423442
222	0x3dc93856	0.09825198
223	0xbdc8d68e	-0.09806548
224	0x3cae2000	0.021255493
225	0x3db03bea	0.08605178
226	0x3cf6a048	0.030105725
227	0x3dc6319a	0.096774295
228	0xbc92dd14	-0.017927684
229	0x3dab2152	0.08355965
230	0x3dddd4a3	0.10831573
231	0xbdd87622	-0.10569407
232	0xbcbb4c2d	-0.022863472
233	0xbdacf50c	-0.084451765
234	0x3bc6eac1	0.0060704653
235	0xbd99f893	-0.07518115
236	0xbda024c1	-0.0781951
237	0xbd67b743	-0.056571256
238	0xbaacd580	-0.0013186187
239	0xbcd27690	-0.0256913
240	0xbd51feb5	-0.0512683
241	0x3dc64356	0.09680812
242	0xbd585b91	-0.0528217
243	0x3dd874e4	0.1056917
244	0x3deff835	0.117172636
245	0x3d62bcfb	0.055356007
246	0x3d7a1959	0.06105933
247	0x39b09dea	0.0003368699
248	0xbdcacfd2	-0.0990292
249	0xbdd46386	-0.10370545
250	0xbd8bace0	-0.06820083
251	0xbc19a04e	-0.0093765985
252	0x3dc52bfb	0.09627529
253	0x3d44ffec	0.04809563
254	0xbd677210	-0.056505263
255	0x3dd5715c	0.10422012

layer5.bias f4 [60]
0	0xbd7375fe	-0.059438698
1	0x3dae0fc4	0.08499101
2	0xbdc87534	-0.0978798
3	0xbdc6a853	-0.09700074
4	0xbddde34c	-0.10834369
5	0xbd9e0bae	-0.077170715
6	0x3d0fc7db	0.035102706
7	0x3d9e64c3	0.077340625
8	0x3cf5adfb	0.029990187
9	0x3ccabab1	0.024747225
10	0x3d586e8b	0.052839797
11	0x3d32821d	0.043581117
12	0x3cabd123	0.020973748
13	0x3d998ae6	0.07497196
14	0xbd1b0285	-0.0378442
15	0xbde6aaf7	-0.11263078
16	0x3df0eca8	0.117638886
17	0x3dc65c38	0.09685558
18	0x3db60e84	0.088894874
19	0x3d24c544	0.04022719
20	0xbccaac70	-0.024740428
21	0xbd6709c9	-0.056405816
22	0x3dc51586	0.09623246
23	0x3d5c148c	0.053730533
24	0xbd3c3626	-0.045950077
25	0xbda15001	-0.07876588
26	0xbd8cca6a	-0.06874545
27	0xbcdc7960	-0.026913345
28	0xbd5414f4	-0.051777795
29	0xbcb861a4	-0.022507496
30	0x3c84fd28	0.016233996
31	0xbcfb458c	-0.030672811
32	0xbd59a190	-0.053132594
33	0xbd57a28a	-0.052645244
34	0xbda52d56	-0.08065288
35	0xbdd86f51	-0.10568107
36	0x3d0b3f0e	0.03399568
37	0x3dc7b864	0.097519666
38	0x3d0481c4	0.032350317
39	0xbc84e26d	-0.01622125
40	0xbd8fed90	-0.07027733
41	0x3d1a0338	0.037600726
42	0x3ce3ccb3	0.02780757
43	0xbd6599ad	-0.05605476
44	0xbd6b6426	-0.057468556
45	0xbbdf7593	-0.006819436
46	0xbd9bcb39	-0.07607121
47	0xbd8b8b56	-0.068136856
48	0x3d3350b2	0.04377813
49	0x3d229fba	0.03970311
50	0x3deb107b	0.11477753
51	0xbce80abe	-0.028325435
52	0x3dbd25d5	0.092357315
53	0x3cc920a4	0.024551697
54	0xbddae956	-0.106890365
55	0x3cba38ee	0.022732224
56	0xbdba6ad9	-0.09102411
57	0x3dac8311	0.084234364
58	0x3df5f88d	0.12010298
59	0x3d3ce4e0	0.04611671
