saved_models/model_BAC.pt (torch_old, 190423 bytes, 15 tensors)

layer1.weight f4 [100, 5]
0	0x3de3b61b	0.11118718
1	0x3ed91892	0.42401558
2	0x3ee98e9e	0.4561662
3	0xbd89791e	-0.067125544
4	0xbbb7f6d2	-0.00561414
5	0x3df0e5a1	0.11762548
6	0x3edd43e1	0.4321585
7	0xbe799066	-0.2437149
8	0x3d385c9d	0.045010198
9	0xbdbcc81f	-0.092178576
10	0x3e0054df	0.12532376
11	0x3ea68ba8	0.32528424
12	0xbedac252	-0.4272638
13	0xbec32c88	-0.38119912
14	0xbebe50e9	-0.37171105
15	0x3d90eccc	0.070764154
16	0x3ece3ac4	0.4027921
17	0x3d86d333	0.06583252
18	0x3d14f081	0.036362175
19	0x3e243ea8	0.16039526
20	0xbe44be24	-0.19213158
21	0x3e9f30cc	0.31091917
22	0xbea12aed	-0.31478062
23	0xbdea5fd5	-0.1144406
24	0xbb3a9654	-0.002847095
25	0xbd255c58	-0.04037127
26	0xbdf0192c	-0.11723551
27	0xbe339e04	-0.17540747
28	0xbed3b400	-0.41348267
29	0x3ea9b3a0	0.33144855
30	0xbbc1120d	-0.0058920444
31	0x3d8bd67a	0.068280175
32	0x3dc11075	0.09426967
33	0xbde33d81	-0.11095715
34	0x3db0e8ab	0.08638128
35	0xbed32aba	-0.41243535
36	0x3e8c3948	0.27387452
37	0x3e8052d0	0.2506318
38	0xbe9e1f10	-0.30883074
39	0xbe2a893e	-0.16653916
40	0x3e890535	0.26761785
41	0x3d82a3a6	0.0637887
42	0x3d7da220	0.061922193
43	0x3eafba35	0.34321752
44	0xbe974b8d	-0.29549828
45	0xbc06bba8	-0.008223452
46	0xbe8768c9	-0.26447132
47	0x3e8d7ec5	0.2763578
48	0x3ee61c33	0.4494339
49	0x3e0d6482	0.13807872
50	0xbe89e5f8	-0.26933265
51	0x3e30e7a0	0.17275858
52	0x3edde28c	0.43336904
53	0x3d114159	0.03546271
54	0xbe9bdb3b	-0.30440697
55	0xbe7ab87e	-0.2448444
56	0x3e87bc4e	0.26510853
57	0x3eb97ae6	0.36226577
58	0x3e314812	0.17312649
59	0x3e2a4ee0	0.16631651
60	0x3e55104e	0.20807001
61	0x3db9eb7c	0.09078118
62	0x3ed8b844	0.42328084
63	0x3d489490	0.048969805
64	0x3e9d548c	0.30728567
65	0xbe7c5da3	-0.24645095
66	0xbd1838c0	-0.037163496
67	0xbb66ec80	-0.003523618
68	0xbee0cf0d	-0.43907967
69	0x3e90f186	0.28309268
70	0x3ed286ef	0.4111857
71	0xbebfe49a	-0.37479097
72	0x3ec46dc5	0.38364998
73	0x3e45f5d2	0.19332054
74	0x3e573558	0.21016443
75	0x3df474a0	0.11936307
76	0x3e26aba0	0.16276407
77	0xbecd78cf	-0.40131232
78	0xbea2b931	-0.31781915
79	0xbe851518	-0.25992656
80	0xbeb84ff6	-0.35998505
81	0xbebb974f	-0.36638877
82	0x3d8b4ccf	0.068017595
83	0xbe91f842	-0.28509718
84	0x3cad1446	0.021127831
85	0xbe3ad578	-0.18245494
86	0xbd063c80	-0.03277254
87	0x3eda8d88	0.42686105
88	0xbd072390	-0.0329929
89	0xbea3f815	-0.3202521
90	0xbe18706a	-0.14886633
91	0xbe21b5b2	-0.15791968
92	0x3e112d78	0.14177501
93	0xbe8c56b6	-0.27409905
94	0xbdecbdd4	-0.11559644
95	0x3d013cb7	0.031552043
96	0xbdcfaf24	-0.10140827
97	0x3ec26e0a	0.37974578
98	0xbdfd58e9	-0.12370474
99	0x3de645ed	0.11243806
100	0xbd5838ea	-0.052788652
101	0xbdcc6727	-0.09980612
102	0xbe9a1894	-0.30096877
103	0x3eec43f0	0.46145582
104	0x3ec94796	0.39312428
105	0xbe4c43d2	-0.19947746
106	0xbebdad12	-0.37046105
107	0xbdbea1cc	-0.09308204
108	0xbe5ca337	-0.21546637
109	0x3e1e14f8	0.15437686
110	0x3c3b59d1	0.011434988
111	0x3ec39ced	0.38205662
112	0xbe5cbba3	-0.21555953
113	0x3ec0e981	0.3767815
114	0xbe8d7a67	-0.27632448
115	0xbeb52ef0	-0.35387373
116	0xbe7b2fe4	-0.24529988
117	0x3ec9aefa	0.3939131
118	0xbea82fee	-0.32849067
119	0xbd18d5e0	-0.037313342
120	0xbdf73306	-0.12070279
121	0xbea13a5c	-0.31489837
122	0xbe581aca	-0.21103969
123	0x3eae31fd	0.34022513
124	0xbd6fc279	-0.058535073
125	0xbed3c2fc	-0.413597
126	0xbebbcf15	-0.3668143
127	0x3ecc1af2	0.39864308
128	0x3ec2f5e6	0.3807823
129	0xbd1aedce	-0.037824444
130	0xbe03882a	-0.12844911
131	0x3ed29852	0.41131836
132	0x3e4c897e	0.19974324
133	0x3e42de8e	0.1903021
134	0x3e2b6ce1	0.16740753
135	0xbe2de5ce	-0.16982195
136	0xbd367d28	-0.044552952
137	0xbe8b1df4	-0.2717129
138	0x3ebff2e2	0.37489992
139	0xbdff7500	-0.12473488
140	0x3d9f2868	0.07771379
141	0xbea7900b	-0.32727084
142	0x3e6c3540	0.23067188
143	0xbe02bacc	-0.1276657
144	0xbea37ece	-0.31932682
145	0x3d9e1a9e	0.077199206
146	0xbe4434fa	-0.19160834
147	0x3edf5307	0.43618032
148	0x3e4fec01	0.20304872
149	0x3e202c72	0.15641955
150	0xbebb32ac	-0.36562097
151	0xbe006568	-0.12538683
152	0xbd303814	-0.04302223
153	0x3ccfaec4	0.02535189
154	0xbdca41b5	-0.09875814
155	0x3e44ef29	0.19231857
156	0xbecc6ddd	-0.3992757
157	0x3e5eb106	0.21747217
158	0x3db76362	0.08954503
159	0x3e453ea1	0.19262172
160	0xbecbd523	-0.39811048
161	0x3e682ec0	0.22674084
162	0x3ed6334f	0.4183602
163	0x3e793413	0.24336271
164	0x3eed3a6b	0.46333632
165	0x3ea8c096	0.3295943
166	0x3d4dc709	0.050238643
167	0x3d31557d	0.04329442
168	0xbdb57ea0	-0.088620424
169	0x3e55d491	0.20881869
170	0xbe3208ca	-0.17386165
171	0x3ea2bc54	0.31784308
172	0xbd3bffe1	-0.045898322
173	0x3ed1acc2	0.40952116
174	0x3e9911da	0.29896432
175	0xbed9a058	-0.42505145
176	0xbec86819	-0.3914192
177	0x3e012768	0.12612689
178	0xbe34ea5a	-0.17667523
179	0xbd88223c	-0.06647155
180	0x3ea72e53	0.3265253
181	0x3eedc148	0.46436524
182	0x3ed0d5a2	0.4078799
183	0x3d1158eb	0.03548519
184	0x3ed12f93	0.4085661
185	0xbedab3fc	-0.42715442
186	0xbeb2f62b	-0.34953436
187	0x3ea10e26	0.31456107
188	0xbe8b0f46	-0.2716009
189	0xbeb4cade	-0.35311025
190	0xbeb630db	-0.3558415
191	0x3dbeddc0	0.09319639
192	0xbde0d1c4	-0.109775096
193	0x3d65b1b0	0.05607766
194	0xbed670ac	-0.41882837
195	0x3e0d2e28	0.13787138
196	0x3e8cda70	0.27510405
197	0xbe9270f2	-0.28601795
198	0xbe8c9b08	-0.2746203
199	0x3e48ec8f	0.1962149
200	0xbe9e43d1	-0.30911115
201	0xbe7288fc	-0.23685068
202	0xbd3e2540	-0.046422243
203	0xbdd941f6	-0.10608284
204	0x3e8d8f8d	0.27648583
205	0x3e09922c	0.13434666
206	0x3ea98e2d	0.33116284
207	0x3dc81416	0.09769456
208	0xbd07e669	-0.03317872
209	0xbe307d40	-0.17235279
210	0x3e273def	0.1633222
211	0xbd9dbf9f	-0.077025644
212	0x3c161988	0.009161361
213	0xbebc9169	-0.3682969
214	0xbea3576d	-0.31902638
215	0x3d1bc451	0.03802902
216	0xbe2f2068	-0.17102206
217	0x3eb243be	0.34817308
218	0xbea43c12	-0.3207708
219	0x3ee2a622	0.44267374
220	0xbe8a05a2	-0.26957422
221	0x3e6d9ad8	0.232036
222	0xbe8e1b98	-0.27755427
223	0xbea24f10	-0.31700945
224	0xbd9a3970	-0.075304866
225	0xbe009fd5	-0.12560971
226	0x3e7ce94a	0.24698368
227	0x3e301506	0.1719552
228	0x3ebe663b	0.3718737
229	0x3ea779fc	0.32710254
230	0x3e897636	0.26848
231	0x3eb994ce	0.3624634
232	0xbeca9b21	-0.3957148
233	0x3e932c72	0.28744847
234	0x3e109402	0.1411896
235	0x3eb91889	0.3615153
236	0x3e9dc538	0.30814528
237	0x3d245187	0.040116813
238	0x3ddd4a68	0.108052075
239	0xbe834d46	-0.25644892
240	0x3e42ab51	0.19010665
241	0xbe69ce3b	-0.22832577
242	0x3e865c46	0.26242274
243	0xbcfdb9b8	-0.030972347
244	0x3ea24c1a	0.31698686
245	0x3dea9e0d	0.11455927
246	0xbde16ae9	-0.110067196
247	0x3db0bb3a	0.08629461
248	0x3e427a65	0.18992002
249	0x3e1e20f7	0.15442263
250	0xbe68d24d	-0.22736473
251	0x3e8e723b	0.27821526
252	0x3e9e2e6a	0.30894786
253	0x3eba2126	0.36353415
254	0x3d6bac06	0.0575371
255	0x3e0db13a	0.13837138

layer1.bias f4 [100]
0	0x3ecb2eec	0.39684236
1	0xbe55b448	-0.20869553
2	0x3e85fc41	0.26169017
3	0xbdc1758e	-0.0944625
4	0x3eafa757	0.34307358
5	0x3d513e20	0.051084638
6	0x3dfd8e52	0.12380661
7	0xbedc83ac	-0.43069208
8	0x3c2e426c	0.010635953
9	0xbdf56bc0	-0.11983442
10	0x3e4f3aa0	0.20237207
11	0x3dc7acbf	0.097497456
12	0x3ed3d930	0.41376638
13	0xbed65caa	-0.41867572
14	0xbde7e677	-0.113232546
15	0x3dea02b0	0.11426294
16	0x3ed8f8d1	0.42377332
17	0x3b821a40	0.0039704144
18	0xbe454a7c	-0.19266695
19	0x3e3b8c71	0.18315293
20	0xbd77de5c	-0.060514793
21	0xbe8c927b	-0.27455506
22	0xbe69c734	-0.22829896
23	0xbe64dc79	-0.22349729
24	0x3e9a4e4a	0.30137855
25	0xbd884e32	-0.066555396
26	0xbd9cda25	-0.07658795
27	0xbed7d6d2	-0.42156082
28	0xbec198f2	-0.37812
29	0x3ecce416	0.40017766
30	0x3eca7273	0.39540443
31	0x3c517a50	0.012785509
32	0x3e4f2136	0.20227513
33	0xbe9280f0	-0.28613997
34	0x3e123ce9	0.14281048
35	0xbed9a72a	-0.4251035
36	0xbe46382d	-0.19357367
37	0x3eb949a0	0.36188984
38	0x3dde6990	0.10859978
39	0x3e2d6add	0.16935296
40	0x3de75b42	0.11296703
41	0xbe78313a	-0.24237528
42	0x3e935a35	0.2877976
43	0xbd2861b4	-0.041108802
44	0xbe344c06	-0.17607126
45	0x3e114364	0.14185864
46	0xbe953c5f	-0.29147622
47	0xbeb59a33	-0.35469207
48	0x3edbbeea	0.42919093
49	0x3db1d82d	0.086838104
50	0xbec39ea3	-0.38206968
51	0xbe946491	-0.28982976
52	0xbdc80ddc	-0.097682685
53	0xbe5a75ab	-0.2133395
54	0xbc850770	-0.016238898
55	0xbe9712ad	-0.29506436
56	0xbee1bc31	-0.4408889
57	0xbedb9563	-0.4288741
58	0x3e3eab6d	0.18620081
59	0x3debb43a	0.11508985
60	0xbebf58b9	-0.37372378
61	0xbe2b3c24	-0.1672216
62	0x3dbf0a98	0.093281925
63	0x3eb9c839	0.3628557
64	0x3ed59889	0.41717938
65	0xbe9c9042	-0.3057881
66	0xbe6c9c93	-0.23106603
67	0xbe81dc33	-0.2536331
68	0x3ea85632	0.32878262
69	0x3d00bde8	0.03143111
70	0xbea01d78	-0.31272483
71	0x3ec41f62	0.38305193
72	0x3e882f49	0.26598576
73	0x3b632629	0.0034660196
74	0x3e2d2fd8	0.16912782
75	0x3eac7d7e	0.33689493
76	0x3d8ea148	0.06964356
77	0xbe9a885a	-0.30182153
78	0xbeddb47f	-0.4330177
79	0xbdd470d0	-0.1037308
80	0x3ddf47b0	0.10902345
81	0x3d98c595	0.07459561
82	0xbdef5cba	-0.11687608
83	0x3e1cee58	0.15325296
84	0xbd0ee7f8	-0.03488919
85	0x3eb180da	0.34668618
86	0xbe933640	-0.28752327
87	0xbed280a1	-0.4111376
88	0x3e979d46	0.29612178
89	0x3e241c00	0.16026306
90	0x3c69b180	0.014263511
91	0xbe9a95b0	-0.30192327
92	0xbec70f95	-0.38879076
93	0xbe6661e3	-0.22498278
94	0xbea3753b	-0.31925377
95	0xbd9f05c4	-0.077647716
96	0x3ed6b32c	0.41933572
97	0xbc7aed60	-0.015315384
98	0xbed632ab	-0.41835532
99	0x3e5f81b7	0.21826826

layer2.weight f4 [150, 100]
0	0x3db7c28c	0.08972654
1	0x3d02827b	0.031862717
2	0xbc5fa1f9	-0.013649457
3	0x3dc49ae8	0.095998585
4	0x3d0a537e	0.03377103
5	0x3d35934e	0.044329934
6	0xbdad488c	-0.08461103
7	0xbd59d87a	-0.053184964
8	0xbd8acbf1	-0.0677718
9	0xbbbc551e	-0.0057474514
10	0x3d3387c4	0.043830648
11	0xbd9dafec	-0.0769957
12	0x3d78d0c7	0.06074598
13	0x3cc229c8	0.023701563
14	0x3cf07492	0.02935246
15	0xbdc4d4f5	-0.09610931
16	0xbd016311	-0.031588618
17	0xbdc70ed3	-0.09719624
18	0x3d9f7c37	0.07787364
19	0xbd857e17	-0.0651819
20	0xbd0fd4d1	-0.035115067
21	0x3d3f99c6	0.04677751
22	0x3d02e168	0.031953245
23	0x3d0abfd2	0.03387434
24	0x3db5b64f	0.08872663
25	0xbd861ad2	-0.06548084
26	0xbc546ce8	-0.012965418
27	0xbd6d09bd	-0.057870615
28	0x3c60c630	0.013719127
29	0xbc8045f1	-0.01565835
30	0x3ba57c1d	0.005050196
31	0x3cb7cf0a	0.022437591
32	0xbc480183	-0.012207392
33	0xbdaeb240	-0.08530092
34	0x3d6e584b	0.05818967
35	0x3ccb66d4	0.024829306
36	0x3d8a5d0d	0.06756029
37	0x3ce5f4cc	0.02807083
38	0xbd0e6e60	-0.03477323
39	0x3d25124a	0.040300645
40	0x3dc4b083	0.096039794
41	0x3d593292	0.053026743
42	0x3baffda2	0.0053708116
43	0xbd8deccb	-0.0692993
44	0xbd948915	-0.07252709
45	0xbd5849f5	-0.052804906
46	0x3da4569d	0.08024333
47	0xbd8f2d0b	-0.06991013
48	0x3cdf3018	0.027244613
49	0x3cb940a1	0.022613825
50	0xbdaf15b3	-0.08549061
51	0x3dbbf5b5	0.09177724
52	0xbd97af7e	-0.07406519
53	0x3caecae0	0.021336973
54	0xbd161840	-0.03664422
55	0x3c4f9757	0.01267036
56	0x3cc225a0	0.023699582
57	0xbd10940c	-0.03529744
58	0x3bd3a3c0	0.0064587295
59	0xbb7f073c	-0.0038914224
60	0xbd913d36	-0.07091753
61	0xbd5bfe3d	-0.053709257
62	0x3c978d58	0.018500015
63	0x3bd92566	0.0066267727
64	0x3d01f14c	0.03172426
65	0xbb8ecacd	-0.004357672
66	0x3c3566fe	0.0110719185
67	0x3856d6fc	5.1221796e-05
68	0xbd1f07c1	-0.038825754
69	0xbbab82e0	-0.0052341074
70	0xbd98fdff	-0.07470321
71	0x3c21c2dd	0.009873119
72	0x3cfe5e70	0.03105089
73	0xbdad0d57	-0.0844981
74	0xbd06b625	-0.03288855
75	0x3be5aa61	0.007008836
76	0x3ca33f2c	0.019927584
77	0x3cc61cb4	0.024183609
78	0x3dc9cc8a	0.09853466
79	0xbd7f0077	-0.062256303
80	0x3d9b5166	0.07583885
81	0x3db22944	0.08699277
82	0xbdad4f87	-0.08462434
83	0x3d52f6f0	0.05150503
84	0xbd9871fa	-0.07443614
85	0xbd705f14	-0.058684424
86	0xbd2a8dbd	-0.04163908
87	0xbd727f33	-0.059203338
88	0xbd6333a0	-0.055469155
89	0x3d259f71	0.04043526
90	0xbdae3d72	-0.085078135
91	0xbd9c155f	-0.07621264
92	0x3c405ca7	0.01174084
93	0xbd93632d	-0.07196651
94	0x3cfe16d4	0.031016745
95	0x3d5ae0c5	0.053437013
96	0x3ce8801f	0.028381405
97	0x3d2a1cea	0.04153148
98	0x3c92612c	0.0178686
99	0xbda3182d	-0.079635955
100	0xbda5c4b0	-0.08094156
101	0x3c7cd179	0.015430802
102	0x3d8f5e28	0.07000381
103	0xbdaa2d04	-0.08309367
104	0x3d02c797	0.031928625
105	0x3d8d6439	0.069038816
106	0x3c2ee445	0.010674541
107	0xbdb370ca	-0.08761747
108	0xbda3d96b	-0.080004536
109	0xbd0bb1f8	-0.03410527
110	0x3c5345fa	0.012895102
111	0x3bd4edf1	0.0064980914
112	0x3d92fc1e	0.07176994
113	0x3d3350d6	0.043778263
114	0x3d1f9d62	0.03896845
115	0x3dc3fb31	0.09569395
116	0xbd9f3d76	-0.077753946
117	0xbd318323	-0.043337952
118	0xbdb229c8	-0.086993754
119	0x3de41e47	0.111385874
120	0x3d3064e4	0.043064967
121	0x3d9260ab	0.07147344
122	0x3d0986d3	0.033575844
123	0x3d0f2812	0.034950323
124	0x3db46a4e	0.088093385
125	0xbd6711af	-0.05641335
126	0xbbcb22cb	-0.006199216
127	0x3d1616de	0.0366429
128	0x3d11ed62	0.035626777
129	0xbd66c979	-0.056344483
130	0x3d1e957f	0.03871679
131	0xbd2d738e	-0.04234653
132	0x3d602c7d	0.054729927
133	0x3c0bdf0c	0.008537065
134	0x3cdc9e03	0.026930815
135	0xbdc5d732	-0.09660186
136	0x3d8e9db3	0.069636725
137	0x3db0a491	0.086251386
138	0x3c827e78	0.015929446
139	0xbd6d29de	-0.057901256
140	0x3dc7fa7b	0.09764572
141	0x3d8c711c	0.068575114
142	0x3dac9923	0.08427646
143	0x3dbe6778	0.09297079
144	0xbd83f6da	-0.064435676
145	0xbc8fd6b9	-0.017558442
146	0x3d462458	0.048374504
147	0x3995defd	0.00028585634
148	0x3cd7ad83	0.026327854
149	0x3d699866	0.057030104
150	0xbc1ae215	-0.009453316
151	0x3d8fd65e	0.07023309
152	0x3d26c3ae	0.04071396
153	0x3922fc00	0.00015543401
154	0xbdbd36fb	-0.09239002
155	0xbd23e080	-0.04000902
156	0x3d84d109	0.06485183
157	0xbd077d04	-0.03307821
158	0x3d566f26	0.052352093
159	0x3dac8085	0.08422951
160	0xbced36e0	-0.02895683
161	0xbd91b818	-0.07115191
162	0xbdafa7a2	-0.08576895
163	0xbd99241f	-0.07477593
164	0xbd8a5227	-0.067539506
165	0x3cdc9a06	0.026928913
166	0xbd7f397d	-0.062310684
167	0x3c3abbe1	0.011397333
168	0x3d41017b	0.047120553
169	0xbb30ec60	-0.002699636
170	0x3bde2c32	0.006780171
171	0xbc7bdfe0	-0.0153732
172	0x3d776a3f	0.06040406
173	0xbbe735fe	-0.007055997
174	0xbd00d342	-0.03145147
175	0x3de0b917	0.10972803
176	0xbdbeea0d	-0.093219854
177	0x3da800a3	0.082032464
178	0x3cbebb78	0.023282751
179	0xbb06fdc0	-0.0020598024
180	0xbd8f83ed	-0.07007585
181	0xbcb24482	-0.021761183
182	0x3d5c6129	0.053803597
183	0x3db35c1c	0.08757803
184	0xbd1e7713	-0.038687777
185	0x3d848c62	0.064720884
186	0x3cacee15	0.02110962
187	0x3d24efb2	0.040267654
188	0xbd94a582	-0.072581306
189	0x3d066287	0.032808807
190	0xbd56c790	-0.05243641
191	0x3d5955e3	0.053060424
192	0x3cfc0bd4	0.030767359
193	0xbd94ac1a	-0.07259388
194	0xbd12fa4c	-0.035883233
195	0x3c0f5f5e	0.008750765
196	0x3d407d3b	0.04699443
197	0x3d92086f	0.07130515
198	0xbdad98eb	-0.084764324
199	0x3d7d039e	0.061771028
200	0x3d253f14	0.04034336
201	0x3d2567e7	0.040382292
202	0x3d1a302c	0.037643597
203	0xbc692705	-0.014230494
204	0x3d9f35f9	0.07773966
205	0xbd433617	-0.047659006
206	0x3d203337	0.039111342
207	0xbd7c2773	-0.06156106
208	0x3ce3424f	0.02774158
209	0x3c4c509b	0.01247039
210	0x3da34cca	0.07973631
211	0x3d523bb5	0.051326472
212	0xbb18de46	-0.0023325845
213	0xbd372aed	-0.04471867
214	0x3d9e0997	0.07716673
215	0xbdb35c38	-0.08757824
216	0x3d8b6e0a	0.06808098
217	0x3dbf02ab	0.09326681
218	0x3ce63e84	0.028105982
219	0x3da1ef4e	0.07906972
220	0x3de6bb1e	0.112661585
221	0x3c8a7d8c	0.016905569
222	0xbd850398	-0.06494826
223	0x3db1e91f	0.086870424
224	0xbc2b588d	-0.010458124
225	0xbd2886a9	-0.041144047
226	0xbd38b971	-0.045098726
227	0x3d32fe62	0.04369963
228	0xbd26af00	-0.040694237
229	0xbd0de80e	-0.034645133
230	0xbd8f4d68	-0.06997186
231	0xbd0a2a0a	-0.033731498
232	0x3dde8ffe	0.10867308
233	0xbd0516cd	-0.032492448
234	0x3b9cbccf	0.00478325
235	0x3d07807e	0.033081524
236	0xbd858c21	-0.06520868
237	0x3db54a67	0.08852082
238	0x3cd98c04	0.026556022
239	0xbd7e55a5	-0.062093396
240	0x3d57215e	0.052522056
241	0xbd66f3b6	-0.056384765
242	0xbdc7cd64	-0.09755972
243	0x3d424c62	0.047436126
244	0xbdb0b4b5	-0.08628217
245	0x3c2f3bee	0.010695441
246	0x3d5e850a	0.054326095
247	0x3d2d9ac4	0.042383924
248	0xbc300886	-0.01074422
249	0xbd43c0f2	-0.04779143
250	0xbd0764db	-0.033055168
251	0xbd53e050	-0.051727593
252	0x3d1e4cbe	0.038647406
253	0xbd1ad4f3	-0.03780074
254	0x3c951fd4	0.018203653
255	0x3de0b8f9	0.10972781

layer2.bias f4 [150]
0	0xbc86a489	-0.016435878
1	0xbbb5539f	-0.00553365
2	0x3d933ab9	0.07188935
3	0x3cac9494	0.021066941
4	0xbd5ab284	-0.053392902
5	0xbd257e85	-0.04040386
6	0x3d9bcc49	0.07607324
7	0x3d4cb2c1	0.04997516
8	0xbd5dd369	-0.054156695
9	0xbda1fb1e	-0.07909225
10	0x3c950f47	0.018195761
11	0xbd772633	-0.060339164
12	0xbcc0d5dc	-0.023539476
13	0x3dca14b4	0.0986723
14	0xbc0ffcee	-0.0087883305
15	0x3d833196	0.06405942
16	0xbd4aef82	-0.04954482
17	0x3d09dc6a	0.03365747
18	0x3dc66941	0.09688044
19	0xbd5b71a0	-0.053575158
20	0x3d34438b	0.044009726
21	0xbd37d217	-0.04487809
22	0x3ddcf3b2	0.10788669
23	0x3cb83c19	0.022489594
24	0x3da31205	0.07962421
25	0xbda6aa19	-0.08137912
26	0xbd94f1fa	-0.07272716
27	0x3da565a5	0.08076028
28	0x3cbcec88	0.023062006
29	0x3cae13ea	0.02124973
30	0xbd099bf8	-0.03359601
31	0xbcfff4ec	-0.031244718
32	0x3d91c48c	0.071175665
33	0x3de681b5	0.112552084
34	0xbd771920	-0.060326695
35	0x3d8b8665	0.06812743
36	0x3d880dd9	0.06643266
37	0xbd943242	-0.072361484
38	0x3dd4eaba	0.10396333
39	0x3b192cc0	0.002337262
40	0xbdad355d	-0.08457444
41	0x3dac0ead	0.08401237
42	0xbd85a301	-0.06525231
43	0xbbd77cb3	-0.0065761446
44	0x3dd3a741	0.103346355
45	0x3b2bf54b	0.0026238735
46	0xbd78ada7	-0.060712483
47	0x3bfe0a30	0.0077526793
48	0xbdc03e42	-0.09386875
49	0xbd727703	-0.05919553
50	0x3d851b6d	0.06499372
51	0x399b8f57	0.000296707
52	0xbd7f6584	-0.062352672
53	0xbc52ccce	-0.012866212
54	0xbdbdd85d	-0.09269784
55	0x3d6424c7	0.055699136
56	0x3d279fed	0.040924
57	0x3afb0cd1	0.00191536
58	0xbdab7727	-0.08372336
59	0xbd8866bd	-0.06660221
60	0xbc2bbda8	-0.010482229
61	0x3dad16f3	0.08451643
62	0xbbaff350	-0.0053695813
63	0x3d892289	0.0669604
64	0xbc9f39ca	-0.019436736
65	0xbcc308a7	-0.023807837
66	0xbd5fde0f	-0.05465513
67	0xbd3559a7	-0.044274952
68	0x3ddcb4d0	0.10776675
69	0x3d9a53d6	0.07535522
70	0x3d87a31b	0.06622907
71	0x3da58f30	0.080839515
72	0xbd7e8423	-0.062137734
73	0x3d3f31de	0.046678416
74	0xbd9f8c56	-0.07790439
75	0x3dbb8d75	0.0915784
76	0xbd59c3e6	-0.05316534
77	0xbd5669fd	-0.052347172
78	0x3bb58349	0.005539332
79	0x3dcdd37f	0.10050105
80	0x3d970607	0.073741965
81	0xbd040d9a	-0.032239534
82	0x3daabe11	0.083370335
83	0x3cdfbf35	0.027312854
84	0x3d890b80	0.066916466
85	0x3dc4c19d	0.09607241
86	0x3dbc5064	0.09195021
87	0x3c74d891	0.014944212
88	0x3d52b073	0.051437806
89	0xbc8ecdf8	-0.017432198
90	0x3d043d4b	0.032285016
91	0x3dd2eb16	0.10298745
92	0x3d970f63	0.07375982
93	0x3c5cc7f3	0.013475406
94	0x3dabb751	0.08384574
95	0x3d383f23	0.044982087
96	0x3d953ddd	0.0728719
97	0xbd1bde47	-0.038053777
98	0x3d299d4e	0.041409783
99	0xbc2d3d9d	-0.010573772
100	0x3d169aba	0.036768652
101	0xbd737903	-0.059441578
102	0x3c86b346	0.016442906
103	0x3db6f4f2	0.08933438
104	0x3deed3f4	0.116615206
105	0xbc5c3af0	-0.013441786
106	0x3d167f71	0.03674263
107	0x3d741d4a	0.059598245
108	0xbd2ee3bc	-0.042697653
109	0xbcf6777a	-0.030086268
110	0x3d0b2eb6	0.033980094
111	0xbdcf8c6b	-0.101342045
112	0xbd266638	-0.040624827
113	0xbd87c2f5	-0.06628982
114	0x3d614123	0.05499376
115	0x3d8d078d	0.06886206
116	0xbc415f2b	-0.011802475
117	0xbb5e7880	-0.0033946335
118	0x3d5833d6	0.05278381
119	0xbd2f9172	-0.042863317
120	0xbd11dabd	-0.035608996
121	0xbd80d25c	-0.06290123
122	0xbdbb4b83	-0.09145262
123	0x3dddf664	0.10838011
124	0xbdba4319	-0.09094829
125	0x3d81b4d9	0.06333322
126	0xb9b3aa7f	-0.0003426857
127	0xbc656eb0	-0.014003441
128	0x3db7af2b	0.089689575
129	0xbcf3a7b8	-0.02974306
130	0x3dbd8622	0.092540994
131	0x3b35a634	0.0027717473
132	0xbd2170e9	-0.03941432
133	0x3cf9c654	0.030490078
134	0xbc834568	-0.016024306
135	0x3d6834ff	0.056691166
136	0xbd63491d	-0.055489648
137	0xbd789f15	-0.060698587
138	0x3d614317	0.054995622
139	0x3cb636d8	0.022242948
140	0x3cf1120c	0.02942755
141	0x3c55a470	0.013039693
142	0xbd928011	-0.07153333
143	0xbd09c9e5	-0.033639807
144	0x3d9dcaad	0.07704673
145	0xbad12720	-0.0015957095
146	0xbc5b688a	-0.013391623
147	0x3d9e12f6	0.0771846
148	0x3aaf68d2	0.0013382679
149	0x3de67a76	0.11253826

layer3.weight f4 [100, 150]
0	0xbd87f60a	-0.06638725
1	0xbdaa0924	-0.08302525
2	0xbbb6834c	-0.005569851
3	0xbc914418	-0.017732665
4	0xbc780766	-0.015138483
5	0xbd812789	-0.06306369
6	0xbcaeafaa	-0.021323998
7	0xbcaf95fd	-0.021433825
8	0xbd803217	-0.06259554
9	0x3caa08e4	0.020756193
10	0x3c82c9fb	0.015965452
11	0xbd907927	-0.07054358
12	0x3d066f02	0.03282071
13	0x3b42d5bd	0.0029729449
14	0x3d480e69	0.048841868
15	0x3cc482bf	0.023988126
16	0x3d706d78	0.058698148
17	0xbce9ce49	-0.028540747
18	0xbd8bbed9	-0.06823511
19	0xbd31c86b	-0.043404024
20	0x3d87ccb9	0.066308446
21	0x3ca9e4ca	0.020738978
22	0x3c9ec6c8	0.019381896
23	0x3d833139	0.06405873
24	0x3d3c9998	0.046044916
25	0x3d1a42b2	0.03766126
26	0x3d9cf046	0.07663016
27	0x3ba25223	0.004953639
28	0x3d4c9de8	0.04995528
29	0xbca6a8f5	-0.020344237
30	0xb94ced21	-0.00019543293
31	0x3d3f1ba0	0.046657205
32	0xbd8dde26	-0.06927137
33	0x3d1ecf14	0.038771704
34	0x3d299181	0.04139853
35	0xbd3fbd1d	-0.04681121
36	0x3d671f77	0.05642649
37	0x3d8b29d3	0.06795087
38	0xbd9ca2c0	-0.076482296
39	0x3cc468dc	0.023975782
40	0xbda931aa	-0.08261426
41	0x3ceb1d13	0.028700387
42	0x3ccfb1f0	0.025353402
43	0x3d88adb9	0.0667376
44	0xbcdc331d	-0.026879841
45	0xbb0eaeae	-0.0021771598
46	0x3c4fc380	0.012680888
47	0xbda59f00	-0.080869675
48	0x3d9c4195	0.07629696
49	0xbd163168	-0.03666821
50	0xbcba22de	-0.022721704
51	0x3d1cbe7f	0.03826761
52	0xbd79647f	-0.060886856
53	0xbc4d35a8	-0.012525
54	0x3d24d7dc	0.040244922
55	0x3da01de3	0.078182004
56	0xbc8dab4e	-0.017293599
57	0x39f0f4b4	0.00045958685
58	0x3d797203	0.060899746
59	0x3d92b068	0.07162553
60	0x3d226a9c	0.039652452
61	0xbd842ba5	-0.06453637
62	0xbcea107c	-0.028572313
63	0x3da4043a	0.08008619
64	0xbd849578	-0.064738214
65	0x3d9fad36	0.07796709
66	0xbd961591	-0.07328332
67	0x3c90d694	0.017680444
68	0x3da411a3	0.080111764
69	0x3c4c2964	0.01246104
70	0x3d33bcb3	0.04388113
71	0xbccf1009	-0.0252762
72	0x3d86f0bf	0.065888874
73	0x39e963ac	0.00044515484
74	0xbc87b729	-0.01656683
75	0xbcaedb3e	-0.021344777
76	0x3d57c3e4	0.05267705
77	0xbd831128	-0.06399757
78	0x3d431e3c	0.047636256
79	0xbcc1c356	-0.023652714
80	0xbd0021e5	-0.031282324
81	0x3bd230d0	0.0064145103
82	0x3ceb1cfd	0.028700346
83	0x3c1e616b	0.009666781
84	0xbc9a3c11	-0.01882747
85	0x3ce92654	0.02846066
86	0x3cfadd1c	0.030623011
87	0x3b5197a5	0.0031981256
88	0xbc621ac1	-0.013800324
89	0xbc443930	-0.011976525
90	0xbce0d928	-0.027447298
91	0xbd630e20	-0.055433393
92	0x3a94c0c0	0.0011348948
93	0x3d876a2a	0.06612046
94	0x3caf64e8	0.02141042
95	0x3d2e9cad	0.042629886
96	0xbc1132b8	-0.00886219
97	0x3d97f22c	0.074192375
98	0x3b2b8020	0.0026168898
99	0xbd8cdf63	-0.06878545
100	0x3c158ce4	0.009127829
101	0xbcff61ec	-0.031174622
102	0xbd10f1de	-0.035386913
103	0xbd3c89ba	-0.046029784
104	0xbd2feff6	-0.042953454
105	0xbd3d578e	-0.046226077
106	0xbd1edb0b	-0.038783114
107	0x3d6fa434	0.058506206
108	0x3d52792e	0.051385097
109	0xbd3bd12a	-0.04585377
110	0x3d3f5068	0.04670754
111	0x3d5b78de	0.053582065
112	0xbd92582f	-0.07145726
113	0x3da29acc	0.079396814
114	0xbd8a48cf	-0.067521684
115	0x3d982d4e	0.07430516
116	0xbcc8147d	-0.024423832
117	0x3bcb1de3	0.006198631
118	0x3ceea92b	0.0291334
119	0xbd218a8e	-0.039438777
120	0xbb08d9ed	-0.0020881847
121	0x3d0f6382	0.035007007
122	0xbd4074b1	-0.046986286
123	0xbda393a5	-0.07987145
124	0x3d886c0e	0.06661235
125	0xba64b860	-0.0008724984
126	0xbd9717ae	-0.073775634
127	0xbd3aa9b3	-0.045571994
128	0xbd97ceee	-0.074125156
129	0x3d8e03ce	0.069343194
130	0xbc8af4b0	-0.01696238
131	0x3d4a30c7	0.049362924
132	0xbd230b3d	-0.03980564
133	0x3c913e88	0.017730013
134	0x3d919125	0.07107762
135	0xbd91551f	-0.07096314
136	0x3d081043	0.033218633
137	0xbc73636b	-0.014855246
138	0x3c2cfe8c	0.010558736
139	0xbd7938a0	-0.060845017
140	0xbd6fe011	-0.058563296
141	0xbd0c1141	-0.034196142
142	0x3cb7f0c3	0.022453671
143	0xbd8dcbe3	-0.06923654
144	0x3d10d788	0.035361797
145	0xbcf0f0ff	-0.02941179
146	0xbd98d56e	-0.074625835
147	0x3d31f073	0.0434422
148	0x3d47233f	0.048617598
149	0x3d2ac0b9	0.0416877
150	0xbc7ea12d	-0.015541357
151	0xbd57b88f	-0.052666243
152	0x3d94b18b	0.07260426
153	0xbcf96e4e	-0.030448105
154	0xbd63c598	-0.055608362
155	0xbd664c27	-0.05622497
156	0x3c913b90	0.017728597
157	0xbc96ac71	-0.018392773
158	0x3da73eea	0.08166297
159	0xbd513ad4	-0.051081493
160	0xbc24a4c3	-0.010049048
161	0xbbadb1f0	-0.005300753
162	0x3d2e46b6	0.042547904
163	0xbd2756e5	-0.040854353
164	0x3d634704	0.055487648
165	0x3da1c4e1	0.0789888
166	0xbd248d67	-0.040173914
167	0x3d9c0ec6	0.07620005
168	0xbcdb5985	-0.026776085
169	0x3d6aee30	0.05735606
170	0xbbfd5246	-0.007730755
171	0x3dab7706	0.08372311
172	0xbca6925d	-0.020333463
173	0x3db5657e	0.08857249
174	0x3b9d41b0	0.0047990903
175	0x3ca1b939	0.019741641
176	0x3d86a415	0.06574265
177	0x3d78f3f2	0.06077952
178	0xbd3d64be	-0.046238653
179	0x3d36048e	0.044437937
180	0x3da0e6da	0.078565314
181	0xbd11b85d	-0.035576213
182	0xbd57cc91	-0.052685324
183	0x3d5cb9d9	0.053888176
184	0x3d873d34	0.066034704
185	0x3c9d0530	0.019167513
186	0xbc71ad23	-0.014750752
187	0x3bb0b3ed	0.0053925426
188	0x3d99b485	0.075051345
189	0x3d08e90c	0.033425376
190	0x3d9cdcfd	0.07659338
191	0x3d096b17	0.033549394
192	0xbd393e40	-0.04522538
193	0x3d18e3c9	0.037326608
194	0x3c963e07	0.018340124
195	0xbda822ac	-0.08209738
196	0x3d74ce50	0.059767067
197	0x3d73f500	0.059559822
198	0x3ab40fc5	0.001373761
199	0x3da12678	0.078686655
200	0xbd823497	-0.06357687
201	0xbce717d1	-0.028209599
202	0x3cbb79d1	0.022885235
203	0x3da33842	0.07969715
204	0xbc379ddb	-0.011207069
205	0xbd41aa40	-0.047281504
206	0x3d5dfc5b	0.054195743
207	0x3d54358e	0.051808886
208	0xbd67a2ae	-0.056551628
209	0xbbdc2cf2	-0.006719225
210	0x3d0f6e36	0.035017215
211	0x3d1dac54	0.038494423
212	0x3cd6f700	0.026240826
213	0xbd6ed7d1	-0.058311287
214	0x3d3024cf	0.043003853
215	0x3d8a26e1	0.06745697
216	0x3d21e357	0.03952345
217	0x3ccacfb8	0.024757251
218	0x3dd05896	0.101731464
219	0x3d788f44	0.060683504
220	0xbb8f3317	-0.004370104
221	0x3dc18309	0.09448821
222	0xbcdd79e3	-0.02703566
223	0xbd906bd1	-0.07051814
224	0xbc9db90d	-0.019253278
225	0xbd2c953c	-0.04213451
226	0x3d191799	0.03737602
227	0x3d6de864	0.058082953
228	0x3d23f262	0.040026076
229	0xbd05945a	-0.032612182
230	0xbd8f5492	-0.069985524
231	0xbd4d4860	-0.05011785
232	0xbd4fe034	-0.050750926
233	0x3d75b659	0.059988353
234	0xbd24864d	-0.04016714
235	0xbc9ad574	-0.01890061
236	0xbd7e6daa	-0.062116303
237	0xbd89022f	-0.066898696
238	0xbd7e19fa	-0.062036492
239	0xbd769f08	-0.060210258
240	0x3bafae4d	0.0053613544
241	0x3b70e893	0.0036759719
242	0x3d894d18	0.067041576
243	0x3b99e02b	0.0046959124
244	0xbd84ff01	-0.06493951
245	0x3d81b42b	0.063331924
246	0xbd9228ae	-0.07136665
247	0x3b750f60	0.0037393197
248	0x3c6c7e90	0.014434472
249	0x3dc922ac	0.09821066
250	0x3d8a4c29	0.06752808
251	0xbd7b4fc0	-0.061355352
252	0x3bfc08fc	0.0076915007
253	0x3d26ebe4	0.040752307
254	0xbc9a1130	-0.018807024
255	0x3d7d741a	0.0618783

layer3.bias f4 [100]
0	0xbd7508bb	-0.05982278
1	0x3dc31a38	0.09526485
2	0xbd389195	-0.045060713
3	0xbcfd40ca	-0.030914683
4	0x3c0963bb	0.008385594
5	0xbbcb0d0a	-0.0061966227
6	0x3d53202c	0.051544353
7	0x3d6731a0	0.05644381
8	0xbaef9d14	-0.0018281066
9	0xbd7bf9d8	-0.061517566
10	0xbda59857	-0.08085697
11	0x3d5f5657	0.0545257
12	0x3c29fbce	0.010374976
13	0xbd2e78d2	-0.042595692
14	0x3d59806d	0.053100992
15	0xbd9888da	-0.07447977
16	0x3d8b7f1c	0.068113536
17	0x3d2c6368	0.04208699
18	0xbd6a401c	-0.057190046
19	0x3d6d7a91	0.057978217
20	0x3ce45c13	0.027875936
21	0x3daaaf5d	0.08334229
22	0xbd80f16a	-0.06296046
23	0x3d952702	0.07282831
24	0x3c9706d9	0.018435882
25	0xbd8aeb02	-0.067831054
26	0xbd9a69de	-0.07539724
27	0x3d5b2d46	0.053509973
28	0xbbf3580e	-0.0074262684
29	0x3daf18a8	0.08549625
30	0x3c7c9c69	0.01541815
31	0xbc891898	-0.01673536
32	0xbb14a749	-0.0022682718
33	0xbd6fc6e5	-0.05853929
34	0x3dadd4c3	0.08487847
35	0xbd5793c8	-0.05263117
36	0x3d4e5579	0.05037448
37	0x3d0172a0	0.031603456
38	0x3d5785ee	0.05261796
39	0xbd90407a	-0.07043548
40	0xbd8b6ada	-0.0680749
41	0xbda3eb3f	-0.08003854
42	0xbd2da59b	-0.04239426
43	0x3d0a5f74	0.033782437
44	0x3d86358b	0.06553181
45	0xbd3efbaa	-0.046626724
46	0x3d7e3a5b	0.06206737
47	0xbd0e2e66	-0.034712218
48	0xbc09cd4b	-0.008410762
49	0xbca81e21	-0.02052218
50	0x3d77f0f3	0.06053252
51	0x3d31463a	0.043279864
52	0xbd3d8eb0	-0.046278656
53	0x3d1afb3f	0.037837263
54	0x3d908f09	0.07058532
55	0x3d06ef88	0.03294328
56	0xbbd6e9eb	-0.006558647
57	0xbd996145	-0.07489256
58	0xbd51f2e1	-0.051257018
59	0x3cd4ec24	0.025991507
60	0xbd36d2fc	-0.044634804
61	0x3d90bff4	0.07067862
62	0x3c2c9d26	0.010535514
63	0xbd10f071	-0.035385553
64	0xbd7e541c	-0.06209193
65	0xbca61745	-0.020274768
66	0x3d8e49dc	0.06947681
67	0xbd979823	-0.07402065
68	0x3ca89fe1	0.020584049
69	0x3d209b2f	0.039210495
70	0xbd10069b	-0.03516255
71	0xbd544152	-0.051820107
72	0xbd561575	-0.052266557
73	0xbd1757c1	-0.036948923
74	0x3d17a88d	0.037025977
75	0x3d8afdc9	0.06786687
76	0xbc2db4d0	-0.010602191
77	0x3d29713d	0.041367758
78	0x3d9415e3	0.07230737
79	0x3d98f145	0.074678935
80	0x3d16b9f8	0.036798447
81	0xbcf78f18	-0.0302196
82	0x3d186d94	0.037213877
83	0xbc9d6d69	-0.01921721
84	0x3c2ce7c2	0.010553302
85	0xbda86f8e	-0.08224402
86	0xbd4711c0	-0.048600912
87	0xbd90da48	-0.07072884
88	0x3db52834	0.08845559
89	0x3d166dc4	0.036725774
90	0x3c8209cc	0.015873812
91	0xbd027e27	-0.03185859
92	0xbd5c317e	-0.053758137
93	0x3cbebfaa	0.023284752
94	0xba971180	-0.0011525601
95	0x3c49b438	0.012311034
96	0xbd4110a0	-0.047134995
97	0x3d32cbd4	0.043651417
98	0x3c6c4c0c	0.014422428
99	0xbb63d408	-0.0034763832

layer4.weight f4 [80, 100]
0	0xbd9bd146	-0.07608275
1	0x3cd64912	0.02615789
2	0x3dba97d7	0.091109924
3	0xbca75bd4	-0.02042953
4	0xbd720243	-0.05908419
5	0xbc81e4a9	-0.015856104
6	0xbda3f2db	-0.080053054
7	0x3c41388f	0.01179327
8	0x3db0c2f5	0.08630935
9	0xbdb13925	-0.086534776
10	0x3cc39db4	0.02387891
11	0x3d893b78	0.06700796
12	0xbd0158a9	-0.031578694
13	0x3dafc12f	0.08581769
14	0x3d14c687	0.036322143
15	0xbd90d363	-0.07071569
16	0x3d8692ce	0.065709695
17	0x3da40e39	0.08010525
18	0x3dade45c	0.08490822
19	0x3d39dbf7	0.04537579
20	0x3d109a9b	0.035303693
21	0xbdb1f115	-0.08688561
22	0x3c2315d8	0.009953938
23	0x3a4e48ba	0.00078691135
24	0x3d781455	0.060566265
25	0xbd3a8cbb	-0.045544367
26	0x3d8ba972	0.068194285
27	0x3d904a13	0.070453785
28	0xbb96f850	-0.004607238
29	0xbd0fc504	-0.035099998
30	0xbd5d21c8	-0.053987294
31	0xbc8e85a8	-0.017397717
32	0xbd84fa74	-0.06493083
33	0xba292f38	-0.00064538745
34	0xbdbff44a	-0.09372766
35	0xbdc331e0	-0.09530997
36	0x3d911dac	0.070857376
37	0xbcc6a0ca	-0.024246592
38	0xbd0de1f4	-0.034639314
39	0x3db083f3	0.08618917
40	0xbd798a93	-0.06092317
41	0xbd599aea	-0.053126253
42	0x3ccfdc56	0.025373619
43	0x3c2bb547	0.010480232
44	0xbd557abb	-0.052118998
45	0xbda8a4b3	-0.08234539
46	0x3c5ab903	0.013349774
47	0x3d26b3a0	0.040698647
48	0xbd4c24a0	-0.049839616
49	0x3c14e3f1	0.009087549
50	0x3d3f1ec2	0.046660192
51	0x3d8cd439	0.06876416
52	0x3d7c19da	0.06154809
53	0x3c4f121e	0.012638597
54	0xbd50c9e3	-0.050973784
55	0x3d197ce8	0.037472636
56	0xbd8a3dd7	-0.06750076
57	0xbc5ea1a8	-0.013588347
58	0x3d58abf3	0.05289836
59	0x3c6b846c	0.014374834
60	0xbd043fa3	-0.03228725
61	0x3b7f74b9	0.0038979484
62	0xbddc70ec	-0.10763726
63	0xbd8c555b	-0.06852218
64	0xbc3faa1d	-0.011698273
65	0xbdcf828c	-0.10132322
66	0xbd5b02ec	-0.053469583
67	0xbd434e4c	-0.04768209
68	0x3d2798ee	0.04091733
69	0x3d6889a6	0.056771897
70	0x3cfbf77f	0.030757664
71	0x3d1e9c8b	0.03872351
72	0x3d9edae9	0.077565975
73	0xbd9b3f4e	-0.07580434
74	0xbd8d1711	-0.06889165
75	0x3d80f563	0.06296804
76	0x3ce32f2c	0.027732454
77	0x3c9633e2	0.018335287
78	0x3da70803	0.08155825
79	0xbcf8ed3d	-0.030386562
80	0xbd45dfc5	-0.048309106
81	0x3d266274	0.040621236
82	0xbd84b6ba	-0.06480165
83	0xbcfad8d1	-0.030620964
84	0x3b9d0a13	0.0047924607
85	0x3d82cbc6	0.06386523
86	0x3a397d00	0.00070758164
87	0x3d4e2e22	0.050336964
88	0xbc16f860	-0.009214491
89	0x3d6e9caa	0.058254875
90	0xbdac152c	-0.08402476
91	0x3d86a88e	0.06575118
92	0x3da6f392	0.08151926
93	0xbc6e8ec5	-0.014560406
94	0xba43da80	-0.00074712187
95	0xbd8ffae0	-0.070302725
96	0xbd9a9126	-0.07547216
97	0xbdd53214	-0.10409942
98	0xbd927a30	-0.07152212
99	0xbd644c3d	-0.05573677
100	0xbd482fc3	-0.048873674
101	0xbcd3c818	-0.025852248
102	0xbbe5bd30	-0.0070110783
103	0x3dc1fedf	0.09472441
104	0x3cb68d08	0.022284046
105	0xbd983125	-0.074312486
106	0xbdc40832	-0.09571876
107	0xbd900f45	-0.070341624
108	0xbda280e5	-0.07934741
109	0xbd83a328	-0.06427604
110	0x3daaa371	0.08331955
111	0xbd83ca25	-0.064350404
112	0x3d77047e	0.06030702
113	0x3c536130	0.012901589
114	0xbd8d3e2a	-0.068966225
115	0xbc17c598	-0.009263419
116	0xbb4595c0	-0.0030149072
117	0xbc90412c	-0.017609201
118	0xbd904e5b	-0.07046195
119	0x3cee58e4	0.02909512
120	0xbd8241be	-0.063601956
121	0xbb1390c0	-0.0022516698
122	0x3daad86b	0.0834206
123	0x3d64ff3e	0.05590748
124	0xbd8e6576	-0.06952946
125	0x3d939249	0.07205636
126	0x3d5812a2	0.052752145
127	0x3c735768	0.014852382
128	0x3dae412b	0.085085236
129	0xbdbd5952	-0.09245552
130	0xbdaced42	-0.08443691
131	0x3d9eb8ed	0.077501155
132	0x3dc12dd1	0.09432567
133	0xbd0d36fc	-0.034476265
134	0x3d97665b	0.0739257
135	0xbd997f6d	-0.07495008
136	0x3c93c308	0.018037334
137	0xbda31bdb	-0.079642974
138	0xbd9751e8	-0.07388669
139	0xbc7742d0	-0.015091613
140	0xbd0c0ea0	-0.034193635
141	0x3d5bac22	0.053630956
142	0xbda9691d	-0.08272002
143	0x3d73a712	0.059485503
144	0x3dcb9329	0.09940178
145	0x3d40a152	0.047028847
146	0x3d8777c7	0.066146426
147	0xbcc14ac8	-0.023595229
148	0x3d559b3e	0.052150004
149	0x3da3b1b9	0.07992882
150	0xba4f1d80	-0.0007900819
151	0xbcdcc6d4	-0.026950277
152	0x3d9df62d	0.0771297
153	0xbda5f502	-0.08103372
154	0xbdca0750	-0.09864676
155	0xbc5de000	-0.013542175
156	0xbdb63017	-0.08895891
157	0x3cc8cc6c	0.024511538
158	0xbcb32718	-0.021869227
159	0x3d40797e	0.046990864
160	0x3aa6b580	0.0012718886
161	0x3d3441fe	0.044008248
162	0xbd04d19c	-0.03242646
163	0xbd848792	-0.064711705
164	0x3dc01cc3	0.09380486
165	0x3da6aa51	0.08137954
166	0xbd8edf86	-0.069762275
167	0xbd480ea0	-0.048842072
168	0x3d76906e	0.060196333
169	0xbcdb6a14	-0.02678398
170	0xbd500090	-0.050781786
171	0xbda6e05e	-0.081482634
172	0x3cecaadc	0.028890066
173	0xbd77bb2a	-0.060481228
174	0xbd812f28	-0.063078225
175	0x3d1b8d92	0.03797681
176	0xbd942e8a	-0.07235439
177	0x3d8dbe0d	0.06921015
178	0xbd894072	-0.06701745
179	0xbc0b89d0	-0.008516744
180	0x3d1c6e12	0.03819091
181	0x3c9b6acc	0.018971823
182	0x3d9141cf	0.0709263
183	0xbda99dc0	-0.082820415
184	0x3c5a7768	0.013334133
185	0xbd184fc4	-0.037185445
186	0x3c876d08	0.016531482
187	0xbba14de0	-0.0049226135
188	0xbda76f65	-0.08175544
189	0x3d96e179	0.07367224
190	0xbd3f4c60	-0.046703696
191	0x3dbc47b1	0.091933616
192	0xbd678cba	-0.05653069
193	0x3dc1bc03	0.094596885
194	0xbd3dc913	-0.046334337
195	0x3dca8e5f	0.098904364
196	0xbcc33fd4	-0.023834147
197	0x3d98eb27	0.07466727
198	0x3d9a215b	0.07525893
199	0x3d9ed9e9	0.07756407
200	0xbd925fb1	-0.07147158
201	0x3dccafe8	0.09994489
202	0xbbcfe3a6	-0.0063442765
203	0xbd97ff33	-0.07421722
204	0x3d0599b0	0.03261727
205	0x3d977a28	0.07396346
206	0xbcf4e0cc	-0.029892348
207	0xbd49d433	-0.049274635
208	0x3c6e31e8	0.014538266
209	0x3d258bf2	0.040416665
210	0x3d26a1e2	0.040681727
211	0x3ce00191	0.027344497
212	0xbd5012b2	-0.05079908
213	0x3cc6f326	0.024285864
214	0x3d4b5834	0.049644664
215	0x3d1362ae	0.03598278
216	0xbd4fd5ec	-0.05074112
217	0x3d1fada2	0.03898395
218	0x3d282c5f	0.04105794
219	0xbc9ab49a	-0.018884946
220	0xbb71e586	-0.0036910488
221	0x3d560269	0.052248392
222	0x3d4e9902	0.05043889
223	0x3daba6fa	0.083814576
224	0x3d9a875b	0.07545348
225	0x3ceb0fb5	0.028694013
226	0xbc73b365	-0.014874314
227	0x3cebf07b	0.028801193
228	0xbdad608d	-0.08465681
229	0x3d4fb22c	0.050707027
230	0xbd70bd04	-0.05877401
231	0xbd850f6c	-0.06497082
232	0xbdbc5e58	-0.09197682
233	0xbc4a912e	-0.012363715
234	0xbda96b82	-0.082724586
235	0xbd9cea1f	-0.076618426
236	0x3b78a078	0.0037937444
237	0x3c1fbf95	0.009750267
238	0x3d460ffc	0.048355088
239	0x3d99b3d7	0.07505005
240	0xbd76c0a3	-0.060242306
241	0x3d4e8378	0.050418347
242	0x3d36a297	0.04458865
243	0x3ca2be1f	0.019866047
244	0xbbe57091	-0.0070019444
245	0xbdab41e5	-0.08362178
246	0x3ce81857	0.028331919
247	0x3de1b40f	0.110206716
248	0xbd84dd7f	-0.064875595
249	0xbda335f2	-0.079692736
250	0xbd764c0b	-0.060131114
251	0xbd7a0f90	-0.061049998
252	0x3d27e715	0.04099186
253	0xba84ab64	-0.0010121879
254	0xbd9a189b	-0.07524224
255	0x3d7f132a	0.062274136

layer4.bias f4 [80]
0	0x3d4dc2d7	0.050234642
1	0xbd6f7e83	-0.05847026
2	0x3d86333b	0.0655274
3	0x3d20c154	0.039246872
4	0xbd7c7607	-0.061635997
5	0x3c085d68	0.008323051
6	0x3d5e99ae	0.05434578
7	0x3db317f9	0.08744807
8	0x3d3d74c9	0.046253953
9	0xbd48ee63	-0.04905547
10	0xb9f2af3b	-0.00046288394
11	0x3d8ee35c	0.06976959
12	0xbd6639f3	-0.05620761
13	0x3dc7daa0	0.09758496
14	0xbbf18330	-0.007370375
15	0xbd0fbb68	-0.035090834
16	0x3d1203bd	0.035648096
17	0xbd555670	-0.052084386
18	0x3d207591	0.03917462
19	0xbd034b33	-0.032054137
20	0xbda7cfa3	-0.081939004
21	0x3d818ee7	0.063260846
22	0x3d21d50a	0.03950981
23	0xbdc0dddb	-0.094173156
24	0xbc5decc3	-0.013545218
25	0x3cda7cac	0.026670776
26	0xbd6a6831	-0.05722827
27	0x3d4d2458	0.05008349
28	0x3d69ab33	0.057048034
29	0xbdc72ffd	-0.0972595
30	0x3d77f2b3	0.06053419
31	0xbca5e1f4	-0.020249344
32	0xbbb45ac0	-0.0055039823
33	0xbd89a589	-0.067210265
34	0x3d9ee5e2	0.077586904
35	0x3bef108a	0.007295673
36	0xbce8c7f1	-0.028415652
37	0xbbd420b0	-0.006473623
38	0x3d1724f5	0.03690048
39	0x3d950a6f	0.07277381
40	0x3dd02e73	0.101651095
41	0x3bfd90a3	0.0077381893
42	0xbdaf9ee3	-0.08575227
43	0x3ca6cd5b	0.020361593
44	0x3d60ad0d	0.054852534
45	0xbdc2c7ed	-0.09510789
46	0xbc856450	-0.016283184
47	0xbdbc8e45	-0.09206823
48	0x3d3ebd78	0.04656741
49	0x3cbec12e	0.023285475
50	0x3d29d0c3	0.041458856
51	0xbc60439e	-0.013687996
52	0xbdbb582c	-0.09147677
53	0x3d1bbae7	0.03802004
54	0x3dd32909	0.10310561
55	0x3dbb0bb9	0.09133095
56	0xbc5f6810	-0.01363565
57	0xbc250766	-0.010072565
58	0x3d511684	0.051046863
59	0xbdb103f6	-0.086433336
60	0x3c205852	0.009786682
61	0xbd2d3c0e	-0.0422936
62	0x3cf76558	0.030199692
63	0x383f4018	4.559764e-05
64	0x3dc86eb1	0.09786738
65	0xbd919ba3	-0.071097635
66	0x3ddc8102	0.10766794
67	0xbd6d55ad	-0.057943035
68	0xbcef10d8	-0.029182836
69	0x3d47c778	0.048774213
70	0xbd5c08b2	-0.05371923
71	0x3c0d0ee8	0.008609511
72	0x3dd809c9	0.10548741
73	0xbdbe987b	-0.09306427
74	0xbd92610b	-0.07147416
75	0xbd820514	-0.06348625
76	0xbb8d7551	-0.0043169637
77	0x3d1c3c72	0.038143583
78	0x3d90520f	0.070469014
79	0x3d8ea843	0.06965687

layer5.weight f4 [60, 80]
0	0x3c054eb2	0.008136438
1	0x3d15d2cc	0.036577985
2	0x3d604a1a	0.05475817
3	0xbdaf2c86	-0.08553414
4	0x3c2ea580	0.010659575
5	0x3d81ddcd	0.06341133
6	0x3dac787d	0.08421419
7	0x3dc89923	0.097948335
8	0x3dd5648b	0.10419568
9	0x3dcd37ae	0.10020386
10	0xbdd0b863	-0.10191419
11	0xbdcc34f2	-0.09971036
12	0xbda3be3f	-0.07995271
13	0xbdc83734	-0.09776154
14	0x3d97c962	0.074114576
15	0x3cee29b1	0.029072614
16	0x3dcfa47a	0.10138793
17	0xbd150d12	-0.036389418
18	0xbdb1b2be	-0.086766705
19	0xbd21eb6d	-0.03953116
20	0x3db0bab8	0.08629364
21	0xbd9e7958	-0.07737988
22	0x3dab730e	0.08371554
23	0x3ddadb80	0.106863976
24	0xbd014f46	-0.03156974
25	0xbd9808b4	-0.07423535
26	0x3da32c7a	0.079674676
27	0xbd758e3e	-0.059950106
28	0xbd9f16fe	-0.07768057
29	0xbdc027c5	-0.093825854
30	0x3d808991	0.06276239
31	0xbd88a836	-0.06672709
32	0x3dade694	0.08491245
33	0xbddab061	-0.10678173
34	0xbdb2cc87	-0.08730417
35	0xba075d9c	-0.000516379
36	0xbcb078ac	-0.021541916
37	0x3d7b6e90	0.061384737
38	0xbd8de3e3	-0.069282316
39	0x3d62af58	0.055343002
40	0xbc676f35	-0.014125635
41	0x3cb2d33d	0.021829242
42	0x3d2b2ba9	0.041789684
43	0x3df19cdb	0.11797496
44	0x3d8fb5ea	0.07017119
45	0x3b8d11c0	0.0043050945
46	0xbd5788cc	-0.052620694
47	0xbdb2b0cc	-0.087251276
48	0x3da2e082	0.07952978
49	0x3dce09a1	0.1006043
50	0xbd225884	-0.039635196
51	0x3dc4b935	0.09605638
52	0x3dc80ff6	0.09768669
53	0xbda27bf9	-0.07933802
54	0x3c8a47c0	0.016879916
55	0x3d506052	0.05087311
56	0x3c80b2a0	0.015710175
57	0x3d271940	0.040795565
58	0x3c25b590	0.010114089
59	0xbd86a5aa	-0.06574567
60	0x3d98c15c	0.074587554
61	0x3d8d1f1e	0.06890701
62	0x3db0d5b2	0.08634509
63	0x3da57ee2	0.080808416
64	0xbd7b7885	-0.061394233
65	0xbd60dc68	-0.054897696
66	0x3d302c0c	0.043010756
67	0xbcc630cd	-0.024193192
68	0x3d2bd6f8	0.041953057
69	0x3d4559f6	0.048181497
70	0x3d014da0	0.03156817
71	0x3ccfb178	0.025353178
72	0x3dc46730	0.09589994
73	0xbda5dfa1	-0.080992945
74	0xbc0dcc98	-0.008654736
75	0x3db483d6	0.08814208
76	0x3c059e00	0.008155346
77	0xbd05c134	-0.032654956
78	0x3d09d107	0.03364661
79	0x3cbf487d	0.023349995
80	0xbd922360	-0.071356535
81	0xbb9867f0	-0.004651062
82	0x3dc4da20	0.096119165
83	0x3ddee8f8	0.10884279
84	0xbd9690fa	-0.07351871
85	0xbbb93240	-0.005651742
86	0xbd83de8c	-0.06438932
87	0x3dd3381a	0.10313435
88	0xbad50940	-0.0016253367
89	0xbd8cd67b	-0.068768464
90	0x3d864a7a	0.06557174
91	0xbd56674b	-0.0523446
92	0x3d01833c	0.031619295
93	0xbda92b67	-0.082602315
94	0xbdb7a05e	-0.089661345
95	0xbdd014a6	-0.101601884
96	0xbd1d361f	-0.038381692
97	0xbd351396	-0.04420813
98	0xbbaffd82	-0.0053707967
99	0x3dd967ec	0.10615525
100	0x3d053f97	0.032531347
101	0x3db2a474	0.08722773
102	0xbcdf0e94	-0.027228631
103	0xbc7b9260	-0.015354723
104	0x3d542648	0.05179432
105	0xbc9d8e54	-0.019232906
106	0x3de3e202	0.11127092
107	0xbdb18639	-0.08668179
108	0x3cf3fa88	0.029782549
109	0x3d21c1d2	0.039491482
110	0xbd95f637	-0.073223524
111	0xbd82d209	-0.06387717
112	0xbda23c6f	-0.07921683
113	0x3d1503c4	0.036380544
114	0xbd6e6b99	-0.058208082
115	0x3d96b61a	0.07358952
116	0xbdc23a6e	-0.09483801
117	0xbd9c7fe4	-0.07641581
118	0xbdd07cd8	-0.10180062
119	0x3cd94e50	0.0265266
120	0xbc63b529	-0.013898172
121	0xbba09cf0	-0.004901521
122	0xbd645cde	-0.055752628
123	0xbdd1bfa5	-0.102416314
124	0x3c8be252	0.017075691
125	0xbd63c921	-0.055611733
126	0x3d60ec24	0.0549127
127	0x3d0c3cc0	0.034237623
128	0x3dacd97f	0.084399216
129	0xba3ea84a	-0.0007273002
130	0xbda58d9d	-0.08083651
131	0xbdc00aa7	-0.09377032
132	0xbdb73197	-0.089450054
133	0x3cbef7a8	0.023311451
134	0x3dd503e8	0.10401136
135	0xbd178266	-0.036989592
136	0xbc5d5f50	-0.013511494
137	0xbd969f2e	-0.0735458
138	0x3cfb88a8	0.030704811
139	0xbd3f5c06	-0.04671862
140	0xbd5734a5	-0.05254044
141	0x3d954b18	0.072897136
142	0xbd1bd940	-0.038048983
143	0x3ba8c550	0.0051504746
144	0x3d8e7eec	0.06957802
145	0x3d0b92ec	0.034075662
146	0xbd000a27	-0.031259682
147	0xbc68cbb9	-0.0142087275
148	0x3d50d42c	0.050983593
149	0xbd54cbe0	-0.051952243
150	0x3daf50e1	0.08560348
151	0xbd143d9c	-0.036191568
152	0x3d6d8cea	0.057995714
153	0x3db669bc	0.08906886
154	0x3cf66f88	0.03008248
155	0xbda9b5cd	-0.08286629
156	0xbda7289c	-0.081620425
157	0xbd02a0ca	-0.03189162
158	0x3cc37260	0.02385825
159	0xbd8856ae	-0.06657158
160	0x3d660958	0.056161255
161	0x3da38b00	0.079854965
162	0xbdb67c7c	-0.08910462
163	0xbda1c552	-0.07898964
164	0xbdb538c9	-0.088487215
165	0x3dae731a	0.08518048
166	0x3dc37662	0.09544064
167	0x3dc51246	0.09622626
168	0xbd8eb29f	-0.06967663
169	0x3c09b3d8	0.0084046945
170	0x3d04eac8	0.032450467
171	0xbd8177c8	-0.063216746
172	0xbd830342	-0.06397106
173	0xbdc38713	-0.09547248
174	0x3dba8a24	0.091083795
175	0x3d36ce28	0.0446302
176	0x3ddba96a	0.107256725
177	0x3de4851e	0.111582026
178	0xbdae77bd	-0.08518932
179	0x3dba8ff8	0.09109491
180	0x3dce10e2	0.10061814
181	0x3dcbf6dc	0.09959194
182	0xbca4dbf8	-0.02012442
183	0x3caa9a50	0.020825535
184	0x3c39a1b0	0.011330053
185	0xbd310076	-0.04321333
186	0xbd5d720a	-0.054063834
187	0x3bae9110	0.0053273514
188	0xbdd05cbd	-0.101739384
189	0xbcea05a8	-0.02856715
190	0xbc7b27d8	-0.015329324
191	0x3d975fa8	0.07391292
192	0xbddf8cf7	-0.10915559
193	0xbc76d480	-0.015065312
194	0xbde2401d	-0.11047385
195	0x3dd151c2	0.10220672
196	0x3d707580	0.058705807
197	0x3dc54e82	0.09634115
198	0x3d73dc0c	0.059536025
199	0x3c5bd6f0	0.013417944
200	0x3d9522e6	0.07282047
201	0x3db78c4c	0.089623064
202	0x3d8efa8c	0.06981382
203	0xbd370432	-0.044681735
204	0x3d3f37f8	0.046684235
205	0x3d01fea0	0.03173697
206	0x3d8be652	0.068310395
207	0x3bc77b20	0.0060876757
208	0x3c246f18	0.010036252
209	0x3d0be140	0.034150362
210	0xbb812090	-0.0039406493
211	0x3cf71178	0.030159697
212	0xbc4af7c0	-0.01238817
213	0x3d92a252	0.071598664
214	0xbdb36f1c	-0.08761427
215	0x3cd2da00	0.025738716
216	0xbd98d9dc	-0.074634284
217	0xbdd2f89a	-0.10301323
218	0x3d4402a8	0.047854096
219	0xbd7bd2ea	-0.06148044
220	0xbd6f2339	-0.0583832
221	0x3c9368d8	0.01799433
222	0xbdcb4da1	-0.09926916
223	0x3d9e4e2a	0.07729752
224	0xbcd359a8	-0.025799587
225	0xbd3b99c4	-0.04580094
226	0x3cb69638	0.022288427
227	0xbd23a8be	-0.039955847
228	0xbd0c4d5c	-0.034253463
229	0xbd5c08cd	-0.05371933
230	0x3dc55c92	0.09636797
231	0x3dc711f8	0.09720224
232	0xbdaf779a	-0.08567734
233	0xbd9c526f	-0.076329105
234	0xbdc99722	-0.098432794
235	0x3d1fa5f8	0.03897664
236	0x3d0543e4	0.03253545
237	0xbca45aec	-0.020062886
238	0xbdd1464d	-0.10218487
239	0xbd14328a	-0.03618101
240	0x3ccd39f8	0.025052056
241	0xbd1e5e6e	-0.038664274
242	0xbdd82d07	-0.10555463
243	0x3db19a96	0.08672063
244	0xbd237fc8	-0.039916784
245	0xbd1ad50e	-0.03780084
246	0xbd8e4ed6	-0.069486305
247	0xbdd358b6	-0.10319655
248	0xbd877372	-0.06613816
249	0x3db5820e	0.088626966
250	0xbdcca2dc	-0.099920005
251	0xbdb02dec	-0.08602509
252	0xbcdd3f58	-0.027007744
253	0xbdbf78d0	-0.09349215
254	0x3dc5168a	0.096234396
255	0xbd81720e	-0.06320582

layer5.bias f4 [60]
0	0xbd89fce6	-0.0673769
1	0xbd8f3a17	-0.06993502
2	0xbdb929e7	-0.09041195
3	0xbdd77230	-0.105198264
4	0xbd40e6c4	-0.047095075
5	0x3df96d73	0.12179079
6	0xbd1f831b	-0.03894339
7	0xbd29e428	-0.041477352
8	0xbd087b57	-0.03332075
9	0xbd8bd5f1	-0.068279155
10	0x3c95f456	0.018304985
11	0xbccb1e00	-0.024794579
12	0xbb86dd19	-0.0041157124
13	0xbd886fe7	-0.06661969
14	0x3d3b63bb	0.045749407
15	0x3d4b1c8e	0.04958778
16	0x3d2705af	0.040776905
17	0xbd19eed3	-0.037581276
18	0x3d75b883	0.059990417
19	0xbd84c59d	-0.06483004
20	0xbd71705f	-0.058945056
21	0x3d2dab9e	0.042399995
22	0xbdc4a96d	-0.09602628
23	0x3db39b36	0.087698385
24	0xbd93d2b4	-0.07217923
25	0x3c8e8549	0.01739754
26	0xbd464ae2	-0.048411258
27	0xbda89a5c	-0.08232567
28	0xbdbef85b	-0.09324714
29	0xbd6258a4	-0.055260316
30	0xbce88d93	-0.02838782
31	0x3dba7674	0.091046244
32	0x3da70cbf	0.08156728
33	0xbd83e8af	-0.06440865
34	0x3d86d77c	0.06584069
35	0x3dd9db22	0.106374994
36	0xbc08b178	-0.008343093
37	0x3ce1648d	0.027513767
38	0x3d96dea4	0.07366684
39	0xbcd54ba8	-0.026037052
40	0x3d64f5fd	0.055898655
41	0x3d09010b	0.03344826
42	0x3db85ee7	0.09002476
43	0x3dfd503e	0.123688206
44	0xbd31d90e	-0.04341989
45	0xbd18d55c	-0.03731285
46	0x3da9dbb2	0.08293857
47	0x3d989928	0.07451087
48	0x3cf965d0	0.030444056
49	0x3ddb8f33	0.107206725
50	0xbd212dd4	-0.039350346
51	0xbd32a0b2	-0.043610282
52	0x3cd04435	0.025423149
53	0x3d6a948b	0.057270568
54	0x3c82daf0	0.015973538
55	0xbdcb1e47	-0.09917884
56	0xbcf5c2f4	-0.030000187
57	0x3db88a93	0.09010806
58	0x3dc494ac	0.095986694
59	0x3c1174d1	0.008877949
