saved_models/model_MA.pt (torch_old, 190423 bytes, 15 tensors)

layer1.weight f4 [100, 5]
-0.053620577 -0.15465191 -0.17054784 0.029612422 -0.30108452 0.15445548 0.20751959 -0.04782632
-0.07386455 -0.3537393 0.45323086 0.22555777 0.28659183 0.044103175 -0.31211576 -0.18956825
-0.29997176 0.046905458 -0.3976501 0.016480446 -0.2156915 0.41654277 -0.3951013 0.014830291
0.055297732 0.14988358 0.40885141 0.022351077 -0.1556055 -0.1035012 0.12714744 -0.26358017
0.052101966 -0.2716136 0.10268688 0.3792665 0.23059651 -0.038281478 -0.014823286 0.063173145
-0.17864025 -0.20540245 0.36406654 -0.24768752 -0.18340659 -0.1347611 -0.003125459 -0.24413384
-0.2732637 -0.30735192 0.36512828 0.14027062 0.293123 0.30894825 -0.2783418 0.067890175
0.038924612 0.44177133 0.2149988 0.28792575 0.114712335 -0.116494186 -0.12866718 0.06711346
0.14526029 0.004685074 -0.04935327 -0.24710609 0.046919316 -0.01114738 -0.14969309 0.46212488
-0.30031672 0.15698853 0.36624286 -0.04977217 -0.24132372 0.088839434 0.17040694 0.318913
-0.24056497 -0.115701795 -0.20033717 -0.41482466 0.399105 0.34850276 -0.3485693 0.01791425
0.018003417 0.14942345 -0.0146746645 0.42944145 -0.21558622 -0.13461046 0.13540812 -0.10328991
0.2526306 0.39366361 0.22135161 0.13467452 0.38863897 0.08955175 0.4287023 -0.018958628
0.44230622 -0.24506654 -0.08017403 0.12967235 -0.040897876 -0.42207745 -0.097091444 -0.23582464
0.12020152 0.28578064 0.09227342 -0.17619942 0.024367742 -0.15446225 0.3654354 0.42120332
0.2999091 3.3080578e-06 -0.40444073 -0.4184413 0.030173868 -0.14069521 0.30885226 0.07933003
-0.093227684 -0.16196403 0.22863938 -0.059207056 -0.31004283 -0.23957741 -0.10980025 -0.08492631
0.14827037 0.07340771 0.25409025 -0.40827647 0.44606704 0.45361316 -0.32989985 -0.3840423
-0.4097605 0.17227978 -0.0044915974 -0.18695831 -0.32350317 0.03587669 0.2995046 0.21204992
0.32791218 0.19099598 -0.10455558 -0.25648665 -0.4379927 0.12987876 -0.3835944 -0.23504889
0.26151276 -0.30952448 -0.1084069 0.10228467 -0.3573072 -0.045499507 0.37528697 -0.061376803
0.1250955 -0.40186813 -0.02976501 -0.3315153 0.12968951 -0.27108318 0.13206851 0.24461989
-0.069529206 0.1086805 -0.22525889 0.47208968 -0.24841335 0.2537076 -0.1440664 0.07511258
-0.40752557 -0.3894071 -0.32060885 -0.38965586 0.06992108 0.378668 -0.1733883 0.32169127
-0.26148194 0.046531618 0.0048181415 0.1728141 0.12414716 0.41062465 -0.21618977 0.08527938
-0.31727368 -0.29353738 -0.3497275 -0.4213412 0.28807455 -0.0075828377 0.05870195 0.2640229
0.21422856 -0.2684353 0.44849232 -0.03625393 -0.12553592 -0.060230445 0.14215198 0.20694035
0.43793383 0.16073318 -0.17121167 0.29505038 -0.04895535 0.13361678 0.28700665 -0.3246702
-0.053514957 -0.3006443 0.21007997 -0.08887443 -0.15150192 0.26785082 0.44481087 0.0959039
-0.24154194 -0.34305498 0.23831977 0.097742975 -0.4307514 -0.29954553 -0.029649109 -0.40978077
0.29475558 -0.42015427 0.029805094 0.2676152 -0.26255858 0.29344723 0.23836233 0.3112991
-0.22327538 -0.027173812 0.21352096 0.057515956 -0.30115342 0.3316916 0.220619 -0.21396682
00000000: 40a1 5bbd 125d 1ebe 18a4 2ebe c095 f23c
00000010: c027 9abe 9429 1e3e 0480 543e 88e5 43bd
00000020: 4c46 97bd 511d b5be e00d e83e 9ef8 663e
00000030: 2abc 923e 88a5 343d a3cd 9fbe 2e1e 42be
00000040: e695 99be f01f 403d cb98 cbbe 0002 873c
00000050: 3cde 5cbe 1845 d53e b84a cabe c0fa 723c
00000060: e07f 623d 157b 193e f954 d13e 9b19 b73c
00000070: 0c57 1fbe 70f8 d3bd f032 023e fbf3 86be
00000080: df68 553d f010 8bbe 804d d23d 382f c23e
00000090: 7e21 6c3e 0acd 1cbd 5edd 72bc ec60 813d
000000a0: 78ed 36be 0555 52be ee66 ba3e cca1 7dbe
000000b0: f0ce 3bbe d0fe 09be 80d4 4cbb 39fe 79be
000000c0: 38e9 8bbe 3b5d 9dbe 18f2 ba3e 1aa3 0f3e
000000d0: 3814 963e 772e 9e3e d182 8ebe 010a 8b3d
000000e0: 6a6f 1f3d da2f e23e a528 5c3e 016b 933e
000000f0: 4dee ea3d 8194 eebd 54c1 03be c872 893d
00000100: 1dbf 143e 4085 993b a826 4abd 6109 7dbe
00000110: 782e 403d 80a3 36bc 2549 19be a29b ec3e
00000120: 1dc3 99be 9ac1 203e 2f84 bb3e e7dd 4bbd
00000130: 911d 77be 73f1 b53d 287f 2e3e 9148 a33e
00000140: aa56 76be 10f5 ecbd 3025 4dbe e663 d4be
00000150: 7e57 cc3e f46e b23e ad77 b2be e8c0 923c
00000160: e77b 933c 7602 193e 016e 70bc c0df db3e
00000170: a2c2 5cbe 53d7 09be 6da8 0a3e a989 d3bd
00000180: cc58 813e 478e c93e ffa9 623e 1ee8 093e
00000190: b0fb c63e e866 b73d de7e db3e 204f 9bbc
000001a0: f675 e23e b9f2 7abe 4832 a4bd d4c8 043e
000001b0: 8884 27bd 891a d8be e1d7 c6bd 047c 71be
000001c0: 372c f63d d751 923e d9f9 bc3d 9f6d 34be
000001d0: dc9e c73c 5a2b 1ebe 591a bb3e f6a7 d73e
000001e0: b08d 993e 0000 5e36 db12 cfbe f03d d6be
000001f0: 302f f73c 6812 10be e221 9e3e c877 a23d
00000200: 28ee bebd e6d9 25be 7120 6a3e 1983 72bd
00000210: efbd 9ebe c853 75be f4de e0bd d8ed adbd
00000220: 30d4 173e c856 963d 1e18 823e 9d09 d1be
00000230: e662 e43e fc3f e83e a2e8 a8be 31a1 c4be
00000240: 21cc d1be 1c6a 303e 402e 93bb 0072 3fbe
00000250: 35a2 a5be 70f3 123d ab58 993e 9d23 593e
00000260: 1be4 a73e 7394 433e 3c21 d6bd 3852 83be
00000270: 9440 e0be f0fe 043e 7c66 c4be a8b0 70be
00000280: 00e5 853e fe79 9ebe 7004 debd a07a d13d
00000290: f8f0 b6be b15d 3abd 9d25 c03e 3e66 7bbd
000002a0: 0919 003e a9c1 cdbe c0d5 f3bc 60bc a9be
000002b0: 54cd 043e 6acb 8abe f83c 073e a37d 7a3e
000002c0: 5465 8ebd e293 de3d 44aa 66be bdb5 f13e
000002d0: 1260 7ebe f6e5 813e 2486 13be a0d4 993d
000002e0: 31a7 d0be 5e60 c7be d826 a4be f980 c7be
000002f0: c832 8f3d c6e0 c13e b48c 31be b8b4 a43e
00000300: f6e0 85be f097 3e3d 80e1 9d3b 2ef6 303e
00000310: de40 fe3d 653d d23e da60 5dbe f5a6 ae3d
00000320: b271 a2be 884a 96be 7c0f b3be 09ba d7be
00000330: 827e 933e 7479 f8bb 7571 703d 022e 873e
00000340: bb5e 5b3e 5a70 89be c9a0 e53e 007f 14bd
00000350: 7d8c 00be 33b4 76bd 4a90 113e 2ce8 533e
00000360: dd38 e03e 3d97 243e 1d52 2fbe d810 973e
00000370: 6885 48bd d6d2 083e 89f2 923e 2c3b a6be
00000380: 8032 5bbd 0dee 99be 341f 573e cc03 b6bd
00000390: 5223 1bbe be23 893e 40be e33e 4469 c43d
000003a0: c556 77be e7a4 afbe 190a 743e 782d c83d
000003b0: 738b dcbe 085e 99be b0e2 f2bc c9ce d1be
000003c0: 34ea 963e 761e d7be d029 f43c dc04 893e
000003d0: 146e 86be b73e 963e 4115 743e 9862 9f3e
000003e0: 4da2 64be 9d9b debc 3da5 5a3e da95 6b3d
000003f0: c830 9abe 7bd3 a93e f2e9 613e 1e1a 5bbe

layer1.bias f4 [100]
-0.11497572 -0.056773126 -0.37558946 -0.13248783 -0.13660404 -0.07264852 0.3606801 -0.19739228
-0.050750792 -0.18474698 0.016680634 0.22030401 0.33477816 -0.33686858 -0.008840865 -0.16374184
-0.019253254 -0.30328298 0.4252089 0.29145524 0.25976554 0.24951476 0.20515391 -0.015191213
0.1689623 -0.21787901 0.31895283 -0.27999747 0.39596158 -0.07634354 0.39331213 -0.3647115
-0.055435658 0.18849091 0.13335806 0.018702814 -0.23088415 0.09002352 -0.18479598 -0.10867241
0.4416904 0.11947322 -0.093200296 0.09592378 0.14259678 -0.051677883 -0.12835011 -0.01512596
-0.3350352 0.09401935 0.36903462 -0.2649703 0.38917235 0.17422634 -0.052048422 -0.15857866
0.3284547 0.06902593 -0.38692582 0.35983124 0.3255457 -0.051286757 0.06892556 0.18265212
0.15297933 -0.27687776 0.45341915 0.05890249 0.24316329 -0.25906098 -0.13726443 0.012223091
0.15128252 -0.34615946 0.38510242 -0.2756151 -0.37149706 -0.40900308 -0.22626424 0.44904098
-0.38881928 0.26506743 -0.18730034 0.23435646 0.03524068 0.35532552 0.389081 0.44466823
0.33221436 -0.22584553 0.124688566 -0.039445758 -0.20875902 -0.12186012 -0.033171922 -0.4164973
0.19342649 -0.15040237 0.27256104 0.20653838
00000000: 6478 ebbd f08a 68bd 434d c0be e4aa 07be
00000010: eee1 0bbe bfc8 94bd 10ab b83e 3421 4abe
00000020: 10e0 4fbd 502e 3dbe d3a5 883c 6097 613e
00000030: 0b68 ab3e 0a7a acbe 47d9 10bc f1ab 27be
00000040: 00b9 9dbc e847 9bbe fbb4 d93e 9f39 953e
00000050: fdff 843e cc80 7f3e de13 523e 91e4 78bc
00000060: 7404 2d3e ad1b 5fbe c94d a33e d45b 8fbe
00000070: 7abb ca3e 005a 9cbd 3560 c93e 77bb babe
00000080: 8010 63bd c303 413e 048f 083e a536 993c
00000090: e56c 6cbe 405e b83d 283b 3dbe a48f debd
000000a0: 3e25 e23e 60ae f43d ccdf bebd b073 c43d
000000b0: e404 123e 30ac 53bd 366e 03be e0d2 77bc
000000c0: bc89 abbe 388d c03d 1bf2 bc3e 30aa 87be
000000d0: 9941 c73e 6468 323e ba30 55bd 7262 22be
000000e0: 372b a83e 775d 8d3d 241b c6be cd3b b83e
000000f0: edad a63e 1012 52bd d828 8d3d 2809 3b3e
00000100: 9da6 1c3e ecc2 8dbe 8e26 e83e bd43 713d
00000110: ccff 783e a4a3 84be 0c8f 0cbe 5c43 483c
00000120: cee9 1a3e d03b b1be 252c c53e 6c1d 8dbe
00000130: dd34 bebe da68 d1be d0b1 67be b3e8 e53e
00000140: 5213 c7be ebb6 873e a9cb 3fbe 24fb 6f3e
00000150: 8858 103d 3aed b53e a035 c73e 8eab e33e
00000160: 0018 aa3e 0d44 67be b85c ff3d e091 21bd
00000170: edc4 55be cc91 f9bd 48df 07bd 223f d5be
00000180: 9811 463e 1403 1abe 1f8d 8b3e cc7e 533e

layer2.weight f4 [150, 100]
0.055819042 -0.018506624 0.09993683 0.028951831 -0.02975823 0.06313527 0.019787816 0.102803
0.021901228 -0.023550048 0.06971949 -0.008920988 0.011570736 0.046625577 -0.053872827 0.08951133
-0.05671916 0.1168654 0.0027408567 -0.040233213 -0.04798278 0.0035721287 0.09088288 -0.006324211
0.044791885 -0.085805 -0.08344201 -0.0030230507 0.05610414 0.07151764 0.08796115 -0.05020213
0.0024523288 -0.095764704 -0.045824017 -0.029487353 -0.079026744 0.036032297 -0.005709924 -0.041823372
0.004332021 0.11426606 0.07362312 0.083719194 0.0866666 0.09181667 0.0024476477 0.07488989
-0.07712437 -0.013569451 0.042787816 -0.0148857385 -0.017575288 0.04351933 -0.06705299 -0.04687525
0.06215274 0.06781794 -0.0050301384 -0.017586462 0.06444579 0.027135558 0.038043685 -0.057030465
-0.061587587 -0.02792076 0.0629116 -0.04473098 0.07907504 -0.018802725 0.07422646 -0.07801874
0.024468139 -0.045445513 0.036146216 -0.00922306 0.034561466 0.071336105 0.012266979 -0.026456395
-0.011700287 0.089238904 0.006179825 -0.049792755 0.04891225 -0.074672036 0.028416505 0.07696017
0.0525819 -0.06905278 -0.05449425 -0.061244156 -0.08050287 0.05899536 -0.0694385 0.027256556
-0.05519252 0.047180526 0.027263822 -0.07726638 0.06375571 0.058601208 -0.028371336 -0.09900159
-0.09768438 0.038397297 -0.010550661 -0.04317673 0.07505644 -0.054829706 -0.050705086 -0.013667232
-0.04953113 0.0797886 -0.029882403 -0.045672957 -0.04410665 -0.022361357 -0.012669301 0.0860861
0.016912438 -0.06138983 -0.02958938 0.0055561764 0.082139395 -0.03567928 0.07676621 0.017393231
0.029829504 -0.045830715 -0.062637195 -0.09053482 0.010731958 -0.031431567 0.023028418 0.09912274
-0.0069319457 -0.095219634 0.011534452 0.06506351 0.068811245 -0.071689956 0.03842396 -0.056107216
-0.0029319215 -0.051846206 -0.05381132 0.044127308 0.013269529 0.030343069 0.024284298 0.06817754
0.0971268 0.036950883 0.014850254 -0.030148603 0.06844533 -0.014045823 0.09187022 0.0770495
-0.030447926 0.031010054 -0.042932596 -0.0804953 0.045604218 -0.020641133 0.10637697 -0.014737955
0.033648722 -0.051422227 0.034963634 0.091937125 0.08698983 -0.05314381 0.03013996 -0.07460752
0.0083907135 0.10643464 0.01884228 0.09854301 -0.0004627332 0.014617351 0.118472114 -0.046981968
-0.00070668757 0.08143205 0.07475872 0.06801414 0.10945805 -0.049021244 0.0576156 0.042263098
-0.04767723 0.03833217 0.054664634 0.01823385 0.05831044 -0.040100146 0.018171266 0.005810395
-0.028627656 -0.046690166 -0.06244949 0.031222723 -0.02372004 0.08175306 0.014670313 0.0024221947
-0.019817218 0.056997187 -0.07616391 -0.027447343 0.10844821 0.025782652 -0.052112143 0.06644938
0.0018279105 0.079977185 -0.07137505 0.016905911 -0.04446992 0.042485155 -0.017042222 0.045803126
-0.098578274 -0.0058070794 -0.08573747 0.09386576 0.09202031 -0.007889785 0.014888024 -0.08384813
0.076255135 0.0075903633 -0.08547156 -0.08738097 0.03417527 -0.037819304 0.02333095 -0.06550386
0.061323248 0.017334849 0.0027372935 0.073380835 -0.0125196455 -0.022067867 0.011360958 -0.09166896
-0.0012872368 0.050050102 -0.051026683 -0.048295807 0.10000967 -0.051000815 0.08322448 0.07777961
00000000: 82a2 643d 349b 97bc aeab cc3d 642c ed3c
00000010: 88c7 f3bc 104d 813d 0f1a a23c 618a d23d
00000020: 346a b33c 08ec c0bc 18c9 8e3d 5629 12bc
00000030: 2f93 3d3c 76fa 3e3d c1a9 5cbd b751 b73d
00000040: 5a52 68bd 2057 ef3d f29f 333b 95cb 24bd
00000050: 9789 44bd 601a 6a3b ce20 ba3d 543b cfbb
00000060: b277 373d 88ba afbd a5e3 aabd 601e 46bb
00000070: 74cd 653d d777 923d fa24 b43d c0a0 4dbd
00000080: 40b7 203b 4920 c4bd f7b1 3bbd 768f f1bc
00000090: c6d8 a1bd 9a96 133d 501a bbbb fc4e 2bbd
000000a0: a0f3 8d3b 5304 ea3d b8c7 963d f874 ab3d
000000b0: 427e b13d 610a bc3d b768 203b df5f 993d
000000c0: 62f3 9dbd 6752 5ebc 4742 2f3d 50e3 73bc
000000d0: 0dfa 8fbc 5341 323d 1453 89bd 4300 40bd
000000e0: df93 7e3d 22e4 8a3d dcd3 a4bb 7c11 90bc
000000f0: 28fc 833d 644b de3c b2d3 1b3d c798 69bd
00000100: 4443 7cbd 14ba e4bc ccd7 803d d537 37bd
00000110: 18f2 a13d 2c08 9abc 0b04 983d 4ac8 9fbd
00000120: 6871 c83c 1325 3abd 0e0e 143d 511c 17bc
00000130: 5390 0d3d aa18 923d 70fb 483c 15bb d8bc
00000140: 90b2 3fbc e3c2 b63d 2180 ca3b 7df3 4bbd
00000150: 3658 483d a7ed 98bd bbc9 e83c 4b9d 9d3d
00000160: 1e60 573d 8b6b 8dbd 5d35 5fbd 27db 7abd
00000170: b0de a4bd 1ea5 713d c635 8ebd 2449 df3c
00000180: 8d11 62bd 5e40 413d 6158 df3c d63d 9ebd
00000190: 5b92 823d d207 703d 016b e8bc 58c1 cabd
000001a0: c00e c8bd 7c46 1d3d aedc 2cbc 15da 30bd
000001b0: 31b7 993d 1d95 60bd 23b0 4fbd 87ec 5fbc
000001c0: 27e1 4abd 3568 a33d f1cb f4bc 9113 3bbd
000001d0: 2da9 34bd 2a2f b7bc e692 4fbc e94d b03d
000001e0: f48b 8a3c e773 7bbd 6d65 f2bc 9610 b63b
000001f0: b338 a83d 7024 12bd 9a37 9d3d 407c 8e3c
00000200: 015d f43c fdb8 3bbd ee47 80bd 526a b9bd
00000210: 18d5 2f3c 63be 00bd 18a6 bc3c dd00 cb3d
00000220: 6025 e3bb 8302 c3bd 00fb 3c3c 0440 853d
00000230: e9ec 8c3d 2fd2 92bd 7162 1d3d aed0 65bd
00000240: 7b25 40bb b05c 54bd 4269 5cbd d6be 343d
00000250: 7068 593c 0792 f83c ddef c63c aba0 8b3d
00000260: 6aea c63d cf59 173d 7b4e 733c 34fa f6bc
00000270: 112d 8c3d 7420 66bc 7426 bc3d 21cc 9d3d
00000280: ee6d f9bc cc08 fe3c 17da 2fbd b8da a4bd
00000290: 7dcb 3a3d 9817 a9bc 2bdc d93d 7777 71bc
000002a0: 3ed3 093d 1da0 52bd 0736 0f3d 8849 bc3d
000002b0: b927 b23d 53ad 59bd 14e8 f63c d4cb 98bd
000002c0: 3479 093c 68fa d93d 205b 9a3c ebd0 c93d
000002d0: 009b f2b9 9d7d 6f3c 82a1 f23d 2a70 40bd
000002e0: 0041 39ba d9c5 a63d 1a1b 993d ff4a 8b3d
000002f0: 8b2b e03d 80ca 48bd 56fe 6b3d 121c 2d3d
00000300: 3349 43bd 3202 1d3d 06e8 5f3d 285f 953c
00000310: eed6 6e3d 0d40 24bd e8db 943c 2065 be3b
00000320: 8c84 eabc 303e 3fbd 09cb 7fbd ccc6 ff3c
00000330: 8850 c2bc 266e a73d c15b 703c afbd 1e3b
00000340: b857 a2bc e275 693d d3fb 9bbd 40d9 e0bc
00000350: 181a de3d 2436 d33c 8b73 55bd 9d16 883d
00000360: 8096 ef3a 14cb a33d 152d 92bd 447e 8a3c
00000370: 1726 36bd ea04 2e3d 219c 8bbc 0f9c 3b3d
00000380: 68e3 c9bd 5049 bebb 2097 afbd b13c c03d
00000390: 2575 bc3d 2844 01bc e6ec 733c 92b8 abbd
000003a0: a72b 9c3d 95b8 f83b b70b afbd cbf4 b2bd
000003b0: 5efb 0b3d 6ae8 1abd 8c20 bf3c e326 86bd
000003c0: 162e 7b3d d001 8e3c 2a64 333b b148 963d
000003d0: 331f 4dbc acc7 b4bc 5023 3a3c f0bc bbbd
000003e0: 80b8 a8ba 5601 4d3d 5b01 51bd d3d1 45bd
000003f0: dfd1 cc3d 3be6 50bd 9971 aa3d eb4a 9f3d

layer2.bias f4 [150]
-0.0422106 0.101166695 0.07568446 0.08332179 -0.053634755 0.079355374 -0.04705443 0.0055600423
0.08354159 -0.06085962 -0.087587856 -0.007021084 -0.050023414 -0.07349278 0.052797865 0.10441327
0.016647078 0.02039033 0.06800897 -0.04874462 0.04804235 -0.03631652 -0.07311571 0.038990803
0.07426461 -0.008242061 0.0006038795 0.078341834 0.04042068 -0.02783434 0.046124388 0.04572077
-0.059608664 0.08583801 -0.021846348 -0.07352394 0.0022821461 -0.09080787 0.12331852 -0.06695671
-0.050536454 0.0067294687 0.027356885 -0.04954057 -0.08485551 -0.06896561 -0.062721334 0.08050149
0.021949774 -0.053560186 -0.03542956 -0.085514106 -0.06814334 -0.05895826 0.050097533 -0.036777496
-0.0026319555 0.022508815 0.00606908 0.0043652277 0.09055412 -0.06699464 -7.803735e-05 -0.095685184
-0.024925329 -0.036982927 0.08357566 -0.04904702 0.035447486 -0.0042054146 -0.06049762 0.008134231
0.090333216 -0.024249904 0.03258363 -0.09547629 0.07978862 -0.013692975 -0.004612981 -0.039287116
-0.071671344 0.056996062 0.032762863 0.12358071 -0.016939247 0.043841995 -0.0322275 -0.05332668
0.08327789 -0.044791818 0.022601003 -0.006911636 0.1025677 0.032901563 -0.010121098 0.046895966
-0.04421525 0.09088977 -0.019872606 -0.020016842 -0.061942704 0.1015544 0.027655661 0.0062719956
0.033560473 0.004954908 -0.03217392 -0.057925966 0.0023557395 0.068491615 0.11262541 0.0334088
-0.041799188 0.08860149 0.047356293 -0.07191164 -0.07660861 -0.041558735 0.045991518 -0.06784774
0.09890654 0.01591307 0.042497415 -0.009954804 -0.0060379915 -0.08335702 -0.047555637 -0.04206942
-0.014308756 0.0702493 -0.019218516 -0.054029167 0.029837565 0.105057016 0.042777613 0.0030913313
0.08158113 0.0920927 0.03296847 0.06668445 -0.06206881 0.07552303 0.016957773 0.007551983
-0.033669695 -0.006610155 0.07659848 -0.054756787 0.042474285 0.06560541
00000000: 06e5 2cbd 7c30 cf3d 7400 9b3d 9da4 aa3d
00000010: 1eb0 5bbd 1285 a23d 25bc 40bd 0431 b63b
00000020: da17 ab3d f047 79bd 4361 b3bd 1f11 e6bb
00000030: 5ae5 4cbd 6283 96bd 9342 583d a0d6 d53d
00000040: 745f 883c 9f09 a73c 4948 8b3d 70a8 47bd
00000050: 0ec8 443d a2c0 14bd b0bd 95bd d2b4 1f3d
00000060: 0b18 983d b609 07bc ab4d 1e3a af71 a03d
00000070: 2890 253d d804 e4bc edec 3c3d b445 3b3d
00000080: 3728 74bd d7cb af3d 1df7 b2bc b893 96bd
00000090: 0f90 153b 7af9 b9bd 6c8e fc3d 9920 89bd
000000a0: 50ff 4ebd e082 dc3b 8c1b e03c 0deb 4abd
000000b0: bac8 adbd d73d 8dbd 0b74 80bd f7dd a43d
000000c0: 03d0 b33c ed61 5bbd 961e 11bd 0522 afbd
000000d0: bc8e 8bbd 377e 71bd 1233 4d3d 00a4 16bd
000000e0: e37c 2cbb 6864 b83c 22df c63b 2f0a 8f3b
000000f0: 7074 b93d 7c34 89bd fca7 a3b8 98f6 c3bd
00000100: 3430 ccbc 697b 17bd b729 ab3d 87e5 48bd
00000110: 6231 113d 93cd 89bb 5acc 77bd 7045 053c
00000120: 9f00 b93d bca7 c6bc 6a76 053d 1389 c3bd
00000130: 3768 a33d 8058 60bc 7d28 97bb 87eb 20bd
00000140: 6dc8 92bd b474 693d 5a32 063d e217 fd3d
00000150: 2dc4 8abc aa93 333d fc00 04bd 146d 5abd
00000160: 998d aa3d a077 37bd bd25 b93c 017b e2bb
00000170: 040f d23d cac3 063d f6d2 25bc fc15 403d
00000180: 0d1b 35bd 6a24 ba3d e0cb a2bc 5cfa a3bc
00000190: a2b7 7dbd c1fb cf3d 208e e23c 5085 cd3b
000001a0: b576 093d c85c a23b cdc8 03bd c743 6dbd
000001b0: c062 1a3b 5545 8c3d 27a8 e63d aad7 083d
000001c0: a035 2bbd b374 b53d acf8 413d 6946 93bd
000001d0: fae4 9cbd 7e39 2abd 9a61 3c3d c2f3 8abd
000001e0: 838f ca3d 205c 823c c511 2e3d 7919 23bc
000001f0: 58da c5bb 16b7 aabd b3c9 42bd fc50 2cbd
00000200: 466f 6abc ddde 8f3d 2670 9dbc b04d 5dbd
00000210: e96d f43c 2228 d73d 9437 2f3d ef97 4a3b
00000220: 0214 a73d 199b bc3d f209 073d db91 883d
00000230: dd3b 7ebd d1ab 9a3d 07eb 8a3c a076 f73b
00000240: 3ce9 09bd 009a d8bb aadf 9c3d a748 60bd
00000250: 84f9 2d3d 215c 863d

layer3.weight f4 [100, 150]
0.028441304 -0.031148195 0.04329842 -0.022644209 -0.011629995 -0.007860496 0.0075485976 0.00059018837
0.06102596 0.0005788788 -0.03191517 0.07936294 -0.028366178 -0.022202447 -0.025682934 0.062375303
0.023448214 0.06734439 0.045031358 0.043824524 -0.057343952 0.06920516 -0.0771031 -0.0072281957
-0.040891103 0.08208253 0.07342917 0.10137146 0.08825142 -0.056404836 0.06504417 0.034731988
-0.07477495 -0.016673945 -0.043651246 -0.048000485 0.080754735 0.0074590687 0.011435317 -0.033822868
-0.07490895 -0.008140355 -0.050497375 0.06138508 -0.06343177 0.093418956 0.015102951 0.017204078
0.040811405 -0.05465241 -0.042887006 0.04824558 -0.031330135 0.05177653 -0.028183803 0.081618056
-0.013997568 -0.040198214 0.054196946 -0.012664725 0.004578387 -0.055569544 0.08863691 -0.050961122
-0.020348497 -0.030226719 0.06383258 0.056730095 -0.06356256 -0.024938215 0.001670219 -0.031303532
-0.040421624 0.07493618 -0.046356767 -0.06299417 -0.018005868 -0.06956195 0.07605029 0.02061507
0.012538213 0.048077468 -0.002415605 0.10302733 0.01233238 0.069544524 0.08150657 0.048936002
-0.020703852 -0.047034398 0.09017558 0.073447675 -0.010602212 0.06505202 0.010143165 0.027394997
0.0764821 0.051677015 0.01760748 -0.020234954 -0.059746407 -0.045549776 0.025602885 -0.006496452
-0.07708889 -0.007700443 0.09228051 0.08555218 0.029460639 0.09189652 -0.055781536 0.037724502
0.039414234 0.07434789 0.08252193 0.0067511797 -0.045071512 0.06449294 0.057455152 0.060254052
0.05088125 -0.065842405 0.06779717 -0.027967108 -0.021254452 -0.06383567 0.044534817 0.061223373
0.029177485 0.0029863827 0.052549254 0.06997511 -0.07599309 -0.010299625 0.07110308 -0.020053014
-0.007992784 -0.035631362 0.034272052 0.02569866 0.027667545 -0.03993372 -0.011341101 -0.07827633
0.062824935 -0.07223257 0.058959387 0.07482649 -0.03217386 -0.052683085 0.07845056 0.042691167
-0.05132237 0.010497234 -0.037053768 0.031531435 -0.02015252 0.08018257 0.06401231 -0.054437775
0.020579606 0.030837739 -0.0717558 0.058992103 0.102253705 0.080775715 -0.0072844177 0.06664542
0.09094777 -0.022652078 0.026697136 0.06566096 -0.017514743 0.057356894 0.07118468 0.07255283
0.0770968 0.029610857 -0.037564628 0.017692693 -0.03399408 0.04174499 -0.021447483 0.077449664
0.04693976 -0.0418202 0.075794496 0.0041742353 0.0017289417 0.0005027826 -0.015837707 -0.07436514
-0.029538985 0.045900777 0.05752583 0.090225264 0.00044021648 0.042867187 0.023350844 -0.0051160636
-0.00094064325 -0.012099564 0.005270198 -0.06641357 -0.04468643 0.044212602 -0.013415005 -0.013300173
0.027667731 -0.033429634 0.019014025 0.012463793 0.06996455 0.06917234 -0.047253214 -0.03740606
-0.04351606 -0.048755784 -0.059597053 0.060735326 0.035387903 -0.07233784 -0.05010768 -0.026424946
-0.07319658 -0.03941643 0.06664625 0.02461543 -0.02546845 -0.030868258 0.062266216 0.07506939
-0.04258019 0.052259948 -0.015681261 0.04168794 -0.047466543 0.092892624 0.053554505 -0.018281866
0.017764337 -0.05747616 0.042059124 0.012986988 0.027949391 -0.08671416 0.034969255 0.054908704
-0.024946738 0.09210188 0.08720982 0.058204595 -0.01069774 0.052967146 -0.06368052 0.024410767
00000000: bdfd e83c 802a ffbc af59 313d 5980 b9bc
00000010: bc8b 3ebc 4fc9 00bc 3a5a f73b dfb6 1a3a
00000020: 5bf6 793d e6bf 173a 7bb9 02bd 0989 a23d
00000030: 3060 e8bc e8e1 b5bc 0465 d2bc 3f7d 7f3d
00000040: 7816 c03c dbeb 893d cd72 383d 5881 333d
00000050: 7ee1 6abd 6fbb 8d3d 3be8 9dbd 80da ecbb
00000060: 6e7d 27bd e31a a83d 0862 963d d79b cf3d
00000070: 29bd b43d c208 67bd e135 853d 2143 0e3d
00000080: 9c23 99bd cc97 88bc a6cb 32bd 289c 44bd
00000090: bd62 a53d 346b f43b 325b 3b3c d989 0abd
000000a0: dd69 99bd 205f 05bc 56d6 4ebd ec6e 7b3d
000000b0: 84e8 81bd 7052 bf3d 5e72 773c 91ef 8c3c
000000c0: dc29 273d 35db 5fbd 49aa 2fbd 289d 453d
000000d0: 0754 00bd a013 543d b8e1 e6bc 5e27 a73d
000000e0: 0e56 65bc e2a6 24bd 9efd 5d3d b57f 4fbc
000000f0: 4b06 963b e49c 63bd 4587 b53d 9cbc 50bd
00000100: e4b1 a6bc 069e f7bc a8ba 823d d15d 683d
00000110: 162d 82bd 3a4b ccbc 40eb da3a 2238 00bd
00000120: 2591 25bd 2478 993d 98e0 3dbd 1603 81bd
00000130: 0b81 93bc 7f76 8ebd 41c0 9b3d efe0 a83c
00000140: 146d 4d3c e1ec 443d 204f 1ebb feff d23d
00000150: c00d 4a3c 5c6d 8e3d ebec a63d 1e71 483d
00000160: 209b a9bc 24a7 40bd f9ad b83d bc6b 963d
00000170: e6b4 2dbc fe39 853d 842f 263c 796b e03c
00000180: a6a2 9c3d 47ab 533d 903d 903c c6c3 a5bc
00000190: a6b8 74bd 6792 3abd 24bd d13c 30e0 d4bb
000001a0: c8e0 9dbd ff53 fcbb 90fd bc3d fb35 af3d
000001b0: 7057 f13c 3e34 bc3d 2e7b 64bd 0285 1a3d
000001c0: d270 213d b543 983d 4201 a93d 0039 dd3b
000001d0: e89c 38bd e014 843d 1856 6b3d f4cc 763d
000001e0: dc68 503d 62d8 86bd 3ed9 8a3d 471b e5bc
000001f0: d11d aebc 47bc 82bd 246a 363d 5cc5 7a3d
00000200: 9f05 ef3c 30b7 433b e33d 573d 1c4f 8f3d
00000210: 44a2 9bbd c2bf 28bc 7e9e 913d 3846 a4bc
00000220: 2af4 02bc 31f2 11bd da60 0c3d ff85 d23c
00000230: 0ca7 e23c 8a91 23bd 06d0 39bc 574f a0bd
00000240: 5caa 803d abee 93bd 667f 713d a13e 993d
00000250: bdc8 03bd 38ca 57bd b0aa a03d efdc 2e3d
00000260: 6837 52bd 97fc 2b3c b1c5 17bd 1b27 013d
00000270: e616 a5bc c236 a43d e318 833d 25fa 5ebd
00000280: 9096 a83c 6d9f fc3c b4f4 92bd b4a1 713d
00000290: 646a d13d bd6d a53d 20b2 eebb 657d 883d
000002a0: d342 ba3d da90 b9bc f4b3 da3c 4179 863d
000002b0: 147b 8fbc 10ef 6a3d 46c9 913d 9496 943d
000002c0: ede4 9d3d 7892 f23c 5edd 19bd 44f0 903c
000002d0: 603d 0bbd cbfc 2a3d a2b2 afbc ee9d 9e3d
000002e0: e843 403d a84b 2bbd 253a 9b3d 06c8 883b
000002f0: a89d e23a 2bcd 033a 14be 81bc c04c 98bd
00000300: befb f1bc 7402 3c3d 34a0 6b3d 06c8 b83d
00000310: dbcc e639 8195 2f3d 454a bf3c a7a4 a7bb
00000320: 8095 76ba 403d 46bc a0b1 ac3b d603 88bd
00000330: 1e09 37bd 4618 353d 9cca 5bbc f8e8 59bc
00000340: 70a7 e23c 83ed 08bd 4dc3 9b3c f034 4c3c
00000350: 9349 8f3d 3aaa 8d3d 968c 41bd 1937 19bd
00000360: e53d 32bd 25b4 47bd 0a1c 74bd 9bc5 783d
00000370: e8f2 103d dd25 94bd b63d 4dbd 2179 d8bc
00000380: 17e8 95bd 1f73 21bd d47d 883d 4ca6 c93c
00000390: 36a3 d0bc 6edf fcbc dc0a 7f3d fbbd 993d
000003a0: 9168 2ebd 870e 563d fd75 80bc f9c0 2a3d
000003b0: 476c 42bd 7d3e be3d f85b 5b3d dac3 95bc
000003c0: 8486 913c 1f6c 6bbd 3046 2c3d 60c7 543c
000003d0: 1ff6 e43c 3297 b1bd ec3b 0f3d f3e7 603d
000003e0: 1a5d ccbc e99f bc3d 109b b23d f167 6e3d
000003f0: 9345 2fbc 14f4 583d ef6a 82bd 17f9 c73c

layer3.bias f4 [100]
0.06547865 0.07073589 -0.007071969 0.030090228 -0.025348404 0.058777645 -0.013504659 -0.054792732
0.037859395 0.037964027 0.05822007 0.028129436 0.029105699 -0.013767086 -0.0017514378 0.058285166
-0.008583464 -0.0171476 -0.0520292 -0.04503521 -0.044263624 -0.049495753 -0.018248474 -0.019010417
-0.010508373 0.011282531 -0.009898623 0.032212812 -0.057398353 0.09124976 -0.049139105 -0.08062382
0.016662365 0.035562247 -0.054124527 0.065073594 0.014430497 -0.06582242 0.061739344 -0.030766997
-0.018728819 -0.0022850404 0.070365034 0.075898975 0.07237412 -0.03177432 0.038189583 -0.053945906
-0.054099843 0.035089474 0.024637803 -0.01918863 0.09083817 -0.07213029 -0.05542659 0.05435294
-0.014795613 -0.03503746 0.04324465 0.0017247846 0.10532519 0.07246987 0.045711197 0.0012177342
-0.032417025 0.098127574 -0.052127913 0.045512438 -0.053980578 -0.042486507 0.052958455 -0.05436366
-0.08093181 -0.05111037 0.07867394 -0.038250748 0.014510355 0.046997696 0.030179007 0.04726103
-0.0016490221 0.06880174 -0.040435575 0.06339537 -0.07497105 0.002841721 -0.050593592 0.015439089
-0.056446213 -0.041433565 -0.039316494 0.07803403 -0.029458102 -0.044238426 0.016781539 -0.061567515
-0.056673646 0.09526582 0.0840675 -0.07560957
00000000: ac19 863d fadd 903d fabb e7bb c87f f63c
00000010: 75a7 cfbc d4c0 703d a542 5dbc 586e 60bd
00000020: 7412 1b3d 2b80 1b3d 2b78 6e3d b46f e63c
00000030: 136f ee3c 588f 61bc 8090 e5ba 6dbc 6e3d
00000040: a8a1 0cbc 2079 8cbc 921c 55bd d776 38bd
00000050: c64d 35bd 0fbc 4abd d37d 95bc bcbb 9bbc
00000060: 502b 2cbc 5dda 383c d62d 22bc 95f1 033d
00000070: 891a 6bbd 27e1 ba3d 1646 49bd 1a1e a5bd
00000080: 837f 883c b8a9 113d aeb1 5dbd 4e45 853d
00000090: e46d 6c3c e8cd 86bd 65e2 7c3d 120b fcbc
000000a0: 2e6d 99bc 9ec0 15bb 8b1b 903d ec70 9b3d
000000b0: e238 943d ca25 02bd ae6c 1c3d 62f6 5cbd
000000c0: cc97 5dbd fbb9 0f3d 38d5 c93c 7931 9dbc
000000d0: 5d09 ba3d 0cb9 93bd fe06 63bd 30a1 5e3d
000000e0: 4c69 72bc 7183 0fbd 4d21 313d 2b12 e23a
000000f0: bcb4 d73d 156b 943d aa3b 3b3d 619c 9f3a
00000100: b7c7 04bd 1cf7 c83d 1484 55bd 406b 3a3d
00000110: bd1a 5dbd 5506 2ebd f7ea 583d 6eac 5ebd
00000120: 94bf a5bd 1b59 51bd cd1f a13d d1ac 1cbd
00000130: d7bc 6d3c a880 403d f739 f73c c894 413d
00000140: 0024 d8ba ede7 8c3d c69f 25bd 6fd5 813d
00000150: 6c8a 99bd 2b3c 3a3b 3a3b 4fbd 3cf4 7c3c
00000160: 2534 67bd 3eb6 29bd 550a 21bd 4ed0 9f3d
00000170: 1e52 f1bc 5a33 35bd 7079 893c 382e 7cbd
00000180: a022 68bd ba1a c33d 952b ac3d 31d9 9abd

layer4.weight f4 [80, 100]
-0.008062877 0.0049632415 -0.019658826 -0.088368334 -0.008794844 0.059579723 0.08965761 0.063845314
-0.05411266 -0.056311917 -0.07595535 0.045206852 0.014351286 0.008502804 -0.03289278 0.013078012
0.07521323 -0.0088131055 0.07148417 -0.008718029 0.005333565 -0.027646244 0.03839297 -0.004504323
-0.07182808 -0.046727743 -0.032292545 0.026934363 0.041790195 -0.06449268 0.06830651 0.022296987
-0.009699449 -0.06488291 0.03638149 -0.002965495 -0.07573585 0.08675062 -0.0268002 -0.0033062324
0.09327341 0.030833729 0.09313875 0.037116237 0.08599088 -0.05950978 0.067438655 0.07241445
-0.09528977 -0.07226278 0.034742124 0.0052790493 -0.08557407 -0.03303037 0.08993501 0.03683383
-0.09467979 -0.05175631 -0.0802696 -0.0007587224 0.095049016 -0.06307957 0.031577073 -0.022334754
0.07557196 0.03151796 -0.024154268 0.040717788 -0.04419185 0.03268885 -0.08026435 -0.06294892
0.021597564 -0.08757003 0.0061751604 -0.0024366602 0.08895517 0.087278865 -0.09732317 -0.02930051
-0.09131535 -0.03253857 -0.0080970675 0.0407828 0.092179455 0.035546966 -0.07311855 -0.050372925
0.043592192 0.04121279 0.07866276 0.09833715 0.048216663 -0.02870743 0.09617371 0.015594244
-0.04704056 0.069265254 -0.065322675 -0.050121512 0.07181301 -0.05968481 -0.08979696 0.026754938
0.0019378766 -0.0958035 -0.09736587 0.08452102 -0.020992355 0.028840574 -0.090068035 -0.08507776
0.07988148 0.011686899 -0.098283134 -0.079782456 0.04193113 -0.096574664 0.032516297 0.0537547
-0.07876402 -0.0006083101 0.053365372 -0.037042543 0.075803466 -0.053640783 -0.07281379 0.056161575
0.08537399 0.013779716 -0.019474 0.073730476 0.07749481 -0.058571696 0.0761589 0.097808614
0.09401797 0.00047446787 -0.046165574 0.04523108 -0.0367709 -0.06679647 0.039585933 -0.064397
0.081180036 -0.06887774 -0.029788636 -0.023233972 0.07579761 -0.07668665 -0.036010906 -0.004968936
0.007768815 -0.0031262487 -0.012453221 -0.079563305 0.10272247 0.098645695 0.07914899 -0.04670079
0.030463241 -0.07085517 0.00783185 -0.06637243 0.07414404 0.0166523 0.03700178 0.026478477
-0.081667304 0.053770073 -0.054091442 0.09041319 0.09729024 -0.06485429 -0.08786486 -0.010371024
0.014976084 0.058985658 -0.051353604 -0.014318801 -0.094616756 0.07167522 -0.04396183 -0.0628996
-0.08591186 -0.013404594 0.02166095 0.037993476 0.018859148 0.041750044 0.046789475 -0.06801131
-0.094880894 -0.044899784 0.071603425 0.045077257 -0.014037963 0.0035131911 -0.059981592 0.029696114
0.020995276 0.027834617 0.042515665 0.040504508 0.027131386 0.07486341 0.037615877 -0.045276772
-0.059378803 -0.023068972 -0.053412378 0.054724496 0.06603762 -0.005079761 0.07427747 0.068270445
-0.05831573 0.0543715 -0.08031094 0.029855689 0.014130878 -0.021245401 -0.0047355103 -0.010349289
-0.09045603 0.07833521 -0.032003354 0.09517887 0.09581652 0.11218988 0.084312655 0.020284198
0.096647196 -0.06189784 -0.096107595 0.093602635 0.098851696 0.06551177 -0.05342064 0.097802706
0.05308172 -0.05833223 0.06067048 -0.037023365 0.07152577 -0.019938156 -0.08540485 -0.03419125
0.08686393 -0.020514298 -0.08222288 -0.021876069 0.091079324 0.07464936 0.03038647 0.06336417
00000000: 281a 04bc b0a2 a23b 8c0b a1bc 75fa b4bd
00000010: 4018 10bc de09 743d 699e b73d 55c1 823d
00000020: 3da5 5dbd 53a7 66bd 7b8e 9bbd d22a 393d
00000030: a821 6b3c 584f 0b3c 94ba 06bd 2845 563c
00000040: 6509 9a3d d864 10bc 4b66 923d 10d6 0ebc
00000050: 30c5 ae3b 607a e2bc f241 1d3d 0099 93bb
00000060: 9a1a 93bd 9765 3fbd 3045 04bd 74a5 dc3c
00000070: 322c 2b3d bd14 84bd 49e4 8b3d 2ca8 b63c
00000080: 70ea 1ebc 55e1 84bd c204 153d c058 42bb
00000090: 661b 9bbd 4faa b13d 188c dbbc 60ad 58bb
000000a0: 2106 bf3d 0497 fc3c 87bf be3d 3207 183d
000000b0: fd1b b03d 87c0 73bd 471d 8a3d 074e 943d
000000c0: 4827 c3bd 82fe 93bd c24d 0e3d e0fb ac3b
000000d0: 7541 afbd da4a 07bd d92f b83d 12df 163d
000000e0: 7ae7 c1bd 6dfe 53bd 6364 a4bd 00e5 46ba
000000f0: 0fa9 c23d dd2f 81bd f656 013d 60f7 b6bc
00000100: 79c5 9a3d fa18 013d 2cdf c5bc b2c7 263d
00000110: 8302 35bd bee4 053d a361 a4bd 5deb 80bd
00000120: 60ed b03c ea57 b3bd 0059 ca3b 60b0 1fbb
00000130: 212e b63d 43bf b23d 5f51 c7bd a007 f0bc
00000140: 8b03 bbbd 2a47 05bd 90a9 04bc de0b 273d
00000150: 95c8 bc3d b299 113d 2ebf 95bd d753 4ebd
00000160: ba8d 323d bece 283d f119 a13d fd64 c93d
00000170: d67e 453d d82b ebbc b9f6 c43d 007f 7f3c
00000180: 9aad 40bd f1da 8d3d e5c7 85bd 374c 4dbd
00000190: b312 933d 0f78 74bd 78e7 b7bd 2c2d db3c
000001a0: 5900 fe3a a034 c4bd c267 c7bd 5b19 ad3d
000001b0: 29f8 abbc 1143 ec3c 9775 b8bd 403d aebd
000001c0: e798 a33d 687a 3f3c ab48 c9bd fc64 a3bd
000001d0: fabf 2b3d f0c8 c5bd cf2f 053d e32d 5c3d
000001e0: 084f a1bd 0077 1fba a695 5a3d ecb9 17bd
000001f0: d93e 9b3d 70b6 5bbd 651f 95bd ae09 663d
00000200: 8fd8 ae3d 51c4 613c f087 9fbc 0100 973d
00000210: 99b5 9e3d e0e8 6fbd 33f9 9b3d e24f c83d
00000220: 7e8c c03d 00c2 f839 1d18 3dbd 3a44 393d
00000230: 159d 16bd 96cc 88bd dc24 223d 93e2 83bd
00000240: b841 a63d c60f 8dbd 4c07 f4bc 2c55 bebc
00000250: c73b 9b3d e40d 9dbd 2c80 13bd 75d2 a2bb
00000260: 8b91 fe3b c0e1 4cbb 9808 4cbc 16f2 a2bd
00000270: 2960 d23d c106 ca3d de18 a23d 5449 3fbd
00000280: 0c8e f93c 841c 91bd 2951 003c 45ee 87bd
00000290: d5d8 973d 676a 883c 2e8f 173d 64e9 d83c
000002a0: 3041 a7bd 023e 5c3d fd8e 5dbd 8d2a b93d
000002b0: 1b40 c73d 53d2 84bd 7ef2 b3bd 3aeb 29bc
000002c0: 405e 753c f29a 713d 2858 52bd 6899 6abc
000002d0: 6ec6 c1bd 75ca 923d 5211 34bd 81d1 80bd
000002e0: 8ff2 afbd f19e 5bbc 4e72 b13c 0c9f 1b3d
000002f0: 807e 9a3c 1802 2b3d 52a6 3f3d 8449 8bbd
00000300: ea50 c2bd d6e8 37bd d1a4 923d eea2 383d
00000310: 7cff 65bc 913d 663b 42af 75bd 4445 f33c
00000320: 49fe ab3c 6c05 e43c e824 2e3d 0ee8 253d
00000330: a442 de3c fd51 993d 1b13 1a3d 2374 39bd
00000340: 3037 73bd 24fb bcbc f0c6 5abd cb26 603d
00000350: bb3e 873d 2074 a6bb c91e 983d 60d1 8b3d
00000360: 7adc 6ebd a6b4 5e3d 107a a4bd eb93 f43c
00000370: 3385 673c d60a aebc 572c 9bbb 1090 29bc
00000380: 0341 b9bd 366e a03d f315 03bd 24ed c23d
00000390: 743b c43d cfc3 e53d 1dac ac3d 0c2b a63c
000003a0: f7ee c53d 9788 7dbd 0fd4 c4bd bdb2 bf3d
000003b0: c272 ca3d 092b 863d 9acf 5abd c94c c83d
000003c0: 386c 593d c7ed 6ebd 9c81 783d d0a5 17bd
000003d0: 1a7c 923d 5855 a3bc bde8 aebd 200c 0cbd
000003e0: b7e5 b13d 9a0d a8bc 7864 a8bd 7135 b3bc
000003f0: cc87 ba3d c3e1 983d 0ced f83c 13c5 813d

layer4.bias f4 [80]
-0.03371509 0.026278406 -0.03149665 -0.08101341 -0.053076483 0.0762829 -0.026190162 0.07636086
0.1026062 -0.06586316 -0.028909864 -0.0035561698 -0.09844386 -0.033702843 -0.023139639 0.037395295
0.024782596 0.095338 0.010153033 -0.08818948 0.028633932 -0.10014957 -0.01951138 0.10400993
0.047685597 0.04921833 0.025998501 -0.06796756 0.031141918 0.057843056 0.07513776 0.048279338
0.10286274 0.0021569284 -0.05456999 -0.016864344 -0.05645617 0.10171005 -0.03038431 0.037193816
0.042116564 0.017227244 0.10191997 0.1103813 -0.071242645 -0.078124516 0.066075414 0.027917456
-0.06944751 0.014886059 0.068547994 0.020827083 -0.065771855 -0.0022369027 0.072381854 0.051691655
0.005926892 -0.068718866 0.013968509 0.006616018 -0.046028066 0.007683905 0.0518108 -0.06500659
0.112344585 0.095879614 -0.017552217 0.057468023 0.003622838 -0.08531796 -0.009064302 0.017933736
-0.05653513 0.008720115 -0.08792354 -0.017595813 -0.05528244 0.066849664 0.01798161 -0.0062905103
00000000: d618 0abd d045 d73c a202 01bd 5cea a5bd
00000010: ba66 59bd 363a 9c3d c08c d6bc 1563 9c3d
00000020: 3323 d23d 44e3 86bd 61d4 ecbc a10e 69bb
00000030: ef9c c9bd fe0b 0abd 578f bdbc cf2b 193d
00000040: df04 cb3c 9240 c33d e858 263c b09c b4bd
00000050: b591 ea3c 381b cdbd 54d6 9fbc 2803 d53d
00000060: f951 433d 2999 493d cffa d43c 9332 8bbd
00000070: 561d ff3c d7ec 6c3d d3e1 993d 8ec0 453d
00000080: b3a9 d23d 415b 0d3b c884 5fbd 1827 8abc
00000090: 963e 67bd 5c4d d03d 84e8 f8bc 8b58 183d
000000a0: 6b82 2c3d 2620 8d3c 6bbb d03d 970f e23d
000000b0: aae7 91bd bfff 9fbd 8c52 873d 26b3 e43c
000000c0: 7f3a 8ebd a8e4 733c e462 8c3d 8f9d aa3c
000000d0: 65b3 86bd 0099 12bb f03c 943d a1ba 533d
000000e0: 6036 c23b 7abc 8cbd 2cdc 643c 2ecb d83b
000000f0: ed87 3cbd 44c9 fb3b 9037 543d 2d22 85bd
00000100: eb14 e63d 885c c43d abc9 8fbc 9763 6b3d
00000110: 236d 6d3b 2fbb aebd 7082 14bc c5e9 923c
00000120: 6191 67bd d0de 0e3c 4211 b4bd 1825 90bc
00000130: d76f 62bd 7ae8 883d 2b4e 933c a020 cebb

layer5.weight f4 [60, 80]
-0.033838972 -0.09032291 0.10784316 -0.09038766 0.069151245 -0.08183918 0.03592521 0.05877982
-0.03199436 0.068081364 -0.09949946 -0.08172217 -0.06191608 0.027685001 -0.108929224 -0.09027595
0.05633329 -0.041312885 0.056707367 -0.08953448 -0.07574635 0.07416804 0.02720873 -0.046843693
-0.020530462 0.072139665 -0.09524929 0.049297646 -0.106609136 -0.11079479 0.02950793 0.080773935
-0.036610626 -0.058372606 0.07729066 0.08353166 0.028039083 -0.043932334 0.07025981 0.048853703
0.10631252 -0.010480367 -0.027966848 -0.100195706 0.018903684 -0.091202304 -0.10051452 0.03758054
0.04206799 0.07090655 -0.005026534 0.057539776 0.052544527 -0.038657658 -0.099460825 -0.06911923
0.10027175 -0.083548576 -0.06276892 0.03503969 0.06427218 -0.02235166 0.050816763 0.00728364
-0.012703708 -0.0029696506 0.09552727 0.0954541 -0.010017578 -0.059550945 -0.09611245 -0.08691954
-0.055513296 -0.040674135 -0.059792213 0.057693854 0.0695624 -0.036803626 0.04613062 0.08808032
0.09558493 -0.040813282 0.0987436 0.09942468 0.09307565 0.034562 -0.10236127 0.023952937
0.107451744 -0.10843591 0.08340983 0.054288276 -0.111477904 -0.09818551 0.015969908 0.0035148496
0.03509931 2.7379045e-05 0.07963361 -0.046948664 -0.09185376 -0.09048807 -0.03305921 0.037510507
-0.030652422 -0.07953046 0.11570343 -0.008264658 0.12937604 0.023041025 -0.007836639 -0.07704628
0.004154088 0.012499027 0.042466007 -0.024141543 -0.003434027 -0.009915971 0.08579105 0.11568798
0.07611739 0.036724597 -0.034323696 0.10597733 0.012443537 0.0840453 -0.0981501 0.030822458
0.091662206 -0.06968109 -0.021703314 0.025244813 -0.020870166 -0.07134169 0.08148517 -0.020644188
0.04478067 0.031696104 -0.101198524 -0.0058748983 -0.07599088 0.0133150015 -0.049851805 0.12815079
-0.04431145 0.048049506 -0.08338465 0.0008017719 -0.09050684 -0.04193376 -0.097831175 0.024506843
-0.08603547 -0.041556768 -0.061340343 -0.049453013 -0.06097205 0.06510326 -0.02774543 0.054424033
0.0054436624 0.07831171 -0.084893435 0.052157536 0.030574098 0.002025403 -0.03939218 0.055917352
-0.028817505 -0.032520078 -0.060281534 0.041066915 -0.018290699 -0.06981166 -0.08036942 0.0038708672
-0.08005415 0.09393147 0.043330252 -0.056821823 -0.0049950406 0.045121774 -0.022077546 0.082188115
-0.005295366 -0.07623115 -0.10561859 -0.010385297 -0.012674116 -0.090549946 -0.02563122 -0.08879015
-0.023027033 -0.030019917 -0.06968005 0.09471427 0.04754165 0.011194535 -0.028009199 -0.06203694
0.062268972 0.007785037 -0.08694886 0.055211127 0.07819621 0.020717934 -0.091481976 -0.018194474
-0.083850205 0.0243655 0.07243423 -0.109011464 0.02527228 0.08125277 -0.065187335 0.07418996
0.007985048 0.08430119 0.0103738755 0.0017283186 0.111769125 -0.10381237 0.031212628 0.047475815
-0.020762667 -0.00986214 0.09886725 -0.008599624 0.07962668 -0.07130045 0.05342117 -0.046546146
-0.07133876 -0.06541364 -0.017951824 0.08669382 -0.082713485 0.09430492 -0.07790305 0.023951307
0.10937357 -0.10104289 0.044638414 0.040584117 0.022167627 -0.047466427 -0.01942271 -0.08950324
-0.066089414 0.026428625 -0.011927234 0.012255831 -0.013174862 -0.10399925 -0.014285425 -0.09181045
00000000: bc9a 0abd 38fb b8bd e0dc dc3d 2a1d b9bd
00000010: 2b9f 8d3d 4d9b a7bd 5026 133d 1cc3 703d
00000020: 850c 03bd 3e6e 8b3d 5fc6 cbbd f45d a7bd
00000030: b79b 7dbd a8cb e23c 4916 dfbd 99e2 b8bd
00000040: bcbd 663d b337 29bd fc45 683d da5d b7bd
00000050: e720 9bbd 6ae5 973d d8e4 de3c 2cdf 3fbd
00000060: 802f a8bc f6bd 933d 0f12 c3bd 54ec 493d
00000070: e455 dabd 61e8 e2bd 9dba f13c ce6c a53d
00000080: 06f5 15bd 1d18 6fbd 914a 9e3d a612 ab3d
00000090: 38b2 e53c 64f2 33bd 60e4 8f3d d21a 483d
000000a0: 61ba d93d d8b5 2bbc bb1a e5bc 6833 cdbd
000000b0: e6db 9a3c 46c8 babd 8fda cdbd 0dee 193d
000000c0: 7c4f 2c3d 7437 913d a0b5 a4bb d4ae 6b3d
000000d0: ee38 573d 7e57 1ebd 1eb2 cbbd 628e 8dbd
000000e0: 465b cd3d 841b abbd fe8c 80bd c785 0f3d
000000f0: 22a1 833d d41a b7bc 3d25 503d 9aab ee3b
00000100: 3723 50bc 789e 42bb cda3 c33d 707d c33d
00000110: c420 24bc b1eb 73bd 9bd6 c4bd df02 b2bd
00000120: e961 63bd ec99 26bd aee8 74bd 6450 6c3d
00000130: bb76 8e3d 66bf 16bd 76f3 3c3d 7463 b43d
00000140: 08c2 c33d d42b 27bd 163a ca3d 2b9f cb3d
00000150: 729e be3d e290 0d3d c9a2 d1bd f338 c43c
00000160: a90f dc3d a513 debd c6d2 aa3d 625d 5e3d
00000170: 874e e4bd 7c15 c9bd 53d3 823c 6459 663b
00000180: 4bc4 0f3d 0dac e537 f216 a33d 3e4d 40bd
00000190: d31d bcbd cf51 b9bd 1869 07bd 9ea4 193d
000001a0: ca1a fbbc dee0 a2bd ebf5 ec3d 7d68 07bc
000001b0: 277b 043e 88c0 bc3c 3f65 00bc 71ca 9dbd
000001c0: 041f 883b b8c8 4c3c d6f0 2d3d 7cc4 c5bc
000001d0: 6a0d 61bb 9976 22bc 38b3 af3d d2ed ec3d
000001e0: 6fe3 9b3d 886c 163d 0197 0cbd a40a d93d
000001f0: fadf 4b3c f11f ac3d eb02 c9bd 617f fc3c
00000200: 65b9 bb3d f6b4 8ebd 26cb b1bc 36ce ce3c
00000210: e9f7 aabc 981b 92bd b2e1 a63d 001e a9bc
00000220: f06b 373d c6d3 013d 2c41 cfbd 3882 c0bb
00000230: 1ba1 9bbd 2a27 5a3c 6831 4cbd f639 033e
00000240: ec7f 35bd 8fcf 443d 92c5 aabd 002e 523a
00000250: a65b b9bd bcc2 2bbd b65b c8bd 93c2 c83c
00000260: 5d33 b0bd 6e37 2abd 0340 7bbd 3e8f 4abd
00000270: d4bd 79bd dc54 853d 624a e3bc bceb 5e3d
00000280: c060 b23b e461 a03d 9cdc adbd 24a3 553d
00000290: 8876 fa3c a0bc 043b b259 21bd 9809 653d
000002a0: b012 ecbc c633 05bd c5e9 76bd c835 283d
000002b0: 60d6 95bc 6af9 8ebd b998 a4bd 60ae 7d3b
000002c0: 6ef3 a3bd 245f c03d 107b 313d 00be 68bd
000002d0: 70ad a3bb 9cd1 383d f8db b4bc 3e52 a83d
000002e0: c084 adbb 141f 9cbd 8f4e d8bd 1827 2abc
000002f0: 18a7 4fbc 4072 b9bd 90f8 d1bc 9cd7 b5bd
00000300: 30a3 bcbc 54ec f5bc 6ab4 8ebd 8ef9 c13d
00000310: 08bb 423d 4869 373c 8c73 e5bc 721a 7ebd
00000320: c00d 7f3d a019 ff3b 3e12 b2bd 1025 623d
00000330: 5625 a03d a8b8 a93c e75a bbbd 940c 95bc
00000340: a8b9 abbd 289a c73c 6658 943d 6741 dfbd
00000350: d007 cf3c da67 a63d f080 85bd e8f0 973d
00000360: b8d3 023c 1aa6 ac3d 30f7 293c c088 e23a
00000370: 36e7 e43d 949b d4bd a0b1 ff3c 0076 423d
00000380: 7816 aabc d094 21bc ea7a ca3d 70e5 0cbc
00000390: 5013 a33d f805 92bd 28d0 5a3d 2ca7 3ebd
000003a0: 0e1a 92bd 96f7 85bd b40f 93bc 888c b13d
000003b0: b065 a9bd f022 c13d a28b 9fbd 8835 c43c
000003c0: 40ff df3d 93ef cebd c5d6 363d 883b 263d
000003d0: e298 b53c 286c 42bd 601c 9fbc 7a4d b7bd
000003e0: e359 87bd d880 d83c 726a 43bc aecc 483c
000003f0: 60db 57bc 8ffd d4bd 6a0d 6abc 1e07 bcbd

layer5.bias f4 [60]
0.06463712 -0.06696043 -0.034907065 0.07172652 -0.083961144 -0.021592924 0.10738913 -0.032860346
-0.08847714 -0.0571277 -0.020251011 -0.050214898 0.06583156 -0.091555625 0.053153336 0.06976516
-0.05982425 -0.060835794 0.027890751 0.031168824 0.018817386 0.017346643 -0.05395833 0.11381784
-0.01617977 0.054942213 -0.014484997 -0.08517352 -0.08378271 0.028076647 0.11291139 -0.090642974
0.11184712 -0.058790304 0.03905417 0.082073666 0.077593096 -0.07874471 0.048495073 -0.029449634
-0.03686919 0.036246527 0.06493112 0.031186834 0.005032026 -0.0781139 0.032036096 -0.08805194
-0.07931283 -0.016733386 0.054973878 0.12544554 -0.013674472 0.023853147 0.008009519 0.06363801
0.091257155 -0.020998202 0.05775292 -0.077963725
00000000: 7760 843d 8d22 89bd b6fa 0ebd 5be5 923d
00000010: d2f3 abbd a5e3 b0bc d5ee db3d 9298 06bd
00000020: 8133 b5bd bcfe 69bd 73e5 a5bc 23ae 4dbd
00000030: b2d2 863d 8481 bbbd 50b7 593d 09e1 8e3d
00000040: 460a 75bd f42e 79bd 257b e43c c355 ff3c
00000050: eb26 9a3c 8c1a 8e3c 6903 5dbd 5419 e93d
00000060: 708b 84bc 160b 613d 7b52 6dbc 746f aebd
00000070: 4596 abbd ff00 e63c 163e e73d 06a3 b9bd
00000080: 1a10 e53d 1ace 70bd 44f7 1f3d 3d16 a83d
00000090: 21e9 9e3d e844 a1bd c5a2 463d 5c40 f1bc
000000a0: 2604 17bd 3d77 143d 9bfa 843d 887b ff3c
000000b0: b2e3 a43b 2efa 9fbd 4838 033d 9354 b4bd
000000c0: c46e a2bd 7414 89bc 4a2c 613d cc74 003e
000000d0: e50a 60bc ad67 c33c 5c3a 033c a554 823d
000000e0: 08e5 ba3d 6c04 acbc 538e 6c3d 72ab 9fbd

layer6.weight f4 [40, 60]
0.08075852 0.10094351 -0.050668553 0.100623995 -0.11504671 0.11859961 0.021360049 -0.11176209
-0.08093019 0.1061876 0.09787949 -0.0030501948 -0.13325307 0.007739693 0.0006769412 0.11868549
-0.010896154 0.04908435 -0.04630323 -0.025243204 0.05459105 0.02625858 -0.009771153 0.10028278
-0.0765166 0.07839591 -0.08789541 0.07559764 -0.06959416 0.08216714 0.07840462 0.11250299
0.11489108 -0.12374276 0.00038085715 -0.022716476 0.048996527 -0.10210473 0.030399239 -0.012947224
-0.0048776567 -0.068825334 -0.012226999 -0.04046586 -0.02644815 0.034338795 0.10994828 0.10570237
0.109287016 -0.06728104 -0.117900364 -0.06836808 0.01186345 -0.09191759 0.031771477 0.015882941
-0.05506893 0.09785645 -0.059838172 0.11433372 -0.044633973 0.059291184 0.083407134 0.106693394
-0.03487861 -0.012038772 -0.042273376 -0.03418812 0.12588443 0.120413765 0.036381714 -0.07630638
0.13289927 0.051986083 -0.001638686 0.014200846 0.11599551 0.087457135 -0.06664893 -0.064049125
-0.0654199 0.015054702 0.035854995 -0.01390453 0.11423592 -0.0049500624 0.024445072 0.15012547
0.09051736 -0.09980873 -0.06586941 0.12827358 0.016084474 0.079360634 0.0705606 -0.041463286
-0.10206903 0.0119473785 -0.069761924 0.014412567 0.03439437 0.030744089 0.08094308 0.0843806
-0.10285021 -0.101066954 -0.11221353 0.0066930857 0.070756204 -0.019023381 0.054651476 0.059758272
0.13051623 0.013606776 0.0078004575 0.097271875 -0.07032034 -0.023197956 0.14620714 0.04812768
0.118189484 0.094625026 0.054227784 -0.07154046 -0.070414625 0.106464595 -0.10359286 0.04992622
-0.08431317 -0.0968211 -0.12705967 -0.04368516 0.054463416 0.021220863 0.026058897 -0.08055129
-0.06977479 0.11583714 0.09495896 0.033947274 0.10435881 -0.0618954 -0.095406696 -0.07196304
-0.11618815 0.05211091 -0.06849784 -0.0051405355 0.06688227 -0.09612769 0.12103425 -0.12112479
0.10293026 -0.024024792 0.024346888 0.10823399 -0.116663136 -0.11420831 -0.08651417 -0.032927915
-0.043668382 0.06864473 -0.11584349 -0.05129312 0.012126848 -0.036828503 -0.07757585 -0.001028344
-0.04803387 0.052239984 0.031679258 0.05845341 -0.080023125 -0.0081367865 -0.098719425 -0.02888634
-0.07940702 0.06648296 -0.08527425 -0.101888135 -0.11693197 0.081092805 0.08399665 -0.08761306
-0.08629203 -0.10901631 0.1193839 0.07046804 0.12467512 0.12407494 0.021281615 0.03306047
0.046918575 -0.04144384 -0.0112620685 -0.10208752 0.024710625 -0.04686132 0.06560023 0.08779314
0.100956276 -0.04994844 0.005348116 0.021782225 0.004262805 -0.045316577 0.032431316 0.068691514
-0.07534699 -0.05223383 -0.0991954 0.13142136 0.010733145 -0.06795667 0.14256915 -0.1267409
-0.02379659 0.019534215 -0.08316864 0.058678776 -0.060048096 0.053836897 0.04045422 0.10259159
-0.037836075 0.008297751 -0.06339767 0.11311757 -0.105303064 0.1037354 -0.033333216 -0.10150534
0.1342736 -0.06347456 0.040670983 0.08581987 -0.11427489 -0.12724899 -0.0914279 -0.059918806
-0.104222976 0.0353215 0.029191375 -0.023416065 0.12189488 -0.12233512 0.015645253 0.023167113
-0.042025413 -0.006574044 0.005061575 -0.040028296 0.094078004 0.013232917 -0.14117022 -0.009052977
00000000: b964 a53d 79bb ce3d d489 4fbd f413 ce3d
00000010: 9c9d ebbd 5ae4 f23d 45fb ae3c 86e3 e4bd
00000020: babe a5bd e278 d93d 0b75 c83d c7e5 47bb
00000030: 7e73 08be 409d fd3b c174 313a 6111 f33d
00000040: c885 32bc ac0c 493d 75a8 3dbd d6ca cebc
00000050: dd9a 5f3d 3c1c d73c 3017 20bc 0f61 cd3d
00000060: bcb4 9cbd 098e a03d 8202 b4bd efd2 9a3d
00000070: 6287 8ebd 3f47 a83d 9a92 a03d f867 e63d
00000080: 044c eb3d d86c fdbd c8ad c739 e717 babc
00000090: 95b0 483d 491c d1bd d307 f93c 9820 54bc
000000a0: c0d4 9fbb 4cf4 8cbd c053 48bc 88bf 25bd
000000b0: caa9 d8bc d6a6 0c3d 902c e13d 7c7a d83d
000000c0: dfd1 df3d a4ca 89bd bf75 f1bd 9004 8cbd
000000d0: ea5e 423c 4a3f bcbd cf22 023d f11c 823c
000000e0: f58f 61bd f668 c83d df18 75bd cc27 ea3d
000000f0: 1dd2 36bd 50db 723d 5cd1 aa3d 1182 da3d
00000100: e0dc 0ebd 453e 45bc d926 2dbd d808 0cbd
00000110: d9e7 003e 7e9b f63d fe04 153d 8546 9cbd
00000120: bf16 083e 5cef 543d 2ec9 d6ba aaaa 683c
00000130: 0e8f ed3d ba1c b33d 3c7f 88bd 302c 83bd
00000140: defa 85bd ffa7 763c b0dc 123d d3cf 63bc
00000150: 86f4 e93d 2234 a2bb 0841 c83c 7eba 193e
00000160: 2a61 b93d 8568 ccbd 8be6 86bd 265a 033e
00000170: 96c3 833c d487 a23d 1382 903d 68d5 29bd
00000180: 9109 d1bd f0be 433c 57df 8ebd b022 6c3c
00000190: 1ce1 0c3d 07db fb3c 7cc5 a53d bccf ac3d
000001a0: 22a3 d2bd 31fc cebd 35d0 e5bd ac51 db3b
000001b0: a1e8 903d ecd6 9bbc 3ada 5f3d 17c5 743d
000001c0: 0ca6 053e f4ee 5e3c fb9a ff3b 7a36 c73d
000001d0: 1c04 90bd a409 bebc 53b7 153e 8821 453d
000001e0: 540d f23d c4ca c13d f41d 5e3d ce83 92bd
000001f0: 8b35 90bd 1c0a da3d 7e28 d4bd 707f 4c3d
00000200: 62ac acbd 244a c6bd ee1b 02be 36ef 32bd
00000210: 0815 5f3d 60d7 ad3c 7879 d53c 13f8 a4bd
00000220: 16e6 8ebd 063c ed3d d879 c23d 4c0c 0b3d
00000230: 12ba d53d 0886 7dbd 9664 c3bd 5c61 93bd
00000240: 0ef4 edbd 4072 553d 9848 8cbd f071 a8bb
00000250: 92f9 883d 98de c4bd cee0 f73d 4610 f8bd
00000260: 1acd d23d a4cf c4bc 2073 c73c c8a9 dd3d
00000270: 15ed eebd 0ce6 e9bd 572e b1bd 6cdf 06bd
00000280: 9edd 32bd 9c95 8c3d 5a3f edbd bc18 52bd
00000290: b0af 463c 7cd9 16bd 16e0 9ebd 80c9 86ba
000002a0: 2abf 44bd 98f9 553d 1cc2 013d d86c 6f3d
000002b0: 2ae3 a3bd 2850 05bc 692d cabd 0ca3 ecbc
000002c0: 26a0 a2bd 3828 883d 44a4 aebd baaa d0bd
000002d0: 077a efbd fc13 a63d 7006 ac3d 7a6e b3bd
000002e0: e0b9 b0bd f143 dfbd 8c7f f43d 8c51 903d
000002f0: ab55 ff3d 011b fe3d c856 ae3c 6a6a 073d
00000300: b12d 403d 04c1 29bd 8a84 38bc 4313 d1bd
00000310: f06d ca3c a8f1 3fbd 6a59 863d e4cc b33d
00000320: 2ac2 ce3d bc96 4cbd 403f af3b a370 b23c
00000330: 00af 8b3b e09d 39bd b3d6 043d 23ae 8c3d
00000340: 864f 9abd 24f3 55bd f526 cbbd 5293 063e
00000350: 13da 2f3c de2c 8bbd a6fd 113e 5ec8 01be
00000360: 11f1 c2bc 3806 a03c 5254 aabd 2859 703d
00000370: fef4 75bd 1484 5c3d 53b3 253d 8a1b d23d
00000380: 00fa 1abd 4af3 073c a3d6 81bd 2faa e73d
00000390: 22a9 d7bd 3a73 d43d 6988 08bd 08e2 cfbd
000003a0: 057f 093e f3fe 81bd 9e96 263d 54c2 af3d
000003b0: f408 eabd 8f4d 02be 8d3e bbbd 6c6d 75bd
000003c0: db72 d5bd 47ad 103d c022 ef3c 0cd3 bfbc
000003d0: 06a4 f93d d68a fabd 792a 803c f5c8 bd3c
000003e0: d722 2cbd 146b d7bb 92db a53b b6f4 23bd
000003f0: f8ab c03d e0ce 583c ed8e 10be f052 14bc
