saved_models/model_NKE.pt (torch_old, 190423 bytes, 15 tensors)

layer1.weight f4 [100, 5]
000000 6e 15 1f 3e e0 d1 eb 3e e2 c3 3d be 51 3a df 3e
       0.15535519 0.4605856 -0.18531755 0.4359918
000010 1f b1 b0 bd 30 f6 d8 be 60 e7 16 3c 00 e3 72 be
       -0.08627533 -0.42375326 0.009210438 -0.23719406
000020 fc 38 01 3e ac f3 10 3e 75 c7 02 3d 7f 7e 50 3e
       0.12619394 0.14155453 0.0319285 0.20360754
000030 19 72 df 3e aa ba 59 be 5c 88 c6 be 30 8f 2c 3e
       0.43641737 -0.21262613 -0.3877591 0.16851497
000040 6f 17 05 bd ef 29 2a bd d6 a3 2a be 8f 7a 30 3e
       -0.03249305 -0.041543897 -0.16664061 0.17234252
000050 a8 2a b8 3e ba 8a 1b 3d 59 20 0b bc 1f 51 7e 3e
       0.35970044 0.037974097 -0.008491599 0.24835633
000060 a6 55 8f 3e 00 37 d5 bc 58 05 64 3e b6 16 81 be
       0.27995032 -0.026027203 0.22267663 -0.2521264
000070 24 3b b4 bd e0 42 a9 3c 0d 57 47 3d a7 7c be be
       -0.08800343 0.020661771 0.048667002 -0.37204477
000080 42 71 3e 3d e8 e4 b9 3e e3 78 5d 3e c8 2d 79 3c
       0.04649473 0.36307454 0.21628146 0.015208669
000090 20 e3 dd 3e 27 28 46 bd 55 9f 76 3e 1d db 2c be
       0.43337345 -0.048378136 0.24084218 -0.1688046
0000a0 21 96 e4 bc e5 0b 3e be 4a 88 d8 3e e8 fa 29 bc
       -0.027903618 -0.18559225 0.4229148 -0.010374762
0000b0 7e 15 41 3e 6c 52 b6 3c d1 ca ba 3e c0 10 c0 3e
       0.18855855 0.022256099 0.36482862 0.3751278
0000c0 3a 06 d1 bd 20 32 a1 bd ee f3 b3 3e b3 bd e3 3e
       -0.10206266 -0.07870889 0.3514704 0.44480667
0000d0 27 ff eb bd 4c b5 a4 3e 2e b9 a5 be 6c 1d 40 3e
       -0.11523276 0.3216957 -0.32367843 0.18761224
0000e0 92 66 b0 3e 1a 8b 24 be 15 ff e2 be 30 ee 12 be
       0.34453255 -0.16068688 -0.44335237 -0.14348674
0000f0 47 9c be 3e 3f 23 4a be 6f a4 c2 3e 2a 1b f6 3d
       0.37228605 -0.19740008 0.38016078 0.120169
000100 e4 f1 0d be f8 9f bc bd 2b e1 01 be 9b e3 4b 3e
       -0.13861805 -0.09210199 -0.12683551 0.19911043
000110 22 f5 bd 3e 46 09 16 3e d4 c5 1f 3e 98 ba 7a 3e
       0.37101084 0.14651975 0.15602809 0.24485242
000120 61 4e 7e be 9c 2b c1 be 94 77 9e bd 62 a3 71 3e
       -0.24834587 -0.37728584 -0.077376515 0.23597482
000130 f8 b8 cc 3e 9b 16 53 be ab a9 5f be c7 a1 46 be
       0.3998487 -0.20614092 -0.21842067 -0.1939765
000140 88 09 a8 3d 5b 8b a0 be de 14 d7 be 0f c7 c3 be
       0.08204943 -0.3135632 -0.42008108 -0.38237807
000150 8c 1f 58 3e bf 5a 51 3e d7 45 25 3b 00 29 bc be
       0.21105784 0.20444773 0.002521863 -0.3675003
000160 8d 7e d5 3e 02 d3 07 3e 28 6d 8e be 41 99 85 be
       0.41698113 0.13264087 -0.27817655 -0.26093486
000170 dc 2a 9b be f0 cb 68 3d 70 df 1e bd a4 08 85 3e
       -0.30306137 0.056835115 -0.038787305 0.25983155
000180 2c 06 d4 3e 54 cd 0f 3e 66 08 9c bb 7a 17 7a 3e
       0.4141096 0.1404317 -0.0047617434 0.24423018
000190 89 e3 54 3e 84 b2 c9 3e 07 2c d7 be ac 78 2d be
       0.20789923 0.3939401 -0.42025778 -0.16940564
0001a0 40 b4 8a 3e 48 ce 01 be 18 04 db 3d 4e 33 ba 3e
       0.27090645 -0.12676346 0.1069414 0.36367267
0001b0 31 87 46 bd d9 95 a7 3e c3 f8 89 be 08 ff 6b 3e
       -0.048468772 0.32731512 -0.26947603 0.23046505
0001c0 48 d0 17 3e 66 99 94 be 70 e3 61 3d fe 3d 93 bd
       0.14825547 -0.29023284 0.055148542 -0.071895584
0001d0 c4 bf 97 3e 33 84 d2 3e 23 ee b9 3c 95 ee 16 be
       0.29638493 0.41116485 0.02269656 -0.1473945
0001e0 fd cc 18 3e 9b 4b 28 3e be ab 08 bc 5b 8f 85 be
       0.14921947 0.16435091 -0.008341728 -0.26085934
0001f0 82 1d 88 3e 42 6a 71 3e ec ff dd bd fa 4f a4 be
       0.26585013 0.2357569 -0.10839829 -0.32092267
000200 50 e6 9c be 45 dd be 3e 28 6f d7 bd 90 ce 15 3d
       -0.30644464 0.3727819 -0.10519248 0.036573946
000210 80 d4 d2 bc 90 48 1a 3e c0 62 a9 bc b0 ab da bd
       -0.025736094 0.15066743 -0.02067697 -0.10677278
000220 51 7a 8b be a0 14 4b 3c 96 86 5f be 18 f2 b5 be
       -0.27241758 0.012395054 -0.21828684 -0.35536265
000230 cc f7 1d 3e 64 26 56 bd aa 2f ad 3e 69 09 c8 be
       0.15426558 -0.052282706 0.33825427 -0.3906968
000240 51 b2 d7 3d d8 62 bd be 64 9d 4f 3e f8 57 2e 3d
       0.10532058 -0.36989474 0.20274884 0.042564362
000250 63 78 58 be 38 ce 7d bd 33 a5 c0 be b4 60 22 3e
       -0.21139674 -0.061964244 -0.37626037 0.15857202
000260 f0 e6 ab 3e 4e 67 cd be 8c 32 99 be 96 7d 9b be
       0.3357463 -0.40117878 -0.29921377 -0.30369252
000270 68 a2 a1 3e 7d 19 c8 be 40 8b b1 3e 8c c2 ca bd
       0.3156922 -0.39081946 0.34676552 -0.09900388
000280 28 c4 fd 3c 8a 98 2c be be 36 a7 3e d8 c0 32 3e
       0.030977324 -0.16855064 0.32658952 0.17456377
000290 e3 95 3d be 28 c6 e3 3d da 2b ae be d0 38 b0 3d
       -0.18514208 0.1112178 -0.3401783 0.08604586
0002a0 06 5f e4 be 7a 53 36 be 94 b8 fa bd 6d 95 c4 be
       -0.44603747 -0.17805281 -0.12242237 -0.38395253
0002b0 5c db fd 3d 2b c6 73 bb 4f a1 66 3e 80 9e ea 3e
       0.12395355 -0.0037196975 0.22522472 0.4582405
0002c0 e8 68 c4 3e fe 7b b5 be dc d5 81 be e8 33 dd 3e
       0.38361287 -0.3544616 -0.25358474 0.43203664
0002d0 22 ea 2f be d2 d5 db 3e 00 62 39 be e0 db 1a bc
       -0.17179158 0.4293657 -0.1810379 -0.009451836
0002e0 c7 80 70 be 98 38 83 bd 18 af e3 be 80 cb 03 be
       -0.23486625 -0.06407279 -0.44469523 -0.12870598
0002f0 e4 60 51 3e 00 2d 53 bb dc 68 9b 3e e3 de bb 3e
       0.20447117 -0.0032222867 0.3035344 0.36693487
000300 e1 52 09 3e ee a4 3d be da 35 e9 3e 53 9f 86 bd
       0.13410522 -0.18519947 0.45548898 -0.065733574
000310 96 82 db 3e c5 bf 52 be 17 0b 36 3e 47 58 f0 bd
       0.42873067 -0.20580967 0.17777668 -0.117355876
000320 98 0b 6a be 1a a0 1e be 24 80 2b 3e 82 64 cd be
       -0.22855985 -0.15490761 0.167481 -0.40115744
000330 44 2b 4e 3e 12 10 b6 3e c5 73 c5 be 2c 55 2f 3e
       0.20133692 0.35559136 -0.38564888 0.17122334
000340 b6 08 51 be a0 9c 09 bc 0f 49 34 be b2 36 c7 3e
       -0.20413479 -0.008399159 -0.17605995 0.38908917
000350 23 1f e9 3e c0 69 43 be be 01 99 bd c2 9f 05 be
       0.45531568 -0.19083309 -0.074710354 -0.13049224
000360 c2 ab d3 be ab 91 aa be d5 e3 a7 be ab 58 79 be
       -0.41341978 -0.3331426 -0.3279101 -0.2435023
000370 4d fe c9 3e ff 59 af 3e 3f 8c fa bd d0 b8 74 be
       0.3945183 0.3424835 -0.12233781 -0.23898625
000380 e1 b6 a8 3e 95 34 9c be 13 68 c1 3d be f6 86 3e
       0.32952026 -0.30508867 0.09443679 0.26360124
000390 f8 64 8d be 3b 39 d5 3e 55 7a 04 be ef 03 7b 3e
       -0.27616096 0.41645226 -0.12937291 0.2451322
0003a0 a3 12 a8 3e dc 01 8c be 66 64 26 be 2c ef e9 bd
       0.3282672 -0.2734517 -0.16249236 -0.114225715
0003b0 d3 df f4 bd 72 2e 81 be af 6f 8d 3e fa 0d 7c 3e
       -0.119567536 -0.25230747 0.2762427 0.24614707
0003c0 5c 25 e3 be 08 76 9e 3d 72 b9 84 be e0 fb 7a 3c
       -0.4436444 0.077373564 -0.25922734 0.015318841
0003d0 d0 bd ab bc a0 2e 00 bd 67 b9 61 be 81 4c cc 3e
       -0.020964533 -0.031294465 -0.22043382 0.39902118
0003e0 38 10 ae 3e c2 96 ff 3d 3b 50 c5 be 52 26 27 be
       0.3399675 0.12479927 -0.38537773 -0.16323212
0003f0 c4 a1 55 3e 5a 38 9a be 00 18 e3 3b cc 29 3f 3e
       0.2086249 -0.30121118 0.0069303513 0.18668288

layer1.bias f4 [100]
000000 b0 99 48 3d 00 ec 34 bb 4b 75 c7 3e 2e bc ed 3e
       0.048974693 -0.0027606487 0.38956675 0.46432632
000010 03 00 4f 3e 4e af d5 be 8a ec 20 be 88 67 a8 3d
       0.20214848 -0.4173531 -0.15715232 0.08222872
000020 35 56 fc bd cb d0 13 3e 4d 5d ca be f0 96 02 3e
       -0.1232113 0.14435117 -0.39524308 0.1275289
000030 0c 37 aa 3e ba e0 b6 be 8c 6f 12 3e 1d b7 28 3e
       0.33245122 -0.35718328 0.14300364 0.16476102
000040 24 38 87 be 44 93 76 be a0 98 e5 3c 91 4c a5 bd
       -0.2641002 -0.24079615 0.028026879 -0.080712445
000050 15 18 33 be 38 ad ba 3e 8a df ae be d0 bd b4 3e
       -0.17489655 0.3646028 -0.34154922 0.35301065
000060 0b f4 17 3e 8b 16 8d 3e 6f 7e d4 be 46 e3 98 be
       0.14839189 0.2755626 -0.4150271 -0.29860896
000070 7a b7 a5 be 88 5c da be 56 26 ae 3e 3d 27 d8 be
       -0.32366544 -0.4264872 0.34013623 -0.42217436
000080 7b 9f cc bd ac 9b 6d be 31 25 92 3e 92 56 08 3d
       -0.09991356 -0.23203915 0.28544 0.033285685
000090 f0 99 86 bc da 7a a1 3e 72 1d 55 bd 13 40 d2 be
       -0.016430825 0.3153904 -0.052030034 -0.4106451
0000a0 04 ed b1 bd 7c d5 cf be e7 d4 c0 bd 16 a2 9d be
       -0.08687785 -0.40592563 -0.09415608 -0.30787724
0000b0 75 9c 89 be c5 66 d5 be cd e8 3e 3e 4a 43 62 3c
       -0.2687718 -0.4167997 0.18643494 0.013809988
0000c0 00 3f b9 3a 4a 51 93 be 24 1c a1 bd 2f ce 7e be
       0.0014133155 -0.28772956 -0.078666955 -0.2488334
0000d0 80 04 c8 bb 46 5c a7 3e de 9d 92 be c7 78 b7 be
       -0.006104052 0.32687587 -0.28636068 -0.35834333
0000e0 76 28 e9 3d 9d 2d 0b 3d 31 36 32 3e 2c 94 b1 be
       0.113846704 0.033979047 0.17403485 -0.3468336
0000f0 f0 47 f5 3c aa 42 0d 3e 24 4d 90 be c0 57 36 be
       0.029941529 0.13794962 -0.28183854 -0.17806911
000100 fa e0 d0 3e c8 53 1c 3e 76 98 9b 3d e7 0b b5 3e
       0.40796643 0.15266335 0.07597439 0.35360643
000110 54 88 63 be 0e 3f 97 3e 85 82 c4 be fc 45 2e 3e
       -0.22219974 0.29540294 -0.38380828 0.17018884
000120 6c 3d d2 be bc 20 d0 be c6 b9 e2 be 3c ca 3d 3e
       -0.41062486 -0.40649974 -0.4428236 0.18534178
000130 c0 a3 40 3e 9a 54 9c 3e a0 b0 b4 3c 8f 18 a8 3e
       0.18812466 0.30533296 0.022056878 0.32831237
000140 50 44 d7 3e 6f cf 7e be bd 7c 61 3e 1b f8 7d be
       0.42044306 -0.24883817 0.2202024 -0.24801676
000150 f4 27 46 be ef 64 17 3e a8 2c 21 3e f4 f7 7f 3e
       -0.19351178 0.14784597 0.15739691 0.2499693
000160 ae de a6 be ce 64 bc 3e 3c d1 48 3e e5 9b 12 3e
       -0.32591766 0.36795658 0.19611067 0.14317282
000170 d4 4b 83 be b4 62 a2 3e 1e 7a 85 3e 12 c0 39 be
       -0.2564379 0.3171593 0.2606973 -0.18139675
000180 08 0f 8d 3d b2 c5 80 3e d6 9a dc be 16 be ba 3e
       0.068876326 0.2515083 -0.4308688 0.3647315

layer2.weight f4 [150, 100]
000000 29 5a d6 3d 50 c6 e2 bb a2 3c db 3d aa 61 44 3d
       0.104664154 -0.0069206133 0.10704924 0.047944702
000010 6d 68 3a 3d 11 33 b0 3d e6 18 09 ba fd 82 63 bd
       0.045509744 0.0860349 -0.00052298454 -0.055544842
000020 9f 8e 8e bc b5 23 a5 3a 65 ce dd 3d 30 0d 0a bd
       -0.017401991 0.0012599143 0.10830382 -0.033703983
000030 67 64 80 bd 8f a7 9d 3d 32 cb 35 3d 80 b5 27 bb
       -0.0626915 0.07697975 0.044383235 -0.002559036
000040 92 7d 18 3d 06 c8 af 3d 60 0d d9 bb b8 f7 d6 3d
       0.03722913 0.08583073 -0.006623909 0.10496467
000050 3b b7 e1 3d 37 23 05 3d ba d2 64 3d c8 9d dd 3d
       0.110212766 0.032504287 0.055865027 0.1082111
000060 ce 13 75 bd af fc c1 3d 14 c6 ea 3c 20 33 a8 bc
       -0.05983334 0.09472024 0.028658904 -0.02053219
000070 a4 a5 e8 3d 4c df d0 bc e0 83 fd bc 39 87 b8 3d
       0.113597184 -0.025497101 -0.030946672 0.09010167
000080 db 2f 3d 3d b3 bb 7e bd 0c 05 75 bd 9c f7 a8 bc
       0.046188217 -0.062190723 -0.059819266 -0.020625882
000090 28 bd 9c bc 0f 7c 82 3d bf e3 4c bd 7d 6c 24 bd
       -0.019133165 0.063713185 -0.050021883 -0.040142525
0000a0 33 8e 8e bd b6 56 3f 3d 72 20 d4 3d d0 f9 e9 bb
       -0.06960716 0.046713553 0.10357751 -0.0071403757
0000b0 97 d3 a5 3c 4b 3f c5 bc 14 2e b7 bb f8 14 ac 3d
       0.020242495 -0.024078032 -0.0055902097 0.08402437
0000c0 4d e2 97 bd d3 bb 5c 3d 6a bf 5b bd f9 63 c2 3d
       -0.0741621 0.05389006 -0.053649344 0.094917245
0000d0 04 13 f8 3c e2 b6 45 bd 40 17 e6 3a 16 19 ba 3c
       0.030282505 -0.048270114 0.0017554536 0.02271704
0000e0 06 67 e8 3c 70 8b 11 3c 9b a5 65 3d 43 98 cc bd
       0.028369438 0.008883342 0.056066137 -0.09989979
0000f0 2d 62 ca 3d 3b 1b dc bc 08 2a b5 3d e7 9c 4a bd
       0.09882007 -0.026868453 0.088459074 -0.04946604
000100 b9 02 f3 bc ef cc 7f bd 65 d4 ba 3d 34 7c 82 3c
       -0.029664384 -0.0624513 0.09122542 0.015928365
000110 dd 7c 82 bd 06 24 1e 3d 5b 43 87 bc a0 79 b8 3c
       -0.06371472 0.038608573 -0.01651161 0.022518933
000120 15 0a 02 bc 42 c1 b9 3d 2a 2f 39 bd 28 80 73 3c
       -0.007936974 0.09070064 -0.045210995 0.014862098
000130 c7 b8 94 3d aa 79 2d bd e0 79 d2 bb fe 73 c1 3c
       0.07261806 -0.042352356 -0.00642322 0.02361488
000140 76 64 18 bd 15 88 38 3c 04 6e e7 3b 75 52 2a bc
       -0.037205182 0.011262913 0.0070626754 -0.010395636
000150 4c 40 8d bc 85 43 c7 3c 9d 71 c8 3d eb d5 9b 3d
       -0.017242573 0.024324188 0.09787295 0.07609161
000160 20 e8 f7 bc 7f ae 8c bd 70 26 7f bc b0 4d f2 3d
       -0.030262053 -0.0686922 -0.015573129 0.11831224
000170 a1 ba c3 bc e6 a3 0d 3d 4c f2 69 bd 28 3e f6 bc
       -0.023892703 0.034580134 -0.057115838 -0.030058935
000180 ab 52 8f 3d f8 ba f4 3c f4 ae 91 3c 97 00 bc bd
       0.069981895 0.02987431 0.01778362 -0.091798
000190 58 0e 50 3c 4d be bf 3d df 7d 87 bd ae fe f5 bc
       0.012698732 0.09362469 -0.06615805 -0.030028667
0001a0 a6 dd 81 bd 98 22 90 bc 3d 49 77 3c 8a 96 83 bd
       -0.06341104 -0.01759462 0.015093145 -0.064251974
0001b0 86 c6 09 3d 67 8f 4a 3d d7 d3 1d 3d 5c c8 fb 3c
       0.033636592 0.049453165 0.038532104 0.030735187
0001c0 22 42 39 3d 6a af 1a bd 7c 7b d5 3c 95 46 88 bc
       0.045229085 -0.037764944 0.026059859 -0.016635219
0001d0 13 02 b6 bd 7e 49 07 bd 80 c5 27 3a bc 0d d7 3d
       -0.088871144 -0.033029072 0.0006399974 0.105006665
0001e0 95 c4 6a bd 16 42 af 3d 45 aa 96 3d 80 11 e5 bb
       -0.05731638 0.08557527 0.07356695 -0.0069906116
0001f0 ac 2d 61 bd ba bb ae bd 6e f2 02 3d 80 b0 92 bc
       -0.054975197 -0.085319 0.03196948 -0.017906427
000200 f5 dd ea 3d 9c 4f 88 bd 5a 60 18 bd 2a 6b cc bd
       0.11468116 -0.06655809 -0.037201263 -0.099813774
000210 f4 d0 a7 3d d9 30 83 3d ee da 97 bc d4 13 66 bd
       0.081941515 0.06405801 -0.018537011 -0.056171253
000220 40 a5 87 3c 10 cd c8 bd 39 57 3f 3d b3 ba cb b9
       0.01655829 -0.098047376 0.04671404 -0.0003885828
000230 d0 e3 8c 3b b2 e9 2a 3d 37 16 ce 3d 2c 2b b9 3c
       0.0042996183 0.041726775 0.10062831 0.022603594
000240 dd 4c 32 3d 4a ea 8e 3d a7 23 af 3d 24 b3 a3 bd
       0.043530334 0.06978281 0.08551722 -0.07993153
000250 da d8 05 bd e9 e0 67 3d fd 5e 3c bd 10 e5 71 3c
       -0.03267751 0.056610975 -0.045989025 0.014764085
000260 ec 6b ab bc 30 b8 c6 bd 12 72 22 3d bc bf 3d bd
       -0.020925485 -0.097031 0.039659567 -0.04632543
000270 89 f0 65 bd c7 38 04 3d 20 06 a9 3d 11 b5 ad 3d
       -0.056137595 0.03228071 0.082531214 0.08481801
000280 89 22 8f 3d da fc db 3d cb 26 69 bd 80 c0 8c bb
       0.06989009 0.10741587 -0.05692176 -0.0042954087
000290 a2 17 a6 3d f8 b6 09 bd 39 64 e8 3d 4e d2 5a 3d
       0.08109976 -0.03362176 0.11347241 0.05342322
0002a0 c2 7e 2a 3d de b4 5b 3d 14 07 90 bd 07 82 aa 3d
       0.041624792 0.053639285 -0.070326 0.08325582
0002b0 72 c6 e0 3c 63 85 9e bd c4 85 b2 3d 65 45 bd 3d
       0.027438376 -0.07740285 0.0871692 0.092417516
0002c0 d2 73 2f 3d 18 01 35 bc 60 7e 05 bd 79 2e 92 3c
       0.042835064 -0.011047624 -0.032591224 0.017844426
0002d0 dd 34 f5 bb 4f 41 7c 3d 19 36 86 3d ad 00 3d bd
       -0.0074831084 0.06158572 0.06553287 -0.046143223
0002e0 80 1e c8 3a 3b 9f 68 3c 39 b7 c3 3d d8 69 93 bd
       0.0015267879 0.01419812 0.09556431 -0.071979225
0002f0 84 e8 85 bd 0b ad 97 bd 0c cd ba bc e1 ec dd 3d
       -0.065384895 -0.07406052 -0.022802852 0.10836197
000300 17 c9 a7 3c ca 53 a1 ba f7 9d c7 3d f7 4d 4c bd
       0.02048163 -0.0012308296 0.09746926 -0.04987904
000310 72 c9 09 3d 1a 56 07 3d 69 b8 b4 3d 76 b5 8b 3a
       0.03363938 0.033041097 0.08824236 0.0010658938
000320 f1 c6 f1 bc f5 c8 a1 3d 81 c6 89 3d c9 24 e8 3b
       -0.029513808 0.07899658 0.06727315 0.0070844633
000330 a3 1e 44 bd c2 45 c7 bd 90 fe d4 3d 79 bc 66 3d
       -0.04788078 -0.09730102 0.104001164 0.056332085
000340 5f 23 07 bd a0 ef e5 3d cf 0a 75 3d 14 95 ea bc
       -0.032992717 0.112273455 0.05982476 -0.02863554
000350 4a 59 f3 bc 75 b2 85 3c 70 9c 23 bd a3 35 9b bd
       -0.029705662 0.016320447 -0.039944112 -0.0757859
000360 c0 29 68 bc 77 39 9d bd bf 5f 8a 3d 83 88 53 3d
       -0.01417011 -0.07676976 0.06756543 0.05164386
000370 01 bb 40 bd c9 02 e5 3d 7e cb 5e 3d 1e f7 f3 3d
       -0.04705334 0.11182172 0.054393284 0.11912368
000380 49 e9 d0 3d 50 66 0c 3d 21 f6 9f 3d f9 bb a1 3d
       0.102007456 0.03427726 0.07810617 0.07897181
000390 29 44 5e bd b0 96 2e bc 66 ba 06 bd bf 03 b7 3d
       -0.05426422 -0.010656044 -0.032892607 0.089362614
0003a0 3f 19 71 3d b7 ea c8 bd 9c cd 1c bd 77 f7 f7 3d
       0.058861967 -0.09810393 -0.038282022 0.12107747
0003b0 03 b5 60 bd c8 01 93 bd d4 0d 24 3d 81 7f 4c bd
       -0.054860126 -0.07178074 0.04005225 -0.049926285
0003c0 be e7 85 bd b9 29 87 3d 51 0e f5 3d ed e1 55 bd
       -0.06538342 0.06599755 0.11965621 -0.052217413
0003d0 2a 86 13 bc e4 b9 b3 3d 94 b7 0f 3d d2 1b a9 bc
       -0.009004155 0.0877569 0.035087183 -0.020643149
0003e0 27 d5 3c bd b7 6a 54 3d 2d 80 1f bd c9 47 b8 3d
       -0.046101715 0.051859584 -0.038940597 0.08998067
0003f0 0e 31 6c 3d fe 97 8a bd 80 d8 28 bd bf 39 75 3d
       0.05766397 -0.067672715 -0.041222095 0.059869524

layer2.bias f4 [150]
000000 2a 0b c3 3d a8 bc 61 3d 6a 8d a1 bd a0 df 7e 3b
       0.09523614 0.055111557 -0.07888301 0.0038890615
000010 6c d7 a3 bd f2 b3 56 3d 92 e7 4b 3d 6c 41 c4 bd
       -0.08000073 0.052417703 0.04978139 -0.09582791
000020 8e 92 d0 3d 5f 17 58 bd 60 14 c1 3c 9e eb 1c bc
       0.10184203 -0.052756663 0.023569286 -0.00957766
000030 0f 6a 8e bc 10 65 bb bd 11 22 6f 3c 73 6b 4d bd
       -0.017384557 -0.091501355 0.014595524 -0.0501513
000040 e9 2d a8 3d 00 60 71 3b fe 07 09 3d a3 56 98 3d
       0.08211882 0.0036830902 0.033454888 0.074384
000050 aa 04 b1 3d 2a 2c 7b bd 21 87 86 3d 75 b9 c1 bd
       0.08643468 -0.061321415 0.065687425 -0.09459201
000060 a8 27 aa 3d 39 f3 93 3d 1d 39 a2 3d 98 86 88 bd
       0.08308345 0.072241254 0.0792105 -0.06666297
000070 9e d1 65 bd 1d 54 6a bd 80 6a 9c ba 36 ef ba bd
       -0.05610811 -0.057209123 -0.0011933595 -0.09127657
000080 6f 52 5b bd c8 e7 95 3d da bc f6 3c ff 3c ab 3d
       -0.05354541 0.073195994 0.030119348 0.083612435
000090 1f db a0 3d 4f 01 9e bd f3 47 cf bd 46 e0 d9 3d
       0.07854294 -0.07715093 -0.10121145 0.1063848
0000a0 f2 00 b1 3d 33 70 bd bd 17 af ad 3c 90 03 49 3d
       0.086427584 -0.09249916 0.021201653 0.049075663
0000b0 d7 cd 67 bd 9d af c7 bd 42 53 65 3d c5 b1 ac bd
       -0.05659279 -0.097502925 0.055987604 -0.08432344
0000c0 42 b3 99 bd f9 ad 1b 3d 2e 05 54 bc 8e f9 34 3d
       -0.07504894 0.03800771 -0.012940688 0.044183306
0000d0 58 51 61 bd 0e 1e 48 bd 93 bd ad bd d5 5b cd 3d
       -0.055009216 -0.048856787 -0.08483424 0.10027281
0000e0 94 4b 51 3d a7 d8 b8 3d 30 37 b3 3b 2e d0 81 bd
       0.051097468 0.09025698 0.0054692253 -0.06338535
0000f0 94 a1 75 bd 81 89 5c 3d c0 cb 56 3c fb c4 c6 bd
       -0.059968546 0.05384207 0.013110101 -0.0970554
000100 45 0b ac 3d df f9 b3 bd 80 e0 ea ba 0e e5 cc 3d
       0.08400587 -0.087878935 -0.0017919689 0.10004626
000110 b6 d8 a4 bd 27 01 b7 bd dc 95 58 3c 57 0a 90 bd
       -0.08049147 -0.08935767 0.013219323 -0.07033222
000120 43 53 85 3c 16 f1 64 bd 07 64 7a bd 65 e1 d4 bc
       0.016275054 -0.05589398 -0.06113055 -0.025986383
000130 43 ec c4 3d 80 b2 75 bd 7b 47 6a bd 7b 14 1e bc
       0.09615376 -0.059984684 -0.057197075 -0.009648438
000140 b6 a5 9d bd 60 51 8c 3c 38 34 e4 bc ff a3 8f bc
       -0.076976225 0.017128646 -0.027856931 -0.017534254
000150 07 3a 06 3d 47 b6 f1 bb 2d 35 c7 3d aa 91 77 3d
       0.032770183 -0.0073764655 0.09726939 0.06044165
000160 a1 ab bb 3d a4 57 89 bc 00 a5 13 3c 5c 7e 1d bb
       0.09163595 -0.016765423 0.009011507 -0.0024031615
000170 59 31 3d bd 66 85 36 3d d0 0a c2 bd ae d9 0e 3d
       -0.04618964 0.044560812 -0.094747186 0.034875564
000180 f4 6a d5 bd 07 34 54 bd 72 f6 3a 3d 1f be 85 3d
       -0.1042079 -0.05180743 0.045645185 0.06530403
000190 7c 04 96 3d 62 88 3d 3d 50 35 bb 3d 30 47 8b bc
       0.07325074 0.046272643 0.09141028 -0.017001718
0001a0 04 d6 b4 bd 1d fb f5 3c c0 49 02 bd b0 9b 9d bd
       -0.08829883 0.030026967 -0.031808615 -0.07695711
0001b0 14 f8 e0 3c 0c f5 a3 bc af a8 90 bd 4f 6a d5 3c
       0.027462043 -0.020014308 -0.07063424 0.026051668
0001c0 84 88 aa 3d e8 8e d3 3c c7 bb 21 bd 07 55 cc bd
       0.083268195 0.025824979 -0.03948572 -0.09977155
0001d0 1d 86 82 3d 41 a5 86 3d 40 5c 16 bb 1e c2 57 3d
       0.06373236 0.065744884 -0.002294317 0.05267536
0001e0 c0 d4 4f 3b ca 06 80 bd 16 6b 68 3d 96 dc 3e 3a
       0.0031712502 -0.06251295 0.05674275 0.00072807947
0001f0 49 b2 5e bd fa 17 2b bd 1c 55 26 bd 0e fc 15 3d
       -0.054369245 -0.041770913 -0.04060851 0.03661733
000200 f8 72 fa 3c d8 cb 19 3c b8 2a ad bd 1a dd 39 bd
       0.0305724 0.009386979 -0.084554136 -0.045376875
000210 42 85 bd 3d 80 02 a2 bd 5f b4 6e bd 02 c2 7a bd
       0.092539325 -0.07910633 -0.058277484 -0.061220177
000220 16 fd e4 ba c8 0e c4 bc 68 be b2 3d 66 da 6b bd
       -0.0017470445 -0.02393283 0.08727723 -0.057581328
000230 d0 c0 94 3b 3e 39 15 bd 6e a7 c3 3c b3 ab 62 bd
       0.0045395866 -0.036431544 0.023883548 -0.055339526
000240 fa 6a 63 bd 0b e9 08 3d 33 a7 a1 bd bc d9 e0 3c
       -0.055521943 0.033425372 -0.07893219 0.027447574
000250 42 91 aa 3d de c4 60 3b
       0.08328487 0.003429703

layer3.weight f4 [100, 150]
000000 4f ac f2 bc f3 a1 be 3d 40 bb 99 3d 6a e8 93 3d
       -0.029623179 0.09308233 0.07506418 0.07222064
000010 6c e1 15 bc b5 94 4e 3d 71 b7 95 bd 29 e7 31 bd
       -0.009147983 0.050434787 -0.07310379 -0.043433342
000020 14 c5 13 bd 34 25 19 bd 02 16 26 bd 31 36 40 bd
       -0.03607662 -0.037388995 -0.040548332 -0.04692668
000030 d8 f6 94 3d c8 81 9b 3c 82 af b5 3d ec a2 66 3d
       0.07273644 0.018982783 0.08871366 0.05630772
000040 aa 43 90 3d 08 8c 5b 3d 60 6c 8c 3b 6e 48 b1 bc
       0.07044156 0.05360034 0.0042853802 -0.021640982
000050 31 bc d6 3c 17 0f 6d bd 8c 18 47 bd f4 df 48 3d
       0.026212784 -0.05787572 -0.048607394 0.049041703
000060 50 12 e4 3c ef 87 91 bd e1 fd b1 bc 60 cb 0f bc
       0.027840763 -0.071060054 -0.021727504 -0.008776516
000070 b1 30 07 bd c0 b5 a1 3d 17 43 9d bd fd 6b ed 3b
       -0.03300542 0.07895994 -0.07678812 0.007245539
000080 2b bb f4 bc a9 56 18 3d 87 ff 4e 3d db 4e 88 3d
       -0.029874405 0.03719202 0.05053666 0.066556655
000090 86 ab 78 bd 35 db 98 bd 8e 6e 17 3b c4 72 44 3c
       -0.060710452 -0.074636854 0.0023106667 0.011990253
0000a0 52 d9 54 bd d2 0e a2 bd f3 79 9c bc 5d 0f 96 bc
       -0.051965065 -0.07912983 -0.019101119 -0.018317873
0000b0 e0 38 54 3d 2c d8 3e 3d 5c a4 83 3c fc cd 1d 3d
       0.051812053 0.046592876 0.016069584 0.03852652
0000c0 b4 7c f2 bc c4 8d 3b 3d 89 72 8a 3d 36 6a e5 bc
       -0.029600479 0.045789495 0.06760127 -0.028004747
0000d0 7b fa 73 3d 95 36 46 3d 40 aa 31 3b 93 98 da bc
       0.05956505 0.048391897 0.0027109534 -0.026684081
0000e0 c2 9e 45 3d a1 4a 9e bd ab 62 84 bd 5e c1 98 3d
       0.048247106 -0.07729078 -0.06464132 0.07458757
0000f0 1e 56 45 3d fe 97 ef bb 08 62 a4 3d 10 b4 ca 3b
       0.04817783 -0.00731182 0.080265105 0.006186016
000100 97 5f b6 3d 8e 30 40 bd 32 d1 c3 bc 81 cf 4f 3c
       0.08904951 -0.046921305 -0.023903463 0.01268375
000110 8c 8e 6c 3d c1 78 2b 3d b5 62 be 3c f9 cb 43 3d
       0.05775313 0.041863207 0.023240427 0.047801945
000120 05 a1 9c 3d 8e 12 24 bc 9f e6 81 3d 5e 59 78 3d
       0.076478995 -0.010014189 0.063428156 0.060632102
000130 7e 4d f7 bc 30 4b b9 bb 08 fd 87 bd 8d 28 87 bd
       -0.030188318 -0.005654715 -0.06640059 -0.06599531
000140 29 1b 36 3d fd e2 01 bd 4e e2 f4 bc 7f e9 be bc
       0.044459496 -0.031710614 -0.029893067 -0.023304699
000150 0f 4b 8e 3d d7 7b 89 3d fa 42 35 bd 58 57 5c bc
       0.0694791 0.06713074 -0.044253327 -0.013448559
000160 7a 33 11 bd 74 dc ea bb e0 b7 4d 3d ca f3 48 3d
       -0.035449483 -0.0071673933 0.050224185 0.04906062
000170 f1 6a 7a bd f5 fe 4c bd 80 03 ae ba 4c 96 b7 bb
       -0.061137144 -0.050047833 -0.001327619 -0.0056026336
000180 75 b3 10 bd cf ef 8b bd 87 e2 39 bd 22 f4 e6 bc
       -0.035327394 -0.06832849 -0.04538205 -0.028192583
000190 53 36 88 3d fb 62 99 bd 71 90 ec 3c c7 c0 f9 3c
       0.066509865 -0.07489582 0.028877469 0.030487431
0001a0 8e 70 9c 3d c5 57 6b bd c8 7b 86 3d d2 d6 cc bc
       0.076386556 -0.05745675 0.06566578 -0.025004778
0001b0 44 51 91 bc 37 6b c0 bc fa da 83 bd 09 47 d0 3c
       -0.017738946 -0.023488624 -0.06438251 0.025424497
0001c0 f6 ca e4 3c 0a b0 95 bc c4 ea 96 3d 0b 21 b9 3b
       0.02792881 -0.018272419 0.07368997 0.005649691
0001d0 e0 21 11 3d 50 b6 f0 3c ea a1 95 bd 64 d9 b5 3d
       0.035432696 0.029383808 -0.07306273 0.088793546
0001e0 a8 17 37 3d 40 80 91 3d 3a bf 70 bd c8 1c 1b bd
       0.044700295 0.0710454 -0.058776118 -0.037869245
0001f0 ec 08 ee bc 38 0e 13 bc d3 4f cd 3c f8 e6 91 bc
       -0.029056989 -0.008975558 0.025062477 -0.01781033
000200 b3 55 51 bd 0c 72 88 bc 72 ab 27 3d ce 60 11 bd
       -0.05110712 -0.016655944 0.040934987 -0.03549271
000210 e7 00 98 3a bd d2 27 bd 84 b0 a6 3d 1b f1 d2 ba
       0.0011596949 -0.04097246 0.081391364 -0.0016093584
000220 de ec 1d bc a8 42 a2 bd ea fd 59 bd df 90 fb bb
       -0.009638993 -0.0792287 -0.053220667 -0.007677182
000230 00 19 1b bc 81 d7 b5 bd 99 49 35 3d 87 2b 97 3d
       -0.00946641 -0.08878995 0.04425964 0.07381349
000240 a8 65 57 3d 35 9e a4 3d 4f 85 67 bd 85 7e 06 bd
       0.05258718 0.08037988 -0.056523617 -0.032835502
000250 25 7f e9 bc 8f c7 02 bd 37 36 a5 bd c2 df b0 bc
       -0.02850301 -0.031928595 -0.08066981 -0.021591071
000260 f0 30 3f 3d db cd 30 bd 2c 37 6f 3d 7d 6d 4a bd
       0.04667753 -0.04316507 0.058402225 -0.049420822
000270 80 3a 5c bb a2 ce 11 bd 04 91 d8 3c 70 04 bc 3c
       -0.0033604205 -0.03559745 0.026436336 0.022951335
000280 2b 5e a0 bd 3a cd 6b bd 40 bf 84 ba 50 8f 22 bc
       -0.07830461 -0.057568766 -0.0010127798 -0.009921864
000290 d0 47 8e bd c0 4f 8f 3d 08 eb 2d 3c 40 19 94 3d
       -0.06947291 0.06997633 0.010615118 0.072313786
0002a0 dc 3c 9a bc 00 ab c8 3c 76 82 63 bd fd 97 1e bd
       -0.018827848 0.024495602 -0.05554434 -0.038719166
0002b0 ba d6 57 bd a0 fb 5a bc bc e1 96 bd d0 d1 33 3d
       -0.052695014 -0.013365656 -0.07367274 0.043901265
0002c0 ac 47 49 3d 6d 33 2c bd e8 5c 97 bd 3c ec a3 3d
       0.049140617 -0.04204123 -0.07390767 0.080040425
0002d0 e8 67 59 3d fa 6c a6 bc 9b cd a0 bd d0 71 13 bd
       0.05307761 -0.020315636 -0.07851716 -0.035997212
0002e0 e0 93 89 3d 39 31 93 bd 50 1f 74 bc 88 e0 03 3d
       0.06717658 -0.07187123 -0.014900044 0.03219655
0002f0 98 55 43 3d e6 88 00 3d 36 ac 2d 3d b4 bc 8c 3c
       0.04768905 0.031380557 0.04240056 0.017179824
000300 50 17 09 3c 76 75 a4 bc a0 e5 66 3b 00 e8 0b 3d
       0.008367375 -0.020075541 0.0035232082 0.0341568
000310 59 a3 0c bd 00 3e 77 3c 26 1e 1f bd 40 9f 07 3b
       -0.034335468 0.015090466 -0.03884711 0.0020694286
000320 00 53 cf b9 94 9d 92 bc 1d ce 86 bd 92 86 24 3d
       -0.00039543957 -0.017897405 -0.06582282 0.0401674
000330 c8 50 06 bc fd 5e 8b bd 5b 15 a1 bd 83 98 12 bd
       -0.008197971 -0.06805227 -0.07865401 -0.035789978
000340 7a de eb bc 30 9c 3b bd e6 2f e5 bc 00 7d 96 3b
       -0.028792609 -0.04580325 -0.027976941 0.004592538
000350 76 e4 93 3d b6 3d 81 3d e1 8c 4d bd 9f fb a0 bd
       0.0722131 0.063105986 -0.05018318 -0.07860493
000360 a0 d6 ae bb 84 14 a5 3d 3c f4 3e bd e8 a2 83 bd
       -0.005335644 0.08060554 -0.04661964 -0.06427556
000370 7c d9 37 3d 57 8e 4d bd f8 28 c2 3c c6 00 09 3d
       0.044885144 -0.050184574 0.023701176 0.033448003
000380 f0 f8 9d bc 90 98 99 bd 32 07 81 3d 46 4c 2e bd
       -0.019283742 -0.07499802 0.063002005 -0.04255321
000390 78 10 fb 3c c8 80 49 3d 20 d2 7d 3d 8c 95 83 bc
       0.030647501 0.04919508 0.06196797 -0.01606252
0003a0 e6 3f 81 bd ae 8c a0 3d 94 36 80 3d 98 1e d5 3c
       -0.06311016 0.078393325 0.0626041 0.026015565
0003b0 01 5c 99 bd f4 20 84 bd f0 00 76 3d 10 ec 4e bd
       -0.074882515 -0.06451598 0.060059488 -0.050518095
0003c0 9e 4b 9c bd 18 54 4b bc 1a 37 d0 bc 36 67 86 bd
       -0.0763161 -0.012410186 -0.0254169 -0.06562655
0003d0 00 2f 46 bb 6c 46 83 3d 30 d2 3b 3d c6 ee 97 3d
       -0.0030240417 0.06409916 0.045854747 0.07418589
0003e0 0e 8e 85 bd 0c fb ae bc a0 a3 c2 3b fe 3d 8e bd
       -0.065212354 -0.021359943 0.005939916 -0.06945418
0003f0 c0 1d 6f 3d 10 a7 14 bc fe 19 80 3d d6 53 80 bd
       0.05837798 -0.009073034 0.062549576 -0.062659904

layer3.bias f4 [100]
000000 ad f2 b9 3a 48 2d a5 bd 48 9b 88 bc 5a 27 a0 3c
       0.0014186703 -0.08065277 -0.016675606 0.019550014
000010 1c a5 d9 bc 81 71 e7 bc e5 cf 87 bd de ab 9f bd
       -0.026567988 -0.028252365 -0.066314496 -0.07796453
000020 e9 d2 03 3d b8 fb 05 3d ba f2 1b 3d 57 df 7e bd
       0.03218356 0.03271076 0.03807328 -0.062224712
000030 ef 14 7c bd 6d e1 5e bd 5e bb a2 3d fb de 6f 3c
       -0.0615434 -0.0544142 0.07945894 0.014640565
000040 54 b8 d4 bc 76 c2 32 bd 9f c7 db 3c 3d d1 26 3c
       -0.0259668 -0.043642484 0.026828585 0.010181722
000050 a3 ae 29 3d d1 54 af 3d 77 f2 14 bd 08 64 86 bd
       0.041426312 0.08561099 -0.036364045 -0.06562048
000060 8a b4 f9 3c 6c 15 47 bc 3b 89 6d bd 4d 3e 3c bd
       0.030481596 -0.0121511035 -0.0579922 -0.045957852
000070 38 f4 37 3c 9a b2 85 3d e2 e4 4f bc d3 61 11 3c
       0.01122766 0.06528206 -0.012688847 0.008873421
000080 4b 04 83 3d 39 54 6e bd bc 5f bf bc 42 91 01 3c
       0.06397303 -0.05818579 -0.02336108 0.007908167
000090 2d 6a 1f bd a1 62 ed ba 16 72 46 3d bc 60 36 3d
       -0.038919616 -0.0018111059 0.048448645 0.044525847
0000a0 4f eb 92 bd c2 1b 3c bd 13 d2 ee 3c 44 8d bc bc
       -0.07173788 -0.04592491 0.029152906 -0.02301658
0000b0 f9 90 8b 3c a6 fa 7a 3d f4 6a 8f bd 27 08 38 bd
       0.017036902 0.061274193 -0.070028216 -0.04492965
0000c0 a8 e6 3c 3c ca 27 82 3d b1 54 09 3d 21 91 5c bd
       0.011529602 0.063552454 0.033528034 -0.053849343
0000d0 d1 81 8d 3d d0 e0 d9 3b b3 e4 b3 3b ec 10 1e 3d
       0.06909526 0.006649114 0.0054899096 0.038590357
0000e0 7c 5c 47 3d 5e 02 a5 bd fb be a1 3d 8a 64 26 3d
       0.048672184 -0.08057092 0.07897755 0.040623225
0000f0 d9 3d c8 bc 94 60 98 bd ab ff 1b ba c4 45 59 bd
       -0.024443554 -0.07440296 -0.0005950878 -0.05304505
000100 cc a0 c6 3c 74 7d 9c 3c 7b 42 7d bd b0 be 79 bb
       0.024246596 0.01910279 -0.06183098 -0.0038108043
000110 48 0c 84 3c 51 d3 8e bd 9a 2b 74 bd 3b 29 ae bb
       0.016119137 -0.06973899 -0.059611894 -0.0053149736
000120 58 45 51 3d 80 c2 bb bc 9c 98 de 3c d9 e5 0b 3d
       0.051091522 -0.022919893 0.02717238 0.034154747
000130 3c 89 84 3c 8c f8 9c bd e1 00 d6 bc 50 95 62 3c
       0.01617872 -0.07664594 -0.026123466 0.013829544
000140 31 99 e4 3c 34 a3 dd bc 12 20 47 bc 00 ce c5 3c
       0.027905079 -0.02705536 -0.012153642 0.02414608
000150 26 ad 5f 3d 9e 06 5e 3d 8b 07 7c 3d 20 3a db bc
       0.054608487 0.05420553 0.06153063 -0.026761115
000160 24 14 8d 3d a1 78 9d 3d 3a f2 4e 3d fc 65 11 bd
       0.06888607 0.07689024 0.050523974 -0.03549765
000170 c0 9f 87 3d 38 2a 7f 3d 3c dd d8 3c 97 a3 9d 3d
       0.06622267 0.062296122 0.02647268 0.07697218
000180 47 c5 c8 bc 65 19 6b bd a0 cf 31 3d 6b d4 39 bd
       -0.024508132 -0.057397265 0.043410897 -0.045368593

layer4.weight f4 [80, 100]
000000 ae 6c c3 bd 9a 38 1e 3d e0 78 8b 3c 70 84 02 bd
       -0.095422134 0.0386282 0.017025411 -0.031864583
000010 09 08 38 bd fd 2a 5e bd 73 a2 05 3d fa c0 2b bd
       -0.044929538 -0.054240216 0.032625627 -0.041932084
000020 b9 a8 af bd fd da a7 bd 03 d2 a8 bd 37 8d 27 3d
       -0.08577103 -0.081960656 -0.082431816 0.040906157
000030 62 9d 6b 3d a3 10 5c bd 04 75 be 3d 50 a8 9f bd
       0.05752314 -0.053726804 0.09299663 -0.07795775
000040 20 ed 62 3d ff 12 ae 3d 11 7c df 3c 69 24 03 3d
       0.05540192 0.08499717 0.02728084 0.032017145
000050 23 e6 bd 3b b1 59 95 3d 12 46 26 3d a9 7e 59 3c
       0.0057952567 0.07292498 0.040594168 0.013274827
000060 41 52 82 3d 04 d9 f4 bb 13 d5 df bc e3 67 c7 bd
       0.06363345 -0.0074721593 -0.027323281 -0.09736612
000070 09 8f ac 3d 3d eb 3f bd e1 b8 a6 3d 51 c1 d2 bc
       0.08425719 -0.0468552 0.081407316 -0.025726946
000080 5e 92 94 3d 9e 64 0e 3c 2e af cd bd 1e e2 31 3d
       0.0725448 0.008690981 -0.100431785 0.043428533
000090 ea c1 b4 bd a2 1d 57 bd 02 ae 38 3d cd 92 27 bd
       -0.08826049 -0.052518494 0.04508782 -0.040911485
0000a0 cb 3f c8 bd d4 01 84 3b 96 8d 5f 3d e6 38 7b 3c
       -0.097777925 0.0040285382 0.054578386 0.01533339
0000b0 d7 93 52 bd 6c ec c6 bd 48 d7 b1 bd 7b 0a 8d bd
       -0.051410522 -0.09713063 -0.0868364 -0.068867646
0000c0 c0 a2 b8 3a f8 01 63 bd ee 04 2e 3d 94 b7 da 3c
       0.0014086589 -0.0554218 0.04248517 0.026698865
0000d0 e6 b3 d8 3c 81 5b 88 3d d2 2b c4 3d 7a 2d 64 3d
       0.02645297 0.06658078 0.095786706 0.055707432
0000e0 6d 7e bd 3d e0 4d 50 bc 25 3e ba 3c 1f 87 21 bc
       0.092526294 -0.012713879 0.022734711 -0.009858876
0000f0 9a 40 4e bd d5 e8 94 3d bd 62 7f bc 45 c0 33 bd
       -0.050354578 0.07270972 -0.015587506 -0.043884534
000100 b0 9f ae bd c3 0e 7f bd 07 4f 80 3d 4e 1a ab bd
       -0.08526552 -0.062269937 0.06265073 -0.083546266
000110 1a cd 2a 3d 5a 69 13 bd c8 57 91 bd 80 cc 6e bd
       0.041699506 -0.035989143 -0.07096821 -0.058300495
000120 6b 1f 5b bd c6 4c 2c 3d 35 21 be 3d 45 cf cd 3c
       -0.05349676 0.042065404 0.092836775 0.025123248
000130 2a c8 3b 3d c4 ee ad 3c 48 44 df bc c0 49 41 bd
       0.04584519 0.021232016 -0.027254239 -0.047189474
000140 46 e9 ca bd 9f fb 9d 3d aa 39 72 bd c0 d8 23 3c
       -0.099077746 0.077140085 -0.059137024 0.010000408
000150 a4 1d 97 bc 06 b8 b7 bc 14 16 14 3d 5a d1 06 bd
       -0.018446751 -0.022426616 0.036153868 -0.032914497
000160 7c 1e 8a bd 49 8c 9b 3b 62 65 90 3c 67 4e de 3b
       -0.06744096 0.004746948 0.017626468 0.0067842486
000170 ed 9f 89 bd cf 7c c5 3d 48 39 bf bd 56 6f a5 bc
       -0.067199565 0.09642946 -0.093370974 -0.02019469
000180 77 3e a6 bd 17 53 d9 bc cb 44 b1 3d e8 c5 aa bd
       -0.08117383 -0.026528878 0.08655699 -0.08338529
000190 9b a2 d0 3c 33 1f cc 3d 60 da e7 3b c6 cf b2 3d
       0.025468161 0.09966888 0.007075593 0.08731036
0001a0 c7 7f 9f 3d 07 c0 ef 3d 82 a0 85 bd 22 6e b6 bd
       0.077880435 0.11706548 -0.06524755 -0.08907725
0001b0 98 22 c8 bc 49 80 87 3d 93 ea 26 bd ef f7 2d 3d
       -0.024430558 0.06616265 -0.04075105 0.042472776
0001c0 4f 02 5d 3d 78 53 f4 bc 70 50 fb 3d 1d 46 5a 3c
       0.05395728 -0.029824957 0.122712016 0.01332238
0001d0 90 12 18 3d 77 90 af bd d3 c2 66 3d 2c d7 1b bd
       0.037127078 -0.08572476 0.056338143 -0.038047
0001e0 0d 99 ae bc db 03 a7 3d 8a 0a 67 3d f1 94 d9 3d
       -0.021313215 0.08155032 0.056406535 0.106241114
0001f0 64 4b ad 3b c2 1b 4a 3d 80 de a7 bd 8e e7 83 3d
       0.0052885283 0.04934288 -0.081967354 0.0644065
000200 1a 68 22 bd de 33 24 3d d7 e3 5f 3d 35 03 1a 3d
       -0.03965006 0.040088527 0.054660644 0.037600715
000210 98 53 05 bd dc 61 d6 3d 6a 4c b1 3d af 43 ce 3d
       -0.032550424 0.10467884 0.08657153 0.10071503
000220 5c 49 7b bd 1d 9c b3 3d 67 93 03 3d b1 cc e1 3d
       -0.061349258 0.087700106 0.032122996 0.1102537
000230 53 55 ab 3d 95 7e 16 bc 7a c8 c1 3d 95 f1 ed 3d
       0.08365884 -0.009185453 0.09462066 0.11618344
000240 a2 bf 37 3d 13 fd a3 bd 52 00 2f 3d 79 26 c9 3d
       0.04486049 -0.080072545 0.042724915 0.09821791
000250 d9 6d 8b 3d df e6 70 3d e1 d0 8b bd d2 01 54 3d
       0.06808061 0.058813926 -0.0682695 0.05175955
000260 a7 9d 7f bc ce 2e 6b 3d 2c 74 bd 3d 27 c1 40 3c
       -0.015601552 0.057417683 0.09250674 0.011764801
000270 54 0b f4 bc 20 ef 40 bb dd 3c b0 3d 4a bf 0c 3d
       -0.029790558 -0.0029439405 0.08605359 0.034362115
000280 5e d7 b2 bc 10 dd a5 bd 64 26 aa bd 95 f5 f5 bb
       -0.02183121 -0.08098805 -0.08308104 -0.0075060823
000290 80 65 37 3c fa cc 37 bd ed 85 e9 3d 03 49 e5 3b
       0.011193633 -0.044873215 0.114024974 0.006997229
0002a0 30 30 0f 3c da 01 40 bd 2d fa 6a bd 79 2f 89 3d
       0.008739516 -0.046876766 -0.057367492 0.06698508
0002b0 f1 28 9e bc 77 c2 4a bd 20 d5 ec bc 91 9b f4 3d
       -0.019306632 -0.049501862 -0.02891022 0.119437344
0002c0 1d ea a2 bd f3 06 e6 3c 85 e5 14 3d 22 a8 26 3d
       -0.0795481 0.028079486 0.0363517 0.040687688
0002d0 cf af 0d bd 68 43 0b bc ed fb 0b 3d 20 39 ac bc
       -0.034591492 -0.008499958 0.034175802 -0.021023333
0002e0 74 f6 4a 3d 66 0d 05 bd 53 e3 df 3d 6b ee 8f 3d
       0.049551442 -0.03248348 0.109320305 0.070278965
0002f0 08 53 64 bd 94 56 c5 bd f2 55 34 bc 6c 28 7e 3d
       -0.055743247 -0.09635654 -0.011006819 0.062050268
000300 58 06 16 3c 2b d5 a2 bd 85 4b 83 3d ca c0 c2 ba
       0.009156786 -0.07950815 0.064108886 -0.0014858481
000310 39 ad 9b bd 04 03 df 3c fc 2e 8e 3d 6f 02 36 bd
       -0.07601399 0.027223118 0.06942555 -0.044435915
000320 da de 9b 3d bd 47 c1 3d a5 42 a3 bd 33 64 af 3d
       0.07610865 0.09437511 -0.07971696 0.08564033
000330 3d 2a 6b bd e0 f0 db 3d 9c 2c 6b 3d c6 c1 70 3d
       -0.05741333 0.10739303 0.05741559 0.058778547
000340 e0 59 c9 3d b2 0a 3c 3d 7a 92 63 3d 9d db 55 3d
       0.098315954 0.045908637 0.055559613 0.052211393
000350 22 b5 79 3d 58 07 15 bc d4 e8 e0 3d fb a5 00 bd
       0.060963757 -0.009095989 0.109819084 -0.03140829
000360 37 a0 af 3d 0c 28 ef 3c 6f bc e0 bc 51 ca ac 3d
       0.085754804 0.0291939 -0.027433602 0.08437026
000370 36 d0 b4 3d ab 32 85 3c c0 1f 59 bb 3d 4b 39 bc
       0.088287756 0.016259512 -0.0033130497 -0.011309442
000380 c1 e9 e3 3c de ca 4b 3d 42 b7 8c bd 17 06 80 bd
       0.027821423 0.049754016 -0.06870891 -0.062511615
000390 42 9b 99 bd b0 2d 3d bc 6b f1 0d bc a3 41 03 bc
       -0.07500316 -0.011546537 -0.008663516 -0.0080112545
0003a0 84 dd a1 bd b4 3d 4a 3d 85 d7 92 bd 7e 9c ec bc
       -0.07903579 0.04937525 -0.07170013 -0.028883215
0003b0 79 62 b1 3d 8b 33 11 3c 35 29 2b bd 1b f1 db 3c
       0.0866136 0.008862386 -0.041787345 0.026848366
0003c0 65 7f 81 bd ec 79 9d 3c fc d1 99 3c 9f e6 ab 3d
       -0.06323127 0.019223176 0.018776886 0.08393597
0003d0 a1 9a 55 bd 7c dd 94 bb 4c 2a 84 bd 12 90 17 3d
       -0.05214942 -0.0045430046 -0.0645338 0.03700263
0003e0 71 94 97 3d 6f d8 ae 3d 9b 01 34 3c 60 10 88 bb
       0.0740136 0.08537375 0.010986711 -0.0041523427
0003f0 9c aa c4 ba 1e e4 18 3d 61 89 49 3d 56 62 e7 3d
       -0.0015004459 0.037326925 0.04920328 0.11298053

layer4.bias f4 [80]
000000 3c 7f 2c bc 67 fd 7c 3d 1c 50 a5 3d 55 07 5d 3d
       -0.010528382 0.0617651 0.0807192 0.05396207
000010 91 ff 5f bd ee c8 b5 bc 98 df 05 bc 9b e0 2c bd
       -0.054687086 -0.022190537 -0.008170985 -0.042206388
000020 ea 72 c8 bc b8 bd ad 3d 3b 0d cb bd 6e e6 90 3d
       -0.024468858 0.084834516 -0.09914633 0.07075201
000030 d3 79 d4 3c a7 3e 55 bd e0 79 90 bb fd c0 9d 3d
       0.025936997 -0.052061703 -0.00440906 0.07702825
000040 95 e6 84 bd a0 35 63 bb c0 f9 b3 bd 64 1e b0 3d
       -0.064892925 -0.0034669414 -0.087878704 0.085995466
000050 6e 94 9b bd 2d 12 99 bd 29 89 c9 bd 8c 0a 5d bc
       -0.0759667 -0.0747417 -0.09840614 -0.013491284
000060 fc 35 03 bd e4 57 45 bd 40 71 a4 ba 25 00 9a 3d
       -0.032033905 -0.048179522 -0.0012545958 0.07519559
000070 59 8f e8 3c f8 f4 dd bc 45 1f c2 bd 23 02 d5 3d
       0.028388666 -0.02709435 -0.094786204 0.10400798
000080 d6 3b 9f bd 35 fb 35 3d 26 31 81 bd 95 f3 c9 3d
       -0.07775085 0.044429023 -0.063082024 0.09860913
000090 21 37 3d 3d 8c 36 e7 bc b0 cf 7b bc ac 12 33 bd
       0.046195153 -0.028224252 -0.015369341 -0.04371898
0000a0 c7 82 9c 3d 25 89 a2 3d 51 39 00 3d c1 a1 b1 bd
       0.07642131 0.079363145 0.03130466 -0.0867343
0000b0 28 b2 4f bd 92 0c 7f 3c 74 d3 61 3d b2 cc 88 bd
       -0.050707012 0.015566962 0.055133298 -0.066796675
0000c0 ec 5a ad 3a f7 19 d0 3d f0 3d 51 3c 37 d6 9e 3c
       0.0013225949 0.101612024 0.012771115 0.019389255
0000d0 d2 63 37 bd 4f d3 82 3d b2 49 69 bd c3 b6 8d bd
       -0.04477293 0.0638796 -0.056955047 -0.06919625
0000e0 a7 e6 45 bd 99 0a 4a bd 3b fe b9 bd 4a 3a 2a bd
       -0.04831567 -0.049326513 -0.09081694 -0.041559495
0000f0 44 f9 91 3d 29 eb 72 bd 13 b9 bf 3d 4d ae 2b bd
       0.07127622 -0.059306297 0.09361472 -0.041914273
000100 74 6b 0e bd 7f 0a 92 3d 67 99 c5 3b 47 18 3d 3d
       -0.034770444 0.07130908 0.00603025 0.04616573
000110 3b 8d 88 bd 1b da 87 3d 10 77 41 bc 20 da d7 bc
       -0.066675626 0.06633397 -0.011808172 -0.026349127
000120 4a 44 3e bd d4 64 84 3d c2 60 75 3d 32 8e cc 3d
       -0.046451844 0.06464544 0.05990673 0.09988059
000130 bf a6 ad bd 87 dc c9 3d 9d fd 1f bd fb cb a0 3c
       -0.0847907 0.098565154 -0.039060224 0.019628515

layer5.weight f4 [60, 80]
000000 c9 af b9 bc 02 ca d8 bd 2e 64 0d 3d be 8a d0 3d
       -0.022666829 -0.10585405 0.034519367 0.10182713
000010 fc 58 1b 3d e5 a9 9a bd 6a 8b a6 3d fe b8 4b 3b
       0.03792666 -0.07551936 0.0813206 0.0031085606
000020 87 c9 74 3d 9b 0f ae bc 94 e1 cf bd 54 4d d8 3d
       0.059762504 -0.021247676 -0.101504475 0.10561624
000030 b8 70 d8 3d b4 74 56 3d 24 e9 29 bd e3 da 75 bd
       0.105683744 0.05235739 -0.041482106 -0.0600232
000040 ac 01 bb 3d b7 78 96 bd ca 46 d8 bd 64 41 67 3d
       0.09131178 -0.07347243 -0.10560377 0.056458846
000050 f5 02 37 3d 68 cb b0 bc 6b 53 e2 bd dc 27 1e 3d
       0.044680554 -0.021581367 -0.11051067 0.03861223
000060 61 ad 06 3d 0f 96 6f 3c a2 d5 d4 bd 4c 71 a6 bd
       0.03288019 0.014623179 -0.1039231 -0.081270784
000070 0f 73 cb bd ec 74 ab bd 82 d0 2c bc 84 27 9c bd
       -0.09934055 -0.083719105 -0.010547759 -0.076247245
000080 de a2 9b bd 2c 0e df bd e9 ef af 3d 22 04 25 3c
       -0.07599424 -0.10891375 0.08590681 0.010071786
000090 e6 69 73 3d 58 95 6d 3d d0 1f 9f bb b5 92 8c bd
       0.059427164 0.058003753 -0.0048560873 -0.0686392
0000a0 ef d3 f7 3c a4 91 55 3d 75 0d 4d bd 14 f5 a3 bd
       0.030252425 0.052140847 -0.05006166 -0.08005729
0000b0 14 57 29 3c 1e 90 91 3d 07 ac d3 3d 21 3f de bd
       0.010335702 0.07107566 0.10335546 -0.10851885
0000c0 4c 3c 25 bd b1 5a 0e bc 1c 33 b5 3d cd 62 c4 3d
       -0.040340707 -0.008688615 0.08847639 0.09589157
0000d0 2d 57 dc bd 04 7f 5b 3c ae ab 99 3d 4a cd b7 3d
       -0.10758815 0.013396982 0.075034484 0.08974703
0000e0 eb f9 41 3d a8 ab d0 bd f6 2d 63 bd 83 dc 4c 3d
       0.04735748 -0.10188991 -0.055463754 0.050014984
0000f0 fd f2 07 3d 52 63 28 bc b5 5c 41 3c cc b3 d1 bd
       0.033190716 -0.010277586 0.011801888 -0.10239372
000100 fd 4c 9b 3d a1 5c c8 bd 3e ed a2 bd 28 fc 2a 3d
       0.07583044 -0.097832926 -0.079554066 0.04174438
000110 fa 58 92 3d 2c 6d 2a 3d c9 34 da bd 76 16 38 bd
       0.07145877 0.04160802 -0.10654599 -0.044943295
000120 f7 a3 a7 bc dd 46 52 3d 9a ba bf bd 19 74 64 bd
       -0.020463927 0.05133711 -0.09361763 -0.05577478
000130 07 fd 8f bd 8a af 32 3d 2c 2e 46 3d 9b 2b 19 3d
       -0.07030683 0.04362444 0.048383877 0.0373951
000140 00 0d f9 ba c8 9b b1 3d 50 c7 64 3b 38 14 e3 bd
       -0.0019001067 0.08672291 0.0034908839 -0.11087841
000150 1c b6 8a 3d c0 89 40 bc 80 79 d4 bd 73 1a ff 3c
       0.06773016 -0.011751592 -0.10374737 0.031140542
000160 6c 93 4c bd b8 81 41 3d 56 29 85 bd a2 ad dc 3d
       -0.04994528 0.04724285 -0.06502025 0.10775305
000170 16 57 53 3d a0 b2 c2 bb dc 70 c7 bd 06 0d 93 bd
       0.051596723 -0.005941704 -0.09738323 -0.071802184
000180 0b 84 58 bd 4a 27 97 3d be fb dc bd 81 c8 8c 3d
       -0.0528603 0.07380541 -0.107902035 0.068741806
000190 1f 99 35 bd a4 9c 21 bd 14 e0 ac 3d 8c c4 03 bd
       -0.04433548 -0.039456025 0.08441177 -0.032169864
0001a0 ba 5b 71 3d 39 03 02 3c 06 aa b7 bd 5d bf 2d 3d
       0.058925368 0.007935339 -0.08967976 0.042418826
0001b0 30 f4 b6 bd b5 4c 72 bd e4 27 da 3c c0 34 02 3c
       -0.08933294 -0.059155185 0.02663035 0.007947147
0001c0 78 0f a3 bc 84 4d 25 bd 1c e6 1d bd 03 21 0b 3d
       -0.019904837 -0.040357128 -0.038549528 0.03396703
0001d0 0e c7 85 bd 98 59 25 3d f4 99 a4 bd 7e d1 bc bd
       -0.06532107 0.040368646 -0.08037177 -0.09219645
0001e0 40 b4 cc bc aa 6d c4 bd 80 7a 3d 3d 64 26 d4 3d
       -0.024988294 -0.09591229 0.046259403 0.10358885
0001f0 4e 09 a9 3d 04 57 0a bd 33 5e 57 bd ee 0d cd bd
       0.08253728 -0.03377439 -0.05258007 -0.100124225
000200 27 f6 ec 3c 04 6c b9 3c c0 d0 65 3d 2c bb 87 bd
       0.028925968 0.022634514 0.056107283 -0.06627497
000210 46 a1 3f 3d af 4e 89 3d b9 35 1a 3d 63 c4 68 bd
       0.04678466 0.06704461 0.03764889 -0.056827914
000220 ea 1b 99 3d f1 4f db 3d 7a 22 b9 3d af f5 a8 bd
       0.07476027 0.10708607 0.09039779 -0.082499854
000230 f1 91 e3 bd c6 5e 7f 3d 3e 8c cf bd 70 e4 82 bd
       -0.111118205 0.062346242 -0.10134171 -0.06391227
000240 5d 62 44 3b fc 90 72 bd a5 92 10 3c 16 89 40 bd
       0.0029965856 -0.0592203 0.008824025 -0.047005735
000250 d5 f0 45 bd 70 ab 3b 3d a6 62 9e 3d 20 27 5c 3c
       -0.04832538 0.045817792 0.077336594 0.0134370625
000260 b2 23 21 3d 73 53 bc bd ae e8 ca 3d 26 ae 48 3d
       0.039340682 -0.09195604 0.099076614 0.048994206
000270 fb d4 cc bd 2a d2 b2 3c 2c b3 d5 3d 82 b7 0a 3d
       -0.1000156 0.02182873 0.10434565 0.033866413
000280 dc ad ae 3d 58 d3 b1 3c d5 2b ee 3c 6c 6b ad bc
       0.08529255 0.021707222 0.029073635 -0.021169387
000290 14 0c b6 3c 17 f1 fe 3c a8 5a a0 3d 32 5f dc 3d
       0.022222556 0.03112082 0.07829791 0.107603446
0002a0 98 85 57 bd 6f ac 46 3d 57 8e 6c bd b0 4f c7 3d
       -0.05261764 0.04850429 -0.057752933 0.09731996
0002b0 19 0e af 3b 37 51 c9 bd f4 25 cb bd 08 e6 97 bc
       0.0053422567 -0.098299436 -0.09919348 -0.018542305
0002c0 84 19 2a 3d 34 5a db 3d d8 e4 7a 3d 81 81 11 bd
       0.04152824 0.10710564 0.0612534 -0.035523895
0002d0 40 62 88 bd 00 51 a6 3d 41 32 90 bd 83 bf 39 3d
       -0.06659365 0.08120918 -0.07040835 0.045348655
0002e0 53 a2 38 3d 2e 1c 67 bd a0 74 58 bb cb 10 e8 bd
       0.04507668 -0.05642336 -0.0033028498 -0.11331328
0002f0 e3 5b 1e 3d 10 69 c5 3c 9f b1 c6 3d ad ec 93 bc
       0.03866185 0.02409795 0.09701847 -0.018057192
000300 de 6b a9 3d f3 38 f3 3c 42 92 b6 3d 0f 52 4b bd
       0.08272527 0.029690241 0.08914615 -0.049638804
000310 81 56 cd 3d c4 ee 12 3d 80 79 f9 3c a0 c7 aa 3d
       0.10026265 0.035872236 0.030453444 0.08338857
000320 a0 3d 83 bd 94 98 1a bd 87 0e 30 bd 50 61 d9 3c
       -0.064082384 -0.037743166 -0.042982604 0.02653566
000330 38 85 cc 3d 63 18 e9 bd d9 94 69 3d 1c 22 ae 3d
       0.09986347 -0.113816045 0.057026718 0.085025996
000340 f4 d4 4a bd b5 1e 02 3d 64 9d 99 bd 9c f1 cd 3d
       -0.049519494 0.031767566 -0.07500723 0.10055849
000350 31 43 b5 3d c3 92 26 bd 92 c5 84 bd 5b bc 9a bd
       0.08850706 -0.040667307 -0.06482996 -0.07555457
000360 88 fb 67 3d 66 1c 32 3d 00 29 2f bb da 52 c6 3d
       0.056636363 0.043484114 -0.0026727319 0.096837714
000370 92 57 fd bc cb 54 98 3d 8c 3d ea 3c c6 84 9c bd
       -0.030925546 0.07438048 0.028593801 -0.07642512
000380 37 ba fa bc 8e a6 35 3d 0e e9 21 bd 47 83 d6 bd
       -0.030606372 0.044348292 -0.0395289 -0.10474258
000390 0a d1 d5 bd 96 ea 95 bd 16 c2 b8 3d 80 d9 dd 3c
       -0.10440262 -0.07320134 0.09021394 0.027081251
0003a0 c4 1b 6c bd 68 7e 61 bc b8 d0 0e bd aa be d5 3c
       -0.057643667 -0.013763048 -0.03486702 0.026091892
0003b0 5c 9e 9d 3d e5 cd 93 3d b4 a3 75 3d ff 4b d2 bd
       0.0769622 0.07217006 0.059970573 -0.10268401
0003c0 cc 3d 30 3d 4c 70 51 bd 92 07 80 3d 9b 20 9d bd
       0.043027684 -0.051132485 0.06251444 -0.076722346
0003d0 b0 06 8f bc d8 d4 f3 3c bc 5d 43 3d 28 d2 62 bc
       -0.017459244 0.029764578 0.047696814 -0.0138440505
0003e0 ae ce ce 3d f8 ba 48 3d 63 48 4c bd 28 93 f0 bc
       0.10098015 0.049006432 -0.04987372 -0.029367045
0003f0 48 ff b6 3d 60 69 08 bd 78 2a a6 3c 4e 96 37 bd
       0.0893541 -0.03330362 0.020283923 -0.044821076

layer5.bias f4 [60]
000000 3f 18 d3 3d 18 be 75 bd f3 e5 8c 3d 30 bd cf bb
       0.10307359 -0.05999574 0.06879797 -0.0063396916
000010 bd f6 cd 3d 00 d2 17 3d 8f 78 f2 3b a1 8a a6 bd
       0.10056827 0.037065506 0.0073996256 -0.0813191
000020 97 5b bc bd ab 0f 64 3d b0 fa 89 bd 7c af b4 bd
       -0.09197157 0.055679005 -0.06737268 -0.088225335
000030 ec f7 22 bd 28 e7 c6 bd 8d 49 f2 3d 49 6f d6 3d
       -0.039787218 -0.09712058 0.11830435 0.10470445
000040 44 b7 8e 3d fd 43 9b bd c1 05 e0 bd f2 d7 0d bd
       0.06968549 -0.07581327 -0.109385975 -0.03462977
000050 78 5c 73 bd 68 c8 91 3d 0c 3e a9 3d 98 25 0b 3d
       -0.059414357 0.071183026 0.082637876 0.0339714
000060 52 ec 74 bd 06 42 d6 bc 2c 18 b3 bd 9e 62 26 3d
       -0.059795685 -0.02615453 -0.08744845 0.040621392
000070 7a a4 e1 3d 23 e2 b7 3d 2c 4c c1 3a 7b a8 cb bd
       0.110176995 0.08978679 0.0014747432 -0.099442445
000080 bf 30 b7 bd 7f e7 d2 bd 21 6d 91 3d ea 4b 26 bd
       -0.089448445 -0.102980606 0.07100893 -0.04059974
000090 4c a5 6c bd c4 6f 87 3c 19 27 86 bc 54 50 e0 ba
       -0.057774827 0.016532786 -0.016376065 -0.0017113783
0000a0 da 12 b0 3d d5 8f 67 bd 98 9b b9 3d f7 a5 14 3d
       0.08597346 -0.056533653 0.0906288 0.03629109
0000b0 c2 16 a9 3d 1d a6 b8 bd 44 6c bc bc 30 39 d7 3d
       0.08256294 -0.090160586 -0.023000844 0.105089545
0000c0 6c 2e ac 3d 17 12 0a 3d 65 2a 6a bd 06 4a aa 3d
       0.08407292 0.033708658 -0.057169337 0.083149
0000d0 b2 97 74 bd 7f 81 90 bc 44 ef 7c bd a8 86 95 3d
       -0.05971498 -0.017639874 -0.06175162 0.07301074
0000e0 55 58 1f bd c8 46 cb 3d e8 6e 3b 3d 23 88 2f 3d
       -0.0389026 0.0992561 0.045760065 0.04285444
