saved_models/model_JNJ.pt (torch_old, 190423 bytes, 15 tensors)

layer1.weight f4 [100, 5]
000000 5e 76 ad 3e a6 a4 87 be ac 19 d6 be 09 b2 83 be
       0.3387937 -0.26492804 -0.4181646 -0.25721768
000010 27 30 9d be 90 98 9c bd 5d 61 53 be 20 d6 a6 bc
       -0.307008 -0.076462865 -0.2064261 -0.020365775
000020 30 41 8f 3c 94 2c 0e 3e 69 83 85 3e 60 23 c6 3e
       0.017487139 0.13884193 0.2607682 0.38698864
000030 c8 e0 d2 3d b7 30 7d 3e 8c 12 5d be fc 99 e3 bd
       0.1029678 0.24725614 -0.21589106 -0.111133546
000040 b8 fc 45 3d f2 6b a4 be b8 ee bf bd 18 f9 c5 be
       0.048336715 -0.32113606 -0.09371704 -0.38666606
000050 31 cd 60 be fa 90 2d be 74 e0 78 be 90 4e 4d bd
       -0.21953274 -0.16949835 -0.24304372 -0.05012375
000060 50 49 7b bd 4e 5d 8b 3e b1 eb 67 3e 6f 7b 93 3e
       -0.061349213 0.27219623 0.22648503 0.2880511
000070 85 17 47 bd 59 d9 aa be d1 79 c3 3e c0 56 be 3e
       -0.048606414 -0.33368948 0.38178876 0.3717556
000080 2a 68 d2 be 8b a5 51 3c ce 52 dd bc 3f c6 37 3e
       -0.41095096 0.012795816 -0.027017023 0.17946719
000090 30 3b 9d 3e 99 89 cd bc ca 00 83 3e 02 b3 0f 3e
       0.3070922 -0.025090026 0.2558654 0.1403313
0000a0 a6 10 9f 3e 1a ef 93 3e d5 ce 74 3e 70 7a e3 be
       0.3106739 0.28893358 0.23907025 -0.4442935
0000b0 a5 90 d0 be 3c 22 9b 3e 82 11 81 be 4e b9 45 3e
       -0.40735355 0.30299556 -0.2520867 0.1930897
0000c0 18 79 da bd d5 a3 60 bd e8 dd 7b bd b5 ec d1 be
       -0.10667628 -0.054843742 -0.061490923 -0.41000906
0000d0 2f a5 d2 be 80 7a 55 3b 80 4c 45 bb 9e 7f 8f b9
       -0.4114165 0.0032574236 -0.0030105412 -0.00027370168
0000e0 ae cb 53 3e b7 3b 99 3e 55 c4 04 3e 4e dc 3b 3e
       0.20683166 0.2992837 0.1296552 0.18345758
0000f0 3c 8c e4 bd 00 77 56 3d 48 24 4d bd 40 a5 9b be
       -0.1115956 0.05235958 -0.05008343 -0.30399513
000100 e0 f5 37 3e 0b a2 96 bd e9 ea c1 3e 95 a3 b6 be
       0.17964888 -0.07355126 0.37874535 -0.35671678
000110 53 d7 42 be 8f c1 ca 3e df 3c 85 3b a5 01 c8 3c
       -0.19027452 0.39600798 0.0040660943 0.024414847
000120 2b b2 84 3e 95 63 66 be e6 88 0e 3e 15 1b 4e 3e
       0.2591718 -0.22498925 0.1391941 0.20127518
000130 94 dd a9 be 74 70 48 bd 2d f9 88 3d bb c9 b9 3e
       -0.33176863 -0.04893537 0.066881515 0.3628672
000140 b8 a9 4b 3e 74 68 ce be a8 dd a9 3d e0 80 dd be
       0.19888961 -0.40314066 0.08294231 -0.43262386
000150 14 b0 d4 be 17 74 a5 3d 12 03 11 bd 23 27 98 3e
       -0.41540587 0.08078783 -0.03540332 0.2971736
000160 77 0f 66 3e 60 79 3e be ff fb 6f 3e 2b 79 46 3c
       0.22466837 -0.18600988 0.23435973 0.01211385
000170 c1 92 d1 3e 24 29 ad 3e 5a fc 55 be bc 1f 92 bd
       0.40932277 0.3382045 -0.20897046 -0.07134959
000180 08 27 20 3e e0 e3 17 3c 48 f5 f3 3d 86 1a 88 be
       0.15639889 0.009270638 0.11912018 -0.26582736
000190 b1 77 e2 3e 78 28 db 3e 5c 9f d2 be eb 31 54 3e
       0.44231942 0.42804313 -0.41137207 0.20722167
0001a0 75 50 83 be db e0 bc 3e ef 1f 9d bd 7b f5 ad bc
       -0.2564732 0.368903 -0.076721065 -0.021235218
0001b0 52 f4 25 be 02 90 5c 3e db b3 49 3e 0f 6e 91 be
       -0.16206482 0.2153931 0.19697516 -0.2840428
0001c0 9c 84 62 be e9 91 63 3e 3d 70 cb 3e 0c c1 64 3e
       -0.22120899 0.22223629 0.3973407 0.22339267
0001d0 de e9 da be 52 de 84 be 60 28 90 3d d4 59 91 be
       -0.42756552 -0.25950867 0.07038951 -0.28388846
0001e0 b2 a6 9d be b0 60 73 bd 42 1c c7 be 28 2c ae 3d
       -0.3079124 -0.05941838 -0.38888747 0.08504516
0001f0 da 8f 9a 3e 6f 40 d5 be 2a 30 c6 3e f0 2b c4 3c
       0.30187875 -0.4165072 0.3870862 0.023946732
000200 80 53 93 bd 87 68 61 be ea b6 80 be c3 66 b9 3e
       -0.07193661 -0.2201253 -0.25139552 0.36211213
000210 3f f2 c3 bd 0d 9e 8d bd ab 18 96 3e 80 ee 39 bb
       -0.09567689 -0.069149114 0.29315695 -0.0028370917
000220 34 4d e0 be 80 58 ad bd 7c 9e 6b 3e a4 d2 cb be
       -0.438089 -0.08464146 0.23009676 -0.39809144
000230 60 3c d9 bd 88 6b 2e 3e 1e 70 e2 be da b6 3f be
       -0.10607219 0.17033207 -0.44226164 -0.18722096
000240 f8 96 dc be 08 c1 2c be 25 67 0d 3d c7 fa 33 3e
       -0.4308393 -0.1687051 0.034522194 0.17576133
000250 5a 26 52 3e a8 4e ca 3d d1 bf cc be b0 67 e8 3d
       0.20522442 0.09878284 -0.39990094 0.11347902
000260 cb 95 af be 5a 1a 98 3e 28 93 15 3d d2 76 b4 be
       -0.3429397 0.29707605 0.036517292 -0.35246903
000270 7c 48 b1 3e b0 7f 9b bc 7a 93 87 be c0 04 c3 3b
       0.34625614 -0.018981785 -0.26479703 0.005951494
000280 63 4d 4d 3e f4 de 6d be 18 ca e3 3e 57 4e 6e 3e
       0.20049052 -0.23229581 0.44490123 0.23272072
000290 69 93 ad 3e 38 77 d7 bd 08 87 46 3d 80 5c 5a 3d
       0.33901528 -0.10520786 0.04846862 0.05331087
0002a0 a7 2d b8 be 00 a6 8c 3b 98 33 e0 3d 10 6f 1d 3e
       -0.3597233 0.0042922497 0.10947341 0.15374398
0002b0 92 33 b1 be dc d1 d9 be 00 26 dd 3e c1 2c 1f 3e
       -0.34609658 -0.42542922 0.43193054 0.15544416
0002c0 fb 2d c5 3e 61 a7 50 3e 29 15 e8 3e c2 99 ad 3e
       0.38511643 0.2037635 0.45328644 0.3390637
0002d0 09 b3 a2 be da 2a cb be f6 e7 b9 be 84 5a dc bd
       -0.31777218 -0.3968113 -0.36309785 -0.10759452
0002e0 5c b7 d7 be fc d3 b5 be e0 03 38 3e 9b 97 bb be
       -0.4213208 -0.35513294 0.17970228 -0.36639103
0002f0 c0 6a 65 3c 92 ff 87 3e 34 c0 37 be f4 46 9e bd
       0.014002502 0.26562172 -0.17944413 -0.07728377
000300 70 78 a6 bd 12 ef b0 be e6 1a a0 3e 46 e4 de 3d
       -0.081284404 -0.34557396 0.31270522 0.108833835
000310 fa 71 2c 3d 7a fc 1a 3c e8 09 db bd 06 51 91 3e
       0.042100884 0.009459609 -0.10695249 0.28382128
000320 f0 c6 b3 3d 80 f1 b1 be 9e f0 8a 3e 57 40 4d be
       0.08778179 -0.34754562 0.271367 -0.20044075
000330 3c e1 ec bd 99 e4 a6 3e 0f 20 51 3e 4b 49 71 bd
       -0.115663975 0.3259628 0.20422386 -0.05890779
000340 6e 76 c1 be 30 9d ca 3e 50 74 f2 bc da 36 e4 be
       -0.37785667 0.3957305 -0.029596478 -0.44573098
000350 28 52 5a be 8a 1c d9 3e 18 55 39 3e d0 c2 6b 3e
       -0.21320403 0.42404586 0.18098867 0.23023534
000360 8e f3 34 bd 50 2b 68 3d 82 8b d0 3e ca 6e 4e be
       -0.044177584 0.05668193 0.40731436 -0.2015945
000370 ae 47 d1 3e 7c f0 65 3e c9 4c 4f be 8c 04 6b bd
       0.40875 0.22455019 -0.20244135 -0.057377383
000380 a2 f1 b7 be 60 2f 7f 3d dc 06 05 3e 74 66 ca be
       -0.3592654 0.06230104 0.12990898 -0.3953129
000390 f0 b8 9b 3c 48 17 12 be 51 1e 9b 3e 3d 16 7d 3e
       0.019009084 -0.14266694 0.30296567 0.24715514
0003a0 63 80 c7 3e f3 69 24 3e 27 ee 6b 3e a4 1d 41 be
       0.3896514 0.16056041 0.23040067 -0.18858963
0003b0 b1 85 b8 be 21 4d 84 3e 5c c7 d7 3e 45 74 29 3e
       -0.36039498 0.25840095 0.42144287 0.1654826
0003c0 07 5f 27 3d e1 16 85 3e fe a7 90 3e ce 22 8a ba
       0.04086211 0.25994018 0.28253168 -0.0010538937
0003d0 78 07 96 3e 56 2c b6 3e 50 56 4c 3d f4 95 9b 3e
       0.29302573 0.355807 0.049887 0.30387843
0003e0 e4 c2 7e be 8b bb 3f bd 20 b8 95 3d 50 db 94 be
       -0.24879032 -0.046809714 0.0731051 -0.29073572
0003f0 80 6c 86 bc 52 1a 34 be dc c6 88 3e f6 b8 ae 3e
       -0.016409159 -0.17588165 0.26714218 0.3412549

layer1.bias f4 [100]
000000 ac 07 9a 3e 88 ca fa 3d eb c2 fd 3d 88 84 b2 3d
       0.30083978 0.12245661 0.12390693 0.087166846
000010 64 8b dc 3e c5 2f 4a bc 0b 63 b2 3e 77 b1 80 be
       0.43075097 -0.012340491 0.3484119 -0.25135395
000020 f6 3a a1 be 5f d8 5f ba 6b 0a b3 be c6 35 29 3e
       -0.31490296 -0.00085390167 -0.34968886 0.16524419
000030 60 1d 0e 3e a2 ba 2a 3d 80 7e 99 3e 01 f4 31 be
       0.13878393 0.041681893 0.29979324 -0.17378236
000040 a8 25 b2 be 70 65 e4 3d 17 cc 71 3e 9e 43 dd be
       -0.34794354 0.1115216 0.2361301 -0.4321565
000050 c0 e6 ab bd cd 3f c3 be 6c f1 67 3d c8 2e 32 3e
       -0.083936214 -0.38134614 0.056626722 0.17400658
000060 14 54 6d 3e 99 7a af be f9 53 b3 be 22 51 c0 3e
       0.23176605 -0.34273222 -0.35025004 0.375619
000070 fa 90 82 be ea 3c 0b 3e 0e 17 d1 3e f0 34 4e 3d
       -0.25501233 0.13597456 0.40837902 0.050343454
000080 de a0 dd 3d e8 b8 c7 3e fc 72 a3 bd 1e 3c c6 3e
       0.108216986 0.3900826 -0.07980916 0.3871774
000090 76 2e cb 3e c0 9c bc bc 0c 8d 52 be 66 2b 97 3e
       0.39683884 -0.023023963 -0.20561618 0.29525298
0000a0 c0 65 84 3d c1 f8 a5 be 40 e9 3e 3c be 4b 27 be
       0.0646472 -0.32416347 0.011652291 -0.16337487
0000b0 68 b7 86 3c 80 ad 57 3d 2e 29 7b be fb 81 7c be
       0.016444877 0.052655697 -0.24527428 -0.24658959
0000c0 26 73 8f be 4b 88 b6 be a8 6a 4c 3e 59 8b b7 3e
       -0.2801754 -0.35650858 0.19962561 0.358485
0000d0 7c a8 f7 3d 77 6f b5 be 0e fb 86 be c8 22 0a be
       0.12092683 -0.35436603 -0.26363415 -0.1348983
0000e0 44 ef 60 3e a0 3f 40 bc 74 d7 d4 3e 06 a8 81 be
       0.21966273 -0.011733919 0.41570628 -0.25323504
0000f0 9b 92 c9 be 7b 11 1c 3e f0 73 7a bd d8 4c b3 3d
       -0.39369664 0.15241043 -0.061145723 0.08754891
000100 00 9c e4 be 21 73 cf be 2f 9b b8 be 88 82 a7 3d
       -0.4465027 -0.40517524 -0.36055896 0.08179194
000110 0c 57 9a 3e db a0 5e bd 2f 4d d0 be cc be b2 3e
       0.30144536 -0.054352622 -0.40683886 0.3491119
000120 be 70 ae 3e 74 12 5a 3e f8 bb 82 be 70 c7 cb bd
       0.3407039 0.21296102 -0.25534034 -0.09950149
000130 89 ec 68 3e 6b 93 34 3e 32 62 cc be 06 22 d7 3e
       0.22746481 0.1763436 -0.39918667 0.42018145
000140 ce 25 aa 3e 38 2a 2e 3e 29 55 ad be 52 16 cb 3e
       0.33231968 0.17008293 -0.33854035 0.39665467
000150 ee eb 81 3e ea 75 a1 be d8 11 f3 3d 82 db b3 3e
       0.25375313 -0.31535274 0.11868638 0.3512841
000160 3b d3 93 3e ec ac 73 3e f9 59 b5 3e a4 63 4d 3e
       0.28872094 0.23796433 0.35420206 0.20057541
000170 42 3d ba 3e e3 95 af 3e ab 03 91 3e 15 2c 59 bd
       0.3637486 0.34294042 0.2832311 -0.053020556
000180 41 5c 9a be 68 0b c7 3e 28 e0 c4 bc 08 9c ba 3d
       -0.3014851 0.3887589 -0.024032667 0.09111792

layer2.weight f4 [150, 100]
000000 6d dd 31 bd 45 39 8e 3d 94 d2 a3 bc a0 73 4c 3b
       -0.04342406 0.06944517 -0.019997872 0.0031196848
000010 60 05 53 bd e0 dc ec bb fb 94 8f bd 6d a3 52 bd
       -0.051518798 -0.007228479 -0.07010838 -0.051425386
000020 80 a0 58 bc ed e6 bc 3d 80 81 c7 ba a5 5f 93 3d
       -0.01322186 0.09223733 -0.0015221089 0.07195977
000030 58 7d ae 3c ba 83 3b 3d 82 9c ac bd 9e 36 9a bd
       0.021300003 0.04577992 -0.08428289 -0.07529949
000040 76 75 a4 bd 6d 8f c1 bd 83 3d a1 3d 8a bc 9c bd
       -0.080302164 -0.094511844 0.078730606 -0.076531485
000050 cd 7c b5 3d b3 66 91 bd 30 90 56 bc 82 eb 92 bd
       0.088616945 -0.070996664 -0.0130959 -0.07173826
000060 b1 ad 82 3d ea 0a 72 3d ca c3 ad bd 96 a6 9a bd
       0.06380785 0.05909244 -0.084846094 -0.07551305
000070 18 9d 7a 3c 7b bb b5 bd 05 99 c6 3d 2d 67 87 bd
       0.015296243 -0.0887365 0.09697155 -0.06611476
000080 b3 47 6d bd ad 5d 9a bd a9 7a a5 3d 5a 07 74 bd
       -0.057929706 -0.075373985 0.08080036 -0.059577323
000090 b8 9b b6 bc c6 9b 73 3d a3 84 32 bd d2 ad c7 bd
       -0.02229105 0.05947473 -0.043583523 -0.097499505
0000a0 88 8a d4 bc 89 40 c2 3d 20 8b d4 bc 47 e8 87 3d
       -0.025944963 0.09484965 -0.025945246 0.066361
0000b0 b9 3b c6 3d 58 50 e4 bc 75 2a bf bd ec ea b4 bc
       0.0967936 -0.027870342 -0.0933427 -0.022084676
0000c0 f0 af 02 3c f4 a4 d7 3c 67 fd 23 bd 52 aa c1 bd
       0.007976517 0.026323773 -0.040036585 -0.09456314
0000d0 68 a0 7a 3c aa fb 3c bd 85 73 8b bd 10 8c 7f bd
       0.015297033 -0.046138443 -0.06809143 -0.062389433
0000e0 c6 4f 89 bd 98 01 2f 3c 9a d4 a1 bd e3 3b 5d bd
       -0.06704669 0.010681532 -0.07901879 -0.05401219
0000f0 91 be b2 3d 67 15 27 bd 80 ad 30 ba 5c 6e ff 3c
       0.08727754 -0.040791895 -0.00067397207 0.031180553
000100 7a cb 56 3d 36 6f 19 bd 31 01 ad 3d b0 6c 74 bd
       0.052440144 -0.037459575 0.08447493 -0.059673965
000110 98 63 8f bc ba 6b 26 3d ac 30 d5 3c d5 7a a2 3d
       -0.017503545 0.04063008 0.026024185 0.079335846
000120 a7 f9 93 3d 20 86 bf bc 80 a8 fe 3b 10 82 8f bd
       0.07225352 -0.023379385 0.0077715516 -0.07007229
000130 53 12 b7 3d 2a ec 06 bd 54 2c f9 bc d2 fd 75 3d
       0.08939042 -0.032940067 -0.030416645 0.060056515
000140 05 bb 9e bd 93 71 b9 3d 30 41 9a bb 9d 36 9e 3d
       -0.07750515 0.09054866 -0.004707478 0.077252604
000150 a0 31 24 bd 4a be 24 bd b7 ea 9c 3d 00 bd 1a 3a
       -0.04008639 -0.040220536 0.07661956 0.0005902797
000160 e2 ee 16 3d 18 85 80 bd 30 f9 5e bc 9f a9 c6 3d
       0.03684891 -0.062753856 -0.013609216 0.097003214
000170 f4 77 bb bc d2 7c 4c 3d 10 94 19 3c 1a 05 34 bd
       -0.022884347 0.049923725 0.00937368 -0.043950178
000180 1e a6 a2 bd 27 60 7b bd 88 23 b7 bc a8 86 8f bc
       -0.079418406 -0.061370995 -0.02235581 -0.017520264
000190 b3 60 bd bd 96 ac 47 3d 4d e4 b7 bd 80 39 cc bc
       -0.092469595 0.048748575 -0.08979092 -0.024929762
0001a0 24 f8 d9 3c 4a dd 66 bd a8 9e 7a 3c 80 ca c6 bd
       0.02660758 -0.05636338 0.015296616 -0.097065926
0001b0 b4 1a ef bc 0c 9d 86 3c b8 b0 86 bc 5a 13 64 bd
       -0.029187538 0.016432308 -0.016441688 -0.055682518
0001c0 5e 9f 95 bd 96 af 11 3d aa c4 9c bd a0 34 8a 3c
       -0.073057875 0.035567842 -0.07654698 0.016870797
0001d0 b0 c2 9a bd 73 aa 25 bd 7a 50 4a bd e8 25 a6 bc
       -0.07556665 -0.040445756 -0.049393155 -0.020281747
0001e0 48 ce b5 bd 56 ee a1 bd 30 70 48 3c e2 d9 06 3d
       -0.08877236 -0.07906787 0.012233779 0.032922633
0001f0 97 39 ba 3d 60 91 94 3b 5c 1a da 3c 0d ac 97 bd
       0.09093016 0.0045339316 0.026623897 -0.07405863
000200 34 1e a6 3c 58 7a 2a bc 6c c5 fe 3c e5 2c 8a 3d
       0.020278074 -0.010405146 0.031099997 0.06746844
000210 0a 46 b2 bd 66 e6 03 bd 10 82 6b 3c ce e2 1d 3d
       -0.08704765 -0.032202147 0.014374271 0.038546376
000220 a4 e8 f9 3c 29 91 98 3d 70 51 c5 bd fd e0 6b bd
       0.03050644 0.07449562 -0.096346736 -0.057587612
000230 6b b6 c5 3d 37 71 c8 3d 57 09 97 3d d4 21 af bc
       0.09653934 0.09787219 0.07374828 -0.021378435
000240 8a 3b 5b 3d 00 be d4 3b 59 7c ab 3d 37 4b 89 3d
       0.053523578 0.0064923763 0.08373327 0.06703799
000250 a8 2f 58 3c e0 23 7a bd 60 0b 97 bc 40 78 2d 3c
       0.013194956 -0.06106937 -0.018438041 0.010587752
000260 d7 b3 53 bd 4a 86 47 3d d1 c6 c9 3d ae 4f 6d 3d
       -0.05168518 0.048712052 0.09852374 0.057937317
000270 5b ce c1 3d 91 90 8a 3d d8 42 80 3c c7 af 37 bd
       0.09463187 0.06765855 0.015656874 -0.04484537
000280 1d 24 ad bd 40 83 2f 3c 2a 1e 26 3d c7 3b 72 bd
       -0.08454154 0.010712445 0.04055611 -0.05913904
000290 ba 42 1f bd a3 02 68 bd c3 6d c1 3d ed a1 7a bd
       -0.038881995 -0.05664314 0.094447635 -0.06118958
0002a0 0b 9e ad 3d 72 9e 8d bd c8 1d b8 bd 80 98 ca 3b
       0.0847741 -0.06914987 -0.08990055 0.00618273
0002b0 60 b7 72 bd 76 20 2b 3d e0 69 f5 3b f3 93 93 3d
       -0.05925691 0.041779004 0.007489428 0.072059534
0002c0 5d 32 6f bd dd 9c 4f bd 2c 4f d3 bc dd 71 b1 bd
       -0.05839764 -0.050686706 -0.025794588 -0.08664296
0002d0 00 d6 19 bc 26 4c 7c 3d 90 a6 13 bd c6 3e 1f 3d
       -0.0093894005 0.06159606 -0.03604752 0.038878225
0002e0 50 6b 1b 3c 60 35 37 bb 9f 55 cb 3d 07 66 b7 bd
       0.0094860345 -0.0027955398 0.0992844 -0.08955007
0002f0 3b 28 af bd 55 d4 af bd 79 1c 92 3d 20 68 65 bd
       -0.08552595 -0.08585421 0.07134337 -0.056007504
000300 11 7a 9c 3d bb fc a7 3d 1e 18 93 bd 20 d5 f4 bb
       0.0764047 0.082025014 -0.07182334 -0.0074716955
000310 73 59 94 3d f8 84 cc bd 38 cd 84 bd a3 9a a3 bd
       0.072436236 -0.09986299 -0.06484455 -0.07988479
000320 4a 8e 00 3d 60 8c f2 bc 91 28 3e bc 1a 5f 61 bd
       0.031385697 -0.029607952 -0.0116063515 -0.055022337
000330 37 70 c5 3d 85 1a 98 3d 51 b0 a0 3d 64 95 c2 3d
       0.09640544 0.07426933 0.0784613 0.0950115
000340 41 d4 94 bd a5 9e 05 bd 1a 1d 3f bd 13 c2 a2 bd
       -0.07267047 -0.032622 -0.046658613 -0.07947173
000350 8b 0d 88 3d f4 55 30 bd 68 dc 81 bc 4e 35 20 3d
       0.06643208 -0.04305072 -0.015852168 0.039113335
000360 58 9d 17 3c 20 33 8e 3d 1b 7a a3 3d b0 1f 71 bd
       0.009253822 0.06943345 0.07982274 -0.05886811
000370 35 35 e3 bc ca 0b 47 bd f6 51 70 38 ea 07 23 bd
       -0.027735332 -0.048595227 5.729679e-05 -0.03980247
000380 8e cf 7c 3d 66 d9 92 bd 2a 19 b2 bd b8 93 89 bd
       0.061721377 -0.07170372 -0.08696206 -0.06717628
000390 e8 e2 4e bc f0 15 c2 3d da 7e 53 bd 3a fb 5f bd
       -0.012627341 0.094768405 -0.051634647 -0.054682948
0003a0 4f 95 c9 bc 53 dd 72 bd df 21 b0 3d 5a 6c a6 bd
       -0.024607329 -0.059293102 0.086002104 -0.08126135
0003b0 63 94 7d bd e5 64 80 3d b0 1b 89 bd 5e 8d a3 3d
       -0.06190909 0.06269244 -0.06694734 0.07985948
0003c0 3b 7a 9a 3d 78 8d 99 bd e0 12 e9 bb 63 94 3c 3d
       0.07542845 -0.07497686 -0.007112846 0.04603995
0003d0 00 b3 b8 3c 10 ed 8d bd 8b 88 c7 3d 71 44 52 3c
       0.022546291 -0.06929982 0.097428404 0.0128337005
0003e0 7c 57 ad 3d 25 3c e5 bc 22 bd 9c bd d4 62 93 3d
       0.08463952 -0.02798278 -0.07653262 0.07196584
0003f0 a6 b3 b1 3d d3 59 ad 3d 82 0e 58 3d 90 80 ca 3d
       0.08676843 0.08464398 0.05274821 0.098878026

layer2.bias f4 [150]
000000 e7 13 7c bd 96 b4 a1 bd 22 f1 3c 3a 87 97 33 bd
       -0.061542418 -0.07895772 0.00072075624 -0.04384568
000010 60 5c 06 bd 86 f5 be 3d ff 1a 52 3c 14 38 8a bd
       -0.03280294 0.09324174 0.012823819 -0.06748977
000020 b7 29 8b bd 7a bd 1c 3c 40 03 46 3c b6 ee 94 bd
       -0.06795066 0.009566659 0.012085736 -0.07272093
000030 cc 6c a7 3c 56 f1 20 ba 29 6e c8 3d 46 89 87 3d
       0.02043762 -0.00061394775 0.097866364 0.0661798
000040 25 1c b3 3d 98 5a 90 bc 08 95 b2 3c 16 f9 c9 3d
       0.087456025 -0.017621323 0.02179958 0.098619625
000050 2a 22 12 bc 3c 48 36 3d 94 be e0 bc df 32 a6 3d
       -0.008919278 0.04450248 -0.027434625 0.08115172
000060 06 65 09 3d 56 bd 9b bd 92 b0 94 3d 28 05 39 3c
       0.03354361 -0.07604472 0.072602406 0.011292733
000070 38 8b a4 bc 00 62 b3 3d a8 fd 5e bc 68 02 ac 3c
       -0.020085916 0.087589264 -0.013610281 0.020997241
000080 b4 74 95 3c 04 9f 8a bd 4b 6b 03 bd d0 98 92 bd
       0.018244125 -0.06768611 -0.032084744 -0.07158053
000090 d5 7d 5c 3d 39 ee a9 bd 19 36 5b 3d 3c 30 65 3a
       0.05383094 -0.082973905 0.05351839 0.0008742844
0000a0 13 b8 41 bd c9 45 80 3d 97 83 4b bd 86 f0 8d bd
       -0.047294687 0.062633105 -0.04968604 -0.06930642
0000b0 49 ae 0f bd e3 77 35 bd 41 a6 9e 3d 0c bd 9d 3d
       -0.03507832 -0.044303786 0.07746554 0.077020735
0000c0 5d d7 72 3d 52 39 d1 3d a1 60 57 3d 87 2d 53 3d
       0.059287418 0.10216011 0.052582387 0.05155709
0000d0 b7 e0 ee 3c eb 3a b2 3d 8e 5f e7 3c 60 f5 2c 3b
       0.029159887 0.08702644 0.028243806 0.0026391372
0000e0 b9 11 a2 3b 42 11 da 3c cb a5 0a 3d 41 3e ad 3d
       0.0049459604 0.026619557 0.03384952 0.084591396
0000f0 33 89 b1 3d 9f 08 a1 bd 73 9c fd bb d7 0d 7a bd
       0.08668747 -0.078629725 -0.0077395975 -0.061048355
000100 fb 45 18 3d f4 7c 98 bd 9d fc 27 bd ed 97 c0 3d
       0.037176114 -0.07445708 -0.041012395 0.094039775
000110 9d 18 91 bd 7c 22 04 bd 95 40 ba bd 78 6d b3 bc
       -0.07084773 -0.03225945 -0.09094349 -0.021902785
000120 99 fa 44 bd 71 e9 79 3d c8 c7 ff bc d7 50 85 3d
       -0.04809055 0.061013643 -0.031223193 0.065095596
000130 60 3b e7 3b 44 10 b1 bd 00 95 95 3b 27 a2 d8 3d
       0.0070566386 -0.086456805 0.0045648813 0.10577803
000140 6a 99 33 bd c8 83 82 3c 60 6f 9d bb 73 ea b8 bd
       -0.04384748 0.015931979 -0.0048045367 -0.09029093
000150 24 b2 83 bd 9a 21 42 bc d1 04 71 3d 5b ca 4a bc
       -0.06430462 -0.011848832 0.058842484 -0.012377347
000160 00 51 02 bd a3 26 87 bd ee 9b ac bd f0 b4 a0 bd
       -0.03181553 -0.06599166 -0.08428179 -0.07847011
000170 b4 0f 87 bc 6a 3c f5 bb b4 67 a3 bc 9b 41 a8 3d
       -0.01648698 -0.0074840086 -0.01994691 0.08215638
000180 cc b2 d8 bc dc 4d 80 b9 9a 2e c1 3d 61 81 a7 bd
       -0.026452444 -0.00024472072 0.09432717 -0.08178974
000190 59 32 a4 3d 44 89 15 bd cb 9f 11 3d 57 3e 6b bd
       0.080174156 -0.03650786 0.03555278 -0.0574325
0001a0 68 b1 af 3c ff 48 0d 3d 27 d4 89 bd fe 9c 53 bd
       0.021446899 0.034493443 -0.06729918 -0.05166339
0001b0 52 d5 26 3d f4 ce f5 bc 20 55 a6 3b dd 19 9f 3d
       0.04073078 -0.03000591 0.0050760657 0.07768605
0001c0 b5 c4 8c bd 9f 12 92 3d a7 67 90 3d 28 6d d5 bc
       -0.068734564 0.07132458 0.0705102 -0.026053026
0001d0 90 a9 98 3b ea ce 59 39 45 82 95 bd c7 61 bb bd
       0.0046588853 0.00020771814 -0.073002376 -0.09149509
0001e0 ec 75 25 bd 7d 70 af bd 26 f1 11 3d ac 90 cc 3d
       -0.040395662 -0.08566377 0.035630368 0.099885315
0001f0 68 5b 31 3c 7a 32 76 bd e2 9e c0 bd 22 96 6d 3d
       0.010825016 -0.060106732 -0.094053045 0.058004506
000200 7a dd 5c 3d 1e 2b 33 3d 4e 91 d1 bc 6c 58 02 bd
       0.053922154 0.04374229 -0.025581982 -0.031822607
000210 ea 69 a4 3c 52 b1 28 3d 7f 45 e6 3c 66 90 93 3c
       0.020070035 0.04118473 0.02810931 0.01801319
000220 87 8d 98 3d c3 a1 57 bd 55 d8 97 bd 82 af 35 3d
       0.07448869 -0.052644502 -0.07414309 0.04435683
000230 cd 4b 99 bd cb eb 93 bd 13 5c 08 bd fc c1 93 bc
       -0.07485161 -0.07222708 -0.033290934 -0.018036835
000240 ba 0e 9b bd 6a fe ce 3c bf 41 b4 3d 2b 75 a6 3d
       -0.07571168 0.025267798 0.088016026 0.08127817
000250 c5 b9 43 3d f1 92 a1 3d
       0.047784586 0.07889355

layer3.weight f4 [100, 150]
000000 b2 71 87 3d 0d cc 47 bd 40 37 44 bc 00 0a 92 3d
       0.066134825 -0.048778582 -0.011976063 0.071308136
000010 38 43 46 3c fc 23 75 3d 62 9f 0b bd 20 d5 53 3c
       0.012100987 0.05984877 -0.034087546 0.012929231
000020 fc a5 91 bd b0 46 82 bd 62 d7 0a 3d 48 e6 a7 3c
       -0.07111737 -0.06361139 0.03389681 0.020495549
000030 14 d9 6a 3d c0 b8 36 3b 80 33 0e ba f8 89 45 bc
       0.057335928 0.0027881116 -0.0005424544 -0.01205682
000040 30 c4 c2 3b 3a 63 2e 3d fa 4d 0e 3d 00 c4 f1 3a
       0.0059437975 0.0425751 0.034742333 0.0018445253
000050 64 c5 95 3d 4c 7d 53 bd 70 f2 95 bb 72 9f 1d 3d
       0.0731304 -0.051633164 -0.00457602 0.038482137
000060 56 65 94 bd 6c 7c 83 3d 31 06 a6 bd 90 f1 87 3c
       -0.07245891 0.06420216 -0.0810665 0.016594678
000070 4a cf 36 bd ca d3 84 3d ac 17 5d 3d dc e0 50 3d
       -0.04463128 0.06485708 0.053977653 0.050995693
000080 6d cc 0b bd 30 4d 21 3c 40 74 0f bd 70 a0 ab bb
       -0.034130502 0.009845063 -0.035022974 -0.0052376315
000090 68 5d a5 bd a0 a8 48 3d ce 76 94 bd 3c 3d 81 bc
       -0.080744565 0.04898894 -0.07249223 -0.01577627
0000a0 32 01 8c 3d b3 4d 36 bd a0 d8 1d bc 6c 77 a4 3d
       0.068361655 -0.044507693 -0.009634167 0.080305904
0000b0 00 75 7a 3d 9c ad 8c bc 00 c5 d6 3c 3e 30 2b 3d
       0.061146736 -0.017172627 0.026216984 0.041794054
0000c0 ac cf 8c 3c a7 b4 a2 bd 48 cb 57 3d 04 0b a2 3c
       0.01718887 -0.07944613 0.0526841 0.019780643
0000d0 5b a6 8d bd fa a8 75 bd 80 30 22 bc bc 60 72 3d
       -0.069164954 -0.0599756 -0.009899259 0.059174284
0000e0 0e cb 2e 3d 58 36 56 3d 24 88 8e 3d e4 1d 84 bd
       0.042674117 0.05229792 0.069595605 -0.06451014
0000f0 93 92 8a bd 22 9c eb bc 24 fd 22 3d 00 d2 56 3d
       -0.06766238 -0.028760973 0.039792195 0.052446365
000100 32 60 0e 3d 06 97 18 3d 02 68 91 3d e0 77 5d 3d
       0.034759708 0.037253402 0.07099916 0.0540694
000110 a4 f4 45 3d 38 09 90 bd 30 5f 7b bc e0 e1 76 3b
       0.04832901 -0.07033008 -0.015342519 0.0037671253
000120 be 38 0c 3d 40 55 c6 3b 98 f1 02 3d 6e 67 a6 bd
       0.0342338 0.006052643 0.031968683 -0.081251964
000130 28 2d 91 3d ac 3e 9d bd 5e 01 86 3d 04 42 a6 3c
       0.07088691 -0.07677969 0.065432295 0.02029515
000140 c0 05 e3 3b a8 5e 4f 3d 46 4d 0e 3d 24 b6 91 3c
       0.0069281757 0.05062738 0.034741662 0.017787047
000150 f4 4a 83 3d 1e 18 82 3d d4 14 94 3c f0 2e 94 3d
       0.064107805 0.06352256 0.018076338 0.07235515
000160 dc 56 29 3d 04 2b c6 3c df 73 66 bd 89 03 93 bd
       0.0413426 0.024190433 -0.056262847 -0.07178409
000170 a3 d5 05 bd dc 03 d1 bc 2c 1d e6 3c b3 36 92 bd
       -0.032674443 -0.025514536 0.028090082 -0.07139339
000180 60 df 03 bb 8e 6b 94 3d 44 cf 62 bd 5d 8b 8c bd
       -0.0020122156 0.07247077 -0.055373445 -0.06862519
000190 b4 55 da 3c 80 08 50 3b 36 b7 9f bd cc f0 51 bd
       0.026652195 0.0031743348 -0.077986166 -0.051255032
0001a0 40 c6 f5 ba c4 14 83 bd 38 7e b7 3c 00 1a 68 b9
       -0.00187511 -0.06400445 0.022399053 -0.0002213493
0001b0 c0 94 99 bb c2 ec 8c 3d 03 fb 4b bd 26 5e d0 bc
       -0.004686922 0.068810955 -0.04979993 -0.025435518
0001c0 04 83 9e 3d cc 5a 20 3d 51 c6 90 bd a2 5d 1c bd
       0.07739833 0.03914909 -0.07069076 -0.038175233
0001d0 ec 3f 29 3d 40 3d 4f 3d 60 1c 2c 3c 46 d0 69 bd
       0.041320726 0.050595522 0.010504812 -0.05708339
0001e0 bc 53 83 bc 80 98 db bb 10 e5 9e bb 75 60 6e bd
       -0.016031139 -0.006701529 -0.0048490837 -0.058197457
0001f0 fd cb 88 bd 1a cd fe bc b0 8f a8 3c 40 bd 96 bc
       -0.06679533 -0.03110366 0.020576328 -0.018400788
000200 32 66 90 bd 38 2e 6f bc 59 f5 48 bd 76 97 9e bd
       -0.07050742 -0.014598422 -0.049062107 -0.07743733
000210 48 84 7d 3d c2 37 30 3d e0 43 de bc 70 06 fc 3b
       0.06189373 0.043021925 -0.027131975 0.007691197
000220 d8 dc 78 3d 78 d4 44 3d 2a 37 e7 bc a8 7b 3a 3d
       0.060757488 0.04805419 -0.028224546 0.045528084
000230 1d d0 1e bd 7d e9 90 bd 70 f2 91 bc e8 c6 a1 3c
       -0.03877269 -0.07075784 -0.017815799 0.019748166
000240 98 44 62 3d ed b8 94 bd 11 0c 4c bd a8 9e 05 3d
       0.055241197 -0.07261834 -0.049816195 0.03262201
000250 a2 0c 7f bd 78 4e 51 3c b7 56 0b bd ac 8f e8 3c
       -0.062267907 0.012775056 -0.034018245 0.02838882
000260 08 be 5f 3d 24 90 78 3d 92 c2 d4 bc ef 04 bb 3c
       0.054624587 0.06068434 -0.025971685 0.022829501
000270 89 69 1b bd d8 91 32 3c 2f d4 b1 3c a9 53 22 bd
       -0.037942443 0.01089903 0.021707622 -0.039630566
000280 d3 8a 93 3d a8 bd 7c bc e0 bc 39 bb 51 40 e2 3b
       0.07204213 -0.015426077 -0.0028341338 0.00690464
000290 fd db 5f 3d c0 6b a3 3d 07 1f 36 bd d0 37 5b 3c
       0.054653157 0.07979536 -0.044463184 0.013380006
0002a0 85 e5 b9 3c 6c d1 ce 3c cf 88 6d bd 5d dc ab 3d
       0.022692451 0.025246345 -0.0579918 0.0839164
0002b0 40 53 9d bb b8 55 97 3c 41 db fe bb 66 28 b8 3c
       -0.004801184 0.018473491 -0.007777602 0.022480201
0002c0 9c e1 10 bd d0 92 a2 bb e3 f6 3a bd 91 75 c0 3d
       -0.035371408 -0.004961349 -0.045645606 0.09397424
0002d0 e4 17 eb 3c bd 46 80 bd 38 13 51 3c cc 74 74 3d
       0.028697915 -0.06263492 0.01276093 0.0596817
0002e0 17 c6 68 bc c6 f8 2d bd 84 e6 00 3d 45 e6 68 3d
       -0.014207385 -0.042473577 0.031469837 0.056860227
0002f0 c2 c8 b9 3d 6b 8f a5 3d 30 fb 36 3c a0 5d 2f 3d
       0.09071495 0.080839954 0.011168286 0.042813897
000300 e2 42 1b bd c8 df 2b 3b 95 4c 58 3d d4 52 60 3d
       -0.03790558 0.0026225913 0.05280741 0.05476649
000310 e0 64 64 3d b1 1b 06 bd 35 ec fc 3c 65 5b 3f bd
       0.055760264 -0.032741252 0.030874351 -0.04671802
000320 6e e2 3c 3d e6 4e 2b bc 06 8a 6a bd e2 98 e4 bc
       0.046114378 -0.010455823 -0.057260536 -0.027904931
000330 41 3d 78 bc 66 c8 a2 3d 3f 72 33 bd 16 bf 2c bd
       -0.015151323 0.07948379 -0.043810125 -0.04217442
000340 af c1 0e bd 04 af 76 bd a4 9e 8d 3d c6 22 56 3d
       -0.03485268 -0.0602255 0.06915024 0.052279256
000350 b6 0e 9e 3c b6 e1 ec bc c8 26 6f 3d 0a 77 57 bd
       0.019294124 -0.028916221 0.058386594 -0.05260376
000360 7e e1 69 bd 88 62 69 bc f3 83 7d 3d 1c d5 33 3d
       -0.05709981 -0.014244683 0.061893415 0.04390441
000370 82 63 0c 3d 88 f4 83 3c 4b 63 5d 3d 61 02 7e bd
       0.034274586 0.016107813 0.05404977 -0.062013987
000380 52 4b 9e 3d 24 e5 85 3d 80 29 d5 3a 14 b0 c6 bc
       0.0772921 0.06537846 0.0016262978 -0.024253882
000390 4a 30 a5 3d 09 4a a0 bc 06 99 2e 3d 30 ea 20 bc
       0.08065851 -0.019566553 0.042626403 -0.00982146
0003a0 8c 5c 15 3d e4 1c 96 bd 20 d0 aa 3c a5 77 20 bd
       0.036465213 -0.07329729 0.020851195 -0.039176602
0003b0 9c ee bd 3c 87 43 22 bd c9 d7 60 bd 59 f3 3c 3d
       0.023185067 -0.03961518 -0.05489329 0.046130512
0003c0 f0 ee 86 bb 6c c3 4b 3d 27 a3 30 bd b5 a2 81 bd
       -0.004117839 0.049746916 -0.043124344 -0.06329862
0003d0 e8 46 10 3c 01 0b 38 bd d6 2e f7 bc f2 52 2b 3d
       0.008805968 -0.04493237 -0.0301737 0.04182715
0003e0 ae 0d 67 3d 57 b2 26 3d b4 4c d5 3c 29 6d 6b 3d
       0.05640953 0.040697422 0.026037551 0.05747715
0003f0 4f 2f 3f ba 1e f6 0c 3d d4 f5 d1 bc 54 03 30 bd
       -0.00072931213 0.034414403 -0.025629915 -0.042971924

layer3.bias f4 [100]
000000 00 74 9a b8 08 72 63 bc 76 fd 2f bd 48 af ae 3c
       -7.364899e-05 -0.013882168 -0.04296633 0.021323815
000010 61 42 8f bd 60 aa 0e 3d 00 56 db bb e2 f5 57 3d
       -0.06995083 0.03483045 -0.0066936016 0.052724726
000020 cf ef 27 bc c0 11 83 3a 50 81 91 3c 8c 81 98 bc
       -0.010250046 0.0009999797 0.017761856 -0.01861646
000030 2a 1d 9b bd b7 7f fe bc fe ab 58 bc 82 4e 92 bd
       -0.07573922 -0.031066759 -0.0132246 -0.071438804
000040 f2 1b 91 3d d1 17 8b bc b5 65 e4 3c 77 b8 e2 3c
       0.07085408 -0.01697913 0.027880529 0.02767585
000050 11 40 ce 3c ea 5f 63 bc a0 91 5a 3d 6b e7 0a 3d
       0.025177034 -0.013877848 0.053361535 0.033912104
000060 6f a6 83 3d ba 04 a9 bc 70 c9 76 3c 2b e3 4c bd
       0.06428229 -0.020632137 0.015062675 -0.05002133
000070 3e a1 91 3d 48 a1 35 3c 50 b2 2a bb 80 73 7b bb
       0.07110833 0.011085816 -0.0026046224 -0.0038368404
000080 c7 ed 16 3d c8 c5 d5 3c 6f f8 ff 3c f4 7f 1b 3d
       0.036847856 0.026095286 0.031246392 0.037963822
000090 fc 95 7e bb 95 c6 8b bd 04 a4 5d bd e4 4a 99 3d
       -0.0038846722 -0.06824986 -0.054111496 0.074849874
0000a0 6d 4e 62 bd 98 58 30 3d 1b e2 8d 3d ba 68 c1 3d
       -0.055250574 0.04305324 0.06927892 0.09443803
0000b0 12 a3 55 3d d8 c4 05 bc 9b a0 1f bd a9 c8 08 bd
       0.05215747 -0.008164607 -0.038971525 -0.03339449
0000c0 c0 23 78 3d 44 ec cd bc 72 a7 21 3d c6 aa de bc
       0.06058097 -0.025137074 0.03946633 -0.02718104
0000d0 7c 4f b9 3d 15 2b 07 bc bd eb 52 3d bb 61 6c bd
       0.090483636 -0.008250018 0.05149435 -0.05771039
0000e0 6a 0b 06 3c 84 46 67 3d 37 d4 9d 3d b3 63 8d bd
       0.008181432 0.056463733 0.077064924 -0.06903782
0000f0 4c f9 53 3d 00 89 2a bc a8 e1 07 3c d6 4b 1d 3d
       0.05175142 -0.01040864 0.008293547 0.0384024
000100 a2 19 8e 3d 24 45 62 3d 64 fe 9e 3d 38 7b a8 bd
       0.06938483 0.05524172 0.07763365 -0.08226627
000110 7e 2c 4d 3d 95 89 0f bd 00 3e 8c ba f8 6e e1 3c
       0.05009126 -0.035043318 -0.001069963 0.027518734
000120 c9 e8 1e bc 06 68 95 3c c8 b0 ac bc 19 e6 74 bd
       -0.009699055 0.018238079 -0.02108039 -0.05978975
000130 50 6d 9a bd aa 38 93 3d 72 e0 86 3d 7c 84 94 3c
       -0.07540381 0.07188542 0.06585778 0.01812958
000140 49 81 02 bd a4 3d ca 3c e2 e1 3b 3b 3c 82 6b 3d
       -0.031861577 0.024687596 0.0028668572 0.057497248
000150 37 c7 a7 3d b6 65 a7 bd a8 be 7b 3d 97 96 8f 3d
       0.08192294 -0.08173697 0.06146112 0.070111446
000160 0c cd 78 3d d8 18 3f 3d 59 ee ca 3b 4b f9 57 3d
       0.060742423 0.046654552 0.006192964 0.05272798
000170 f3 ee a3 3c b0 81 bc bc a8 0d ba 3d ac d3 36 3c
       0.0200114 -0.023011059 0.09084636 0.011158865
000180 0e a2 9e bc 6f c5 de bc d8 c8 66 bc 60 7a 15 3b
       -0.019364383 -0.027193753 -0.014085971 0.0022808537

layer4.weight f4 [80, 100]
000000 6a c0 53 3d d6 e3 cf 3c 52 ea 8f 3d 8a d5 1b bd
       0.051697172 0.025377195 0.07027115 -0.038045444
000010 f4 fc 90 bd a8 83 0e bc a0 b3 b6 3c 24 b2 82 bd
       -0.07079497 -0.0086983815 0.022302449 -0.06381634
000020 0f 9f c3 bd 88 33 93 3c 77 53 86 3d c2 78 54 3d
       -0.095518224 0.017968908 0.065588884 0.051872976
000030 37 1f 9c bd 14 e9 02 bc 8f 74 35 3c df 6c b5 3d
       -0.07623141 -0.0079901405 0.011075153 0.08858656
000040 26 3f 22 3d 02 19 14 3d 57 4f 08 bd d2 fa af bd
       0.039611004 0.03615666 -0.03327879 -0.08592762
000050 90 35 5e bd 48 3a 89 bd 8c 70 a1 3d c1 25 2b 3d
       -0.0542503 -0.067005694 0.07882795 0.04178405
000060 03 d6 a7 bd 82 bd 58 3d d0 db 1c bd 7a 2d 17 3c
       -0.08195116 0.052915104 -0.038295567 0.009227151
000070 3c 47 f1 3c a0 2e 88 3c dc 5c 69 3d a8 50 5f 3c
       0.029452913 0.016623795 0.056973323 0.01363007
000080 6a 7a d3 bb f3 46 b6 bd 44 7e e5 bc de fc c2 bc
       -0.006453802 -0.08900251 -0.02801431 -0.023802217
000090 12 8f a7 bd 74 a9 e1 bc 80 ed 5b 3a 02 fa 1a 3d
       -0.08181585 -0.027546622 0.0008389577 0.037836082
0000a0 42 3c 73 3c 5c f0 35 3d 52 5a a8 bd 3b 1f ab bd
       0.01484591 0.044418678 -0.08220352 -0.08355566
0000b0 19 75 bc 3c c6 d2 21 3d 84 21 81 bd 93 e8 92 3d
       0.023005055 0.03950765 -0.06305221 0.07173266
0000c0 f0 14 6e 3c d2 5f af bd c7 4a 1d bd 1b 7a 83 3d
       0.014531359 -0.08563198 -0.03840139 0.06419774
0000d0 5a e5 fc bc 5f 84 18 3d b0 74 80 bd 3b 4e 80 3d
       -0.030871082 0.037235614 -0.062722564 0.06264921
0000e0 c4 b6 aa bd 86 62 4f bd e8 32 98 bc 51 59 67 3d
       -0.08335641 -0.05063107 -0.018578961 0.056481663
0000f0 70 ae 6a bd e7 88 3e bd 20 40 b1 bd 7f 46 a5 3d
       -0.057295263 -0.04651728 -0.08654809 0.08070087
000100 c9 bf 00 bd 21 20 c8 3d 9f 6b 90 3d 95 cf 23 3c
       -0.0314329 0.09771753 0.07051777 0.009998222
000110 7a a1 17 3d 13 19 dd 3a 6d 79 3d bd 45 e8 a5 3d
       0.03701923 0.0016868435 -0.04625838 0.081009425
000120 63 38 ce bc 33 4a a5 bc e2 71 01 3d 79 48 c7 bd
       -0.025173372 -0.020176983 0.031602748 -0.0973062
000130 da 8b 85 bd 87 f0 5d bd d8 a9 c1 3c 9d 7a 37 bd
       -0.06520815 -0.054184463 0.023640558 -0.044794668
000140 df a5 a9 bd 98 f6 fe bc 38 79 14 3d bd 5e 95 bd
       -0.082835905 -0.031123444 0.036248416 -0.072934605
000150 1d 1b 1c 3d eb db 1d bd 8a fc bf bd ab c9 38 3d
       0.038111795 -0.03853981 -0.0937434 0.0451142
000160 c3 57 2b 3d 1a 38 28 3d ac 36 9c 3d e8 71 a3 3d
       0.041831743 0.041069128 0.07627615 0.0798071
000170 9e 1e 46 3d 00 2c 75 3c 85 bc ad bc 8e 06 5b 3d
       0.048369043 0.014964104 -0.021208057 0.053473048
000180 50 7f 1e 3c 39 78 a3 3d 28 3b 97 3c 91 7f 9d 3d
       0.009673908 0.07981915 0.018460825 0.07690347
000190 cb aa 88 3d a4 90 e1 3c 6a 54 b9 bd 50 85 50 bc
       0.06673201 0.02753479 -0.09049304 -0.012727097
0001a0 8d fe 82 bd 7f 1d 8e 3d 04 e8 d0 3c 04 1d 01 bd
       -0.06396208 0.0693922 0.025501259 -0.031521812
0001b0 73 d9 ad bd d9 9b 94 3d b1 8f b1 3d 0a 00 3d 3d
       -0.08488741 0.07256288 0.08669985 0.046142615
0001c0 44 77 f9 3c bb 64 ab bd 22 e1 4e 3d 9b 4a b7 3d
       0.030452378 -0.08368822 0.050507672 0.08949777
0001d0 02 1f 52 3d ec 80 c6 3c 79 ef b2 3d b0 e6 62 bc
       0.051299103 0.024231397 0.08737082 -0.0138489455
0001e0 74 c9 e4 bc da 7b 95 bd 17 d2 24 bd 72 08 22 3d
       -0.027928092 -0.072990134 -0.04023942 0.039558835
0001f0 60 71 c0 bc 79 9a a4 3d 02 96 58 3d 08 dd 92 bc
       -0.023491561 0.08037276 0.052877434 -0.017927662
000200 0d 1c 85 3d 6c 76 d3 3c d3 b4 a7 3d c5 0b c4 bd
       0.06499491 0.025813304 0.08188786 -0.09572557
000210 17 fe 36 bd 30 7f a4 bd 18 76 f6 bc 8d f3 ac bd
       -0.044675913 -0.080320716 -0.030085608 -0.08444891
000220 98 24 a3 3c dd 88 93 bd aa 5c 2b bd ff e4 9f 3d
       0.01991491 -0.07203839 -0.04183642 0.078073494
000230 c9 89 9d 3d 2d d1 86 bd cd 0f b1 bd 80 54 d2 3b
       0.07692296 -0.06582866 -0.08645592 0.0064187646
000240 da f0 ae bd a0 65 41 bd ef f6 99 3d cc 81 ce bc
       -0.085420325 -0.047216058 0.07517802 -0.025208376
000250 1e 61 83 bd cd 10 b7 bd b3 3a 69 bd cd eb 26 bd
       -0.06415008 -0.08938751 -0.056940746 -0.04075222
000260 b5 ad b3 bd 70 95 0b 3c 80 65 56 3a c0 a9 07 3c
       -0.08773366 0.008519515 0.0008178577 0.008280218
000270 f2 cc 60 3d fa 8d a9 bd 62 a9 5f 3d 71 59 96 3d
       0.05488295 -0.08279033 0.054604895 0.07341278
000280 4c 27 9a 3c 9a 19 35 bd 78 ae f6 bc 9e ac 59 3d
       0.018817566 -0.04421387 -0.03011249 0.053143136
000290 e2 b1 b0 bd 48 f7 b9 3c 0a 61 14 3d 12 47 25 3d
       -0.086276785 0.02270092 0.036225356 0.04035098
0002a0 17 0e c9 3d 60 a1 bd 3c 29 5f c3 3d 97 4b 65 bd
       0.098171405 0.023148239 0.09539635 -0.05598029
0002b0 0c c8 d8 bc 35 c7 88 bd 3d 19 b4 bd 01 c6 be 3d
       -0.026462577 -0.06678621 -0.08793876 0.0931511
0002c0 67 4f 68 bd b3 59 3a bd 87 aa 61 bd 50 35 76 bd
       -0.05671635 -0.0454957 -0.05509427 -0.060109437
0002d0 00 0a 4f 39 0c 7b bd 3c 70 fa 5e bc 33 f2 3e bd
       0.00019744784 0.023129962 -0.013609514 -0.046617698
0002e0 00 b8 9b 38 a6 a3 4e 3d d0 16 4a bc 17 35 20 bd
       7.4252486e-05 0.050449036 -0.0123345405 -0.03911313
0002f0 46 ed 4b 3d a7 29 6f bd 00 23 e3 39 48 d7 ad bd
       0.04978683 -0.058389332 0.0004332289 -0.08488327
000300 89 3e 80 3d 5e 5f 53 3d 6a cc 2f bd 48 f4 bb bd
       0.06261928 0.05160462 -0.042919554 -0.09177452
000310 d3 85 27 bd 14 46 d5 bc b7 74 c6 3d a9 d9 a3 3d
       -0.04089911 -0.026034392 0.0969023 0.080005
000320 a8 3f 96 3c 45 58 90 bd 40 e7 d6 bc b0 00 2f bd
       0.0183409 -0.07048086 -0.026233315 -0.042725265
000330 98 2e 41 3c a7 a2 62 bd 32 76 2d 3d 10 f9 27 3c
       0.011790894 -0.0553309 0.042349048 0.010252252
000340 4e c2 a6 bd c0 fa 21 bb ff b2 b9 bd 9c 57 8a bd
       -0.081425294 -0.002471611 -0.09067344 -0.067549914
000350 a9 77 8a 3d 2e d1 3a 3d d3 7c 62 bd 40 d1 be ba
       0.067611046 0.045609646 -0.055294823 -0.0014558211
000360 70 4a 31 bc 8b 18 ba bd 6b 80 b9 bd 28 6c c4 bd
       -0.01082097 -0.090867124 -0.09057697 -0.09590942
000370 f6 fe 11 3d ae ba 33 3d 05 9a a4 3d 50 ac 7f bc
       0.03564354 0.043879203 0.080371894 -0.015605047
000380 f7 fd b4 3d 47 3d 57 bd 50 08 bd 3b fe 0b 97 bd
       0.088375024 -0.052548673 0.005768813 -0.07375334
000390 45 96 c6 bd 9c b1 e2 3c 5d 8d 2f bd 93 49 a4 bd
       -0.096966304 0.027672581 -0.042859424 -0.08021846
0003a0 83 29 99 bd 85 37 96 3d c0 76 36 bb 98 91 b3 3c
       -0.07478621 0.07334808 -0.0027841777 0.02192001
0003b0 30 d0 5d bd 1a 2d 9b bd 11 d1 c7 3d 00 36 29 bb
       -0.05415362 -0.07576962 0.09756673 -0.002581954
0003c0 44 c8 05 bd ec fa 86 3c 93 8d 80 3d 9f 5f c5 bd
       -0.03266169 0.01647707 0.06277003 -0.09637379
0003d0 1d e2 60 bd 23 bd 69 bd 72 cf 7d 3d 60 f2 2b bd
       -0.05490314 -0.05706514 0.061965413 -0.041979194
0003e0 b6 3a 10 bd 5d 83 93 bd 42 ad b0 bd 40 5e 3e 3c
       -0.03521224 -0.0720279 -0.08626796 0.011619151
0003f0 27 ce b0 bd 98 92 86 bc 06 70 a2 bd 6c 3f cb 3c
       -0.086330704 -0.016427323 -0.07931523 0.024810515

layer4.bias f4 [80]
000000 e0 c6 a9 bd c0 7b 7d 3c e2 6c 5a 3d cc 13 36 3d
       -0.082898855 0.015471399 0.053326495 0.044452474
000010 f6 af 84 bd 2b f0 e6 bc db e6 46 bd 3c c2 8b bc
       -0.064788744 -0.028190693 -0.048560005 -0.017060392
000020 df 4d 8e 3d 93 f4 4a bd b0 d9 a1 3d 50 be 8c 3d
       0.069484465 -0.04954965 0.07902849 0.06872237
000030 cd 69 8f 3c 26 ec 4d bd f0 ac a5 3d fc 12 df 3d
       0.017506504 -0.050274037 0.08089626 0.10892293
000040 b7 44 d3 3d 5e 44 6c bd 8d ea 96 3d 6a 65 80 bd
       0.10315841 -0.057682388 0.07368956 -0.06269343
000050 00 41 45 ba 3d 51 88 bd cc 92 eb 3c aa 87 6d bd
       -0.00075246394 -0.0665612 0.028756522 -0.057990707
000060 74 2d 40 3b ee 58 ab bd f6 96 87 bd ec 88 a0 bd
       0.0029323967 -0.08366571 -0.066205904 -0.07838616
000070 75 ea 55 bc dd 1a 3f bd 0e f3 88 3d 02 1e 21 3b
       -0.013056387 -0.04665648 0.06686984 0.0024584536
000080 83 fc cc 3d ff 3c 5b bd a0 f7 2d 3b 70 b7 af bd
       0.100091 -0.053524967 0.00265453 -0.0857991
000090 7a a8 36 bd 4a b4 d2 bd 68 d3 a9 3c 8f 99 ad 3d
       -0.044594266 -0.10288294 0.02073069 0.084765546
0000a0 05 39 9a 3c 0c ab 4c 3d 0e a6 4b 3d 02 22 53 bd
       0.018826017 0.04996781 0.04971891 -0.051546104
0000b0 d7 72 a3 3d ac de ac bd 95 ba 4e bd 5e 36 b7 3d
       0.07980888 -0.08440909 -0.050470907 0.089459166
0000c0 1c 60 09 bd 1b 54 07 3d 05 83 93 3d c7 b9 6e 3d
       -0.033538923 0.033039194 0.07202724 0.05828264
0000d0 c8 36 da 3b eb 6b 5e 3c 33 50 71 3d c0 e3 9d bd
       0.0066593625 0.013575534 0.058914375 -0.077094555
0000e0 78 b9 c7 bd b8 ae 65 3c 76 2d cc 3d 59 a9 25 3d
       -0.09752172 0.014018707 0.099696085 0.040444706
0000f0 4c f6 90 bc ef 5e 91 3d 93 d2 b1 3c 63 46 24 bd
       -0.017695569 0.07098185 0.021706855 -0.04010619
000100 d0 f2 21 bc 72 e7 59 3d f7 c4 4a bd 04 ad 16 bd
       -0.009884551 0.05319924 -0.049504247 -0.036786094
000110 55 c0 23 bd 90 28 b0 3d 6a 9f 4d 3d 4b 2d 69 3d
       -0.039978344 0.08601487 0.050200857 0.05692796
000120 a9 96 c1 3d 1e ae 6b 3d 58 2d ae 3c 1b 4e 7f bd
       0.09452564 0.057539098 0.021261856 -0.062330347
000130 36 2a a5 bc 10 32 26 bc 50 1f 66 3d 8b 07 28 bd
       -0.02016173 -0.010143772 0.056182206 -0.04102282

layer5.weight f4 [60, 80]
000000 00 fa fc 39 d8 ac b7 3d de e3 a6 bd b5 58 a3 bd
       0.0004825145 0.08968514 -0.08148931 -0.07975904
000010 29 3b 21 3d 70 46 cc 3c 0e a1 72 bd 7c 46 9a bd
       0.03936306 0.024935931 -0.059235625 -0.07532975
000020 7c 54 de bc 92 c2 c9 bd e6 03 83 bd 4e 0b 81 3d
       -0.027139895 -0.098515645 -0.06397228 0.06300984
000030 10 4f 54 3a 4b f1 1f bd c9 20 cf bd 4c d8 20 bd
       0.00080989394 -0.039048474 -0.10113675 -0.039268777
000040 70 4c 12 bd af 12 2b 3d a1 f0 75 bd 40 a0 b7 bd
       -0.035717428 0.041765865 -0.060043935 -0.08966112
000050 be 4e 2c bd c0 37 1a 3b d2 f4 11 bd c1 fa c8 bd
       -0.042067282 0.0023531765 -0.03563387 -0.098134525
000060 58 9d 39 3d 90 a7 5a 3d 6e 23 d4 3d ed d8 18 bd
       0.04531607 0.053382456 0.1035832 -0.03731625
000070 d8 f4 e3 3c a3 0a ad bd 06 a0 13 3d c4 44 2f 3d
       0.027826712 -0.084492944 0.036041282 0.04279019
000080 b1 70 07 3d 89 f6 d7 bd 26 7b e1 3d 97 8d 31 3d
       0.033066455 -0.1054507 0.11009817 0.04334792
000090 7a 46 78 3d ed 57 51 bd 82 35 b5 3d ec a7 b1 bd
       0.060614087 -0.051109243 0.088480964 -0.08674607
0000a0 78 34 fe 3c cf 9d 08 bc 6b aa 95 bb 7d 95 3b 3d
       0.031030878 -0.008338406 -0.0045674345 0.04579686
0000b0 18 6a ab 3d e6 de 8b bd 13 f2 c5 3d 0f d5 a2 3d
       0.08369845 -0.06829624 0.096653126 0.07950794
0000c0 4e ad d8 3d 78 d7 cb 3d ce b0 09 bd 85 29 e1 3d
       0.1057993 0.09953207 -0.03361588 0.10994247
0000d0 bc 62 53 bd e0 65 4f 3d 58 51 d4 3d 50 19 91 3d
       -0.051607832 0.050634265 0.103670776 0.07084906
0000e0 80 c7 9b 3d 55 33 9d bd 52 a5 aa bd 06 69 14 bc
       0.07606411 -0.076758064 -0.083323136 -0.009058243
0000f0 81 9b e0 bd f5 cf 0e 3d af ab b0 bd a4 ed d7 3d
       -0.1096716 0.034866292 -0.08626496 0.10543373
000100 d8 72 28 3d d0 77 04 3c 08 2c e3 3c 96 51 dd bd
       0.04112515 0.008085206 0.027730957 -0.10806577
000110 5e d5 df 3d b5 89 b2 3d 7c 56 d9 bc bd 8a 84 bd
       0.109293684 0.08717672 -0.026530497 -0.06471775
000120 3d db f9 bc 56 65 89 bc 58 b9 44 3d 9b fa 85 bd
       -0.030500049 -0.016771954 0.04802832 -0.0654194
000130 d4 25 4b bd cc ad 5e 3d d0 68 12 bc 25 bd 3c 3d
       -0.049596623 0.054364964 -0.008936122 0.04607882
000140 4a 33 b2 bd 32 97 2e bd 42 d1 38 bd 3b 8d 83 bd
       -0.08701189 -0.04262466 -0.04512144 -0.06423422
000150 50 a1 b0 3d f1 04 d3 bd e8 03 f9 bd 1e 0e 64 bd
       0.08624518 -0.10303677 -0.12158948 -0.055677526
000160 61 f9 cb 3d 58 55 26 3c 8e 3f 84 3d f7 b4 c1 3c
       0.099596746 0.0101521835 0.064574346 0.023645861
000170 b9 88 2f 3d 33 74 aa 3d 54 5d cb 3a ec a2 21 bd
       0.042855 0.083229445 0.0015515485 -0.039462015
000180 9a 57 46 3c fc fc 38 3d 2c 9c 85 bd fc 8b da bd
       0.012105847 0.04516314 -0.06523928 -0.10671231
000190 ee 5a 91 bd a3 26 da bd c2 9f bd 3d 9e e9 3c bd
       -0.070974216 -0.106519006 0.09258987 -0.046121232
0001a0 e9 92 a4 3c ca fe bc 3d f8 06 2f bd 0c 25 ab 3b
       0.020089583 0.09228285 -0.042731255 0.005222922
0001b0 60 ae bd 3d 08 61 eb bc 06 8d ae 3d 43 b7 2e bd
       0.09261775 -0.028732792 0.08522992 -0.04265524
0001c0 86 b4 b4 bd 44 49 a8 3d d7 09 6d bd bb df e9 bb
       -0.088234946 0.08217099 -0.057870712 -0.0071372665
0001d0 ae ec 86 3d c7 dd cc 3d 2c 7e e2 bd e5 e9 bc bd
       0.06588112 0.10003238 -0.110592216 -0.09224299
0001e0 9c b1 48 3d 69 ea e2 bd d1 a6 80 bd 11 a5 d4 3c
       0.048997506 -0.110798664 -0.06281818 0.025957616
0001f0 15 36 ce bd 52 09 9d 3c 7b 5f 8f bd bf b1 b2 3d
       -0.10068909 0.019169483 -0.07000633 0.087253086
000200 8a c1 99 3d 10 72 85 bd 83 d6 60 bd 79 da 74 bc
       0.07507618 -0.06515896 -0.054892074 -0.014944666
000210 19 f4 81 3d aa ef 8b bc 00 09 09 bc bc 19 68 3d
       0.06345386 -0.017082054 -0.008363962 0.056665167
000220 b4 66 3a 3d 04 15 d2 3c 82 3b 95 bb 1e a7 88 bc
       0.0455081 0.025644787 -0.004554213 -0.01668125
000230 28 ad 8c 3d 68 1f 4f bd 3c 08 02 3b ea ec e1 3d
       0.068689644 -0.05056706 0.0019841334 0.11031516
000240 00 f7 d0 3c f4 b1 c1 3d a0 e9 7d bb de 39 cb bd
       0.025508404 0.0945777 -0.0038743988 -0.09923147
000250 22 9a 6e bc 93 2c ac bd 7a 5b 81 3d 1f b7 55 bd
       -0.014563115 -0.08406939 0.06316276 -0.05217659
000260 28 39 87 bc d4 5c 6b 3d 28 bc 43 3d 8c 88 4f 3d
       -0.016506746 0.057461575 0.04778686 0.05066733
000270 ca 30 b8 bc 34 df 14 3d f0 75 e7 bd af 62 75 bd
       -0.022484202 0.036345676 -0.11301792 -0.059908565
000280 cb 59 6a bc 30 bb 48 3c f0 fb 37 bd 62 8f 96 3d
       -0.014303635 0.01225166 -0.044918 0.07351567
000290 17 45 81 3d a8 02 86 bd 23 e7 a9 3c 85 c4 c7 bd
       0.06312006 -0.065434754 0.020740097 -0.0975428
0002a0 02 b5 97 bc fa 1e ab bd fa a6 c4 3d ad be 48 bb
       -0.018518928 -0.08355518 0.09602161 -0.003063123
0002b0 e9 a6 ad 3d 8c fb 54 bd 9c de 48 bd 80 43 38 3d
       0.08479101 -0.051997706 -0.04904042 0.044986248
0002c0 8a 3a cc 3d 18 3e af 3d 08 87 ac 3d c0 a7 c1 bd
       0.09972103 0.08556765 0.08424193 -0.09455824
0002d0 ae 58 32 bd 26 fd bc 3d 1c 8e a5 bd 09 d7 51 bd
       -0.043541603 0.09227972 -0.08083746 -0.051230464
0002e0 46 c7 32 bd 58 d6 d8 bc 29 64 74 bd 4d 12 a8 3c
       -0.043647073 -0.026469395 -0.059665833 0.020516539
0002f0 ad aa d3 bd 92 32 da 3d e2 12 55 3b df f4 dd bd
       -0.10335288 0.10654177 0.0032512476 -0.10837721
000300 e5 c6 e9 3d 52 5c 95 bd 34 bc 3a 3d 25 9b c0 3b
       0.11414889 -0.07292999 0.04558964 0.0058778697
000310 3e f9 ad 3d 1f 37 c1 3d 2b a3 c9 bd f0 66 fb 3c
       0.08494805 0.09434342 -0.09845575 0.030688733
000320 94 2f 17 bd e1 0c 85 3d 0b 90 dc 3d cd e4 f7 3d
       -0.03691061 0.06496597 0.107696615 0.12104187
000330 f6 22 39 bc 79 73 94 bd 86 f7 85 3c a1 a1 af 3d
       -0.011299839 -0.07248587 0.01635338 0.0857575
000340 77 e8 18 3d e7 9a 8e bd f8 28 94 bd 20 47 66 bc
       0.03733107 -0.06963139 -0.07234377 -0.014055043
000350 67 a8 e6 3c ef e5 a4 3d 9b 16 c7 3c ce ff e5 3d
       0.028156472 0.08051669 0.024302771 0.112304315
000360 40 c2 07 bc 56 d4 72 bd 34 8e 6e 3d 20 c1 98 3d
       -0.008286059 -0.05928453 0.058241084 0.07458711
000370 51 19 d5 bd aa 6c 3c 3d f8 a0 5d 3d 40 e6 98 3c
       -0.10405219 0.046002068 0.05410859 0.01866448
000380 65 01 db bd 58 97 e4 bd d0 7f dd 3c a3 ee e0 3d
       -0.10693625 -0.11161679 0.027038485 0.10983016
000390 89 58 1f 3d 82 09 bc bd 41 3f 65 bd a4 41 e8 3d
       0.038902793 -0.09181501 -0.055968527 0.11340645
0003a0 29 55 b9 bd 31 04 87 bd ea 3e c6 3d 5e 1c dd bb
       -0.09049446 -0.06592596 0.09679969 -0.0067477664
0003b0 bf b2 5f bc 74 1b dd bd c6 d6 df 3d 43 e6 ab 3d
       -0.013653456 -0.10796252 0.10929637 0.08393528
0003c0 48 c6 c2 bd 00 d5 4d bc 66 c2 9b 3d 30 f5 c5 3d
       -0.095104754 -0.01256299 0.07605438 0.096659064
0003d0 ab 75 98 3d a1 2c bf 3c f5 52 b8 3d 5e e2 28 3d
       0.074443184 0.02333671 0.09000198 0.041231506
0003e0 fa f2 73 bd 58 2e 8e bd 68 6c 18 bd 3e 50 8b bc
       -0.059557892 -0.06942433 -0.03721276 -0.017006036
0003f0 dd a9 fb 3d 05 42 c5 3b be 4c 2c bc d6 22 a5 3c
       0.12288258 0.006019833 -0.010516344 0.020158213

layer5.bias f4 [60]
000000 fd 03 b6 bc 01 ce 04 3d bc 23 dc 3d 3c 25 a6 3d
       -0.022218699 0.032423023 0.10749003 0.08112571
000010 81 64 70 bd c8 27 a5 3c 52 38 97 3c 4f 29 be bd
       -0.058689598 0.02016057 0.018459473 -0.09285223
000020 89 69 ca 3d 1b fd 7b bd e0 42 f1 3c e2 86 81 3d
       0.098834105 -0.061520677 0.029450834 0.06324555
000030 cd 40 16 3d 1a 7a cb 3d f1 3c 73 3d 89 a6 34 bd
       0.036682893 0.099353984 0.05938429 -0.044104133
000040 a7 bb dd 3d 15 77 b9 bd 8e 3f 85 bd c9 e7 fb 3c
       0.108268075 -0.09055916 -0.06506263 0.030750172
000050 17 3e 9c 3d 8e 85 a0 bd 00 33 cf 3b b2 71 d4 3d
       0.0762903 -0.078379735 0.0063232183 0.10373248
000060 d4 43 11 3d 6c 5e 94 3d 43 4f 92 bd 32 5a d2 b7
       0.035465077 0.07244572 -0.07144024 -2.5075951e-05
000070 f4 87 77 3d 5d 4d 49 bd a3 71 d0 bd e7 9c d9 3d
       0.06043239 -0.049146045 -0.101779245 0.1062563
000080 7e 67 3d bd 73 3d c0 3d e3 1e b7 bb dd 20 9c bd
       -0.046241276 0.093867205 -0.005588399 -0.07623456
000090 5e 57 f1 bc d1 10 02 bd 50 e7 bf 3d 4e 31 9b bc
       -0.029460605 -0.03175432 0.09370291 -0.018944409
0000a0 b2 a2 d2 3d cd 2e c5 bc d4 fd c5 3d 3d 7f c6 3d
       0.10284938 -0.024070168 0.096675545 0.096922375
0000b0 34 53 e0 bd 44 c7 dd bd 7b 91 67 3d 4b d5 e5 bc
       -0.1095337 -0.108290225 0.056535225 -0.028055808
0000c0 1e ea b4 3d c5 ac 30 bc 55 ba ef bd e8 73 35 bd
       0.08833717 -0.010783379 -0.11705462 -0.04429999
0000d0 17 20 3d 3d 1c 7e be 3d b7 82 f5 bc 10 e9 80 bd
       0.04617318 0.09301397 -0.029969556 -0.06294453
0000e0 f4 54 59 3d cf 5e ad 3c 70 34 72 bd e2 d9 cc 3d
       0.053059533 0.021163372 -0.05913204 0.10002495
