saved_models/model_MSFT.pt (torch_old, 190423 bytes, 15 tensors)

layer1.weight f4 [100, 5]
0.21867594 0.09395029 -0.08698003 0.1309968 -0.23059975 0.40358028 0.038518522 0.29196468
-0.279938 -0.21068537 0.3953032 -0.033281755 0.06435773 0.1454397 0.33922726 0.14461686
-0.27284673 0.33572876 0.14876185 0.35471287 0.24868979 -0.40020317 0.0051188553 0.22102717
0.19013824 -0.28828853 0.3153208 0.024645284 0.0060860394 -0.22592528 -0.08434982 0.1642851
0.4166765 -0.24963282 -0.03951537 0.092323005 0.12436038 0.21063721 -0.36741558 -0.27979222
-0.13816842 0.17485642 -0.015384555 -0.28226408 -0.13061711 -0.10981915 0.055657145 0.15763049
0.38456175 -0.26071885 0.3696326 -0.050326645 -0.3428458 0.015821874 -0.16451204 0.40078303
0.12611194 -0.32888734 -0.2539947 0.07051775 -0.088080615 -0.04601165 0.32564902 0.29229712
0.40691626 -0.40267715 -0.13892046 0.36891127 -0.22010425 -0.23285627 -0.058086284 -0.25300854
-0.041753996 0.41069505 0.13572386 -0.2127287 0.15471339 -0.22123414 0.1458866 -0.10233626
0.30317214 0.05414077 0.46710745 0.37104803 -0.39311367 0.31569454 0.3568075 -0.37673208
0.28344634 0.26981974 -0.37781712 0.1121791 -0.43547878 -0.030689597 -0.35321715 0.21214727
0.41308156 0.4530158 0.22454485 -0.25068876 0.14799666 -0.27243596 0.3078302 0.245761
0.045939688 0.00021929322 0.3787846 -0.058214366 -0.11344089 -0.3681722 0.118365124 0.17752889
0.21443859 -0.24796923 0.24158901 0.04238677 0.3392402 -0.23047183 -0.3592298 0.16722047
-0.09779653 0.020747602 -0.15500584 -0.22659078 -0.0879668 0.30650145 -0.05658096 -0.06750084
0.07016318 0.2564445 -0.34997594 0.14596885 -0.34817645 0.24097228 0.1421237 -0.28476298
0.19285029 0.2635454 -0.16919824 -0.3351874 0.016164634 0.140125 -0.15139697 0.41735747
0.09689654 -0.2370756 0.42710012 0.12510677 0.24564539 -0.20248716 -0.0958872 0.23600984
-0.28347164 0.010918369 0.42363486 -0.17595856 0.049230024 0.44120178 0.41934094 0.108685635
0.39875865 -0.05935637 0.2640662 0.34890613 -0.025948111 -0.21861945 0.27821976 -0.15233007
-0.4318273 -0.083762825 -0.4392985 -0.047370553 -0.184477 -0.108187675 -0.24759896 -0.10252139
-0.4334571 0.18969947 -0.27383858 -0.3131755 -0.040326174 0.43453512 0.18888822 0.08815802
-0.07301169 -0.27518272 0.29603738 0.122944295 -0.3954207 -0.30977857 -0.36678195 -0.116520405
0.3484524 -0.23612578 -0.086092144 0.13535264 0.3624704 -0.07187776 0.3281699 -0.13370156
-0.044693854 -0.4008045 0.13692056 0.17919792 0.17701557 0.3571242 0.25381505 -0.17802848
0.46376574 0.020650363 -0.32688752 0.07857972 0.17789349 0.41034183 -0.2121392 0.4709498
-0.069762506 -0.16306497 0.3300137 0.36749467 0.14228229 0.3519188 0.090568125 0.39687335
-0.34243202 0.35515606 -0.015750416 0.19040805 -0.32014775 0.3396975 -0.38259926 -0.25040817
-0.18795332 -0.09690237 -0.026809216 0.009395003 -0.14980096 -0.3958425 -0.06025085 0.3642422
-0.17492238 0.27694094 -0.429767 0.40083414 -0.295815 0.23401482 0.006125537 0.2516404
-0.057836436 0.022339717 0.46554142 -0.09579568 0.46368718 0.3430758 -0.38842234 -0.43632147
00000000: 96ec 5f3e 0269 c03d 9622 b2bd 0624 063e
00000010: 5722 6cbe 13a2 ce3e 99c5 1d3d 657c 953e
00000020: 0954 8fbe e8bd 57be 2e65 ca3e 7352 08bd
00000030: fccd 833d 25ee 143e 32af ad3e 7116 143e
00000040: 91b2 8bbe a4e4 ab3e 0755 183e ed9c b53e
00000050: 89a8 7e3e 6ee7 ccbe 12bc a73b f254 623e
00000060: 99b3 423e 8e9a 93be ba71 a13e e8e4 c93c
00000070: 666d c73b f558 67be 99bf acbd 5a3a 283e
00000080: 9f56 d53e bf9f 7fbe deda 21bd d813 bd3d
00000090: a8b0 fe3d 48b1 573e e51d bcbe ed40 8fbe
000000a0: 067c 0dbe 900d 333e 800f 7cbc eb84 90be
000000b0: 7ec0 05be dde8 e0bd bff8 633d e369 213e
000000c0: 47e5 c43e f17c 85be 7c40 bd3e 5023 4ebd
000000d0: 7c89 afbe e09c 813c d875 28be 6f33 cd3e
000000e0: 7d23 013e ec63 a8be 980b 82be 9c6b 903d
000000f0: 9c63 b4bd b676 3cbd 78bb a63e f8a7 953e
00000100: 5457 d03e b32b cebe 2a41 0ebe f0e1 bc3e
00000110: 0263 61be e071 6ebe e2eb 6dbd 568a 81be
00000120: 3d06 2bbd 9f46 d23e 32fb 0a3e 8dd5 59be
00000130: 306d 1e3e 348b 62be 4c63 153e ac95 d1bd
00000140: 6139 9b3e b6c2 5d3d b528 ef3e 02fa bd3e
00000150: 3246 c9be b7a2 a13e 79af b63e 07e3 c0be
00000160: e11f 913e d025 8a3e 3f71 c1be 28be e53d
00000170: 13f7 debe c068 fbbc e1d8 b4be 223d 593e
00000180: 6d7f d33e b0f1 e73e 16ef 653e 475a 80be
00000190: 708c 173e ba7c 8bbe ec9b 9d3e c6a8 7b3e
000001a0: 412b 3c3d 13f2 6539 0ef0 c13e 3072 6ebd
000001b0: b353 e8bd 1181 bcbe 6a69 f23d 22ca 353e
000001c0: ca95 5b3e a5eb 7dbe 1c63 773e c09d 2d3d
000001d0: e4b0 ad3e cf00 6cbe f8ec b7be d83b 2b3e
000001e0: 8c49 c8bd e0f6 a93c dab9 1ebe 6a07 68be
000001f0: f027 b4bd c2ed 9c3e 70c1 67bd e13d 8abd
00000200: b7b1 8f3d b24c 833e 0c30 b3be dc78 153e
00000210: 2f44 b2be 70c1 763e e088 113e 74cc 91be
00000220: 8c7a 453e 6cef 863e 4e42 2dbe af9d abbe
00000230: b26b 843c ee7c 0f3e cf07 1bbe e1af d53e
00000240: b171 c63d f2c3 72be deac da3e fd1b 003e
00000250: 778a 7b3e cb58 4fbe 8260 c4bd 90ac 713e
00000260: 3223 91be f5e2 323c abe6 d83e 7b2e 34be
00000270: 6ca5 493d 33e5 e13e dbb3 d63e 9396 de3d
00000280: 182a cc3e aa1f 73bd af33 873e d3a3 b23e
00000290: 2291 d4bc c7dd 5fbe d272 8e3e 6afc 1bbe
000002a0: 7818 ddbe d88b abbd bceb e0be a007 42bd
000002b0: 8ae7 3cbe 8091 ddbd 958a 7dbe bcf6 d1bd
000002c0: 17ee ddbe 9440 423e 9234 8cbe 8a58 a0be
000002d0: 0f2d 25bd 637b de3e ea6b 413e 318c b43d
000002e0: 2787 95bd c0e4 8cbe 3692 973e 38ca fb3d
000002f0: 9574 cabe 4c9b 9ebe d8ca bbbe 40a2 eebd
00000300: 5a68 b23e f5ca 71be 1451 b0bd e299 0a3e
00000310: b895 b93e a634 93bd e305 a83e 10e9 08be
00000320: e710 37bd 3f36 cdbe e734 0c3e a97f 373e
00000330: 9243 353e fcd8 b63e 0cf4 813e 194d 36be
00000340: b472 ed3e f32a a93c cd5d a7be 67ee a03d
00000350: b629 363e 5318 d23e 053b 59be 5520 f13e
00000360: a5df 8ebd 81fa 26be 8ef7 a83e 4328 bc3e
00000370: 73b2 113e b32e b43e c87b b93d fc32 cb3e
00000380: 4053 afbe 04d7 b53e 0407 81bc 54fa 423e
00000390: 68ea a3be d5ec ad3e 0de4 c3be 8035 80be
000003a0: d676 40be c074 c6bd 009f dbbc 80ed 193c
000003b0: 6c65 19be deab cabe 98c9 76bd f47d ba3e
000003c0: da1e 33be 34cb 8d3e 6c0a dcbe 223a cd3e
000003d0: 1075 97be 95a1 6f3e bbb8 c83b 03d7 803e
000003e0: e6e5 6cbd c801 b73c 725b ee3e 8730 c4bd
000003f0: 6868 ed3e a2a7 af3e 4bdf c6be 8765 dfbe

layer1.bias f4 [100]
-0.005255524 -0.30312648 -0.3518976 -0.36031052 0.28468245 0.3356123 0.16349792 -0.1754717
0.038463026 0.03550031 -0.29473904 -0.13409556 0.34767717 0.12963694 -0.3795843 0.15344918
0.3075362 -0.30954844 -0.40155527 -0.35507596 -0.060547847 0.2736498 -0.048835967 -0.29722163
0.3589967 -0.26465607 0.0024866462 0.29029226 0.18214896 0.13593735 0.25813496 0.18438858
0.23420501 0.23375309 0.072154045 -0.3864034 -0.14217491 -0.30714697 0.09917623 0.12706147
-0.28953296 -0.20704608 -0.09141814 -0.14299253 0.07242971 -0.089867204 -0.3923566 0.15401214
-0.364797 -0.18694909 0.2045189 -0.17782733 0.40346882 0.34645486 -0.08176097 -0.077873826
-0.18101995 -0.019195946 0.34223884 -0.28666654 -0.046935488 0.057578146 -0.3730889 0.3686663
0.21209681 -0.18897845 0.46222666 -0.39479333 0.07043658 0.21357828 -0.2768053 0.14887786
-0.0073583424 0.17556515 -0.24578811 0.3660289 -0.007077962 0.26773965 -0.42059955 -0.28146547
-0.34772846 -0.33661142 0.26128644 -0.1783706 0.45718333 -0.06584886 0.18186791 0.44730905
-0.36500764 0.3578684 0.3342556 0.20404445 -0.25999945 -0.20342968 0.17132574 -0.38641652
-0.10018204 0.21915728 0.046773136 0.004608069
00000000: 8836 acbb 6533 9bbe ec2b b4be 9f7a b8be
00000010: e6c1 913e 60d5 ab3e 006c 273e daae 33be
00000020: 688b 1d3d c668 113d 09e8 96be 5950 09be
00000030: be02 b23e 8cbf 043e e058 c2be c821 1d3e
00000040: 6375 9d3e 227d 9ebe a798 cdbe 84cc b5be
00000050: 0501 78bd d41b 8c3e 3908 48bd 6f2d 98be
00000060: 6ace b73e 0081 87be 00f7 223b 30a1 943e
00000070: 4285 3a3e 2933 0b3e 442a 843e 5cd0 3c3e
00000080: 70d3 6f3e f85c 6f3e 80c5 933d abd6 c5be
00000090: 4d96 11be 5e42 9dbe e81c cb3d 671c 023e
000000a0: aa3d 94be e303 54be 6f39 bbbd a26c 12be
000000b0: 0756 943d 4c0c b8bd f7e2 c8be 5cb5 1d3e
000000c0: acc6 babe 956f 3fbe 676d 513e 5e18 36be
000000d0: 7793 ce3e 8862 b13e 4c72 a7bd 507c 9fbd
000000e0: 4b5d 39be d140 9dbc ee39 af3e f5c5 92be
000000f0: 6d3f 40bd 10d7 6b3d 8205 bfbe d4c1 bc3e
00000100: e82f 593e 9183 41be f9a8 ec3e 5a22 cabe
00000110: 0e41 903d 44b4 5a3e 6db9 8dbe 7073 183e
00000120: 401e f1bb 5ac7 333e e1af 7bbe 2468 bb3e
00000130: 40ee e7bb 2c15 893e d358 d7be 3e1c 90be
00000140: 7709 b2be 5558 acbe 56c7 853e c8a6 36be
00000150: ef13 ea3e c4db 86bd 953b 3a3e b105 e53e
00000160: 48e2 babe 873a b73e 8d23 ab3e 07f1 503e
00000170: a61e 85be df4f 50be 0470 2f3e 63d8 c5be
00000180: 3e2c cdbd c46a 603e 3095 3f3d 49ff 963b

layer2.weight f4 [150, 100]
-0.023207128 -0.074584864 -0.018939577 0.013396941 -0.03250047 0.076818 -0.00069179386 0.07893818
-0.083070695 -0.090142034 0.050524898 0.025867365 -0.0382442 0.058401234 -0.0186795 0.05933351
-0.022331282 0.09462679 0.08889284 -0.021317884 -0.0897992 0.0019748062 -0.081729375 0.028300293
0.07995274 -0.065869406 -0.0930254 -0.0537333 0.051570855 0.0141182095 -0.036296703 -0.039287902
-0.06898159 -0.06937184 0.023461737 0.04982061 -0.072914325 -0.017678 -0.0015389919 -0.09079069
-0.029072307 0.09951579 -0.033510722 -0.063571185 0.016268194 -0.01805149 -0.09458422 -0.054332305
-0.032616377 0.058876492 -0.007747665 -0.03219147 -0.013100609 0.043438338 -0.024130978 -0.008544862
0.076424666 0.053008623 -0.041159283 -0.016803548 -0.06452332 0.045874886 -0.0806721 -0.074165665
-0.0031715482 0.09719337 -0.0533615 0.05880142 -0.024850488 0.09940464 0.07074752 0.050835736
-0.09480001 -0.050803173 0.06805638 0.09836937 -0.06849812 -0.006790139 -0.025230505 -0.00765685
-0.092741154 -0.09671285 -0.030086659 0.044083305 -0.079431616 0.04998792 -0.03845861 0.015200332
-0.032171585 -0.011015341 -0.09408321 -0.016982973 0.022782445 0.09542782 0.08876706 0.07219922
0.037378542 0.039613806 0.053545617 -0.04092741 0.105842344 -0.056072723 0.0058227777 -0.038664646
0.10815392 0.057420738 0.110049695 0.04824931 -0.047375668 -0.03673896 -0.039312936 0.04646658
-0.06302357 -0.053890504 0.026881585 0.090423845 0.08214166 0.00425778 0.062008463 0.042804644
-0.06689326 -0.09043162 0.103325956 0.09686891 0.06850483 0.09075604 0.07259985 -0.07046856
-0.064203754 0.07912435 -0.002921497 -0.0026228533 0.11349191 0.0014529377 0.08566911 -0.09873076
-0.063034214 0.0022859424 0.005254008 0.056456856 0.07788165 0.000584628 -0.022796009 0.051143758
0.11411333 0.09430616 -0.0023864955 -0.056973603 -0.050333858 0.0010235605 0.06572045 0.00011776388
0.116532564 -0.049347397 -0.05935159 0.05940158 0.1178564 -0.0334028 0.03890545 0.107004814
0.079834536 -0.0054026246 0.08586612 0.008520569 0.079191126 0.0048797047 -0.025176758 -0.019778982
0.06972858 -0.004450895 -0.007976256 -0.08238821 0.09073008 0.11422893 0.031508002 0.034161743
0.06997604 -0.043815788 0.098146416 0.01340308 0.06590449 -0.019207612 0.021202108 0.066586606
0.06248087 0.08612103 -0.029420566 -0.057498895 0.06785291 -0.0004219272 0.09330864 0.046413023
-0.012387015 0.03621676 -0.04651606 0.088751666 -0.024061536 -0.07972582 -0.040517986 0.07340457
-0.06754617 0.0003714785 -0.056719985 -0.036017045 0.054420866 -0.048489463 -0.041067373 0.03884942
0.01960069 0.04861463 -0.038863886 0.021922566 0.054107375 0.010538816 -0.062179398 -0.06729509
-0.042858195 -0.06593703 -0.040827084 0.04794223 0.085689254 -0.049765375 -0.051800694 0.060841925
0.084967114 -0.06178495 0.06795693 0.063980885 0.07807488 0.05782897 -0.012545645 -0.057270493
-0.025730632 -0.056022193 -0.0069247335 0.03930927 0.04720504 -0.029502228 0.08112482 -0.04878206
0.0076029524 -0.08906614 -0.058962848 -0.014432073 -0.08258323 0.023363456 0.08608461 -0.054414988
0.011156939 -0.05601528 0.05999414 0.0025236458 0.018599406 0.07922537 -0.029649556 0.055241548
00000000: e01c bebc f3bf 98bd 2c27 9bbc d87e 5b3c
00000010: 361f 05bd c152 9d3d 8059 35ba 57aa a13d
00000020: f820 aabd 639c b8bd 32f3 4e3d cce7 d33c
00000030: f3a5 1cbd 2236 6f3d c005 99bc b207 733d
00000040: 18f0 b6bc b1cb c13d 730d b63d d8a2 aebc
00000050: a5e8 b7bd c06b 013b bb61 a7bd 04d6 e73c
00000060: 43be a33d 8ae6 86bd 1a84 bebd 7317 5cbd
00000070: f63b 533d 1050 673c daab 14bd 5aec 20bd
00000080: 3846 8dbd d312 8ebd d432 c03c b210 4c3d
00000090: 1b54 95bd 74d1 90bc 00b8 c9ba 78f0 b9bd
000000a0: 0c29 eebc efce cb3d 8a42 09bd 9c31 82bd
000000b0: e044 853c b8e0 93bc 5fb5 c1bd 8d8b 5ebd
000000c0: c098 05bd 7a28 713d 20e0 fdbb 34db 03bd
000000d0: f0a3 56bc 66ec 313d 54ae c5bc c0ff 0bbc
000000e0: 8984 9c3d 921f 593d a396 28bd 98a7 89bc
000000f0: cd24 84bd 4ee7 3b3d 6a37 a5bd 2be4 97bd
00000100: c0d9 4fbb 510d c73d 9791 5abd c2d9 703d
00000110: 4093 cbbc a994 cb3d 13e4 903d 2239 503d
00000120: 8226 c2bd fd16 50bd 2561 8b3d e175 c93d
00000130: be48 8cbd d07f debb 34b0 cebc 50e6 fabb
00000140: 13ef bdbd 6311 c6bd 4c78 f6bc b290 343d
00000150: 0bad a2bd 22c0 4c3d c786 1dbd d00a 793c
00000160: 5ac6 03bd b079 34bc b3ae c0bd e01f 8bbc
00000170: 40a2 ba3c a96f c33d 81cb b53d 2fdd 933d
00000180: 3e1a 193d 1642 223d a652 5b3d 80a3 27bd
00000190: dfc3 d83d 83ac 65bd 00cd be3b d25e 1ebd
000001a0: cd7f dd3d 0232 6b3d bc61 e13d 12a1 453d
000001b0: fd0c 42bd 977b 16bd 9a06 21bd be53 3e3d
000001c0: 8012 81bd 4abc 5cbd c536 dc3c 2330 b93d
000001d0: e339 a83d d984 8b3b 96fc 7d3d ec53 2f3d
000001e0: 55ff 88bd 3734 b9bd 8f9c d33d 3563 c63d
000001f0: 434c 8c3d 4dde b93d 3baf 943d d251 90bd
00000200: 427d 83bd f20b a23d 9676 3fbb 2de4 2bbb
00000210: 726e e83d 8070 be3a 4973 af3d 5a33 cabd
00000220: 1518 81bd c0cf 153b d029 ac3b 4e3f 673d
00000230: 6a80 9f3d b941 193a b2be babc 1e7c 513d
00000240: 40b4 e93d 9723 c13d c066 1cbb 275d 69bd
00000250: e02a 4ebd fe28 863a 7198 863d 00f8 f638
00000260: a0a8 ee3d 7f20 4abd a71a 73bd 124f 733d
00000270: b25e f13d 60d1 08bd 525b 1f3d 5725 db3d
00000280: 4a80 a33d 8008 b1bb 94da af3d db99 0b3c
00000290: f52e a23d eee5 9f3b 7d3f cebc 8807 a2bc
000002a0: dccd 8e3d d0d8 91bb d8ae 02bc 26bb a8bd
000002b0: b1d0 b93d dbf0 e93d 890e 013d 2fed 0b3d
000002c0: 994f 8f3d 2f78 33bd fd00 c93d 9898 5b3c
000002d0: eff8 863d 4859 9dbc 0bb0 ad3c 8f5e 883d
000002e0: f1eb 7f3d 3960 b03d 6603 f1bc f683 6bbd
000002f0: 77f6 8a3d 1c36 ddb9 9a18 bf3d 951b 3e3d
00000300: e8f2 4abc 0658 143d a087 3ebd 6fc3 b53d
00000310: b31c c5bc 4a47 a3bd 30f6 25bd 2355 963d
00000320: a555 8abd 00c3 c239 3753 68bd 9c86 13bd
00000330: 6ae8 5e3d e39c 46bd 4336 28bd 9220 1f3d
00000340: a091 a03c 2220 473d bd2f 1fbd f496 b33c
00000350: b29f 5d3d 00ab 2c3c d3af 7ebd 02d2 89bd
00000360: 138c 2fbd fe09 87bd 4d3a 27bd 125f 443d
00000370: d97d af3d c7d6 4bbd f72c 54bd 6235 793d
00000380: 3d03 ae3d 3712 7dbd 012d 8b3d 6908 833d
00000390: b9e5 9f3d 12de 6c3d 408c 4dbc 7794 6abd
000003a0: 0cc9 d2bc 8777 65bd e0e8 e2bb c202 213d
000003b0: 125a 413d a8ae f1bc c524 a63d b3cf 47bd
000003c0: 3022 f93b 4f68 b6bd 0783 71bd 8074 6cbc
000003d0: 6621 a9bd b864 bf3c 214d b03d 40e2 5ebd
000003e0: 98cb 363c 4770 65bd 6abc 753d c063 253b
000003f0: c85d 983c e940 a23d a0e3 f2bc f644 623d

layer2.bias f4 [150]
-0.075067386 0.048622046 -0.0930223 -0.011916938 0.03758537 0.0923119 0.11076701 0.0043514497
0.07406861 -0.062400986 0.038019042 -0.0063067228 0.04444731 0.019874558 0.06310076 -0.032190777
0.0531689 -0.07863949 -0.052244432 0.111324966 0.037757404 -0.047276985 -0.046223965 0.002676785
0.029097328 -0.05699274 0.0034884214 -0.016408741 -0.004349404 -0.07283995 0.07978785 0.032443047
-0.0624928 -0.032587267 0.06570297 -0.09047414 0.019446112 0.024268636 0.052191176 -0.05904282
0.098112084 0.0038732064 -0.045330342 0.08500833 -0.0131181255 0.0324846 0.088649265 -0.028747424
-0.012549892 -0.022738159 -0.039908793 0.045452144 0.056746654 0.049764086 0.042140998 0.006401324
-0.023998816 -0.037765782 0.09626239 0.04438529 0.0728138 -0.042057324 0.0910194 0.044194885
-0.02451817 0.023955457 0.05938191 0.014357325 0.09624294 -0.084676124 0.030261561 0.08343649
0.05723811 -0.045325626 0.061738744 0.08280873 -0.063831106 -0.022679947 -0.009887636 0.08223568
0.020308688 -0.047423374 0.01944755 0.0032406226 -0.03511631 -0.03282044 0.03595834 0.015200409
0.051039524 -0.04335644 0.0016753337 -0.019892216 0.10882296 0.0041834116 0.014283773 0.10083058
-0.07222904 -0.08389333 0.061567195 -0.056984376 -0.0324772 -0.050983425 -0.014654808 0.08025939
-0.03155974 0.024386767 -0.053662587 -0.03699958 0.06827687 -0.028047843 -0.010706529 0.0498529
-0.0041395784 0.010871828 -0.08530696 -0.07238555 -0.07806681 0.049326327 0.107650414 0.08193853
-0.08019531 0.0161776 -0.006278254 -0.006880165 -0.09107595 0.027363442 0.04660783 0.04257948
-0.07137625 -0.03947246 0.07535114 -0.077581726 0.07703942 -0.056782644 -0.017138192 0.05214694
0.0141719775 0.01872372 -0.08069458 0.066630766 -0.014885053 0.017773649 -0.023210093 0.06151349
0.040159754 -0.037991073 0.0277309 0.054516193 0.04759948 0.00839217
00000000: eebc 99bd e927 473d 7a82 bebd 433f 43bc
00000010: 1ef3 193d 050e bd3d d0d9 e23d 9b96 8e3b
00000020: 49b1 973d 2d98 7fbd dbb9 1b3d a0a8 cebb
00000030: 620e 363d f8cf a23c f93a 813d 7ada 03bd
00000040: a2c7 593d be0d a1bd 42fe 55bd 58fe e33d
00000050: 82a7 1a3d 83a5 41bd 5755 3dbd 006d 2f3b
00000060: 855d ee3c 3871 69bd 009e 643b a06b 86bc
00000070: 7285 8ebb 1d2d 95bd d067 a33d 00e3 043d
00000080: 73f8 7fbd 3a7a 05bd 478f 863d 824a b9bd
00000090: 744d 9f3c 05cf c63c 6ac6 553d e2d6 71bd
000000a0: fdee c83d 9fd5 7d3b 4fac 39bd d918 ae3d
000000b0: 68ed 56bc 920e 053d bf8d b53d b87f ebbc
000000c0: 109e 4dbc 6045 babc 6777 23bd 072c 3a3d
000000d0: 2e6f 683d 6dd5 4b3d 0a9c 2c3d 33c2 d13b
000000e0: 2a99 c4bc 4bb0 1abd 3725 c53d 5acd 353d
000000f0: 671f 953d 4d44 2cbd 6168 ba3d b205 353d
00000100: 54da c8bc 3c3e c43c 723a 733d fc3a 6b3c
00000110: 051b c53d ad6a adbd 18e7 f73c c0e0 aa3d
00000120: 8272 6a3d 5da7 39bd c4e1 7c3d a097 a93d
00000130: e2b9 82bd 4ccb b9bc c0ff 21bc 2e6b a83d
00000140: 685e a63c 033f 42bd 7850 9f3c a060 543b
00000150: 1fd6 0fbd ba6e 06bd 0d49 133d 230b 793c
00000160: d20e 513d 8696 31bd df96 db3a 00f5 a2bc
00000170: 92de de3d 0015 893b 7c06 6a3c 4380 ce3d
00000180: d2ec 93bd 44d0 abbd e22d 7c3d 7368 69bd
00000190: d006 05bd ffd3 50bd b81a 70bc 095f a43d
000001a0: c944 01bd c2c6 c73c 4dcd 5bbd df8c 17bd
000001b0: bed4 8b3d 97c4 e5bc 706a 2fbc 8e32 4c3d
000001c0: 4da5 87bb c01f 323c 6ab5 aebd e03e 94bd
000001d0: 7ee1 9fbd 670a 4a3d d277 dc3d 63cf a73d
000001e0: 703d a4bd e386 843c d0b9 cdbb 0273 e1bb
000001f0: 0786 babd 4c29 e03c dae7 3e3d d267 2e3d
00000200: b62d 92bd e0ad 21bd b351 9a3d 2be3 9ebd
00000210: d8c6 9d3d eb94 68bd 6565 8cbc 0898 553d
00000220: 9531 683c 7d62 993c 3343 a5bd b675 883d
00000230: 70e0 73bc 0b9a 913c 1823 bebc 92f5 7b3d
00000240: 8e7e 243d 879c 1bbd ea2b e33c 5f4c 5f3d
00000250: acf7 423d 507f 093c

layer3.weight f4 [100, 150]
0.07865615 -0.071279705 0.001022093 0.011415884 0.0028637275 -0.03188483 -0.0729454 -0.05995633
0.057834566 -0.02880063 0.042040013 0.06451318 -0.03103644 0.053516194 -0.059347536 -0.02544387
0.07250585 0.04199688 -0.04310853 0.07298261 -0.007879175 -0.0046274886 -0.07349399 -0.038233392
0.038726747 0.041164145 -0.019015789 0.06437847 0.03143975 -0.026716534 0.041488104 0.014784284
0.0056158975 0.0073792487 -0.042795327 0.01591698 -0.016087808 -0.0059064925 -0.03524453 0.0732581
-0.04681461 -0.05878768 0.056048766 0.003748186 0.044662848 0.020728528 -0.013080843 0.02188383
-0.07168646 0.07587016 0.013621256 -0.030608948 0.04188513 -0.038817998 -0.03589767 -0.07338519
0.020389296 0.03972347 0.01632931 -0.0062668994 -0.008446597 0.009045161 0.019478612 -0.057640933
-0.0571193 -0.050273985 -0.03154897 0.044825256 0.03478214 -0.06867846 -0.04286173 -0.017832182
0.06614098 0.009878747 0.059312254 0.0034122095 -0.0065884367 -0.07118788 0.034263 0.04177068
0.034616724 -0.07498536 -0.0238908 0.07091366 0.01619912 -0.044183154 -0.029611614 0.05945407
0.0604174 -0.025859177 -0.026873484 0.06575622 -0.04421503 -0.076686345 -0.003471017 0.0026812628
0.07637334 0.0042733774 -0.011710465 0.041067876 0.08039713 0.040634006 -0.008955516 -0.021101706
0.010147691 0.07143395 -0.020953875 0.038091585 -0.013104893 0.051438287 0.010179833 -0.04134008
-0.073012635 0.019209482 -0.042041037 0.07339038 -0.016500212 -0.07967719 0.005788319 0.023234233
0.066834286 0.028081961 -0.0029505417 0.07133263 0.02930373 -0.022699434 -0.055210598 0.07657628
0.030935973 0.02736935 0.07708691 0.075320855 -0.059061587 -0.05602569 0.052877024 -0.029727977
-0.038182437 -0.03650802 8.840859e-05 -0.0050561726 -0.07010201 -0.0757022 -0.061392542 0.013177194
-0.078503065 -0.0268404 0.025779538 0.037431635 0.013844579 0.013137333 0.080768034 -0.022051174
-0.00610701 -0.0010659251 0.06366488 -0.050024975 -0.025446754 0.032401096 -0.006504275 0.012265325
0.05031046 0.06134882 0.023646213 0.04557188 0.026319975 -0.022623774 0.07982968 0.08965625
0.090811625 0.0556343 0.017376684 -0.0053419694 -0.05868992 0.0079813 -0.03216492 0.025229711
-0.080603525 -0.066503815 0.08429437 -0.013295723 0.023753418 -0.073677324 0.07083009 -0.06133314
0.048342872 0.066236466 0.0072708116 0.053920325 0.04112526 0.07888541 0.033885933 0.026506681
0.047623802 0.033850558 -0.035467733 -0.058025204 0.07920622 0.047458198 0.068338364 0.0052559935
0.07475604 -0.009388918 0.008316822 -0.018192906 -0.055026315 0.002811002 0.0631911 0.07868614
-0.0011928619 0.062417615 0.061750673 0.068863004 0.005594568 -0.075223245 0.04328323 0.061822187
0.07053897 -0.06434667 -0.005550228 0.067586035 -0.0017521179 0.08111946 0.0077808797 -0.04508128
-0.069038816 0.026139405 0.0956025 0.05130198 -0.019278824 0.08530745 0.02768267 0.07310374
-0.060622804 0.07796398 -0.030033097 0.011273418 -0.046482172 0.024657214 0.02676604 0.103044346
0.045109686 -0.025690235 0.020444108 0.038058832 0.0055772713 -0.02551026 -0.0036246702 -0.01651456
-0.054173302 0.07449407 -0.0731256 0.010138845 0.09816409 0.10481447 -0.034464322 0.010527317
00000000: 7a16 a13d 18fb 91bd c0f7 853a b009 3b3c
00000010: 60ad 3b3b ab99 02bd 6664 95bd c594 75bd
00000020: f0e3 6c3d 4cef ebbc 2632 2c3d 7c1f 843d
00000030: 2240 febc cc33 5b3d 6716 73bd aa6f d0bc
00000040: f27d 943d ec04 2c3d 9292 30bd e877 953d
00000050: a817 01bc 30a2 97bb 0484 96bd 9e9a 1cbd
00000060: f09f 1e3d bc9b 283d 00c7 9bbc dcd8 833d
00000070: f8c6 003d a2dc dabc 6eef 293d c839 723c
00000080: 9005 b83b a0cd f13b 274a 2fbd 5464 823c
00000090: 94ca 83bc 408b c1bb 915c 10bd 5808 963d
000000a0: adc0 3fbd 5acb 70bd 6493 653d 20a4 753b
000000b0: 64f0 363d e0ce a93c 0851 56bc b845 b33c
000000c0: 5ad0 92bd d061 9b3d b02b 5f3c 9ebf fabc
000000d0: be8f 2b3d 9fff 1ebd 6f09 13bd f94a 96bd
000000e0: 7407 a73c 14b5 223d 0cc5 853c 905a cdbb
000000f0: 9863 0abc 2832 143c 9c91 9f3c e618 6cbd
00000100: edf5 69bd 18ec 4dbd 7e39 01bd b09a 373d
00000110: b877 0e3d 4ba7 8cbd c88f 2fbd cc14 92bc
00000120: ec74 873d 78da 213c 68f1 723d 609f 5f3b
00000130: d0e3 d7bb f4ca 91bd 5c57 0c3d bc17 2b3d
00000140: 44ca 0d3d ed91 99bd a4b6 c3bc 2e3b 913d
00000150: 04b4 843c 65f9 34bd 0e94 f2bc 1c86 733d
00000160: 3c78 773d a0d6 d3bc c825 dcbc 32ab 863d
00000170: d21a 35bd bb0d 9dbd 007a 63bb 20b8 2f3b
00000180: a069 9c3d b007 8c3b 40dd 3fbc ca36 283d
00000190: 40a7 a43d d86f 263d 28ba 12bc 7cdd acbc
000001a0: 8042 263c f64b 923d 76a7 abbc ec05 1c3d
000001b0: e8b5 56bc f4b0 523d 50c9 263c 3754 29bd
000001c0: a687 95bd 345d 9d3c 3933 2cbd b24d 963d
000001d0: 742b 87bc cb2d a3bd f0ab bd3b b855 be3c
000001e0: 6ae0 883d 240c e63c e05d 41bb d816 923d
000001f0: 600e f03c 2af4 b9bc 8224 62bd 06d4 9c3d
00000200: 706d fd3c b035 e03c bedf 9d3d d241 9a3d
00000210: 90ea 71bd 327b 65bd 9495 583d 1688 f3bc
00000220: 3065 1cbd 6f89 15bd 0068 b938 40ae a5bb
00000230: a591 8fbd c109 9bbd bf76 7bbd 28e5 573c
00000240: 37c6 a0bd 66e0 dbbc 9c2f d33c ea51 193d
00000250: 60d4 623c f83d 573c b669 a53d aaa4 b4bc
00000260: 501d c8bb 83b6 8bba bc62 823d fde6 4cbd
00000270: b675 d0bc 03b7 043d d021 d5bb 80f4 483c
00000280: 5712 4e3d e648 7b3d b4b5 c13c 94a9 3a3d
00000290: fd9c d73c 7e55 b9bc be7d a33d b29d b73d
000002a0: 72fb b93d cbe0 633d 8c59 8e3c b00b afbb
000002b0: d764 70bd 00c4 023c 5dbf 03bd 8aae ce3c
000002c0: 7613 a5bd 2733 88bd 87a2 ac3d 4ed6 59bc
000002d0: 8796 c23c 23e4 96bd 5e0f 913d 7538 7bbd
000002e0: 2d03 463d fca6 873d fd3f ee3b 8fdb 5c3d
000002f0: f672 283d ad8e a13d facb 0a3d 8a24 d93c
00000300: 2d11 433d e2a6 0a3d 9d46 11bd d6ab 6dbd
00000310: df36 a23d 8763 423d fcf4 8b3d 783a ac3b
00000320: b219 993d fad3 19bc 4843 083c 4a09 95bc
00000330: 4663 61bd ca38 383b 566a 813d 3326 a13d
00000340: ce59 9cba 9da9 7f3d 46ee 7c3d 0c08 8d3d
00000350: a352 b73b a50e 9abd c249 313d 4339 7d3d
00000360: bc76 903d 30c8 83bd b0de b5bb 8c6a 8a3d
00000370: 52a7 e5ba f621 a63d c0f6 fe3b 26a7 38bd
00000380: 3964 8dbd 4e22 d63c 3ecb c33d 0622 523d
00000390: a0ee 9dbc acb5 ae3d c4c6 e23c 6ab7 953d
000003a0: 9e4f 78bd 94ab 9f3d f807 f6bc 24b4 383c
000003b0: 1764 3ebd edfd c93c 7444 db3c ea08 d33d
000003c0: efc4 383d 5474 d2bc 677a a73c 94e3 1b3d
000003d0: 8bc1 b63b e5fa d0bc e08b 6dbb 8b49 87bc
000003e0: d3e4 5dbd 5990 983d e0c2 95bd 661d 263c
000003f0: 410a c93d f8a8 d63d 762a 0dbd c57a 2c3c

layer3.bias f4 [100]
0.04585962 0.053344432 -0.08015506 0.0021516923 0.040261477 -0.07152129 -0.039901774 0.05892026
0.03250914 -0.051916424 -0.06304842 0.058939375 -0.048292276 0.0658106 0.030626671 0.051646933
-0.025169628 0.051745176 -0.02306727 0.039459012 0.025053948 0.056125537 -0.07039596 -0.032569952
-0.01591622 -0.022643251 -0.017481323 0.030425971 -0.010540836 0.050820258 -0.08466415 0.02156274
-0.03535401 0.0012496873 -0.038492408 0.013242997 -0.0037925502 -0.01812464 0.0039486536 -0.013697156
0.033257667 -0.03941013 -0.06830062 0.042015944 0.06780818 -0.050511226 0.08690869 -0.015261935
0.0041482337 -0.0776758 0.06606361 -0.020237263 -0.025285803 -0.07857215 -0.055557616 0.0076507404
-0.052997738 -0.033554684 0.0962943 0.07979618 0.014370553 -0.07129225 0.041528486 0.047220044
0.04673628 -0.07427986 0.032899633 0.041312277 -0.029132346 0.05365474 -0.010526478 0.00275377
-0.011150472 0.021712445 -0.022918124 0.06445347 0.013675488 0.03275505 -0.058843512 -0.012999914
0.03924758 -0.0487221 -0.0031254697 0.05358456 0.040258214 0.01999649 0.016233355 -0.081758134
0.060117155 -0.052004553 -0.048329573 -0.018396258 -0.044668104 0.036335565 -0.06245621 0.03936208
-0.061572365 -0.05766406 0.07296683 0.041732214
00000000: 4cd7 3b3d b17f 5a3d 5628 a4bd 6803 0d3b
00000010: 38e9 243d c179 92bd 0b70 23bd 5f56 713d
00000020: 4e28 053d 51a6 54bd 881f 81bd 6a6a 713d
00000030: 1fce 45bd b5c7 863d c9e4 fa3c bc8b 533d
00000040: 8930 cebc c0f2 533d 92f7 bcbc c69f 213d
00000050: f03d cd3c e4e3 653d c22b 90bd 1268 05bd
00000060: bc62 82bc 577e b9bc fe34 8fbc e33f f93c
00000070: 78b3 2cbc e728 503d 6664 adbd 58a4 b03c
00000080: 5ecf 10bd 8ccc a33a 37aa 1dbd 28f9 583c
00000090: 6f8c 78bb 207a 94bc b563 813b 096a 60bc
000000a0: 3139 083d 846c 21bd 32e1 8bbd e918 2c3d
000000b0: 04df 8a3d dce4 4ebd 2ffd b13d 320d 7abc
000000c0: e8ed 873b 7d14 9fbd 5c4c 873d 9ec8 a5bc
000000d0: 2c24 cfbc 6fea a0bd 6290 63bd 10b3 fa3b
000000e0: 2814 59bd a370 09bd f235 c53d 2e6c a33d
000000f0: 7872 6b3c ac01 92bd c619 2a3d ce69 413d
00000100: 8b6e 3f3d 0a20 98bd c4c1 063d 1037 293d
00000110: f5a6 eebc 13c5 5b3d 4077 2cbc 9878 343b
00000120: 78b0 36bc 4cde b13c cabe bbbc 2e00 843d
00000130: 270f 603c 292a 063d e505 71bd 97fd 54bc
00000140: 12c2 203d d390 47bd aed4 4cbb 7c7b 5b3d
00000150: cce5 243d aecf a33c d0fb 843c cf70 a7bd
00000160: 683d 763d ba02 55bd 3bf5 45bd c0b3 96bc
00000170: e7f5 36bd 9ad4 143d 15d2 7fbd 223a 213d
00000180: 4e33 7cbd 2631 6cbd a26f 953d 66ef 2a3d

layer4.weight f4 [80, 100]
0.046042033 0.091417775 0.023296893 0.015677817 0.03249968 0.03432826 0.0071630105 0.07897935
-0.042947732 0.00085127156 0.016454648 0.07129865 0.065925635 -0.0119427545 0.04777672 0.058735795
-0.06829959 0.005109475 -0.028587144 0.06068275 0.065010734 0.014782742 0.056113534 -0.071431
-0.072712995 -0.07377016 -0.09350488 0.008095788 -0.044725455 0.053876482 0.024228103 0.06955478
0.060739107 -0.093256116 0.077581406 0.01036264 -0.011172604 -0.070310324 -0.0528489 0.033436373
-0.042861443 -0.040828075 0.010134604 0.07168716 0.058803923 0.06280293 -0.010505996 0.07733421
-0.08301332 0.02468961 -0.027459286 0.020565944 0.07950736 0.07234783 0.08917064 0.048478223
-0.050340723 0.07676231 -0.091239244 -0.06520112 0.012122728 0.026677616 -0.08119434 0.006053178
0.052657936 -0.045722246 -0.06636508 -0.0619643 0.0008723228 -0.08382037 -0.03832897 0.06717534
0.060252883 0.074046925 -0.05254852 0.05528031 0.04985921 -0.05347268 -0.08039304 0.032147378
0.010931514 0.093342535 0.011243059 -0.039319854 0.030762846 0.038092427 0.04313851 -0.02288697
-0.08505764 -0.077201605 -0.09081949 -0.05119884 0.05512606 -0.042988386 -0.051130544 -0.061326303
-0.073138975 -0.07006993 0.025807966 0.05292096 -0.07385752 -0.0920526 0.036670767 -0.079727545
0.07531344 -0.03237381 0.0908243 0.052620642 -0.025822535 -0.041897226 0.062961034 -0.06966051
0.042295434 -0.097829334 -0.02367004 0.03789135 0.09292198 0.03687743 0.031845637 0.08299012
0.07435358 -0.030697584 -0.09947633 0.05964812 -0.08894843 -0.06181289 0.04830838 0.066592135
-0.046807338 -0.08242077 0.06389872 0.05220119 -0.09211564 -0.044672858 0.06555792 0.04911297
-0.034010246 -0.06905274 -0.09137889 0.042545 0.011345103 0.0049732924 -0.019646928 0.026104487
0.07510679 0.09661657 0.07407925 0.026395313 -0.035213664 0.092760764 0.085141785 0.001525864
-0.018371202 -0.09417056 0.07734645 -0.01364217 0.03544473 0.020058438 0.035640843 -0.058321215
0.07453514 -0.09354629 -0.08937364 0.0026970878 -0.07623378 -0.055606317 -0.09994749 0.09192216
-0.08387454 -0.05700449 0.046659373 0.050318517 -0.06755608 -0.09931793 -0.047796227 -0.06960877
0.038382508 0.098211326 0.070781834 -0.06102499 -0.08156192 0.06874537 -0.05390487 0.07684725
0.077792905 -0.094280265 -0.007190123 -0.00093634427 -0.076766156 0.063739754 -0.020451054 -0.02810315
-0.050185848 -0.027753152 0.026807614 0.030135103 0.0542003 -0.09019464 -0.09459352 -0.015431747
0.08167989 0.08957675 -0.016817868 -0.060520966 0.038788684 0.04197564 0.031187288 -0.0039703455
0.04377646 0.02947839 -0.034118272 0.10022951 -0.025898531 -0.06290129 0.07537991 -0.036667906
-0.093525834 0.02986208 0.046325292 0.0607175 0.057841353 -0.07200855 0.031619586 -0.056584574
0.003251113 -0.005911245 -0.014273275 -0.04475019 -0.024438165 0.022454755 0.08565518 0.029094465
0.067345776 0.031231906 0.017776653 0.08114352 -0.064810276 -0.049047537 0.04853373 -0.06699684
-0.09071413 0.029104553 0.09109418 -0.011193839 -0.05092099 0.08280339 -0.037322924 0.10378645
0.021962177 0.07305538 -0.08111049 -0.05921931 0.0080794245 0.058715895 0.080465175 -0.0076826364
00000000: 9296 3c3d 3e39 bb3d 20d9 be3c c46e 803c
00000010: 621e 053d ca9b 0c3d b0b7 ea3b edbf a13d
00000020: f6e9 2fbd de27 5f3a e6cb 863c 0705 923d
00000030: 0504 873d 8bab 43bc 86b1 433d f294 703d
00000040: a8e0 8bbd 626d a73b 962f eabc 7a8e 783d
00000050: 5924 853d 5033 723c 4ed7 653d 6b4a 92bd
00000060: 8dea 94bd cf14 97bd 7d7f bfbd 32a4 043c
00000070: 0a32 37bd 96ad 5c3d 047a c63c bd72 8e3d
00000080: 92c9 783d 10fd bebd 00e3 9e3d 10c8 293c
00000090: 4c0d 37bc dcfe 8fbd 1778 58bd 94f4 083d
000000a0: 7b8f 2fbd 573b 27bd 9c0b 263c b8d0 923d
000000b0: 62dc 703d d39e 803d 5721 2cbc 6661 9e3d
000000c0: e302 aabd dd41 ca3c 4cf2 e0bc e979 a83c
000000d0: c1d4 a23d 192b 943d 199f b63d 1a91 463d
000000e0: 1332 4ebd 8f35 9d3d a4db babd 2a88 85bd
000000f0: 689e 463c 048b da3c 3849 a6bd bd59 c63b
00000100: d9af 573d 4047 3bbd 6aea 87bd 47ce 7dbd
00000110: 98ac 643a 04aa abbd d7fe 1cbd 3a93 893d
00000120: bacb 763d eaa5 973d 1e3d 57bd 9b6d 623d
00000130: 2c39 4c3d 2b06 5bbd 1ba5 a4bd f8ac 033d
00000140: 181a 333c 5f2a bf3d cf34 383c db0d 21bd
00000150: 5d02 fc3c ce06 1c3d 02b2 303d 747d bbbc
00000160: b332 aebd e01b 9ebd 92ff b9bd e0b5 51bd
00000170: ddcb 613d 9714 30bd 436e 51bd 4a31 7bbd
00000180: e3c9 95bd d380 8fbd 3a6b d33c a6c3 583d
00000190: 9d42 97bd 1386 bcbd 1634 163d 3248 a3bd
000001a0: ef3d 9a3d 669a 04bd 1702 ba3d be88 573d
000001b0: c889 d3bc 6d9c 2bbd b7f1 803d 2baa 8ebd
000001c0: fa3d 2d3d bf5a c8bd ace7 c1bc f633 1b3d
000001d0: e14d be3d ca0c 173d 9270 023d b9f6 a93d
000001e0: b146 983d 8079 fbbc 3fba cbbd 9651 743d
000001f0: 982a b6bd 832f 7dbd 02df 453d 7561 883d
00000200: 0db9 3fbd 38cc a8bd 55dd 823d ead0 553d
00000210: 20a7 bcbd e3fa 36bd 3b43 863d ae2a 493d
00000220: 544e 0bbd 866b 8dbd db24 bbbd aa43 2e3d
00000230: d0e0 393c 00f7 a23b 98f2 a0bc 14d9 d53c
00000240: 97d1 993d e9de c53d ddb6 973d fc3a d83c
00000250: 343c 10bd 5bf9 bd3d d15e ae3d 80ff c73a
00000260: 347f 96bc 7fdc c0bd d167 9e3d 6883 5fbc
00000270: 7e2e 113d 9851 a43c 22fc 113d 3ae2 6ebd
00000280: e1a5 983d 3395 bfbd 8709 b7bd a0c1 303b
00000290: 7520 9cbd 73c3 63bd 45b1 ccbd af41 bc3d
000002a0: 6ac6 abbd 8a7d 69bd e61d 3f3d ca1a 4e3d
000002b0: d85a 8abd 3367 cbbd fac5 43bd 0b8f 8ebd
000002c0: fa36 1d3d 0523 c93d 11f6 903d 57f5 79bd
000002d0: f009 a7bd 5fca 8c3d 5acb 5cbd 1762 9d3d
000002e0: e351 9f3d 0316 c1bd 209b ebbb 0075 75ba
000002f0: 9337 9dbd fd89 823d f888 a7bc 9438 e6bc
00000300: ad8f 4dbd 945a e3bc a49b db3c e4dd f63c
00000310: 2201 5e3d f8b7 b8bd 3fba c1bd 70d5 7cbc
00000320: c947 a73d 0474 b73d a0c5 89bc d5e4 77bd
00000330: e2e0 1e3d a6ee 2b3d 7c7c ff3c ac19 82bb
00000340: f24e 333d aa7c f13c 9abf 0bbd 2145 cd3d
00000350: 2829 d4bc 64d2 80bd c860 9a3d 1631 16bd
00000360: 798a bfbd 52a1 f43c 97bf 3d3d eab2 783d
00000370: 0eeb 6c3d 3879 93bd 8a83 013d 3ac5 67bd
00000380: a010 553b 1eb3 c1bb 74da 69bc fa4b 37bd
00000390: 8c32 c8bc 09f3 b73c fc6b af3d 8457 ee3c
000003a0: 95ec 893d 0eda ff3c 58a0 913c 932e a63d
000003b0: 40bb 84bd 12e6 48bd 4ecb 463d a435 89bd
000003c0: 54c8 b9bd ac6c ee3c 968f ba3d 5d66 37bc
000003d0: 8792 50bd d394 a93d ecdf 18bd fe8d d43d
000003e0: 06ea b33c 0f9e 953d 421d a6bd f28f 72bd
000003f0: 905f 043c 1480 703d edca a43d a0be fbbb

layer4.bias f4 [80]
0.09746964 -0.054248966 0.078006886 -0.01978832 0.0960182 0.07598251 -0.08336003 0.08218781
0.08384893 0.060026694 -0.020065077 0.043121215 0.02554313 0.04648066 -0.080078 0.060174707
0.102765486 -0.019496534 -0.067981824 0.08996483 0.050438516 -0.026824076 -0.055912912 -0.07341687
-0.03199605 0.046842825 0.034299742 -0.047736313 -0.0742841 0.016844712 0.061498683 -0.08707052
0.066466965 0.106754854 0.029808434 -0.07799257 -0.034306966 0.07688751 0.080559306 -0.08561974
0.11294594 0.024457643 0.013417458 -0.06751264 -0.0026394185 0.020892626 -0.025112303 -0.03123388
-0.01956982 0.060641136 -0.09030098 0.046172567 0.08755589 0.028575089 0.032697916 0.03549877
0.014165034 0.057654973 -0.08605992 0.05198722 0.08342171 0.09839535 0.028322987 -0.016948536
0.098286 0.012078172 0.05140432 0.08636162 0.06843883 -0.033195183 0.09992966 -0.101207085
0.002366926 0.11187912 0.07202505 0.02653502 -0.06674186 -0.015220227 -0.005484658 -0.004043579
00000000: 2a9e c73d 2a34 5ebd 13c2 9f3d 1d1b a2bc
00000010: 31a5 c43d b89c 9b3d aab8 aabd 1552 a83d
00000020: fdb8 ab3d 8dde 753d 845f a4bc df9f 303d
00000030: d33f d13c 8162 3e3d efff a3bd c179 763d
00000040: b676 d23d 32b7 9fbc 0e3a 8bbd 7b3f b83d
00000050: 9e98 4e3d 2abe dbbc f004 65bd 955b 96bd
00000060: 4a0e 03bd 43de 3f3d e37d 0c3d 2787 43bd
00000070: 4322 98bd ecfd 893c 0be6 7b3d 0752 b2bd
00000080: d51f 883d 4aa2 da3d d130 f43c 92ba 9fbd
00000090: 7685 0cbd 3377 9d3d 47fc a43d 6759 afbd
000000a0: 3350 e73d 655b c83c e6d4 5b3c 1144 8abd
000000b0: 18fa 2cbb 0327 ab3c 51b8 cdbc 32de ffbc
000000c0: e350 a0bc d762 783d b8ef b8bd 721f 3d3d
000000d0: 8150 b33d 4e16 ea3c 40ee 053d 2967 113d
000000e0: 7514 683c 9f27 6c3d 2f40 b0bd 8df0 543d
000000f0: 00d9 aa3d 8083 c93d 9c05 e83c a8d7 8abc
00000100: 2c4a c93d 86e3 453c 568d 523d 5cde b03d
00000110: a829 8c3d acf7 07bd eca7 cc3d a945 cfbd
00000120: 6e1e 1b3b e120 e53d df81 933d f85f d93c
00000130: f5af 88bd 425e 79bc a5b8 b3bb 0080 84bb

layer5.weight f4 [60, 80]
0.014102289 0.08855489 -0.108450435 -0.09939713 -0.014426968 0.08038112 0.04086168 0.099233754
-0.061524656 -0.10818478 0.07383488 -0.10018028 -0.096136115 -0.06332779 0.11064516 0.10665989
-0.000798678 0.075701535 -0.10656989 -0.023215933 -0.072852895 -0.054938663 0.043057933 -0.09417103
0.011739172 -0.050646897 0.050624035 -0.0002746212 0.03959997 -0.0596162 -0.05850954 0.008954778
0.07640952 -0.020843023 0.07298913 0.015150696 -0.09002448 -0.092677474 -0.017786425 -0.096970625
-0.035278276 0.031092193 -0.0684973 0.032479156 -0.089996636 -0.08663117 -0.07770034 -0.05272637
-0.10449969 -0.049923472 -0.08434267 -0.10789587 0.0813368 0.037342343 -0.07630713 -0.037148383
0.05885507 -0.07577813 0.0844834 0.087909244 -0.025303442 0.057580315 -0.00097516924 -0.009916022
-0.0021609974 -0.04677308 -0.017249152 -0.02226431 0.07253976 0.08248206 0.056962047 0.08385367
0.08007177 -0.08494731 0.016812248 -0.074341 0.01930719 0.021536563 0.092908636 0.10254569
-0.042860366 -0.08344979 -0.034164153 -0.0019769296 0.10999544 0.039647177 -0.03298349 0.019390553
0.0728676 -0.07519925 0.031104848 0.070307836 0.07398544 -0.090123095 -0.07348704 -0.07774359
-0.1113013 0.09869748 -0.027916767 0.037573427 0.10941827 0.049861044 0.11027999 0.10474925
0.07802746 0.08910832 -0.0681097 -0.081947975 0.06897496 -0.09643839 -0.09127587 0.090990335
-0.07867736 0.08449003 0.012961403 0.03258182 -0.054679133 -0.01020252 -0.05464403 -0.009673461
-0.050785024 0.06162508 0.04217699 -0.0841886 -0.050693702 0.08516216 0.005069837 0.09652987
-0.06854474 0.06027761 0.10781255 0.023604661 0.0932229 -0.017040424 -0.08869878 0.059841648
0.026682824 -0.04429847 -0.006702386 -0.0114871785 0.0035914406 0.00095027685 0.007556975 0.073789686
-0.024736412 0.066991016 0.02161932 -0.018661708 -0.025257178 0.06835386 -0.023787446 0.045107752
-0.06731436 0.054808438 -0.09924943 -0.058664594 0.098477185 0.045323476 -0.08345058 -0.094033144
0.07051204 -0.043578587 0.086141706 -0.04387074 -0.10228675 -0.0824191 -0.031228542 0.027416945
0.0734597 -0.047321357 0.08579266 0.094378024 -0.06435521 -0.07404596 0.0029719993 0.08842872
-0.098725215 -0.018178023 -0.022024982 -0.05496979 0.03647335 0.072996676 0.06973711 -0.0015673488
-0.007634707 -0.07127558 -0.01762379 0.084953934 -0.02144742 0.10932246 -0.06493318 -0.073961385
-0.09483577 -0.08038202 0.0207538 0.099755555 0.08006175 -0.08892732 -0.10693009 0.015789568
0.027852356 -0.06984415 -0.042785317 0.03143388 -0.10224378 -0.05549186 -0.015808731 0.10643564
0.08061093 0.026226878 -0.010510609 0.0070188716 0.08454721 -0.09371463 -0.09867627 0.037202716
-0.009791374 0.044177398 -0.010052644 0.068339095 -0.098247215 -0.043011732 0.0023067966 -0.085254
0.062749594 0.07891582 0.0064599663 0.054362282 0.006989673 -0.04361429 0.024033263 0.019173369
-0.013046034 -0.06047018 -0.02045402 -0.10875077 -0.03150896 0.10692255 0.021854877 -0.029252954
-0.06203346 -0.042755686 0.05292255 0.12354908 0.019288853 0.107529074 0.009017982 -0.04749523
-0.036841203 0.06155231 -0.104441896 0.109701715 -0.08571247 -0.005592242 0.10634455 -0.0690672
00000000: 4a0d 673c 445c b53d 431b debd b990 cbbd
00000010: 175f 6cbc db9e a43d 945e 273d 113b cb3d
00000020: 4701 7cbd fb8f ddbd be36 973d 522b cdbd
00000030: 03e3 c4bd 00b2 81bd ee99 e23d 8070 da3d
00000040: 605e 51ba 6809 9b3d 5141 dabd 572f bebc
00000050: e633 95bd 5d07 61bd 845d 303d bedc c0bd
00000060: a855 403c 1f73 4fbd 265b 4f3d 09fb 8fb9
00000070: 9433 223d 1e30 74bd b3a7 6fbd 10b7 123c
00000080: 987c 9c3d fdbe aabc 537b 953d a03a 783c
00000090: c15e b8bd b0cd bdbd d6b4 91bc 8998 c6bd
000000a0: f47f 10bd 0eb5 fe3c 5048 8cbd dd08 053d
000000b0: 2850 b8bd af6b b1bd 5b21 9fbd 9bf7 57bd
000000c0: ef03 d6bd 8e7c 4cbd dabb acbd 83f8 dcbd
000000d0: e893 a63d 49f4 183d ea46 9cbd e728 18bd
000000e0: 0412 713d 9031 9bbd a205 ad3d c309 b43d
000000f0: 2a49 cfbc 56d9 6b3d 80a2 7fba d076 22bc
00000100: 859f 0dbb 2195 3fbd 184e 8dbc a463 b6bc
00000110: ba8f 943d 5bec a83d 0951 693d 79bb ab3d
00000120: abfc a33d dbf8 adbd d7b9 893c 1840 98bd
00000130: 1d2a 9e3c 726d b03c e246 be3d 7a03 d23d
00000140: 5a8e 2fbd b9e7 aabd b6ef 0bbd 608f 01bb
00000150: 4a45 e13d 1465 223d b219 07bd f0d8 9e3c
00000160: 9c3b 953d 1002 9abd 98cf fe3c 8efd 8f3d
00000170: ae85 973d 7592 b8bd 6080 96bd 0838 9fbd
00000180: f0f1 e3bd e821 ca3d b4b1 e4bc 98e6 193d
00000190: b016 e03d 183b 4c3d 7ada e13d c686 d63d
000001a0: dccc 9f3d 6c7e b63d 197d 8bbd 57d4 a7bd
000001b0: be42 8d3d 7e81 c5bd d8ee babd 2459 ba3d
000001c0: 9921 a1bd 1c09 ad3d 105c 543c 8474 053d
000001d0: 3af7 5fbd 7828 27bc 6bd2 5fbd 707d 1ebc
000001e0: f503 50bd 946a 7c3d c8c1 2c3d 136b acbd
000001f0: 33a4 4fbd 8069 ae3d e020 a63b 74b1 c53d
00000200: 2f61 8cbd a8e5 763d d4cc dc3d 905e c13c
00000210: a6eb be3d 5c98 8bbc b5a7 b5bd 841c 753d
00000220: f095 da3c 5072 35bd b09f dbbb b834 3cbc
00000230: 605e 6b3b 001c 793a 80a0 f73b 0c1f 973d
00000240: 04a4 cabc 9632 893d 001b b13c 70e0 98bc
00000250: 24e8 cebc 1cfd 8b3d e4dd c2bc e8c2 383d
00000260: 1cdc 89bd d07e 603d 4943 cbbd 494a 70bd
00000270: 68ae c93d 1ca5 393d 23e8 aabd 7394 c0bd
00000280: 9e68 903d 767f 32bd 106b b03d ceb1 33bd
00000290: b77b d1bd 58cb a8bd 00d3 ffbc 8099 e03c
000002a0: 0a72 963d 0ad4 41bd 10b4 af3d 4449 c13d
000002b0: aacc 83bd 69a5 97bd e0c5 423b 1e1a b53d
000002c0: 7230 cabd 14ea 94bc bc6d b4bc 0128 61bd
000002d0: 1465 153d 487f 953d 54d2 8e3d 806f cdba
000002e0: 902c fabb eef8 91bd c45f 90bc 54fc ad3d
000002f0: 80b2 afbc 74e4 df3d b0fb 84bd 1179 97bd
00000300: 4239 c2bd 549f a4bd e003 aa3c a44c cc3d
00000310: 6af7 a33d 871f b6bd 2afe dabd 2059 813c
00000320: a02a e43c 730a 8fbd a83f 2fbd d0c0 003d
00000330: 3065 d1bd 6f4b 63bd 5081 81bc eefa d93d
00000340: 5817 a53d c0d9 d63c b034 2cbc 90fe e53b
00000350: 1627 ad3d 75ed bfbd c916 cabd e061 183d
00000360: 006c 20bc 5cf3 343d d8b3 24bc 5ef5 8b3d
00000370: d635 c9bd 122d 30bd a02d 173b a699 aebd
00000380: dc82 803d 9e9e a13d 20ae d33b fcaa 5e3d
00000390: a009 e53b e6a4 32bd 68e1 c43c 7811 9d3c
000003a0: 08bf 55bc 94af 77bd 308f a7bc b9b8 debd
000003b0: 8a0f 01bd 36fa da3d 0009 b33c e4a3 efbc
000003c0: cc16 7ebd 9620 2fbd 51c5 583d 4d07 fd3d
000003d0: a803 9e3c 3438 dc3d 28c0 133c 5c8a 42bd
000003e0: cde6 16bd 461e 7c3d a2e5 d5bd 4bab e03d
000003f0: 058a afbd 203f b7bb 2ccb d93d 1b73 8dbd

layer5.bias f4 [60]
0.051920757 -0.04486607 0.030017078 -0.014422952 -0.0013647559 -0.01442289 0.023654476 -0.071939684
-0.05811786 0.06153457 0.022002583 -0.062162116 -0.05945897 0.07266685 -0.04499391 -0.045507565
0.10009629 0.08161551 0.07891278 -0.022674153 -0.09745726 -0.038173046 -0.028841676 0.06598072
0.06054267 0.026697813 0.04541438 0.03747338 0.0676071 -0.002259858 -0.028043907 -0.107269794
0.041650124 -0.05979726 0.030348852 -0.076843105 -0.0962255 -0.07577381 0.07609503 -0.076237485
-0.054219063 0.040022954 -0.018390443 0.08191544 0.087204486 -0.013870083 -0.00092374056 -0.017975252
0.045313075 0.081469044 0.11350083 -0.024021633 0.10234149 -0.080701955 0.05874704 0.079078525
0.08554678 -0.05758959 0.026690863 -0.0881822
00000000: dcaa 543d 7cc5 37bd 60e6 f53c 3f4e 6cbc
00000010: 9ce1 b2ba fc4d 6cbc 08c7 c13c 1d55 93bd
00000020: fe0c 6ebd ac0b 7c3d c33e b43c b49d 7ebd
00000030: 408b 73bd 5cd2 943d 894b 38bd 2466 3abd
00000040: 49ff cc3d 0826 a73d 069d a13d 25bf b9bc
00000050: ac97 c7bd 575b 1cbd 6145 ecbc e620 873d
00000060: 97fb 773d 5fb5 da3c 6e04 3a3d b07d 193d
00000070: 9775 8a3d 201a 14bb 56bc e5bc 44b0 dbbd
00000080: 5299 2a3d f9ed 74bd 289e f83c eb5f 9dbd
00000090: e011 c5bd 4d2f 9bbd b6d7 9b3d 6622 9cbd
000000a0: cf14 5ebd 1cef 233d 8ea7 96bc 48c3 a73d
000000b0: 4498 b23d 583f 63bc 2e27 72ba d640 93bc
000000c0: 349a 393d 3ed9 a63d 2073 e83d 04c9 c4bc
000000d0: 6a98 d13d 1147 a5bd bca0 703d ecf3 a13d
000000e0: 2633 af3d 10e3 6bbd cca6 da3c df98 b4bd

layer6.weight f4 [40, 60]
-0.020581054 0.01684007 -0.038191594 -0.10071206 -0.0019051838 0.1156965 0.07715423 -0.114290275
-0.12391497 0.09933841 0.054328647 -0.022912584 -0.10030383 0.07922841 0.08653563 -0.0067920983
0.0485756 0.11019775 -0.118571736 -0.0132771935 0.013557083 0.10251712 -0.036466595 0.047708474
0.07090827 0.078238264 -0.023657182 0.09715359 0.068008155 0.076940805 0.057565596 -0.062500626
0.10120632 -0.041019484 0.07539129 0.095347784 0.031215508 0.009395626 -0.020231675 -0.076628715
-0.032213904 0.03775454 0.006473599 0.10309435 -0.05830201 -0.11164746 -0.03633374 0.101681724
0.1289853 -0.11602138 -0.056815907 0.037996918 0.051756464 0.12863599 -0.09982344 0.042514317
0.05415245 0.0019979088 0.12884675 0.076889575 0.028201893 0.06059225 0.105919674 0.010329975
-0.05945245 0.015222991 0.055996597 -0.09722125 -0.018530961 -0.049104802 -0.028412405 0.045046046
0.12493907 -0.107478306 0.03807979 0.030396372 0.118330605 -0.027392633 -0.04050172 -0.114242755
0.102199025 -0.12439733 0.09392704 0.11117381 -0.06447451 0.08664701 -0.021138055 -0.040511385
-0.07713381 0.061679676 0.012674522 -0.12247437 -0.112894066 -0.015865572 0.09691478 -0.00021619852
-0.058547135 0.04794526 0.14128043 -0.101495944 0.0021432447 -0.087919205 0.12715249 -0.04296901
0.04367854 -0.017189018 0.086891666 -0.07477656 0.12369996 0.035906304 -0.05165119 0.03917925
0.0077629266 -0.021755055 0.013676867 0.01696679 0.108233266 -0.10664844 -0.046058226 -0.031134441
-0.05482623 -0.07389378 0.072671816 -0.0141813485 -0.06407357 -0.020094734 0.10730101 -0.07340849
0.12461938 -0.072549134 -0.050181028 0.08493775 0.055785492 0.019579485 0.06340804 0.107679635
-0.028602649 0.033462137 0.09451184 -0.02982343 -0.014027567 -0.039864883 0.07310042 0.032317147
0.10678108 0.061070774 -0.12049315 -0.11822403 0.03286815 -0.0005044043 0.11473182 0.10312602
0.12688665 -0.04838165 -0.057307795 0.09119566 0.112301275 -0.11219567 0.017358268 0.08042964
0.07897188 -0.049732298 -0.028942129 0.10080428 -0.03263519 0.10579075 -0.09715337 0.04567778
-0.11491775 0.0102667 0.049858186 -0.12301311 0.004974439 0.087037794 0.023307487 0.050751925
-0.07731886 0.0022577986 0.030440772 -0.029931538 0.04118891 0.09831335 -0.05166512 -0.11912294
-0.08888168 -0.08284469 -0.039699078 0.0039820373 -0.024126552 -0.02447071 -0.06791046 0.028362468
-0.0061076656 0.011534542 0.00795868 0.027657583 0.022458464 -0.049187444 -0.076922394 -0.08414593
-0.11040033 -0.03551189 -0.04881426 -0.1045804 0.018146053 0.030278057 0.023657605 -0.011872008
0.086880326 0.03909895 -0.08098516 -0.03937363 0.060089648 0.08105408 -0.048965096 0.0015449226
0.07060869 -0.035768114 -0.12430137 -0.032857753 -0.00030255318 -0.08379267 -0.09324032 -0.05660157
0.11359052 0.023812562 -0.124799825 0.034592196 -0.10644778 -0.10127817 0.07314007 -0.036352478
0.009782553 0.081245646 -0.024258472 0.07588503 0.074038655 0.0035745054 0.1259888 -0.016285434
0.09949157 -0.076063946 -0.052767776 0.13307409 0.11674851 0.08449593 0.04451582 -0.020158831
0.06057253 -0.045243323 0.14615235 0.123909965 -0.11066483 -0.0075078444 0.1253958 -0.03956502
00000000: 9999 a8bc 30f4 893c ca6e 1cbd 2042 cebd
00000010: 5cb7 f9ba 49f2 ec3d 0903 9e3d 0511 eabd
00000020: 22c7 fdbd f071 cb3d b787 5e3d 2cb3 bbbc
00000030: 186c cdbd 8142 a23d 9839 b13d 4090 debb
00000040: 35f7 463d 5caf e13d bdd5 f2bd 9688 59bc
00000050: 871e 5e3c 7ff4 d13d ff5d 15bd f669 433d
00000060: 5b38 913d 623b a03d b5cc c1bc 76f8 c63d
00000070: dc47 8b3d 2493 9d3d e7c9 6b3d 5400 80bd
00000080: 4245 cf3d 0c04 28bd c066 9a3d b345 c33d
00000090: aab7 ff3c 1df0 193c e6bc a5bc 84ef 9cbd
000000a0: baf2 03bd 81a4 1a3d 7c20 d43b 2123 d33d
000000b0: 17ce 6ebd 6ca7 e4bd b0d2 14bd 823e d03d
000000c0: b914 043e 9e9c edbd ccb7 68bd a8a2 1b3d
000000d0: 96fe 533d 27b9 033e 3b70 ccbd 7e23 2e3d
000000e0: f6ce 5d3d 59ef 023b 67f0 033e 4878 9d3d
000000f0: a807 e73c 942f 783d 6aec d83d 0e3f 293c
00000100: 6a84 73bd da69 793c b05c 653d ef1b c7bd
00000110: 3ece 97bc 1e22 49bd 22c1 e8bc 3482 383d
00000120: 0ee0 ff3d 961d dcbd 8ef9 1b3d d001 f93c
00000130: 5157 f23d 8466 e0bc 22e5 25bd 1bf8 e9bd
00000140: b94d d13d 07c4 febd d25c c03d 18af e33d
00000150: 360b 84bd fd73 b13d b729 adbc 44ef 25bd
00000160: 55f8 9dbd d4a3 7c3d cca8 4f3c d8d3 fabd
00000170: 0135 e7bd 84f8 81bc 427b c63d 59b3 62b9
00000180: 1fcf 6fbd 4062 443d d1ab 103e 1bdd cfbd
00000190: ae75 0c3b fc0e b4bd 4334 023e 4600 30bd
000001a0: 45e8 323d fccf 8cbc 42f4 b13d 7424 99bd
000001b0: 6856 fd3d 7d12 133d 3390 53bd 6c7a 203d
000001c0: 2660 fe3b a837 b2bc f014 603c f0fd 8a3c
000001d0: 67a9 dd3d 7f6a dabd 8da7 3cbd a80d ffbc
000001e0: 7891 60bd 9f55 97bd f6d4 943d e358 68bc
000001f0: 0139 83bd b69d a4bc a2c0 db3d 3157 96bd
00000200: 7238 ff3d a494 94bd 9f8a 4dbd d8f3 ad3d
00000210: 547f 643d 2865 a03c 13dc 813d 2487 dc3d
00000220: 1a50 eabc 980f 093d 6c8f c13d 4450 f4bc
00000230: e1d3 65bc 5c49 23bd acb5 953d fc5e 043d
00000240: 0ab0 da3d 5925 7a3d 1dc5 f6bd 711f f2bd
00000250: c1a0 063d 003a 04ba 84f8 ea3d bc33 d33d
00000260: 93ee 013e d62b 46bd 94bb 6abd cac4 ba3d
00000270: 36fe e53d d8c6 e5bd ed32 8e3c 4cb8 a43d
00000280: 02bc a13d 18b4 4bbd 0b18 edbc 7972 ce3d
00000290: 7aac 05bd d2a8 d83d 59f8 c6bd a018 3b3d
000002a0: ff59 ebbd a935 283c 1938 4c3d 4cee fbbd
000002b0: 9e00 a33b df40 b23d 58ef be3c 40e1 4f3d
000002c0: 5a59 9ebd 93f7 133b ed5e f93c fc32 f5bc
000002d0: b4b5 283d 8258 c93d ce9e 53bd baf6 f3bd
000002e0: 9907 b6bd 7aaa a9bd 809b 22bd c07b 823b
000002f0: 0ca5 c5bc cc76 c8bc a414 8bbd 6858 e83c
00000300: d022 c8bb 60fb 3c3c 2065 023c 2892 e23c
00000310: d0fa b73c c678 49bd 7d89 9dbd b454 acbd
00000320: 9119 e2bd ea74 11bd 76f1 47bd 402e d6bd
00000330: 08a7 943c b009 f83c 98cd c13c d082 42bc
00000340: 50ee b13d 3826 203d 8cdb a5bd 3e46 21bd
00000350: 9020 763d aeff a53d a08f 48bd 007f ca3a
00000360: 4a9b 903d 9681 12bd b791 febd da95 06bd
00000370: 00a0 9eb9 7e9b abbd c8f4 bebd 0cd7 67bd
00000380: 26a2 e83d 9012 c33c 0d97 ffbd 8cb0 0d3d
00000390: 4b01 dabd ee6a cfbd 76ca 953d 56e6 14bd
000003a0: 0047 203c 1e64 a63d b4b9 c6bc 9c69 9b3d
000003b0: 94a1 973d 4042 6a3b 3503 013e 0869 85bc
000003c0: 3cc2 cb3d 6ac7 9bbd 0623 58bd 9344 083e
000003d0: d819 ef3d 340c ad3d 3856 363d 2224 a5bc
000003e0: e71a 783d 1051 39bd f6a8 153e 82c4 fd3d
000003f0: 3ea4 e2bd 5d04 f6bb c267 003e ee0e 22bd
