saved_models/model_AAPL.pt (torch_old, 190423 bytes, 15 tensors)

layer1.weight f4 [100, 5]
000000 a5 c6 cc 3e b8 b7 98 3e c8 7f ab bb c8 26 86 be
       0.39995304 0.29827666 -0.0052337386 -0.26201463
000010 dc c7 c3 bd 51 46 84 3d 46 d7 ea 3d 7d 12 02 be
       -0.095596045 0.06458724 0.114668414 -0.12702365
000020 2c 7a 27 3e a7 51 95 3e 1c 27 c8 3e 84 f4 6e be
       0.16355199 0.29163858 0.39092338 -0.23335463
000030 b4 cc d9 be d1 8b 9c be 9b ec b0 be 26 41 8d 3e
       -0.4253899 -0.3057542 -0.34555516 0.27588767
000040 fc c6 bb be 9a e5 8d 3e c9 97 d4 be 90 c8 d0 3e
       -0.3667525 0.27714235 -0.41522053 0.40778017
000050 8e a9 e0 bc 54 7a 7c 3e 1b 60 21 be 96 50 45 3e
       -0.0274246 0.2465604 -0.15759318 0.19269022
000060 4a a2 eb 3e c0 c7 5e bd 60 c1 7f 3a d1 31 96 3d
       0.46022254 -0.054389715 0.0009756293 0.073337205
000070 cf 92 45 3e 03 ef 8d 3e 5c 48 9b 3d fd 79 78 be
       0.19294284 0.27721414 0.07582161 -0.24265285
000080 6f ad b3 3e 04 ab 77 be fe 0c e2 3e 3b 22 bc be
       0.35093257 -0.24186331 0.44150537 -0.36744866
000090 07 54 ea 3e 2d eb a0 bd 10 95 be 3e b2 9c 22 3e
       0.45767233 -0.07857356 0.372231 0.15880087
0000a0 b8 0e cb bc e2 4a a8 3d ba fd 28 3e 38 8b 4a 3e
       -0.024787292 0.08217408 0.16503039 0.1977967
0000b0 1f 76 db 3e 72 e1 82 be 00 19 d7 ba ac db e4 3e
       0.42863557 -0.25562626 -0.0016410649 0.44698846
0000c0 5d c6 ae be bf 3a 8e be 4b 65 84 3e 3f 25 aa 3e
       -0.34135714 -0.27779195 0.2585853 0.33231542
0000d0 c6 e8 94 bd fe 83 a0 be bb 86 e2 3d b0 33 34 3e
       -0.072709605 -0.31350702 0.11060854 0.17597842
0000e0 ef 1e 5f be c1 85 c2 3e 5d f2 3a bd 95 93 48 3e
       -0.21789144 0.3799267 -0.045641292 0.19587548
0000f0 12 e3 7a 3e 52 ed 86 bd 93 0f 85 be 4c 2d 8f 3e
       0.24500683 -0.06588234 -0.25988445 0.27964246
000100 c0 b4 1d be e8 a2 c5 3e 55 9a c4 be 60 29 6f bc
       -0.15400982 0.3860085 -0.38398996 -0.014597267
000110 60 96 48 3c 36 1b a8 be 90 b1 3b 3e 13 d4 a7 3e
       0.012242883 -0.3283326 0.18329453 0.32778987
000120 48 b7 bb 3e 0a a9 ba bc 64 d9 c7 3e 7d e9 4e be
       0.3666327 -0.022785682 0.39033043 -0.20206256
000130 74 64 e8 3e d7 f7 9c be bb 15 32 be 1f ee c5 3e
       0.4538914 -0.30657837 -0.17391102 0.38658234
000140 da 15 6f 3e 72 72 c8 3e e1 86 b8 be 58 ca 62 be
       0.2334818 0.39149815 -0.36040404 -0.221475
000150 95 14 76 3d 44 2d 6f 3e 36 66 44 be 54 59 98 be
       0.060078222 0.23357111 -0.19179615 -0.29755652
000160 00 e7 e2 be 98 9d 36 3e 5b fd 81 bd 46 09 a7 3e
       -0.44316864 0.17833555 -0.06347152 0.32624263
000170 76 34 d0 3e 71 74 45 bd 8c 9f 36 be d3 6a c6 3e
       0.40665025 -0.04820675 -0.178343 0.38753375
000180 d5 db c0 3e 62 22 0a 3e 24 90 e8 3d ee e4 ac 3e
       0.3766772 0.13489679 0.11355618 0.3376841
000190 2c a1 75 be b7 33 3c 3e 34 82 a7 3e 6b cb 2a 3e
       -0.23987263 0.18379103 0.32716525 0.1667916
0001a0 4a 48 cf 3e 33 93 ae be 20 f5 16 3c 18 86 e0 bd
       0.4048484 -0.3409668 0.009213716 -0.10963076
0001b0 50 d8 91 bc f6 bd c4 3e 44 ff ef bd b8 8d 1e bd
       -0.017803341 0.3842618 -0.1171861 -0.038709372
0001c0 82 66 09 be 4c e4 b4 be 90 d8 b8 3c d5 0f d8 bd
       -0.1341801 -0.35330427 0.022564203 -0.10549895
0001d0 d0 72 00 3e 2d ba 03 bd e3 ba a3 be de b2 56 3e
       0.12543797 -0.032159973 -0.3197852 0.2096667
0001e0 60 c5 30 3c 56 7c 81 be 6c 52 a9 be fa 8f cc 3e
       0.010789245 -0.25290173 -0.33070695 0.39953595
0001f0 2a 53 06 be 66 62 71 3e 3e 51 b2 3e b1 4c 8d 3e
       -0.13117662 0.23572692 0.34827608 0.27597573
000200 8d b6 fa 3d 68 c4 75 3e bc 82 9f 3e 7c 56 9f be
       0.1224185 0.24000704 0.3115443 -0.3112067
000210 8a 00 b1 be c8 49 a8 3d 64 92 4d be fe 95 75 3e
       -0.34570724 0.08217198 -0.20075375 0.23982999
000220 d6 e3 e0 3e 0e b1 7a be 9a e3 12 b9 02 0e a1 be
       0.43923825 -0.24481604 -0.00014008433 -0.31456
000230 e3 24 97 bd 17 00 a7 3c 94 36 db 3e 56 79 c3 3d
       -0.073800825 0.020385785 0.42815077 0.09544627
000240 82 ce 02 be 85 de 2d 3e ec 29 86 3e 1f 1f ee 3d
       -0.12774089 0.16979416 0.2620386 0.1162703
000250 f4 c7 21 3e e7 f6 70 3e 81 eb 0c be 63 68 8c 3e
       0.15798932 0.23531686 -0.13761713 0.2742339
000260 94 b0 a5 3d 02 45 a8 3e 6f 97 2f be 69 04 c8 be
       0.0809032 0.3286515 -0.17147611 -0.39065865
000270 74 87 1a 3e df 70 a3 be dc 97 de be 82 48 bb 3e
       0.15090734 -0.3192205 -0.43475235 0.36578757
000280 9e 17 c4 3d ce d8 45 3c 8f 3b 25 3e 30 ee 94 3e
       0.09574817 0.012075616 0.16136001 0.29087973
000290 69 95 06 3e e2 38 50 be 12 34 2d be 8d 1d ca be
       0.13142933 -0.20334199 -0.16914394 -0.3947567
0002a0 68 05 d1 3d 58 87 7f bd 27 a1 56 be b0 4b 48 3e
       0.10206109 -0.062384933 -0.20959912 0.19560122
0002b0 88 64 b7 be 30 94 aa 3c cc 0a 2c be 59 7f a0 be
       -0.35818887 0.020822614 -0.16800994 -0.3134716
0002c0 50 80 a9 3d 36 25 5d 3e b4 0d 48 3e 3b 7b 42 3e
       0.08276427 0.21596226 0.19536477 0.18992321
0002d0 08 d5 0b 3e d1 8a 7c be 40 1a 65 3d 10 d1 d8 be
       0.13655484 -0.2466233 0.055933237 -0.42347002
0002e0 d5 1f c0 be dc 10 52 be b5 96 4f 3e f8 42 bd be
       -0.37524286 -0.20514244 0.20272334 -0.36965156
0002f0 5e f4 ba 3e 01 53 bb 3e 50 fe 22 be fa 81 dc be
       0.36514562 0.36586764 -0.15917325 -0.43067914
000300 3a 5f 8c be 68 eb a9 bd f8 e2 b3 be bc 22 87 bd
       -0.27416402 -0.08296853 -0.351341 -0.06598422
000310 6c f0 c8 be 88 dc ab 3d b5 ff d2 be 5a b2 da 3e
       -0.39245927 0.083916724 -0.41210714 0.42714196
000320 ae bb 9f 3e 76 f0 69 be 9e c7 f1 3e 87 30 b1 bd
       0.31197876 -0.22845635 0.47222608 -0.08651834
000330 d9 7a b4 3e 86 7f 70 bd 6c 9d 0d 3e 9d d2 bc bd
       0.35249975 -0.058715366 0.13829583 -0.09219859
000340 6f 2a dc 3e c3 59 c7 be fb a9 f5 bc 99 17 9a 3e
       0.43001124 -0.3893567 -0.02998828 0.3009613
000350 e6 68 07 3e 00 51 90 3d d2 94 83 3e d8 dd ab bd
       0.1322361 0.070466995 0.25699478 -0.08391923
000360 22 ae 0f be 4d de 99 be a0 60 3b 3e c3 b2 9a be
       -0.1403127 -0.30052415 0.18298578 -0.3021451
000370 ac e8 bd 3e 6d 03 b1 3e bf 7f f3 bd 69 4c d6 be
       0.37091577 0.34572926 -0.118896 -0.4185517
000380 7d 08 2b 3e b8 01 2a bd 72 60 dd 3e ac c2 a6 be
       0.16702457 -0.041505545 0.43237644 -0.32570398
000390 34 7f d6 be 1e da 32 be 25 dc 85 3e 85 39 02 3e
       -0.41893923 -0.17466018 0.2614452 0.12717254
0003a0 d2 31 91 be f6 1c 5c 3e 10 b1 14 3e a1 ef 1f bc
       -0.28358322 0.21495423 0.14520669 -0.009761722
0003b0 31 31 a1 3d 97 59 b4 3c cf cc 0f 3d 9f ab f4 bc
       0.07870711 0.022015376 0.03510743 -0.029866992
0003c0 48 c6 88 be 16 f3 db be 12 59 ba be 20 ce 2f be
       -0.26713777 -0.42958897 -0.3639608 -0.17168474
0003d0 e0 da c2 bd 7f 02 da be 9c e6 89 be c4 fc 89 3e
       -0.09514403 -0.4258003 -0.26933753 0.26950657
0003e0 c8 23 c4 be 20 ac b6 be 73 22 52 3c 90 92 a4 3e
       -0.3830855 -0.35678196 0.012825596 0.32143068
0003f0 f1 db 2b bd 71 66 12 3d fc e0 38 3e 6b 25 1d 3e
       -0.0419578 0.035742227 0.18054575 0.15346305

layer1.bias f4 [100]
000000 41 b2 90 3e ea f9 be be ec a1 8f 3e 2d 53 bc 3e
       0.28260997 -0.37300044 0.28053224 0.36782208
000010 36 da 45 3b 0b 52 4a 3d 10 a5 95 be e0 b3 07 be
       0.0030189878 0.04939465 -0.29227495 -0.1325221
000020 60 fc a8 be fa e3 1f be b6 11 58 3e 5c 32 25 be
       -0.33005047 -0.1561431 0.21100506 -0.16132492
000030 e0 65 7d bd e4 2d aa be aa ad 96 3c 23 fb 89 be
       -0.061864734 -0.33238137 0.018393356 -0.26949415
000040 1b a3 04 3e a0 23 fe bd 1a 95 5c 3b 77 3a 36 3e
       0.12952845 -0.12409139 0.0033658207 0.1779574
000050 f6 ab b7 bd bc 02 f2 bd 55 b8 64 be 95 c0 94 3d
       -0.08968346 -0.11816928 -0.22335942 0.072632946
000060 60 00 cf bd 50 f0 20 be f8 be 94 3e 5f ba d4 be
       -0.101074934 -0.15716672 0.29051948 -0.4154844
000070 e1 74 a2 3d 5a 3e a0 be 14 e9 aa be 10 c7 b9 3d
       0.07932449 -0.3129757 -0.3338095 0.09071171
000080 c1 33 12 be 40 b1 89 3e 04 c4 58 3e 35 88 15 be
       -0.14277555 0.26893044 0.21168524 -0.1460274
000090 d4 b1 84 be 81 3f b1 3e f2 19 c1 3e 84 a9 1c 3e
       -0.25916922 0.34618762 0.37715107 0.1529904
0000a0 7d d3 c8 be dc 2e 82 3d fe 45 44 3e 0c 9b b7 3e
       -0.39223853 0.06356594 0.19167325 0.3586048
0000b0 d1 41 d3 be ae 00 8f be ce 0a 9d 3e 82 69 e0 3e
       -0.4126115 -0.27930206 0.30672306 0.43830496
0000c0 0c 69 5b 3e 4d 17 60 be 22 47 df be 8d 4b 82 3e
       0.21426791 -0.21883889 -0.43608958 0.25448266
0000d0 ec 26 b6 3e 40 0d 6a 3d 1c d5 d4 be 28 53 d1 3d
       0.3557657 0.057141542 -0.4156884 0.10220939
0000e0 7c fc 26 3e 2c d4 85 3c 97 94 11 3e d0 a5 b5 3e
       0.16307253 0.016336523 0.14216839 0.35478067
0000f0 78 39 fb 3d 66 24 d3 3e 8e 2c cb 3e d3 65 d8 3e
       0.12266821 0.41238707 0.3968243 0.42265186
000100 00 cb de 3d f8 1b 67 3e c6 50 92 be a0 b2 b7 3e
       0.10878563 0.22569263 -0.2857725 0.35878468
000110 40 dd 0c bd 00 8e 94 bd 3e 75 9c 3e 28 4a 9f 3e
       -0.034390688 -0.07253647 0.305582 0.31111264
000120 89 dd 5c 3e 60 ff cc 3c c1 b9 b2 3e 18 b9 08 be
       0.21568884 0.025024116 0.34907344 -0.13351858
000130 78 a4 c6 be 90 93 96 be 15 ec a8 3e 38 31 a2 3e
       -0.38797355 -0.29409456 0.32992616 0.31678176
000140 12 0a 24 be a2 59 34 be 68 33 6f bd 3d 3f 6a 3e
       -0.16019467 -0.17612317 -0.058398634 0.22875686
000150 28 8b 82 3e f6 dd c5 be 54 63 98 bd bd 9c 89 3e
       0.25496793 -0.38645905 -0.0744082 0.26877394
000160 54 3c 8f 3e ac 6d ae 3e 56 a7 9a be 6a f3 b3 3c
       0.27975714 0.34068048 -0.30205792 0.021966655
000170 e6 28 d9 3e 92 70 c0 bc 5c 61 d3 be 72 ac a5 3e
       0.42414016 -0.023491178 -0.41285217 0.32358128
000180 82 4b 12 be 3c d5 bd 3e 65 3d cf bd 36 a6 04 3e
       -0.14286616 0.37076747 -0.10119132 0.1295403

layer2.weight f4 [150, 100]
000000 9a f4 0c 3d 92 6b 4e 3d b9 b6 92 3d fa ed b3 bd
       0.034412958 0.050395556 0.07163758 -0.08785625
000010 60 c4 86 3b b0 4e be 3b 13 04 89 3d 0f c4 c8 bd
       0.004112765 0.00580772 0.0669023 -0.0980302
000020 90 d0 1a bc e2 5c 77 3d 6a d5 07 bd 52 09 33 3d
       -0.009449139 0.060391314 -0.033162512 0.04371006
000030 32 91 53 3d 58 33 9d bc 9a 03 92 bd 6b ac a8 3d
       0.05165214 -0.019189522 -0.07129593 0.08236011
000040 ae 4d 30 3d a0 a1 bb bd c0 ed a9 bd 99 a4 a8 3d
       0.04304283 -0.09161687 -0.082973 0.082345195
000050 a3 3d 9d bd 40 3f 8c 3c 97 12 c8 bd ad 68 c6 bd
       -0.07677772 0.017120004 -0.09769171 -0.09687934
000060 2e 3d 7b 3d 00 49 ac bd 70 ed 07 bd a5 1c b5 3d
       0.061337642 -0.08412361 -0.033185422 0.08843354
000070 b4 b8 c0 3c ce e7 31 3d f6 83 49 3d 7d 00 af 3d
       0.023525573 0.043433957 0.049198113 0.08545015
000080 67 03 58 bd 5d 8b 56 bd 69 c9 a5 3d 60 73 9e bb
       -0.05273762 -0.052379 0.080950566 -0.004835531
000090 1f 3a 80 3d eb d4 b8 bd fc 5f fd 3c 26 7a 10 bd
       0.06261086 -0.09024986 0.030929558 -0.03527274
0000a0 ae c5 05 3d a2 8e 4b 3d e8 e5 ac bc a0 3a 65 bb
       0.032659225 0.049696572 -0.021105722 -0.003497757
0000b0 30 cb a6 3b a2 00 16 3d 18 87 2b bc b7 93 76 bd
       0.00509014 0.036621697 -0.010469221 -0.060199466
0000c0 f0 47 76 bc ea 24 2b 3d 2d c1 bd bd eb 07 cc 3d
       -0.0150318 0.04178325 -0.09265361 0.09962448
0000d0 66 c9 5f 3d 51 d2 9c 3d 80 91 6a 3a 48 b0 b9 bc
       0.054635428 0.07657302 0.0008948073 -0.022667065
0000e0 93 db bf 3d 2a c1 22 3d 48 11 c4 3c 20 52 a2 bb
       0.09368052 0.039734997 0.023934022 -0.0049536377
0000f0 70 b0 1a 3c f0 45 0f bd 0c 7e a5 3c d1 3f be 3d
       0.00944148 -0.034978807 0.020201705 0.09289516
000100 12 2c 37 3d 8c 7f a2 bc 77 a0 c8 3d 4d 4c a8 bd
       0.044719763 -0.01983621 0.09796231 -0.08217678
000110 00 d5 5c bd d3 f8 47 bd 78 5c a7 bd 50 8e 4e 3c
       -0.05391407 -0.04882128 -0.08171934 0.012607172
000120 b7 d3 60 bd 14 d1 c2 3c e8 4d c8 3c 83 63 9b bd
       -0.054889407 0.023781337 0.024451211 -0.0758734
000130 23 f8 3a bd 5b 05 a3 bd 1d 3a 9d 3d 42 c4 63 3d
       -0.045646798 -0.07960006 0.076771 0.055607088
000140 db 66 90 bd 3d f7 a5 3d 8c 94 d8 3c c9 dc 95 3d
       -0.07050868 0.081037976 0.02643802 0.07317502
000150 13 81 9a bd ac 67 be bc 1a 42 1b 3d d0 db 22 bd
       -0.0754415 -0.023242794 0.037904836 -0.03976041
000160 08 67 9b bc 03 4c a0 bd a4 49 e7 3c 8a 18 26 bd
       -0.018970028 -0.07826998 0.028233357 -0.040550746
000170 a2 57 2e 3d a8 ee 67 3c 10 26 14 3c 00 e0 93 bc
       0.042564042 0.014156021 0.009042278 -0.018051147
000180 92 de 03 3d c7 3a 95 3d 1d 1b 5c bd d1 3d b2 3d
       0.03219468 0.072866015 -0.053736795 0.08703197
000190 00 f2 46 bc e6 1f d0 3d fa 8d 1a bd de 1b fc 3b
       -0.012142658 0.10162334 -0.037733056 0.0076937517
0001a0 42 a9 30 bd 5f 56 42 3c bb eb b9 3d e2 0e 3f bd
       -0.043130167 0.011861413 0.09078165 -0.046645053
0001b0 ce f5 10 3d 67 f5 39 bd 3c 00 e7 3b a2 ad d5 3d
       0.035390668 -0.04540005 0.0070495885 0.104335085
0001c0 4d b7 ba 3d e8 27 73 bc 23 36 de 3c 27 92 a5 3d
       0.09116993 -0.014841057 0.027125424 0.08084517
0001d0 35 e9 b2 3d 80 20 48 bd 56 22 91 3c fa 48 9b 3d
       0.08735887 -0.04885912 0.017716568 0.075822785
0001e0 e4 00 80 3d a3 f2 93 bd e8 93 7b bc 7a c9 ac 3d
       0.0625017 -0.07224014 -0.015355088 0.08436866
0001f0 1f ee bc 3d 35 fa 27 3b c6 6b 0a bd 87 53 f1 3c
       0.092251055 0.0025631313 -0.033794187 0.029458774
000200 ee 42 b1 3d 30 05 be 3d 40 ff e2 3d a7 d8 41 bd
       0.08655344 0.09278333 0.11083841 -0.047325756
000210 32 8c 8b 3d 40 e3 94 3a 61 dc 9b 3d a4 78 e3 3d
       0.068138495 0.001135923 0.07610393 0.11106995
000220 40 24 ba 3c aa 9f a2 3d 68 37 bb 3c 55 2a cb bd
       0.022722363 0.0794061 0.022853568 -0.099201836
000230 3b 75 e1 3d 19 d9 9f bc a5 6b ba 3d 80 04 2f 3c
       0.11008688 -0.0195127 0.09102563 0.010682225
000240 98 26 81 3c c0 38 59 bb 88 32 5a 3d 04 a6 ad 3d
       0.015765473 -0.0033145398 0.053270847 0.084789306
000250 1a 61 7d bd b0 e7 c5 bb 4a f1 90 3d c0 a4 ec 3d
       -0.06186018 -0.006039582 0.07077272 0.11554861
000260 2a bc 63 3d 51 dd 91 3d 54 5d ac 3c 40 db 40 bc
       0.05559937 0.07122291 0.021040596 -0.011771023
000270 c2 81 6e 3d 10 61 e4 3d 2a 96 55 bd a0 b4 1e 3b
       0.058229215 0.11151326 -0.05214516 0.0024216548
000280 b4 9d 83 bd 77 9c 5d bd 9c d9 95 bd 0f df 58 bd
       -0.06426564 -0.054104295 -0.07316896 -0.0529471
000290 93 f3 90 bd 07 50 67 3a 6a cc b8 bd 65 21 51 bd
       -0.07077708 0.00088238757 -0.09023364 -0.051057238
0002a0 df 76 90 3d 7f 56 ed 3d ac 57 b5 3c a4 13 26 bd
       0.07053923 0.115887634 0.022136532 -0.040546075
0002b0 87 36 d4 3d c4 b5 ee 3c b1 e6 9f bc 33 68 53 3d
       0.10361963 0.029139407 -0.019519182 0.051613044
0002c0 cb e0 97 bd a4 82 ea 3c 94 2e ce 37 12 8c 5d ba
       -0.07415923 0.028626747 2.4578803e-05 -0.0008451353
0002d0 80 8b 0c bc 29 4c a9 3d f2 ff 40 3d 8f 23 8a 3d
       -0.008578181 0.082664795 0.04711909 0.067450635
0002e0 79 57 9b 3c 89 50 cb 3d 2a 2d 4a bd a7 ab d6 3d
       0.018962609 0.0992747 -0.049359478 0.10481959
0002f0 50 82 50 bc b1 f4 9a 3d c9 49 69 bd f0 a2 ea bc
       -0.012726381 0.075662024 -0.056955133 -0.028642148
000300 43 00 97 bd d1 86 49 3d 9c a4 c4 3d 3c 4d 0d bd
       -0.07373097 0.049200837 0.09601709 -0.034497485
000310 0a 36 a5 bd 16 ec 68 3c 2f 4b 28 bd 39 80 11 3b
       -0.08066948 0.0142164435 -0.041087326 0.002220167
000320 ea aa 65 bd 67 55 c9 bd 00 44 d9 bc 60 1d 1a 3b
       -0.0560712 -0.09830742 -0.026521683 0.0023516044
000330 31 e6 94 3d e2 1d 1c 3d 4d 89 7b bd da 9e 1a 3d
       0.07270468 0.038114436 -0.061410237 0.03774915
000340 ad a3 63 bd dd 79 c6 3d 5a 5b 15 bd 86 50 44 3d
       -0.055576015 0.09691212 -0.036464073 0.047928356
000350 ce 77 47 3d 5f 64 a6 3d cc 93 bf bc e0 66 d2 bb
       0.04869824 0.08124613 -0.023385905 -0.006420955
000360 0d 19 4a bd 13 29 74 bd 44 a1 f0 3c b7 3a 3a bd
       -0.049340297 -0.059609484 0.029373772 -0.04546615
000370 00 eb 9f bb 4c 13 dc bc 40 06 a5 3c 84 1a f3 3c
       -0.004880309 -0.02686467 0.020144582 0.02967573
000380 e6 aa 39 3d f6 97 81 bd 51 c4 a5 3d 65 f9 a1 3d
       0.045328997 -0.063278124 0.08094085 0.07908896
000390 12 f7 55 3d 50 23 4c bc 9a 83 82 bd 21 16 c7 3d
       0.052237578 -0.012459591 -0.06372757 0.09721018
0003a0 10 64 24 bd 1e b9 a6 bd 2c 76 f6 bc e3 a5 77 bd
       -0.04013449 -0.08140777 -0.030085646 -0.060460936
0003b0 50 b4 22 bc fb 58 b9 3d b0 f0 4e bd a0 94 47 bb
       -0.009930685 0.09050175 -0.050522506 -0.0030453578
0003c0 32 90 76 3d aa 11 18 3d f4 64 dc bc 10 76 3e bd
       0.06019611 0.03712622 -0.026903607 -0.046499312
0003d0 54 1e 84 3c 42 a1 59 3d 7e 9d 9d bd ea 1c 0c bd
       0.016127743 0.053132303 -0.07696055 -0.034207262
0003e0 e8 1d 9b 3c 0c 0a dd 3c ff e3 ca bd 22 1d 2c 3d
       0.018935159 0.02698233 -0.09906768 0.04201997
0003f0 3b 4e b0 3d 71 a0 a5 3d 80 77 45 bc c0 c9 90 3c
       0.08608671 0.080872424 -0.012052417 0.017674327

layer2.bias f4 [150]
000000 b0 15 f3 bb b2 ba 4a 3d 40 66 27 3c 0f 53 3f bc
       -0.007418357 0.049494453 0.010217249 -0.011677518
000010 08 7b 60 3d 23 e8 93 3d 54 36 86 bd 60 53 4c 3b
       0.05480483 0.07222011 -0.06553331 0.0031177625
000020 20 78 60 bd 32 c6 0c 3d 70 22 a9 3c c2 9d 12 bc
       -0.05480206 0.0343687 0.020646304 -0.008948745
000030 25 22 a7 bd 17 e1 b7 bc 47 2d d2 bc d2 dc 74 3d
       -0.081608094 -0.022446198 -0.025656356 0.059780903
000040 5f 0d 35 39 59 8a 4b bc de bf 1f 3d fe af e0 3b
       0.00017266486 -0.012423121 0.03900134 0.0068569174
000050 cf 05 03 3d 84 01 c3 3d 86 14 2b 3d 5a fd 8d bc
       0.03198796 0.095217735 0.04176762 -0.017332722
000060 49 74 b8 3c d3 f6 9a bd b2 8b 1f bc e1 42 ff 3b
       0.022516387 -0.07566609 -0.009737896 0.007789955
000070 7d aa 52 bd 4a 34 71 3d aa 68 1c bd c3 57 6f bd
       -0.05143212 0.058887757 -0.038185753 -0.058433305
000080 c1 4e 59 3d 0d 38 8d 3b 0c 69 e7 3d c3 99 1a bd
       0.05305362 0.0043096603 0.11299333 -0.037744295
000090 cf 06 60 bd 34 c8 4a 3d b4 08 9d bc 0a 61 62 bd
       -0.054693993 0.049507335 -0.019169189 -0.055268325
0000a0 55 41 81 bd b4 ce a7 3c d1 70 a5 3d ab 68 0d bc
       -0.06311289 0.020484306 0.08078159 -0.008630912
0000b0 80 5b ce 3a 16 43 f1 3d 61 cb bf 3d d6 9a 26 bd
       0.0015743822 0.11780374 0.09364963 -0.040675007
0000c0 e8 75 88 3d c4 b3 d3 3c c0 04 3f 3c 90 2a a0 bd
       0.06663114 0.025842555 0.011658847 -0.07820618
0000d0 e9 d2 4a bd 8e 9b ab 3d 1a 5a 6a 3d 81 ad b9 3d
       -0.049517546 0.08379279 0.057214834 0.09066296
0000e0 50 08 85 3d 83 5f 9c 3d 80 65 8d bd 4a 04 b7 3b
       0.06495726 0.07635405 -0.06904125 0.005585228
0000f0 20 f7 8b 3d 3a f8 49 3d 32 58 63 3d e7 1c 3e 3d
       0.06834245 0.049308993 0.05550403 0.046414282
000100 d6 c1 43 3d 1c ec 7a 3c c8 1f 84 3d 28 a8 88 bd
       0.04779228 0.015315082 0.06451374 -0.06672698
000110 32 bf 42 bc 97 00 92 3d 43 72 6f bd 2a 9e 94 ba
       -0.011886405 0.07129019 -0.058458578 -0.001133864
000120 3e 1e ae 3d ec b1 f3 3d fa 08 c0 bc ca 14 60 3d
       0.08501862 0.1189917 -0.02344178 0.054707326
000130 d0 ae fb 3b cd 0d 98 bd 18 9d 88 3d 2b 3c b6 3d
       0.0076807514 -0.07424507 0.06670588 0.08898195
000140 4e c2 7e bd 00 53 48 3b f0 ff 52 bc 93 89 a6 bd
       -0.062197022 0.003056705 -0.012878403 -0.08131709
000150 7c 03 ab 3d e0 89 97 3b 92 b6 0e 3d b3 10 a7 3d
       0.08350274 0.0046245903 0.03484208 0.08157482
000160 4b 83 43 3d ea 51 3e bd 48 e6 b0 3d 50 b4 82 bd
       0.047732633 -0.046464838 0.08637673 -0.06382048
000170 d6 3a 55 3d 1a e3 35 3d a0 89 24 bd d8 3a 7a 3c
       0.052058063 0.044406034 -0.040170312 0.0152728185
000180 03 8e c4 3c 91 47 dd 3d 18 ee 7e bc 40 89 30 3c
       0.023993498 0.10804666 -0.015559696 0.01077491
000190 9b ec e7 bc 4d f7 b6 bd 93 e4 2b 3d 19 d4 a4 bd
       -0.028311064 -0.08933888 0.041966032 -0.08048267
0001a0 23 6a 85 3d 76 12 83 bd 17 7a 9d 3d da ce 4a 3d
       0.065143846 -0.064000055 0.076893024 0.049513675
0001b0 c1 8e 4f 3d 9f d2 80 3d 58 eb 65 3c 8b b7 c3 bd
       0.05067325 0.06290173 0.014033161 -0.095564924
0001c0 e5 e9 bf 3d d3 b4 3d bd 8e d2 45 3d cb d1 6d bd
       0.09370784 -0.046315026 0.048296504 -0.058061402
0001d0 c3 f9 ba 3d 92 da 25 3d 58 14 f9 3d 6d 37 b4 bd
       0.091296695 0.040491648 0.121620834 -0.08799634
0001e0 b6 1b 37 3d 80 2e 3a bd 17 cd 8d 3b 68 90 69 3d
       0.04470416 -0.045454502 0.004327427 0.057022482
0001f0 d3 ae 66 3d 3c 67 e3 bc e0 44 99 3b 9c 11 b7 3c
       0.05631907 -0.027759187 0.0046774 0.022347264
000200 73 4f b8 3d cc 84 9d bc c7 7d 2e bd 7a d4 96 bd
       0.08999529 -0.019228362 -0.04260042 -0.073647454
000210 da 65 33 bd ea 54 f9 3c 7d be f1 3d 08 9f 47 3d
       -0.043798305 0.030435998 0.11803911 0.04873565
000220 f3 fc c5 3d e5 70 ac bd 2c 22 d1 bc 0f 56 ae bd
       0.09667387 -0.084199704 -0.02552899 -0.08512508
000230 94 9d d6 bc 92 c4 0d 3d d3 d5 1f bd 21 33 a1 3d
       -0.026198186 0.034611292 -0.039022278 0.0787108
000240 d8 af c4 3d 93 15 c4 bd 40 38 26 bc f1 c5 c5 3d
       0.09603852 -0.095744275 -0.010145247 0.09656895
000250 20 bc 1e 3c 67 61 52 3d
       0.009688407 0.05136242

layer3.weight f4 [100, 150]
000000 f4 1a be bc 4d f0 39 3c d8 1a 8f 3d cd ab 1f 3d
       -0.023206212 0.011348796 0.06987542 0.0389822
000010 90 db 3b 3d f8 c8 68 3d 10 6f e6 3b 88 b5 53 3d
       0.045863688 0.056832284 0.0070322827 0.051686794
000020 18 00 c5 bc 40 46 e1 3a 9a 60 9b bd 28 8d 1f bd
       -0.024047896 0.0017187074 -0.07586785 -0.038952976
000030 f0 03 ad bb 38 ce 9d bb ec a9 05 bd c5 0d 62 bd
       -0.0052800104 -0.004815843 -0.032632753 -0.055188913
000040 58 98 e2 3c fc 91 12 3d 3d 82 8a bd 35 0b 8f bd
       0.027660534 0.035783753 -0.06763122 -0.069845594
000050 cb 76 6a 3d 19 53 f9 bc f8 14 a7 bc 92 5e eb 3c
       0.057242196 -0.030435132 -0.02039574 0.028731618
000060 a7 d9 49 bd 38 f1 9b 3d 8d f5 98 3d a4 45 76 3c
       -0.049279835 0.07614368 0.0746871 0.015031252
000070 08 90 6e 3c 4a 54 8e 3d 80 49 3c bd e3 2a 6e 3d
       0.014560707 0.069496706 -0.045968533 0.05814637
000080 f0 0f bc bc fc b1 b8 3c 8c 40 2b 3d 04 ae 94 3c
       -0.022956818 0.022545807 0.041809604 0.018149383
000090 f9 ca 57 bc 8f 8c 73 3d 68 e0 16 3c f0 18 8d bc
       -0.013170951 0.05946022 0.009208776 -0.017223805
0000a0 05 c0 f6 3c b4 31 e0 3c 59 48 3d 3d 9f b4 4b 3d
       0.030120859 0.02736745 0.046211574 0.0497328
0000b0 37 3f 61 bd dd 0a 49 bc be 7c a3 bd 5d 13 59 3d
       -0.054991927 -0.012270656 -0.07982777 0.052996982
0000c0 94 94 f9 3b bc 94 15 3d 8c fb 8e bc 90 e2 b3 bb
       0.007616589 0.036518797 -0.017453931 -0.005489655
0000d0 18 b9 b2 3c 65 0b e3 3a b0 b1 83 3b 79 eb 6d bd
       0.021816775 0.0017322121 0.0040189847 -0.058085892
0000e0 1a d6 57 3c 15 6f 3b 3d b4 7f 92 3d e0 35 0f bd
       0.013173604 0.045760233 0.07153264 -0.03496349
0000f0 ff 0d 95 bd 16 db 93 3d 93 a9 8f bd cd fd 8a 3d
       -0.0727806 0.07219522 -0.070147656 0.0678669
000100 d8 27 3a bc 62 dc 9a 3d fb 82 3a bd 98 77 1e 3d
       -0.011362039 0.07561566 -0.04553507 0.038688272
000110 dc 51 07 bc 70 0e d0 3b ec a5 c6 3c 8f fc 93 bd
       -0.008259263 0.0063493773 0.02424904 -0.07225906
000120 2c f2 37 bd 76 c4 6c bd 60 51 17 3d e4 b9 61 3d
       -0.044908687 -0.057804547 0.03694284 0.05510892
000130 07 83 8c bd 9a 90 85 bd cf 2d aa bb 46 a8 1e 3d
       -0.06860929 -0.06521721 -0.005193449 0.038734697
000140 f8 58 fb bc fe c5 dd bc cc 1f 86 3d 20 6b 06 3b
       -0.030682072 -0.02707195 0.065490335 0.0020510629
000150 46 c2 6a 3c a4 47 f4 3c 86 f7 e3 bc 0a 1c 9e bd
       0.014328545 0.029819317 -0.02782799 -0.07720192
000160 15 c0 de 3c e8 df 25 3d 54 35 66 3d 70 2b 8d bb
       0.027191201 0.040496737 0.0562032 -0.0043081567
000170 40 62 ff ba 8c 86 9f bd 00 e9 b7 bb 00 d0 a4 3a
       -0.0019484237 -0.07789335 -0.0056124926 0.0012574196
000180 1c 97 7c bd 8a 25 60 3d 50 66 82 bd 0a 01 96 bd
       -0.061667547 0.0547233 -0.06367171 -0.07324417
000190 79 53 94 bd de ca 90 bd 50 49 df 3c 71 cc e3 3c
       -0.07242484 -0.07069944 0.027256638 0.027807446
0001a0 dd d4 9e bd f0 29 86 bb f0 2c a9 bc bb 11 f0 bc
       -0.07755444 -0.004094355 -0.02065131 -0.02930533
0001b0 55 98 45 3d 54 58 3f 3d 32 e3 03 3d 58 c1 96 bd
       0.04824098 0.046715096 0.032199092 -0.07361096
0001c0 5c 6a f9 bc 00 61 96 bd 90 26 6e 3d 22 9f bb bc
       -0.030446224 -0.0734272 0.058142245 -0.022903029
0001d0 20 e1 89 3d ca 23 4e bd 33 af f9 3c a0 61 12 3b
       0.06732392 -0.0503271 0.03047905 0.002233602
0001e0 08 cf 68 3d 80 9b b1 3b 46 31 0b bd c6 ca 8d 3c
       0.056838065 0.0054201484 -0.033982538 0.017308604
0001f0 7a ba 4b bd a1 5e 91 bd b6 80 8c 3d c5 a3 e1 bc
       -0.049738385 -0.07098127 0.06860487 -0.027543912
000200 b8 c4 a3 3c d4 b4 9e 3d d5 25 31 bc d8 5d 07 3c
       0.019991264 0.07749334 -0.0108122425 0.00826212
000210 8e b6 34 bd 6e 62 8a bd 30 23 f0 3c 80 9c 62 bd
       -0.04411941 -0.06757055 0.029313654 -0.05532503
000220 85 c6 34 bd d3 72 4d bd f2 3b 3b bd c0 f5 d1 3c
       -0.044134635 -0.050158333 -0.045711465 0.025629878
000230 4e 2e 81 3d d8 88 89 3d 5b 35 9c bd 60 a2 25 bd
       0.0630766 0.06715554 -0.07627364 -0.040438056
000240 52 e5 74 bd 40 ff 73 bb 60 ee 67 bb 0c fc 23 3c
       -0.05978901 -0.0037230998 -0.0035389885 0.010008823
000250 83 a1 0e bd 04 8c 27 bd 5c 62 9f 3d aa 32 aa bc
       -0.034822 -0.040905014 0.077824324 -0.020776112
000260 a9 8e 95 bd 10 f8 03 3c 30 48 52 bc 6a 2a 95 3d
       -0.07302601 0.008054748 -0.012834594 0.072834805
000270 6c 40 27 3d 58 45 0b 3c ce f4 86 bd 59 a7 53 bd
       0.04083292 0.00850042 -0.065896615 -0.051673267
000280 b9 90 42 bd 0a 5d 97 bd c0 0e a2 ba 10 a1 8c bb
       -0.0475013 -0.07390793 -0.0012364015 -0.004291661
000290 96 a7 02 3d c0 a7 60 bc 2c 81 b5 bc 02 9f bd bc
       0.031898104 -0.01371187 -0.02215632 -0.02314711
0002a0 b0 b9 21 3c e1 c3 70 bd d9 d1 8d bd 58 b9 24 3c
       0.0098709315 -0.058780555 -0.06924791 0.010053955
0002b0 f0 bb 9d bd fc 41 6d 3d 5a dc 99 bd a8 0a 30 3c
       -0.07701862 0.057924256 -0.07512732 0.010744728
0002c0 2c 7e 88 3d 38 49 71 3d f8 65 37 3d 94 3b 84 3c
       0.066646904 0.058907717 0.04477498 0.01614169
0002d0 68 e5 a6 bd 24 28 3a 3d 9c 00 87 3d e0 c6 c8 3c
       -0.081492245 0.045448437 0.06591913 0.024508893
0002e0 58 fb 48 bc e8 54 8f 3c ba 2f 9a 3d c8 b7 54 bc
       -0.012266956 0.017496541 0.07528634 -0.01298327
0002f0 1f 6c 22 bd 57 d2 a4 bd d8 2a 50 3d d4 e4 6d bd
       -0.039653894 -0.08047932 0.05082211 -0.058079556
000300 ac 90 d8 bc d0 d9 94 bc 60 61 3f 3c c0 f2 95 3b
       -0.026436172 -0.018170267 0.011680931 0.004576057
000310 10 df ad 3c 90 87 45 bc 0e a0 32 bd 24 39 95 3d
       0.021224529 -0.012056246 -0.04360967 0.07286289
000320 f0 5b 97 3b c0 2d 3e 3b 7d e5 43 bd d0 ec 80 3d
       0.004619114 0.0029018968 -0.04782628 0.062951684
000330 d6 b5 85 3d 8c 9e 4c 3d 0c bf 61 3d b6 2e 80 bd
       0.06528823 0.04995589 0.055113837 -0.062589094
000340 4a e1 80 3d d6 d9 17 3d 38 88 99 bd a4 52 b4 3c
       0.062929705 0.03707298 -0.07496685 0.022012062
000350 b9 e2 81 bd 28 c2 1d bc 8c 39 f5 bc d6 f8 be bc
       -0.06342072 -0.00962881 -0.029934667 -0.023312014
000360 74 0a 74 bd f8 eb 6e bc ec d8 eb 3c ac 45 34 3d
       -0.05958028 -0.0145826265 0.02878996 0.044011757
000370 d4 79 9b 3d 34 3e 1a 3d 78 0c 93 bd 35 c8 02 bd
       0.07591596 0.037656978 -0.071801126 -0.031929214
000380 de 1e 90 bd 14 a1 80 3d 62 8b be bc 4b 02 a7 bd
       -0.070371374 0.06280723 -0.023259822 -0.08154734
000390 34 c0 b5 bc c0 92 89 3b 6c 11 d3 bc b8 2c 65 bd
       -0.022186376 0.004198402 -0.025765143 -0.05595085
0003a0 80 de b5 ba 53 f4 11 bd d0 88 43 3d 86 f9 79 bd
       -0.0013875514 -0.035633396 0.047737896 -0.06102898
0003b0 8a e2 71 bd 2e f5 80 bd d0 8a 99 3b 40 5c 4f 3c
       -0.059053935 -0.06296764 0.004685737 0.012656271
0003c0 48 9f 51 bd 74 a5 df bc 90 7b 29 bc 38 7f 92 bc
       -0.051177293 -0.027300574 -0.010344401 -0.017882928
0003d0 04 f5 45 bd 84 00 04 3d 4c e2 2b bd 40 db a3 bb
       -0.04832937 0.032227054 -0.04196386 -0.005000502
0003e0 18 4d 4c 3d a8 57 11 bc 54 50 ce 3c 40 e0 85 3d
       0.04987821 -0.008870997 0.025184788 0.06536913
0003f0 ec bd 4f 3d 90 d9 22 3d 28 81 90 bc 2a e1 92 bd
       0.050718233 0.039758265 -0.017639711 -0.07171853

layer3.bias f4 [100]
000000 81 4d 8e 3d 7e d0 82 3d 3a 70 43 bd fe d5 89 bc
       0.069483764 0.06387423 -0.04771445 -0.016825672
000010 07 8f 87 bd 4a 2f 98 bd c1 ac 95 3d 8c ca 93 bc
       -0.06619077 -0.07430895 0.07308341 -0.018040918
000020 64 03 8f bd 2c 6c 9d bc 23 2f 94 bc 8a 81 48 3d
       -0.069830686 -0.01921662 -0.018088883 0.048951663
000030 4e dc 2b 3d ec 9f 13 3d 14 7c e1 3c 8a 5b 83 bd
       0.041958146 0.036041185 0.027524985 -0.06413944
000040 69 61 0e bd 62 73 a1 3c 87 1d 55 bd a4 ee a5 3c
       -0.034760866 0.01970834 -0.052030113 0.020255394
000050 f8 30 fa 3b c0 8e 93 bd 96 af 9a 3d 22 ac 0b 3c
       0.007635232 -0.07204962 0.075530216 0.008524926
000060 85 e4 18 bd d0 05 93 bb 15 60 e7 bc 67 f6 18 bc
       -0.03732731 -0.004486777 -0.028244058 -0.009336091
000070 19 d6 25 bd 06 f1 b0 3c ec cb 64 3d 58 08 9a 3c
       -0.040487383 0.021599304 0.055858538 0.018802807
000080 20 39 5e bd d0 30 59 bd f5 f0 8a 3d 6a 7c 59 3c
       -0.054253697 -0.053025067 0.0678424 0.0132742915
000090 be 8e 4d bd bc 28 40 3d b2 15 88 3d 74 62 10 3d
       -0.050184958 0.046913847 0.06644763 0.035250142
0000a0 90 bf 2a bc 8f 4d 12 bd 95 38 9c 3d ab 63 be 3c
       -0.010421649 -0.035718497 0.0762798 0.023240885
0000b0 68 c8 05 bd 86 ae a4 3c 60 eb c4 bc 9a 74 81 3d
       -0.032661825 0.02010275 -0.024038017 0.06321068
0000c0 5f 23 ed bb f0 8f 1c 3c 70 a9 4e 3c 7c bf ed 3c
       -0.0072368826 0.009555802 0.012613639 0.02902197
0000d0 3b f4 2f bd bf 51 4c 3d 34 4d d5 3c 5f 9c 5d bd
       -0.042957526 0.049882647 0.02603779 -0.054104205
0000e0 70 ce 79 3d e3 5e 8f 3d 68 d3 08 3c 24 22 55 bb
       0.06098789 0.0700052 0.008351184 -0.003252157
0000f0 13 02 8d 3d 70 ce a5 bc 0d 26 31 3d ad 5d b8 3d
       0.06885161 -0.020240039 0.04324918 0.09002242
000100 d4 ba 37 3d 3e 08 a6 3c 52 38 52 bd 58 98 09 bc
       0.044855908 0.020267602 -0.051323242 -0.008398138
000110 54 7c 9b bc 26 bf d7 3c 03 3a 8f bd b7 60 1a bd
       -0.018980183 0.026336264 -0.06993487 -0.03768989
000120 5a b3 59 3d 4a cc 98 3d 78 35 af 3d 43 cb 99 bd
       0.05314956 0.0746084 0.0855512 -0.07509472
000130 c8 4c 36 3d f9 b8 8d 3d 19 d2 df ba 64 43 15 3d
       0.044506818 0.06920046 -0.0017076164 0.03644122
000140 4d 05 8f bd 0d 12 b1 3d 3c d2 43 3d 73 af 9d 3c
       -0.06983433 0.08646021 0.047807917 0.0192487
000150 ba 06 8d 3d 0b c7 bc 3d a6 91 a8 3d 07 20 95 3d
       0.068860486 0.09217652 0.08230905 0.07281499
000160 4c 97 a2 bd ff c8 79 bc 94 23 64 3d f8 a5 95 3d
       -0.07939014 -0.015245675 0.055697992 0.07307047
000170 be b1 5a bd b9 ed 21 bd d6 74 ca 3d ec 59 94 3d
       -0.053392164 -0.03953335 0.09885566 0.07243714
000180 26 b9 b2 bc 38 82 d3 bc 3b 59 a7 3d 38 54 89 bb
       -0.021816801 -0.02581893 0.08171316 -0.004190948

layer4.weight f4 [80, 100]
000000 b4 28 1b bc f4 9e b7 bc 36 17 4a 3d 4f 4d 6e bd
       -0.009470154 -0.022414662 0.049338542 -0.058179196
000010 60 3f c1 bd 31 6d 8d 3d 09 fa 7f 3d 18 37 f9 bc
       -0.09435916 0.06905592 0.06249431 -0.030421779
000020 27 53 bb bd 1a e4 0c 3d 2c 38 67 3c 50 a4 12 3d
       -0.091467194 0.034397222 0.0141125135 0.03580123
000030 d5 62 82 3d 6d c2 38 bc 68 d8 41 3c 10 8f 28 bc
       0.06366507 -0.0112768235 0.01183138 -0.010288015
000040 40 be b2 3d 3a 31 85 bd 70 74 07 3c 52 fb a1 3d
       0.087276936 -0.0650353 0.008267507 0.07909264
000050 4e 12 75 bd 92 7c 49 3d d0 ee 8c bd dc b2 8f 3d
       -0.05983191 0.049191065 -0.06881487 0.070165366
000060 2c 37 95 bd 22 fd 7c 3d a8 97 15 bd c3 cb 7c 3c
       -0.07285914 0.061764844 -0.036521584 0.01542944
000070 c4 55 dd 3c 5f 0e 2b bc ab ea 64 bd 65 a0 c5 bd
       0.027018435 -0.010440438 -0.05588786 -0.096497335
000080 df f0 cb 3d d6 df ac bc e5 3a c0 bd 7c 03 13 3d
       0.09958052 -0.021102827 -0.09386233 0.035891995
000090 44 d3 ec 3c ab 5f 9b bd 76 32 eb bc 94 17 7a 3d
       0.028909333 -0.075866066 -0.028710585 0.061057642
0000a0 20 4e ae 3b bf 0b 72 3d 22 64 2c 3d c8 3b a2 bc
       0.005319372 0.059093233 0.04208768 -0.019803897
0000b0 90 32 5d bd 60 2e 82 3d d4 3f 0c bd 93 c5 6b bd
       -0.0540033 0.063565016 -0.03424056 -0.05756147
0000c0 cf 7e 0a 3d 5a b2 58 bd 92 7a 02 3d 72 14 51 bd
       0.03381234 -0.052904464 0.031855173 -0.05104489
0000d0 4b 08 94 bd 10 2f a1 3c 9b 03 20 bc 66 fd fd 3c
       -0.07228144 0.019675761 -0.009766485 0.031004619
0000e0 00 19 c8 bc fa 3f 02 bb 82 14 02 3d a8 74 00 bd
       -0.024425983 -0.0019874559 0.03175784 -0.031361252
0000f0 61 88 e9 3c fd 8c c4 3d ff 0a 7f bd 0a 78 11 3c
       0.028507413 0.09597204 -0.062266346 0.008878717
000100 fd 59 88 3c 0b ef a6 bd 46 25 01 3d b5 7e f9 3c
       0.016644472 -0.081510626 0.031529687 0.030455926
000110 20 56 c5 3b de b9 bb 3c e5 60 81 bd 9b c7 d8 3c
       0.00602223 0.022915777 -0.06317309 0.026462367
000120 7d 07 3b bd bf 34 7a bd ff 01 97 bd 20 85 80 bc
       -0.04566144 -0.06108546 -0.073734276 -0.015688479
000130 a0 bd 82 bb 1d 0c 97 bc 4a 5e 68 3d 89 71 46 bd
       -0.00398989 -0.018438393 0.056730546 -0.04844812
000140 c5 bb c2 3d 36 f7 c1 3d 7a f4 6a 3d a7 37 0a 3d
       0.095084704 0.0947098 0.057362057 0.03374448
000150 e7 ce 69 bd d7 a1 81 bd 39 62 3c bd 3e bc c7 bd
       -0.057082083 -0.063296966 -0.04599211 -0.09752701
000160 40 ca 62 3b 92 45 08 3d 56 c7 28 3d 31 07 9b 3d
       0.0034605414 0.033269472 0.041205727 0.07569731
000170 85 c7 9b bd fd af 96 3d 2c 0e 27 3d 04 94 85 3d
       -0.07606415 0.07357786 0.040785 0.06522372
000180 d3 ef 1c 3c f6 01 44 3d f8 c0 00 bd dc 7b b2 bc
       0.009578663 0.047853433 -0.03143403 -0.021787576
000190 21 e9 72 bd 00 e0 e9 38 08 64 e5 bc 99 89 e4 bc
       -0.05930436 0.00011152029 -0.0280018 -0.027897643
0001a0 c8 b9 f0 3b 77 75 69 bd 3c 7b 3e bd a1 84 85 3d
       0.0073463656 -0.05699679 -0.046504244 0.065194376
0001b0 69 8b 2a bc 35 44 bb 3d 97 b9 d0 ba cd 7c ce 3d
       -0.0104092145 0.09143869 -0.0015924451 0.100823976
0001c0 b0 10 25 bd 94 ab c9 bd 66 e6 09 bd 74 26 00 bd
       -0.040299118 -0.09847179 -0.03366699 -0.03128667
0001d0 c2 c5 e4 3d 65 21 e8 3d 63 d2 9d bd ad 98 a2 3b
       0.11170532 0.113344945 -0.07706144 0.004962048
0001e0 54 35 8f bd 3a 9e 76 bd c2 a6 84 3d c9 e3 e6 bc
       -0.069925934 -0.06020949 0.06477119 -0.028184788
0001f0 ea 26 9d 3d 0c d8 e2 3c 9d 71 34 bd 91 8e a1 bc
       0.07673438 0.02769091 -0.044053663 -0.019721301
000200 02 fa 26 3d d8 45 b9 3c 37 8b e0 3d 3f 48 cc bd
       0.04076577 0.022616312 0.10964053 -0.09974717
000210 03 7f 71 bd 30 96 64 3d 3d 8e 44 3d 45 3c 6e bd
       -0.05895902 0.055807292 0.04798721 -0.058162946
000220 0e a0 d2 3d e2 43 54 3d 18 d9 99 bd ea 38 69 bd
       0.10284434 0.05182255 -0.075121105 -0.056939043
000230 d3 27 67 bd 85 ae 3f 3c 94 d8 7b 3c db ca ea b9
       -0.056434464 0.011699324 0.0153714605 -0.00044783097
000240 f4 41 40 3b 13 98 ce 3d 40 37 6a bd 54 91 1c 3d
       0.0029336186 0.100875996 -0.057181597 0.038224533
000250 1e 2a 91 bd 44 29 e2 3c 73 9a 9e bd 12 1e a7 bd
       -0.07088111 0.027607568 -0.077443026 -0.08160032
000260 c8 3c c3 3d 8e 2f 47 3c ea 9a 7e bd 19 6e 88 3d
       0.095330775 0.012157334 -0.062159456 0.066616245
000270 68 b7 c3 3c ba 88 37 bd 48 77 87 bc 9b b3 d3 3d
       0.023891166 -0.044808127 -0.01653637 0.103369914
000280 3c 89 02 bc 70 d9 67 bc 25 a5 88 3d b7 14 8b bd
       -0.00796729 -0.014150962 0.06672124 -0.067910604
000290 e0 bf 83 3b f3 cb da 3d 60 0f b4 bb 02 1d 8b 3d
       0.004020676 0.106834315 -0.005494997 0.06792642
0002a0 3c 85 85 bd 8b 40 21 3b cb 32 ba bd f1 f9 88 3c
       -0.06519553 0.002460512 -0.09091719 0.016720744
0002b0 81 59 25 3c 76 43 74 bb eb 61 0a 3d 80 d8 1e bd
       0.01009214 -0.0037271655 0.033784788 -0.03878069
0002c0 cc 09 aa 3c 06 db a1 bc 13 eb 13 3c 5f e1 a1 3c
       0.020756625 -0.019757759 0.009028214 0.019760786
0002d0 01 b3 c5 3d 88 93 c5 bd 94 73 6c 3d 03 50 d6 bc
       0.09653283 -0.0964728 0.05772741 -0.0261612
0002e0 db 1d a1 3d 4c 9f 9d 3c ec ad 8c bd 3e 0e 1f 3d
       0.078670226 0.019240998 -0.068691105 0.03883194
0002f0 20 8d 7f bd 06 0d fb 3d fe 58 6b 3d f4 e3 82 bd
       -0.062390447 0.122583434 0.057457916 -0.06391135
000300 77 68 7b bd 2d 97 f9 3c 29 f1 8e 3d 7e 5b 5a bd
       -0.061378922 0.030467594 0.069795914 -0.05330991
000310 84 d1 12 3d 60 ad ec bb 80 4b be 3d 78 c7 f7 b9
       0.03584434 -0.0072228163 0.09291744 -0.00047260127
000320 d2 16 d2 3c 4c c6 b4 bc 76 6d 72 3d f6 97 9a 3d
       0.025645647 -0.022067212 0.05918642 0.075485155
000330 5d 45 c2 bd 4c d6 cd 3c 8b a0 04 bc 59 12 c6 3d
       -0.09485886 0.025126599 -0.008094917 0.09671468
000340 58 c5 1a bc d0 38 9e bd d1 e3 ca 3d ff 99 54 3d
       -0.0094464645 -0.0772568 0.09906734 0.051904675
000350 1a 71 24 bd a3 4a c9 3c 5a e8 5f 3d 65 7b a4 3d
       -0.040146925 0.024571722 0.054664947 0.08031348
000360 56 04 be 3d 21 cc 20 bc 71 27 8c bd 01 d5 de 3d
       0.09278171 -0.009814293 -0.0684346 0.10880471
000370 1e 07 5d 3d 7c 72 f1 3c 0e 32 89 3c bb ec cd bb
       0.053961866 0.029473536 0.0167475 -0.006284324
000380 6a 5e 88 3d c0 62 ce bc 56 20 2c bd b0 ff 52 3d
       0.06658633 -0.025193572 -0.042023025 0.051513374
000390 2b c1 a5 3d 9e 8e be 3c f6 c3 2e bc 40 1c c7 3c
       0.080934845 0.023261365 -0.010666838 0.024305463
0003a0 ea 79 4c 3c 0f d5 26 3c 0b 6c e0 3c 70 8a ae 3c
       0.012480238 0.010182633 0.027395269 0.021306247
0003b0 d4 49 54 bd 18 13 64 3c 94 ad 93 bd f7 5e 8b bd
       -0.05182822 0.013920568 -0.07210842 -0.068052225
0003c0 aa 55 35 3d 22 37 87 bb 8a 20 20 3d ed 58 a4 bd
       0.04427115 -0.0041264454 0.03909353 -0.08024774
0003d0 43 c4 03 3c fd 83 f8 bc cc c3 e3 bc 4e 66 a4 3d
       0.008042398 -0.030336374 -0.027803324 0.080273256
0003e0 b2 d6 57 bd 8c d9 80 3c d8 8f 6d 3c 06 69 79 3c
       -0.052694984 0.015728734 0.014499627 0.015222793
0003f0 22 7c b3 bc 31 82 81 3d 6b bb c4 bd e2 5a d8 3d
       -0.021909777 0.0632366 -0.0960606 0.105642095

layer4.bias f4 [80]
000000 df 02 90 3d 9d 42 a5 3d e0 34 b6 3d c4 dc 2e bc
       0.070317976 0.08069346 0.08896804 -0.010672752
000010 89 d8 9a bd 9e 25 0b 3d a6 09 84 bd a5 f6 86 3d
       -0.07560832 0.03397142 -0.06447153 0.065900125
000020 67 ee ba 3c 58 82 a2 3c 87 c7 99 3d 79 5a 1c 3d
       0.022818757 0.019837543 0.0750876 0.03817222
000030 5d 4d ae bd 83 c3 30 bd 0b 79 c2 3d 3a 7c 76 bd
       -0.085108496 -0.043155205 0.09495743 -0.060177065
000040 91 a2 ec 3c ec 12 16 bd cf ce b0 3d 0a 1d 79 bd
       0.028886111 -0.03663914 0.086331956 -0.06081871
000050 4c f2 5d bc 44 7a 62 3d af 26 b8 3d f8 f6 97 3d
       -0.013546538 0.055292383 0.08991753 0.074201524
000060 3a a4 c0 3d f7 bb 41 3d f5 b7 4f 3d ce 4a da 3d
       0.09406324 0.047298398 0.050712544 0.10658799
000070 71 95 9d bd 68 60 91 3d e1 58 e3 3d ab 5b c5 bc
       -0.07694519 0.07098466 0.11100937 -0.024091562
000080 1a 81 c8 bd 7f fc bc bc 95 f2 89 3d e5 d4 81 bb
       -0.09790249 -0.023069618 0.06735722 -0.0039621466
000090 05 77 c0 3d 99 1a 95 3d bd 06 93 bd 64 59 63 3d
       0.09397701 0.07280464 -0.071790196 0.05550517
0000a0 73 7c 79 bc 7f af 2f 3d 0b de c1 3d e0 1f d3 3c
       -0.015227425 0.042891975 0.094661795 0.025772035
0000b0 38 ce c2 3c 87 b5 d9 3d db 5e c7 bd e8 83 43 bc
       0.023779973 0.10630327 -0.09734889 -0.011933304
0000c0 4a 22 ac 3c ca 8d 01 bd bc ed 2c 3d c2 1f 87 bc
       0.021012444 -0.03162936 0.04221891 -0.016494635
0000d0 6b 5a ab bd e0 31 f1 3c c5 71 e1 3d aa c5 ca bc
       -0.08366855 0.029442728 0.11008028 -0.024752457
0000e0 6a 9d 3b bd 6d 9d a2 bd c4 c7 6b bb 40 1e 06 bd
       -0.04580442 -0.07940183 -0.0035977224 -0.032743692
0000f0 c4 71 e5 3c de 09 96 3c 49 36 94 3d 35 15 92 bd
       0.02800835 0.018315252 0.072369166 -0.07132951
000100 12 33 35 3d 6d 8b c8 3d ca 25 a1 3d 5d 18 35 3d
       0.044238158 0.09792218 0.07868536 0.044212688
000110 9a 4d ba bd 73 7e c4 3d 47 c7 80 3d c5 50 3d 3d
       -0.090968326 0.09594431 0.06288009 0.046219606
000120 a1 8c 80 bd f9 21 dd 3d 03 1b c5 3d d3 dc ce bc
       -0.06276823 0.107974954 0.09624293 -0.025251782
000130 a2 b8 9c 3d 30 ab 28 bc b6 9a cc 3d e8 75 af bd
       0.076524034 -0.0102947205 0.09990446 -0.08567411

layer5.weight f4 [60, 80]
000000 cc f2 82 bc d7 b1 00 be dc f9 7c 3d 9c b2 91 3d
       -0.015984915 -0.1256784 0.061761722 0.07114145
000010 c0 7c e2 bd a8 08 14 3c 4c 1f 48 bd 7d 27 2e 3c
       -0.110589504 0.009035267 -0.048857972 0.010629532
000020 d4 1a a4 bd fb 3f 2d bc d4 3f cc bd b8 6c 98 3d
       -0.080129296 -0.010574336 -0.09973112 0.074426115
000030 36 b0 3e bd 84 06 96 bd ca bd 05 3d 7b b3 ad 3c
       -0.046554767 -0.073254615 0.0326517 0.021203747
000040 fb cc 4b bd a4 36 c1 bd a3 79 1a 3c 3f 14 80 bd
       -0.04975603 -0.0943425 0.0094284145 -0.06253862
000050 09 91 68 3d 5c 28 83 3d 72 75 c0 3d 6e 8b 98 bd
       0.05677894 0.06404182 0.09397401 -0.07448469
000060 aa 1f df 3d f3 85 8c 3d 25 cc 43 3c fc e6 9e bd
       0.10894711 0.06861486 0.011950527 -0.077589005
000070 3a 70 8d bd 67 6b 91 3b a5 4a c5 bd c2 3b 46 3d
       -0.06906171 0.004437852 -0.09633378 0.048396833
000080 fc 0f 88 bc ac 89 9d 3c ff 8f 90 3d d0 c6 59 3d
       -0.016609184 0.019230686 0.07058715 0.053168118
000090 71 49 60 3d 39 54 48 bd a6 b1 e1 bd 55 2b 48 3b
       0.05475754 -0.048908446 -0.11020212 0.0030543406
0000a0 2c 84 d8 bc cb 8f 41 3d 76 68 cd 3d d6 6f 4a 3c
       -0.026430212 0.047256272 0.1002969 0.012355765
0000b0 fc f5 df bc ef 76 f3 bc 40 4b 1c bc 4a 8d 20 bd
       -0.027338974 -0.029719798 -0.009539425 -0.039197244
0000c0 da 65 2f bd 3e 51 9a 3d df 0c 04 be 15 80 ad bd
       -0.042821743 0.07535027 -0.12895535 -0.08471695
0000d0 d0 90 81 bd 0e 87 34 bd ea a7 54 3d a3 d6 91 bc
       -0.06326449 -0.04407411 0.051917948 -0.017802542
0000e0 0c 6a ce 3d ec 3a 4e bd da b7 29 3d 50 69 cb bb
       0.100788206 -0.05034916 0.0414351 -0.0062076226
0000f0 09 7a 6d 3d ad f9 36 3d 6d ca 18 3d 50 41 1a 3c
       0.05797771 0.044671703 0.037302423 0.009414986
000100 58 a9 94 3d e8 fa 67 bd d4 ec ae 3d 10 51 41 3d
       0.07258862 -0.056635767 0.08541265 0.047196448
000110 f9 2f c7 bd d9 0a bc 3b a6 06 f9 bd 03 83 20 3d
       -0.09725947 0.005738598 -0.12159471 0.039187443
000120 b5 20 23 bd 8e bc 2f bd d4 0c 1a bd a8 a4 8f bd
       -0.039826114 -0.04290443 -0.03760989 -0.070138276
000130 85 a2 75 3d 4f a8 c1 bd 83 e4 80 bc 90 18 d6 3d
       0.059969444 -0.094559304 -0.015733963 0.10453904
000140 b0 f1 e1 3d 30 6f e8 3c 20 3b 66 bb c8 cc e1 bc
       0.11032426 0.02837333 -0.0035130456 -0.027563468
000150 60 7d 0d bb 9c fc 5e 3d 80 44 76 ba 98 0f 37 bd
       -0.0021589622 0.054440126 -0.00093943626 -0.044692606
000160 ac b9 bf 3d 6e db 66 bd a0 64 a5 bd 56 c5 76 bd
       0.09361586 -0.05636161 -0.08075833 -0.060246788
000170 c0 01 e2 ba 1c 84 99 bd b8 64 32 3c 46 aa b1 bd
       -0.0017242953 -0.07495901 0.010888271 -0.08675055
000180 b8 e5 4d 3c ab 8f dd bd 8d 5c ca bd 30 e6 b7 3d
       0.012566976 -0.10818418 -0.09880934 0.08979452
000190 1c ea 25 3d 38 82 9e 3d 3e 86 ad 3d 30 0a 7c 3c
       0.040506467 0.07739681 0.0847287 0.015383288
0001a0 ec 99 59 3d 24 f9 cc bd c8 73 07 bc 8c 14 05 3d
       0.053125307 -0.10008457 -0.0082673505 0.0324903
0001b0 34 54 81 3d 80 8c c9 3b 6c a1 cb bc ac 09 91 3d
       0.063148886 0.006150782 -0.024857245 0.07081923
0001c0 f4 02 6b 3d 88 8a fd 3c 51 af ad bd 8d e6 ba bd
       0.057375863 0.030949846 -0.084807046 -0.09126005
0001d0 34 21 3b 3d 70 f0 ad bd 6a 52 75 bd e3 7c 75 bd
       0.04568596 -0.084931254 -0.05989305 -0.059933554
0001e0 d0 5e b5 bb cc 61 26 bd ac cb ac bd 64 6d 83 bc
       -0.005534984 -0.04062061 -0.08437285 -0.016043372
0001f0 9a 8e 99 bd 02 29 80 bd 94 57 9e bd 68 20 62 3d
       -0.07497902 -0.062578216 -0.07731548 0.055206686
000200 dc 50 46 3d e2 ec 46 bd 50 a3 c7 bc bc 4b 19 bd
       0.048416957 -0.048565753 -0.024369866 -0.03742574
000210 30 38 e0 bd 76 60 84 bd 80 e9 d4 bd 3c e0 99 bd
       -0.10948217 -0.06463711 -0.10396099 -0.075134724
000220 3c 2b d5 3d 80 48 64 3b 3b 88 54 bd 81 b6 74 bd
       0.10408637 0.0034833252 -0.051887732 -0.05974436
000230 a8 b6 86 bc 60 78 d9 bd bc 3e cc bc b4 15 d8 3d
       -0.01644452 -0.10618663 -0.024932258 0.105510145
000240 48 00 49 bd f9 41 9e bd e0 cd 07 3c 15 8a 51 bd
       -0.049072534 -0.07727427 0.0082888305 -0.051157076
000250 b0 4a cb 3b cc d2 a7 bd 1a 8b 31 bd ac 94 d8 3d
       0.006203972 -0.08194503 -0.04334555 0.10575232
000260 70 2a bc bc a8 4f e8 3c 00 9a df 39 40 ff dd bb
       -0.022969455 0.028358296 0.00042648613 -0.006774813
000270 44 45 96 3d 6c 59 02 3d 18 8b 51 3d e6 28 ac 3d
       0.0733743 0.03182356 0.05115804 0.08406238
000280 8e 88 6e 3c e5 37 82 3d 8e f0 98 3d e7 ee 02 bd
       0.014558924 0.06358317 0.07467757 -0.031966116
000290 17 c2 fb bc 82 2c bd 3d 83 82 33 3d 14 44 54 3d
       -0.030732198 0.09237005 0.043825638 0.051822737
0002a0 61 ae e4 bc 7a 38 24 3c 87 18 d8 3d f2 5e c5 bd
       -0.027915182 0.010023231 0.10551553 -0.0963725
0002b0 e0 c5 b8 3b a1 4f 3b 3d 40 34 bd 3c 3f 69 f0 bc
       0.005638823 0.045730237 0.023096204 -0.02934706
0002c0 45 01 b5 3c b0 ab 51 3d c9 25 5c bd 6a 6a a3 3d
       0.022095332 0.051189125 -0.053746972 0.07979281
0002d0 8e c9 9f bd eb 15 08 3e 90 36 8d 3d 0b ef 67 3d
       -0.078021154 0.13289611 0.068951726 0.056624454
0002e0 5d 6d 9d bd d0 2a 93 3d 46 97 84 bd 96 6c 7a bd
       -0.07686875 0.071859 -0.064741656 -0.061138712
0002f0 ed 6f 09 3e fc f3 9d bd 77 70 df 3d b4 08 22 bd
       0.13421603 -0.07712552 0.10910123 -0.03955908
000300 b8 d9 da bc 79 c6 aa 3d 5e 05 03 3e 87 58 fd 3b
       -0.026715145 0.08338637 0.12795016 0.0077315005
000310 f5 99 ce bd 8a 83 ae bd ea 6a 09 3d e6 bd 78 bc
       -0.10087959 -0.08521183 0.033549227 -0.015181994
000320 93 2d dd bd 6d 6c e1 3d c0 64 56 3d f4 88 6d bd
       -0.10799708 0.11007009 0.052342176 -0.057991937
000330 18 bc a9 3c 2f f6 ca 3d 77 e1 e1 bd ef 74 cf bd
       0.020719573 0.09910237 -0.11029332 -0.10129725
000340 8f 07 9c 3d 0b 57 d0 3d 69 f9 a7 3d dd 25 c9 bd
       0.07618629 0.10172852 0.08201868 -0.09821675
000350 53 ab 6d bd ef 91 a2 3d 30 47 a8 bb ae c8 ae bd
       -0.058024716 0.07937991 -0.0051354393 -0.0853437
000360 86 52 97 3b 40 cc 8f bc db 4f 50 3c 10 52 1e 3d
       0.004617992 -0.017553449 0.0127143515 0.03865248
000370 7c ff 06 3e f5 61 10 3e c9 3d 7f bd 53 c6 e8 3d
       0.13183397 0.14099868 -0.062314782 0.11365952
000380 74 7f ac 3d 85 50 6a bd a3 7a 14 3d 5c 51 9f bd
       0.08422747 -0.057205696 0.036249768 -0.0777919
000390 1a b1 bc 3d a2 84 ec 3d 40 7c 33 3d 66 a4 d1 bd
       0.09213467 0.11548735 0.043819666 -0.10236435
0003a0 8b 8e a8 3d 64 7d 88 bd d2 cf 81 bd 0c ff 8f 3d
       0.08230313 -0.06664541 -0.06338467 0.07031068
0003b0 07 c0 97 3c bc a6 9e bc 0d 4a 22 bd d0 db 67 bc
       0.018524183 -0.019366615 -0.0396214 -0.0141515285
0003c0 25 d4 07 3d 5d 6f 9c 3c fb 71 52 39 c5 33 dc bc
       0.0331613 0.01909607 0.00020069622 -0.026880154
0003d0 4c 94 e9 3c 40 40 47 bb c4 aa 9e bd 9a 0d 80 3d
       0.028513096 -0.0030403286 -0.07747415 0.06252594
0003e0 5a 36 74 3d 97 00 9c 3d 9d a7 fb 3c ea dc d0 3d
       0.059622146 0.076173 0.030719573 0.10198386
0003f0 98 21 08 3d f7 a5 7d 3c d1 6d e0 bd c7 59 dc 3d
       0.033235162 0.015481464 -0.10958446 0.10759311

layer5.bias f4 [60]
000000 d9 ee c4 bd 6f e9 d0 bd 66 59 00 3e 5b 80 85 3d
       -0.09615869 -0.10200774 0.12534103 0.065186225
000010 34 bf 4d 3d 6b f0 fb 3c b0 42 36 3d d6 e3 e9 3d
       0.050231174 0.030754289 0.044497192 0.114204094
000020 4d f2 a0 3d 36 a6 fc 3c bc 74 3f 3d cd 48 e1 3c
       0.07858715 0.030840974 0.046742186 0.027500534
000030 6b 6d ed 3d 69 09 58 bd 77 bf 49 bc 2c e5 ad bc
       0.115931354 -0.05274335 -0.012313715 -0.021227442
000040 94 e6 48 3b 08 16 4e bd 5e d0 ec 38 bb 55 cf bd
       0.0030655013 -0.05031398 0.00011292168 -0.10123774
000050 fb 91 c3 bd f4 a2 9c bd cc d1 90 3b 10 72 9b 3d
       -0.09549328 -0.07648268 0.004419541 0.07590115
000060 cb f4 8b 3d 7f 17 9c 3d 2f 91 36 3d 8a c1 dd bb
       0.068338 0.07621669 0.04457205 -0.0067674564
000070 db 3d db 3c 9d 32 e3 bd 95 c8 e0 bd 37 f1 65 bd
       0.026762893 -0.11093638 -0.10975758 -0.056138244
000080 e0 63 bb 3d 63 f8 af 3d e4 7b a2 3d 00 59 ec bd
       0.09149909 0.08592298 0.079337865 -0.11540413
000090 15 c8 6b bd 00 fe e5 b9 de eb fb 3d a0 3f 1c 3d
       -0.05756386 -0.00043867528 0.123008475 0.038146615
0000a0 11 4f 5f 3d d8 de b3 3d b9 c4 be bd f1 17 cc bd
       0.054518763 0.087827384 -0.093148656 -0.09965504
0000b0 e0 63 a3 bb 8f 52 fc bc e4 37 e1 3d 04 0e 93 3d
       -0.0049862713 -0.030801086 0.109969884 0.07180408
0000c0 e9 55 9a 3d 28 f7 5c bc af 11 d2 bd 4d 9c 9c 3d
       0.07535917 -0.013486661 -0.10257279 0.076469995
0000d0 d3 f9 2e bc 78 26 be bc 80 3f fe 3a 1f ee 49 bc
       -0.01067968 -0.023211703 0.0019397587 -0.012324839
0000e0 a5 43 c2 3d e0 08 b3 bc e4 4e bb bd ac 2d e4 bc
       0.094855584 -0.021854818 -0.091459066 -0.02785381
