saved_models/model_CSCO.pt (torch_old, 190423 bytes, 15 tensors)

layer1.weight f4 [100, 5]
000000 46 13 3e 3d ca da 48 be 9a e7 a3 bc 6f 85 93 3e
       0.0464051 -0.19614711 -0.020007897 0.2881274
000010 47 83 8a bd 28 e6 4b be 26 f3 b9 be 68 d6 40 3e
       -0.067633204 -0.19912016 -0.3631832 0.1883179
000020 e2 d5 49 be 06 15 ab be c4 56 ab bd 44 77 ba be
       -0.19710496 -0.33414477 -0.083661586 -0.36419117
000030 2a 18 95 be e9 7f e1 be 80 39 bf 3e 92 7d 96 be
       -0.29119998 -0.440429 0.37348557 -0.29392678
000040 ea 54 56 be c0 de ae bd b5 9b 53 be 3d 2c ba be
       -0.2093083 -0.0853858 -0.20664866 -0.36361876
000050 41 47 c7 3e 8f 0c 5b bc e5 e5 97 bd 26 fd 3c 3e
       0.3892155 -0.013369693 -0.07416896 0.18455943
000060 a6 89 99 3d bb a2 11 3e 4a 9c 0e be d1 ea 60 be
       0.074969575 0.14222233 -0.13926807 -0.21964575
000070 72 53 e9 3e 63 ea 48 be d2 60 cd 3e a7 8f d7 bd
       0.45571476 -0.19620661 0.4011293 -0.105254464
000080 33 46 c6 bd 43 54 0b 3d c0 cc 4a bc 46 39 a8 be
       -0.09681358 0.034015905 -0.012377918 -0.32856196
000090 b0 42 e3 3c a0 0e 02 3e 78 75 16 3e f0 b3 be be
       0.02774176 0.12700891 0.14693248 -0.37246656
0000a0 9f a1 b1 be 38 99 f1 bd e0 c7 ce 3e 94 bd f1 bd
       -0.3469362 -0.11796802 0.40386868 -0.11803737
0000b0 48 f1 50 3e 38 0d ba be a3 15 c5 be 39 6f d1 be
       0.20404541 -0.3633821 -0.3849307 -0.4090517
0000c0 c2 76 e2 3e 70 a8 e5 bd bb 71 73 be 6a 69 d5 be
       0.4423123 -0.112137675 -0.23773853 -0.41681987
0000d0 b4 c4 84 bd dd 21 d3 be 4e 0e a7 3e 82 5f cd be
       -0.06482831 -0.41236773 0.326281 -0.4011193
0000e0 32 ca bf 3e 50 a8 7c 3d 72 23 94 3d 1c 33 63 3d
       0.3745895 0.061683953 0.07233323 0.055468664
0000f0 98 67 f3 3d 58 02 10 3e f6 f9 c2 be c6 3d 8a be
       0.11884993 0.14063394 -0.3808133 -0.27000254
000100 18 d9 64 bd 24 79 60 3e b5 da d1 be 67 37 b9 be
       -0.0558711 0.21921211 -0.40987173 -0.3617508
000110 aa 77 32 be b8 f2 ee 3d 1c 43 74 be 1c 46 21 3e
       -0.1742846 0.11667389 -0.23853725 0.15749401
000120 20 a5 0c bc b0 75 d8 3d 7c a9 f3 bd eb 4f c4 3d
       -0.008584291 0.10569322 -0.11897561 0.09585556
000130 c0 31 da 3e 83 68 9f be 4e 2a 43 3e 4a 61 ce bd
       0.4261608 -0.31134424 0.19059107 -0.1007715
000140 90 57 c8 3c fa 30 25 be 0c 91 83 be c8 9b 35 3d
       0.024455816 -0.16131964 -0.256966 0.044338018
000150 1a 28 71 be bb 17 79 3e 2f 48 b9 3e ed 35 27 be
       -0.23550454 0.24325459 0.36187884 -0.16329165
000160 16 ec 80 be 1d b9 06 3e 85 05 2a 3e 38 81 be 3e
       -0.2518012 0.13156553 0.16603668 0.3720796
000170 00 f0 44 3e b2 89 d7 3e 41 ce be 3e 48 27 4a be
       0.19232178 0.4209724 0.37266734 -0.19741547
000180 61 10 ae 3e d6 f4 e1 3e cd 66 01 be db 17 9a 3e
       0.3399687 0.44132107 -0.12636872 0.30096325
000190 40 43 a6 3e fe 37 89 3c 33 34 bc 3d e9 ed c1 be
       0.32473183 0.016750332 0.09189644 -0.37876824
0001a0 08 46 c6 3e 92 87 9f be cc 5d b7 be 98 54 1e bd
       0.38725305 -0.3115812 -0.3581375 -0.038654894
0001b0 a2 3d ad 3e 48 cf d0 be 4e bc 80 be 91 09 7a 3e
       0.33836085 -0.40783143 -0.25143665 0.24417712
0001c0 5c f8 69 3e 39 d9 b8 3e c7 7c 21 bd ec 6e e5 3e
       0.22848648 0.36103228 -0.039425638 0.4481119
0001d0 1b 0b 90 be 0a b5 00 bd 18 72 dd 3e 95 4a c5 be
       -0.28133473 -0.031422652 0.4325111 -0.38533464
0001e0 d2 ac c2 be 47 df 4d 3e 58 db 43 3d 37 08 5d 3e
       -0.38022476 0.20104705 0.047816604 0.21585165
0001f0 00 6d 4d 3e e2 39 bc be 7c be bc be 78 8c bd 3d
       0.20061111 -0.3676291 -0.36864078 0.09255308
000200 f2 4b 14 be 10 1b 2f 3e b4 f8 1c 3e e0 9a a4 be
       -0.14482096 0.17100167 0.15329248 -0.3214941
000210 ff 67 52 be 40 8e 08 be 7a a4 56 be 92 e6 21 3e
       -0.20547484 -0.13335514 -0.2096118 0.15810612
000220 50 e9 d4 3d 85 6d 83 be 64 6d 19 be 7a 3b d3 3e
       0.10396063 -0.25669494 -0.14983135 0.41256315
000230 a2 99 e8 3e 6f 5f 5d be 41 b6 93 3e d4 75 94 3e
       0.45429713 -0.21618436 0.28849986 0.28996146
000240 de 78 c4 be e5 2d ec 3d 49 a7 f5 3d aa 68 04 bd
       -0.38373464 0.11532191 0.11994798 -0.032326378
000250 93 88 d3 3e 5e e9 af 3d 40 c7 cc 3e 10 33 1c 3e
       0.41315135 0.08589433 0.39995766 0.15253854
000260 dd fa 4e be 2d 31 2a 3d b5 a7 04 3e 53 b8 d3 be
       -0.20212884 0.041550804 0.129546 -0.41351566
000270 62 55 8d 3e b2 44 14 be 66 0a 74 be 1d 42 ad be
       0.27604204 -0.1447933 -0.23832092 -0.33839503
000280 73 e4 9d be da 0e 1e be e8 a1 fb 3d 3f 39 5e be
       -0.30838355 -0.15435353 0.122867405 -0.21701525
000290 e8 ad 13 3e 58 1a c6 3d c7 de b4 be f4 5c 2b be
       0.14421809 0.096729934 -0.35326216 -0.16734678
0002a0 c8 b1 fe 3d 44 32 42 3e cd 5c 3a bd a1 5c 63 3e
       0.12436253 0.18964487 -0.045498658 0.22203304
0002b0 67 f8 b3 3d 15 0a 3b 3e c6 1a 9e 3e 53 2a 91 be
       0.08787613 0.18265565 0.30879802 -0.28352603
0002c0 70 b4 87 bc 70 82 98 be c8 b5 3d 3d f0 3b e2 3d
       -0.016565531 -0.29787016 0.04631594 0.110465884
0002d0 4b a0 aa be 72 e1 a1 3e a7 37 b7 3e 85 4c 06 be
       -0.3332542 0.31617314 0.35784647 -0.13115127
0002e0 c7 e9 ad 3e d5 93 79 3e ad 51 b8 3d f7 62 2e 3e
       0.3396742 0.243728 0.089999534 0.1702994
0002f0 44 9f a5 be 41 e0 11 3e 49 9b 43 3d 09 91 d5 3b
       -0.32348073 0.14245702 0.047755513 0.0065175337
000300 13 08 a2 3e 03 d0 8f 3e 74 d6 eb bc 7c c3 da 3e
       0.31646785 0.28088388 -0.028788783 0.42727268
000310 e6 be a6 3e 25 fa 70 3d 1c 85 d1 3e 21 68 3f 3d
       0.3256752 0.058832306 0.40921867 0.046730164
000320 cd 1b 57 be 60 96 08 3e 37 b3 d6 be e0 7c 9f be
       -0.21006699 0.13338614 -0.41933605 -0.3114996
000330 b0 df ba 3c 27 fb bd 3e a3 b1 b2 bd 5c fa ae be
       0.02281174 0.37105677 -0.08725288 -0.34175384
000340 2b 1f ae 3e 91 2a 75 be a0 3e ea bc 00 15 71 3c
       0.34008154 -0.23942019 -0.028594315 0.014714479
000350 e4 ae 91 be e0 4f e0 3c d8 07 1a be 48 76 ef 3e
       -0.28453743 0.027381837 -0.15042055 0.4676993
000360 38 4c b7 be 36 0f b0 3e 8f 81 9c bc 13 2b 22 be
       -0.35800338 0.34386605 -0.019104747 -0.15836744
000370 f2 1c a2 be ce b1 38 be df ee ac 3e e6 21 14 3e
       -0.3166271 -0.18036577 0.33775994 0.14466056
000380 db d0 c0 3e 61 38 de 3e 35 57 28 3d 4d c3 84 be
       0.37659344 0.4340239 0.041098792 -0.25930253
000390 c1 7a de 3d f5 f3 ce 3d 92 06 32 be 12 3b ba be
       0.10863257 0.10105125 -0.17385319 -0.36373192
0003a0 b0 56 72 3d 24 2d 67 3e 93 be d9 be 91 ce 76 bd
       0.059164703 0.22575814 -0.4252821 -0.06025559
0003b0 15 1f c0 3e f3 87 3f 3e 2b d6 d9 bd 3f 86 3b be
       0.37523714 0.18704204 -0.106365524 -0.1831293
0003c0 aa 5c 74 3e 62 d8 b8 be 62 f4 2f 3e 05 a2 37 3d
       0.23863474 -0.36102587 0.17183068 0.04483225
0003d0 f1 31 08 be ce 78 9e be 05 d0 63 be be b5 3c 3e
       -0.13300301 -0.30951542 -0.22247322 0.18428704
0003e0 d0 42 b3 3e 99 39 3b 3d 1a 7e 2f 3d c1 b0 b4 be
       0.3501191 0.045709226 0.04284487 -0.35291103
0003f0 cc a2 1d 3e 0e 64 ba 3e a2 90 8d 3d 1c d6 47 3e
       0.15394133 0.3640446 0.06912352 0.1951527

layer1.bias f4 [100]
000000 0e a1 86 3e 33 88 87 be 2a 6b 98 be ba 2e 94 3e
       0.2629475 -0.264711 -0.2976926 0.289419
000010 ba 81 41 bd 4c e7 c1 3e a3 6c b8 be 9c 0b ad 3e
       -0.047242858 0.37871778 -0.36020383 0.3379792
000020 a4 59 b1 be a4 c3 03 3e 67 20 bb be 9c e7 a4 3d
       -0.34638703 0.128676 -0.3654816 0.080519885
000030 b0 c9 50 bd 50 4c 6f 3e 18 ec 0f 3d 6d da 3a 3e
       -0.050973594 0.23368955 0.035137266 0.18247385
000040 34 49 db 3e 6b ae af 3e d9 41 b0 3e 8f e9 79 be
       0.42829287 0.34312758 0.34425238 -0.24405502
000050 c2 12 ae be 7c f2 35 3e b4 fb bc be 35 db 21 be
       -0.33998686 0.17768282 -0.36910784 -0.15806277
000060 05 a5 42 3e 52 b8 c5 3e 70 fe e4 3c 84 b6 b2 bd
       0.19008262 0.38617188 0.027953357 -0.08726218
000070 fc 77 5a bd c7 4f e6 bd e6 90 60 bd 3a e4 43 be
       -0.053337082 -0.11245685 -0.054825686 -0.1913003
000080 87 13 80 be 80 ce 84 3d 8b 57 aa 3d 72 c0 1c be
       -0.25014898 0.06484699 0.08317479 -0.15307787
000090 b8 80 7a bd 4a d3 71 3e 82 94 81 3e 1a 44 5b be
       -0.061157912 0.23615757 0.25308615 -0.21412697
0000a0 80 fa fe bb 53 31 11 be c0 25 90 3e da 35 03 3d
       -0.007781327 -0.14178972 0.281538 0.03203378
0000b0 3d d2 4e 3e 00 70 2f 3e 30 44 f1 3d d8 be b0 3e
       0.20197387 0.17132568 0.11780584 0.34520602
0000c0 0a 5e 98 3e 22 d5 b5 3e 16 d6 fe 3d 3f e4 4e be
       0.29759246 0.3551417 0.124431774 -0.20204256
0000d0 ac ec aa be 5c a5 38 be 93 a5 b4 be 36 67 80 3e
       -0.3338369 -0.1803183 -0.35282573 0.25078744
0000e0 ef f4 c0 bd c6 46 7e bd d4 b1 d4 3e 01 24 ad 3e
       -0.094217174 -0.062079214 0.41541922 0.3381653
0000f0 98 fd dd 3e 0e 58 ec 3d 0a 40 ab be 10 8d a1 3d
       0.4335754 0.115402326 -0.33447295 0.07888234
000100 8e a7 9a be 21 0e 87 3e bf 72 82 bc e5 27 b0 be
       -0.3020596 0.26377967 -0.015923856 -0.34405437
000110 24 e7 0a be eb 18 9d be 6c 03 2d 3e f0 f8 39 3e
       -0.13564736 -0.30683073 0.16895837 0.18161368
000120 8b 89 94 3c 86 7c ce be 51 63 59 be ad 6b 4e be
       0.018131992 -0.4032938 -0.21229292 -0.20158263
000130 44 2c 39 3e 21 a8 78 be a0 55 6f 3e c7 9e 96 be
       0.18083292 -0.24282886 0.23372507 -0.29418012
000140 be 4f ad 3e 27 c4 77 be 0a 5a 42 be 7b 36 13 3e
       0.338499 -0.2419592 -0.1897966 0.14376251
000150 34 c5 81 3e 4e 82 a4 be 6c a8 5f 3e fc 4c 6f be
       0.25345767 -0.32130665 0.21841592 -0.23369211
000160 70 f5 30 bd d7 c7 99 be b6 88 39 be cb c7 d7 be
       -0.043202817 -0.30035278 -0.18118557 -0.42144617
000170 d2 d0 e1 bd 0e 51 b4 3e 11 18 7c 3e f3 3a 4f 3e
       -0.110261574 0.3521809 0.24618556 0.20237331
000180 78 a8 89 be a5 04 a6 be 6c a9 93 be 93 a3 d9 3d
       -0.26886344 -0.32425418 -0.28840196 0.106269024

layer2.weight f4 [150, 100]
000000 84 46 d3 3d 46 55 70 3d 6c 8e a6 bc ee d8 09 3d
       0.10316184 0.058675073 -0.020331584 0.033654146
000010 ca 27 3f 3d b7 89 b2 3d 1d 3a 44 3d 03 cb cb 3d
       0.046668805 0.08717673 0.047906984 0.09950831
000020 f0 0f 6b 3c 80 dc 98 3a e6 a7 73 3d 68 15 99 3d
       0.0143470615 0.0011662394 0.059486292 0.07474786
000030 ff 33 90 3d 40 26 10 3b 5f 09 9e 3d c5 da b6 3d
       0.070411675 0.0021995455 0.07716631 0.08928446
000040 cd 51 bd bd 8a 52 e8 bb 86 06 99 3d c3 14 89 3c
       -0.09244118 -0.0070899175 0.07471947 0.016733533
000050 5a 29 c7 3d 90 65 3f bc 53 de 99 3d 42 ba 71 bd
       0.09724684 -0.011681929 0.07513108 -0.05901552
000060 d7 21 5b 3d 70 d4 50 bd 88 48 84 bc fb 10 18 bd
       0.05349907 -0.050983846 -0.016147867 -0.03712557
000070 75 16 b4 3d 71 7a 5b bd 2c 73 23 bd c2 0f 3f 3d
       0.08793346 -0.053583566 -0.03990476 0.046645887
000080 ec 95 a5 3c 20 47 a6 bd 1d 3a c2 3d 00 4a c9 ba
       0.02021309 -0.08119035 0.094837405 -0.0015357137
000090 fa 4f 80 3d e2 ba ab bc fa 06 52 bc cd b2 57 bc
       0.06265254 -0.020963136 -0.012819046 -0.013165188
0000a0 74 9b 9f 3c 1b a6 c2 bd a7 7e 7a bd 90 3c 56 bc
       0.019483306 -0.09504338 -0.06115594 -0.013075963
0000b0 3b e9 75 bd 42 1f 76 bd ae 00 8d bd ed e7 8a bd
       -0.06003688 -0.060088404 -0.06884895 -0.067825176
0000c0 ea 34 96 bd af 72 18 3d 67 da df 3d 26 4b 6f 3d
       -0.07334311 0.037218746 0.10930329 0.058421277
0000d0 d2 79 b0 bd fd 9f 56 bd f2 19 20 3d aa 9a 61 3d
       -0.086169854 -0.05239867 0.039087243 0.05507914
0000e0 f1 62 80 ba ef a5 b7 3d ca 54 f0 3d a7 d8 25 3d
       -0.0009795112 0.08967196 0.11734922 0.04048982
0000f0 67 27 e7 3d 0c d9 69 3c 55 61 f4 3d 96 4d 21 3d
       0.11286812 0.014272939 0.11932627 0.039380632
000100 11 99 c6 3d b8 5f db 3b a0 a0 0e bd 32 a9 3e 3d
       0.09697164 0.00669476 -0.034821153 0.046548076
000110 a8 34 07 3c 87 7c 40 bd 12 cc 13 3d 86 ee dc 3d
       0.0082523 -0.04699376 0.03608329 0.10787682
000120 f2 c3 92 bd fd a7 6d bd f7 ff 5d bd 9b ab 0c bd
       -0.0716628 -0.058021534 -0.054199185 -0.034343343
000130 d4 39 aa bc 3d c9 90 3c 5f bd b5 3d 91 17 85 3d
       -0.020779528 0.017674083 0.0887401 0.064986356
000140 62 aa 4d 3d 4c 7c 9b 3d 33 78 9c bd 43 02 82 3d
       0.050211318 0.07592067 -0.07640114 0.06348088
000150 ee df 8c bd 00 1a 58 b9 9b cc 8f 3d 9c dd 67 bd
       -0.06878649 -0.00020609051 0.07021447 -0.056607828
000160 00 58 06 38 9d f0 e9 3d 80 6a 13 3c 42 3d 25 3d
       3.2030046e-05 0.114228465 0.00899756 0.040341623
000170 a2 c4 26 3d ec 0d 0d bd 3d e0 1f bd 28 e8 af 3d
       0.040714867 -0.034437105 -0.03903221 0.08589202
000180 a0 d1 00 bd a8 57 08 bc 44 20 ce 3c 30 46 4d bd
       -0.031449914 -0.00832168 0.02516187 -0.050115764
000190 9c ec 96 bd e0 f8 9b 3b e2 16 4b 3d ae 91 36 3d
       -0.073693484 0.004759893 0.04958237 0.044572525
0001a0 06 e3 d8 3d 70 24 99 bc 97 8f 66 3d 14 06 ca bc
       0.10590176 -0.018694133 0.05628928 -0.024661101
0001b0 54 43 9f 3c 63 7d 44 bd 05 50 ca 3d d6 e2 45 bd
       0.019441284 -0.04797114 0.09878544 -0.04831203
0001c0 a8 d4 3a bc 08 0f ec bc ef 81 98 3d bc ff 3c bd
       -0.01140324 -0.028815761 0.07446658 -0.046142325
0001d0 6d 4e c1 3d 69 86 60 3d 87 11 e3 3d 29 f0 4c 3d
       0.09438787 0.054815684 0.110873275 0.050033722
0001e0 21 f7 e9 3d 21 d5 a3 3d 10 40 8b 3d 89 05 d4 3b
       0.11424089 0.079996355 0.06799328 0.0064703864
0001f0 af 03 a7 3c 53 b4 99 bd 00 35 c1 3c a6 e5 83 3b
       0.020387499 -0.07505097 0.023584843 0.004025179
000200 62 a9 4c 3d 57 27 c9 bc 71 12 9b bd a6 b0 62 3d
       0.049966224 -0.024554892 -0.07571877 0.055344246
000210 d6 4b 12 bd 52 7e 4e 3d 44 31 a0 3c c0 28 4b bd
       -0.035716854 0.050413437 0.019554742 -0.04959941
000220 b6 8b a3 3d 1a 32 bc 3c 32 b9 9d 3d e1 9a 9f 3a
       0.07985632 0.022973109 0.07701339 0.0012176895
000230 c0 0e d5 3a 2c 13 23 3c 80 b1 db bc 11 09 bb 3d
       0.0016255006 0.009953301 -0.026818037 0.09132589
000240 0f 79 37 3c 23 b3 8d 3b 15 65 97 3d bf ee 91 3c
       0.011198296 0.0043243333 0.07392327 0.017814038
000250 94 1e 77 bb cb 2c 16 bd e8 2e 3c 3c 58 e3 43 3c
       -0.0037707435 -0.03666381 0.011485793 0.011956058
000260 52 ff 03 3d d8 7c 2c bc 58 25 7b 3c 30 2a a8 3b
       0.032225914 -0.010527812 0.015328728 0.0051319823
000270 72 8e 92 3d 2b c7 c6 3c 57 15 8c 3d 41 47 89 bd
       0.071560755 0.024264893 0.06840008 -0.06703044
000280 27 6e 69 bd 6c ff 6c 3d eb 55 18 3d ea b2 16 bd
       -0.056989815 0.057860777 0.037191313 -0.03679172
000290 bd dc 43 bd aa ba 88 3b d7 22 a8 bc e3 88 5a bd
       -0.047817934 0.0041726427 -0.020524425 -0.0533532
0002a0 50 57 15 bc d1 ed c1 3d e0 44 c4 bd ca 66 20 bc
       -0.009115055 0.09469188 -0.09583449 -0.009790132
0002b0 6d 68 83 bc bd d4 b4 3d 70 c0 68 bd 87 34 11 bd
       -0.016041005 0.08829639 -0.056824148 -0.035450485
0002c0 fa d1 33 3d 9f 07 6d 3d 70 5c ae bd e0 ce 8f bc
       0.04390142 0.057868596 -0.08513725 -0.0175547
0002d0 21 2c 9a 3d 2a 7e 8d bc b5 9f b3 bd 32 2a 95 3c
       0.07527948 -0.017272074 -0.08770696 0.018208597
0002e0 ce a4 2d 3d 32 4a ca bd 50 a3 22 bc d5 5a 0d 3d
       0.042393498 -0.09877433 -0.009926632 0.034510452
0002f0 6e 1f 48 3d 95 87 14 bd 7a e3 c5 bd cd a0 ac bd
       0.0488581 -0.036262114 -0.09662528 -0.08429108
000300 a8 b9 ee 3d d1 39 c5 3d df af 8f 3d 9e 24 e6 bc
       0.11656505 0.09630168 0.070159666 -0.028093632
000310 d2 37 06 3d 98 82 22 3c 77 d7 b4 3d a6 b2 8a bd
       0.03276808 0.009918831 0.08830159 -0.06772356
000320 00 0a b5 bb aa ec 5e bd 70 75 00 bc 50 11 87 3b
       -0.0055248737 -0.05442492 -0.007840499 0.004121937
000330 1f d3 c0 bd 6a 54 75 bd aa b8 0d 3d cb 72 9d 3d
       -0.09415268 -0.059894957 0.034599937 0.07687911
000340 60 51 9c bb f9 84 a6 3d b7 cc 65 bd b8 55 84 bc
       -0.004770443 0.08130831 -0.056103434 -0.016154155
000350 29 38 c1 3d 3e 97 79 3d 8a 37 80 bd fe 41 9c bd
       0.0943454 0.06093525 -0.06260593 -0.076297745
000360 61 46 c6 3d 14 9c 90 3c 74 d8 96 3c 9e ac 67 3d
       0.096813925 0.017652549 0.01841376 0.056561105
000370 81 5c 98 3d 8c bb 8a 3c f6 37 16 bd 48 b6 b3 3c
       0.07439519 0.016935132 -0.036674462 0.021937504
000380 cd 63 b1 bd d4 b8 c3 3c 20 30 ea bb c0 8b 8f bc
       -0.086616136 0.023891844 -0.00714685 -0.017522693
000390 39 d2 c1 3d 5a bf 00 bd 75 b1 88 bd 4e 15 71 3d
       0.09463925 -0.031432487 -0.06674472 0.05885821
0003a0 1d 39 86 bd 40 ad a2 ba 35 d4 c6 3d 6d be 93 bd
       -0.06553862 -0.0012411252 0.09708444 -0.07214055
0003b0 e8 5b 80 3c fe 3b 26 3d e8 79 d6 bc ce 28 64 3d
       0.015668824 0.040584557 -0.026181176 0.055702977
0003c0 4d a7 7e bd f9 c0 a6 3d 60 c9 60 bd b5 a7 9e bd
       -0.06217127 0.08142275 -0.054879546 -0.07746831
0003d0 23 0d bc 3d c8 df ff bc ef 70 c3 3d 20 f4 b3 bd
       0.09182193 -0.031234637 0.09543025 -0.087867975
0003e0 d9 b0 9d 3d 85 ab 9c 3d 7d 4e 3e bd 87 cf 73 bd
       0.07699747 0.07649902 -0.04646157 -0.059524085
0003f0 76 db 60 3d a7 2e bb bd 28 8d 89 bc e2 ef 7a 3d
       0.054896794 -0.091397576 -0.016790941 0.061263926

layer2.bias f4 [150]
000000 37 ff 68 bd 2c 1f fe bb ed 5c c2 bd 50 02 99 3b
       -0.056884017 -0.007755181 -0.094903804 0.004669465
000010 be 92 6f 3d 87 07 0c bb 4f 3c 05 3d be 98 70 3d
       0.058489554 -0.0021366791 0.032528218 0.058739416
000020 12 23 92 3d 66 83 a4 bd b9 21 8a 3d be d2 73 bc
       0.071355954 -0.08032875 0.06744713 -0.014881788
000030 6b 14 af bd 98 90 a9 bd 04 89 16 3c db 9a b3 3d
       -0.08548816 -0.08279532 0.0091879405 0.08769771
000040 da d1 03 3d fb 48 bf bc e0 36 9b 3c 82 01 a4 3d
       0.032182552 -0.02335023 0.018947065 0.080081
000050 d3 af 2e bd 7c d3 af bc 40 c5 6c bd 7c 6d e7 3c
       -0.042648148 -0.021463148 -0.0578053 0.028250448
000060 ad 5e 87 3d b0 3f aa bd 1c 28 c3 3d d3 f7 4b bd
       0.06609855 -0.08312929 0.09529135 -0.04979689
000070 a9 c3 84 3d b1 89 cb bc 5d 23 a6 bd 2b d4 c1 3d
       0.06482632 -0.02484593 -0.08112214 0.09464296
000080 3c 54 94 3d 93 57 a2 3d 26 8e 78 3d e9 2e 91 3d
       0.07242629 0.0792686 0.06068244 0.070890255
000090 3d 01 c9 bd 2d 85 f6 bc a2 09 b6 bd 2a b7 06 bc
       -0.09814689 -0.0300928 -0.08888556 -0.008222381
0000a0 1d b7 63 bd d1 57 a8 bd b7 74 45 3d 7d d7 34 bd
       -0.055594552 -0.08219875 0.04820701 -0.04415082
0000b0 08 41 d7 bc 58 cb 62 bc 59 21 97 3d ce f7 33 bd
       -0.026276127 -0.013842426 0.073794074 -0.043937497
0000c0 e0 29 64 bd b4 5d 99 3d 56 a1 5b 3d b8 dd e2 bc
       -0.055703998 0.074885756 0.05362066 -0.027693614
0000d0 62 9b 0e 3d 28 16 a1 3d d0 fa 56 3d 83 e7 30 3d
       0.034816153 0.07865554 0.052485287 0.043189537
0000e0 fa 41 a2 bd dd 8b 4f bd fc a9 2b bd d6 36 1a 3d
       -0.0792274 -0.050670493 -0.041910157 0.037649952
0000f0 11 03 6e bd d4 fc a7 bd e0 c2 05 bd b2 2f 88 bd
       -0.058108393 -0.0820252 -0.03265655 -0.06649722
000100 9b ee 2c 3d 6d 72 84 bd f4 ea b9 3c 89 26 e2 3d
       0.04221974 -0.064671375 0.022695042 0.11042506
000110 76 c4 0c bd 03 2b a3 bc cd fc c7 3d fa ef d0 bc
       -0.034367047 -0.01991797 0.09765015 -0.025505055
000120 dd 47 a6 bc 41 16 93 3c 81 f3 06 bd 50 26 b7 bd
       -0.020297939 0.017954947 -0.032947067 -0.089428544
000130 d0 63 a5 bb de 23 3a 3d 35 67 98 bd 44 ff cd 3c
       -0.005047299 0.045444362 -0.0744156 0.025146134
000140 c0 af 31 3c a2 ad 48 3d 23 96 2e 3d 19 28 23 bd
       0.010845125 0.048993714 0.04262365 -0.039833162
000150 53 f5 62 bd 80 47 a4 bb b5 88 9f 3d 22 83 a6 3d
       -0.05540974 -0.0050134063 0.07789747 0.0813048
000160 c0 9a 79 3c 68 3e 46 3c 08 70 dc 3d ee 94 99 3d
       0.015234649 0.01209984 0.10763556 0.07499109
000170 b0 96 12 bd d5 3c 9d 3d 65 99 ff 3c ed 81 cc bc
       -0.035788238 0.076776184 0.031201074 -0.024964297
000180 00 96 4a 3b 20 b7 c8 bc f0 00 7b bd a0 1f 9a bd
       0.003091216 -0.024501383 -0.06128019 -0.07525563
000190 56 f4 73 3d 65 1e ee 3c e2 1d 7f 3d f5 a1 c8 bd
       0.05955919 0.029067228 0.062284358 -0.09796516
0001a0 22 91 3e 3d 70 6d 4f bc 4d 83 de 3c 00 71 55 ba
       0.04652513 -0.012660369 0.027162218 -0.00081421435
0001b0 4b aa b0 3d 5a 6f 8c 3d 2c 87 94 3c 4c ec d8 bc
       0.08626231 0.06857176 0.018130861 -0.026479863
0001c0 22 34 84 bd c6 35 9f 3d 7b 7c 9e 3d a3 01 da 3d
       -0.06455256 0.07773928 0.077385865 0.106448434
0001d0 00 5c 89 bb e7 6d 42 bd 20 66 8e bb d4 a2 bf bc
       -0.0041918755 -0.047468092 -0.0043456703 -0.023393072
0001e0 20 2a 5f 3b bc 98 b9 3d 2e 99 b2 3b b1 50 3f bd
       0.0034052208 0.09062335 0.0054503893 -0.046707813
0001f0 dd f0 23 bd ba 55 27 bd 00 da 5b bd 98 64 b7 3d
       -0.040024627 -0.04085324 -0.053674698 0.089547336
000200 de 1b b4 bc 3a f6 59 3d 12 d3 85 bd ee 08 40 bd
       -0.021985944 0.053213336 -0.06534399 -0.046883516
000210 00 7c 1d bc a6 0a 9b bd 00 95 42 bb d7 82 bb 3d
       -0.009612083 -0.075703904 -0.0029690862 0.09155815
000220 48 f6 ea b8 02 d3 bf 3d 96 63 9d bc 66 f6 81 bd
       -0.00011203863 0.093664184 -0.019212525 -0.06345825
000230 46 62 48 3d 62 59 16 3d 90 63 b0 bd 74 4e 28 3b
       0.048921846 0.036706336 -0.0861274 0.0025681527
000240 52 87 95 3d cf 1f bc 3d 84 11 a0 3d 4c 3f f0 bc
       0.07301201 0.091857545 0.07815841 -0.029327057
000250 4a 45 b2 bd 59 53 18 bd
       -0.08704622 -0.03718886

layer3.weight f4 [100, 150]
000000 6b 49 37 bd dc 81 a1 3b 84 16 61 bd f0 08 bb bb
       -0.04474775 0.0049288105 -0.054953113 -0.0057078525
000010 70 77 88 3b 42 c9 a1 bd c2 f0 10 3c 31 90 78 bd
       0.0041646287 -0.07899715 0.008846464 -0.060684387
000020 51 93 91 bd 06 2f 48 bd e8 0c c3 3c f4 53 e3 bb
       -0.071081765 -0.04887297 0.023809865 -0.006937498
000030 9a b8 8e 3d c6 11 1e 3d e9 1d 28 bd 3c ee 77 bd
       0.06968804 0.03859117 -0.04104415 -0.060529932
000040 18 2d 04 bc e5 41 96 3b c4 85 3b 3d 4b 35 42 3d
       -0.008067392 0.004585492 0.045781866 0.047414105
000050 e0 07 62 3d 89 e3 94 3d a8 5e 2c bc 90 5c b2 3b
       0.05518329 0.072699614 -0.010520615 0.005443163
000060 26 ff c0 ba 50 64 2c 3d 67 72 47 3d cd b1 a3 bc
       -0.0014724478 0.042087853 0.048693087 -0.019982243
000070 8f b7 05 bd 3f 41 4e bd a2 79 8a 3c 90 98 ee bc
       -0.03264576 -0.050355192 0.016903702 -0.029125482
000080 55 53 87 bd a6 34 f1 3c a4 60 3d 3d 38 e5 77 bc
       -0.06607691 0.02944405 0.04623474 -0.015130334
000090 e8 8b b8 bc 4e 08 93 3d 20 55 ee 3b ba 90 88 bd
       -0.02252765 0.07179318 0.0072733313 -0.066682294
0000a0 a2 39 d1 3b 11 95 14 3d b5 82 ec 3c 94 09 a2 bd
       0.006385044 0.036274973 0.02887092 -0.07911983
0000b0 9e 45 8a bd 58 d9 18 bc aa ab 72 bd 40 c2 a3 bb
       -0.0675156 -0.009329163 -0.059245743 -0.0049975216
0000c0 a9 ec 81 3d a5 c7 90 3d bc 82 d9 3c 32 b1 95 3d
       0.063439675 0.07069329 0.026551597 0.07309188
0000d0 c2 81 8a 3c 2f 39 98 3d e7 1f 19 bd 26 3b d0 3c
       0.016907576 0.07432782 -0.03738394 0.02541883
0000e0 93 44 a7 bd 85 a3 6f 3d 6a d2 a2 3c 24 de 36 3d
       -0.08167376 0.058505554 0.019875724 0.044645444
0000f0 ec 53 8c bd 7b dd e4 bb 1e 81 ad bc d4 8e eb bc
       -0.06851944 -0.0069844103 -0.021179732 -0.02875463
000100 fc ee 6a 3d 00 b2 f7 3c 26 bb e0 bc 38 05 d8 3c
       0.05735682 0.030236244 -0.02743299 0.026369676
000110 38 a5 b5 bc 8f 9d 64 bd d8 f6 9d 3d dd c4 94 3d
       -0.022173509 -0.055814322 0.07713097 0.07264111
000120 72 64 1b 3c 59 58 96 3d 30 8c 3b 3d fa 15 d0 bc
       0.009484397 0.0734107 0.04578799 -0.025401104
000130 c0 fb 79 3c 87 7b 07 bd 80 d1 2a 3a 24 19 cb 3c
       0.015257776 -0.03307679 0.0006516203 0.024792261
000140 1d d4 09 bd b2 1d df bc eb e9 93 bd 0b 3a 34 3d
       -0.033649553 -0.02723584 -0.07222351 0.044000667
000150 7b 31 a7 bd a6 b9 83 3d 62 7c 93 3d 1e 84 18 3d
       -0.081637345 0.06431894 0.072014585 0.03723537
000160 f8 42 0a 3d e8 64 60 3c 72 85 bc bc 3b f7 0d 3d
       0.033755273 0.013695933 -0.02301285 0.034659605
000170 e0 ce a9 3c 0e be 04 bd 72 cd c6 3c ad 84 85 3c
       0.020728528 -0.032407813 0.024267886 0.016298616
000180 2c 5e 95 3c 28 25 7e 3d e0 01 84 3d c0 1c f0 bb
       0.018233381 0.062047154 0.0644567 -0.007327646
000190 6b d7 94 bd 65 4b 00 3d 08 eb 24 bc c0 af 87 3c
       -0.0726765 0.0313219 -0.010065801 0.016563296
0001a0 eb 04 40 bd 34 3a ae 3c fe 09 a3 bd 70 24 be 3b
       -0.04687969 0.021267988 -0.0796089 0.0058026835
0001b0 38 47 aa 3c fc 93 15 bd ac da 97 3d 7c be 97 3d
       0.020785913 -0.036518082 0.07414755 0.07409379
0001c0 66 f5 8a 3d 80 f3 77 3d 3a 72 71 3c 7f ec 6c 3a
       0.06785087 0.060534954 0.014736706 0.0009037926
0001d0 95 01 89 bd c9 24 96 bc 10 d3 1d 3c fd b6 44 bd
       -0.06689755 -0.018328087 0.009632841 -0.048026074
0001e0 cf c3 b7 3c c8 8d 85 3d b5 f6 98 bc 37 5b d6 3c
       0.022432236 0.06521183 -0.018672327 0.026166542
0001f0 90 04 8c bc d9 04 88 3b b0 96 d0 bb 2b fb 00 bc
       -0.01709202 0.0041509685 -0.0063656196 -0.007872383
000200 99 08 5b 3c c0 82 e8 3b 5d 36 ac bd 43 38 9c bd
       0.013368749 0.0070956647 -0.084088065 -0.076279186
000210 b0 6a 96 3d 64 94 e5 3c 1c 77 29 bd ab c5 25 bd
       0.07344568 0.02802486 -0.041373357 -0.040471714
000220 02 35 9e bd 51 ef 94 bc 67 5a 7e 3d f0 f0 7b 3c
       -0.07724954 -0.018180521 0.062097933 0.015377268
000230 0e ec 2e bd 8c c8 61 3d 4c 4a 52 3d 9b 2a 3f 3d
       -0.042705588 0.055122897 0.051340386 0.04667149
000240 0b 95 83 bd f9 e3 b8 3b e3 ed 82 3d d0 37 ce 3c
       -0.06424912 0.005642411 0.063930295 0.025173098
000250 00 4b e8 3c 6e 16 99 3d 30 b4 86 3c 8e 27 b6 3c
       0.028356075 0.07474981 0.016443342 0.022235658
000260 fc 37 60 bd 16 f3 25 bd 62 84 a4 3d c6 f1 44 bd
       -0.05474089 -0.040515028 0.080330625 -0.048082136
000270 93 8c 5b bd 8e 38 61 3c 33 e1 f1 3c 10 cf 3d 3c
       -0.05360086 0.013746394 0.029526329 0.011585012
000280 34 d3 5a 3d c4 84 c3 3d c0 f9 74 3d 9c 20 64 3d
       0.053424075 0.095468074 0.059808493 0.05569516
000290 70 ee cd bd 28 2a e1 bc f4 ad 8a 3c 6f 78 c7 3d
       -0.10055244 -0.027485922 0.01692865 0.09739768
0002a0 38 5f 80 bc b0 e1 9b bd 0e d8 95 3d 66 3f d6 bc
       -0.015670404 -0.07611406 0.073166 -0.026153278
0002b0 e4 24 a2 3c c8 87 7d 3d f8 45 c4 3d f4 21 46 bd
       0.019792981 0.06189707 0.09583658 -0.048372224
0002c0 fb 07 58 bd 58 d4 ee bb e0 80 43 bd e2 e1 4a 3d
       -0.052741986 -0.007288497 -0.047730327 0.049531825
0002d0 4e 76 e8 3c a0 82 9f bc 57 b7 9e bd 29 f3 f5 bc
       0.028376725 -0.019471467 -0.07749813 -0.030023174
0002e0 21 05 2f 3d 08 e3 d1 3c ce a4 82 bd ba 77 e7 bc
       0.0427295 0.025620952 -0.0637909 -0.028255332
0002f0 10 7b 9a 3d c0 21 8f 3d ce 05 ee 3c 1b da b0 3c
       0.075430036 0.06988859 0.029055502 0.021588376
000300 4d 1d a0 3c c6 4a 9b 3d c7 07 a1 bd 8c d6 6f bd
       0.019545222 0.07582621 -0.078628115 -0.058554217
000310 ca d8 86 3d 53 24 94 bd 33 4e 23 3d 62 c0 19 bd
       0.06584318 -0.07233491 0.0398695 -0.037536986
000320 80 cb 29 bc e4 44 60 3d 90 3c 91 3d dd 8d 11 3d
       -0.01036346 0.0547532 0.070916295 0.035535682
000330 a9 bb 6e 3d 3d e8 34 3c 79 8f f6 bc cf 7e 6f 3d
       0.058284435 0.011041698 -0.03009771 0.058470543
000340 dd 7e 86 bd 00 09 5c bb 20 b9 b0 3d 98 b4 48 3c
       -0.06567166 -0.00335747 0.0862906 0.012250088
000350 43 43 fb 3a d1 54 fb bc 7f f3 71 bd de c3 a7 bc
       0.0019169826 -0.030680092 -0.059070107 -0.020479139
000360 d0 76 bc 3c 0f fb 3a 3d ea 46 74 bd e3 61 a8 3d
       0.023005873 0.045649584 -0.05963794 0.082217954
000370 38 b8 5d bd 2a 30 8b bc 49 58 a1 3c d5 c7 28 3d
       -0.054130763 -0.01699074 0.019695418 0.0412062
000380 b5 59 c2 3d 30 13 60 3d e0 24 06 3c 66 34 1d 3d
       0.094897665 0.0547058 0.008187503 0.03838005
000390 02 b8 85 3d 90 5b a6 bb 4d e3 86 bd 84 f5 cd bc
       0.06529237 -0.005076833 -0.06586323 -0.025141485
0003a0 dc ce 91 bc c7 2c 05 3d b2 04 50 bd d8 ad 79 bc
       -0.017798834 0.032513406 -0.050785728 -0.0152392015
0003b0 82 d8 26 3d c0 75 bb 3c 30 dc 7c bd e4 c1 79 3d
       0.04073382 0.022883296 -0.061733425 0.060975924
0003c0 1b d5 4e 3d 31 a9 1b 3d 18 ae 09 3d 56 88 92 3d
       0.050496202 0.03800315 0.033613294 0.0715491
0003d0 ab 42 6d 3d 44 7c 89 3d 08 68 9c 3d 38 0d 30 bc
       0.057924908 0.06713155 0.0763703 -0.010745339
0003e0 00 70 2f ba 96 c5 d2 bc 80 7d bf 3b 1a 6d 16 bd
       -0.00066924095 -0.025728982 0.005843818 -0.03672514
0003f0 dc 48 a2 3d 0e ed 80 3d c4 f2 82 3d 4e f4 88 3d
       0.07924053 0.062952146 0.0639396 0.066872224

layer3.bias f4 [100]
000000 08 bb b4 3c 71 31 75 3d 60 61 ab 3b 9e a8 43 bd
       0.02206184 0.059861604 0.005230114 -0.047768228
000010 dc 04 96 bc 7b 28 b6 bc d1 c5 8b 3d 96 80 7c bd
       -0.018312864 -0.0222361 0.0682484 -0.061646067
000020 23 f1 4d bd da 37 91 3c d8 36 2f 3d df 47 86 3c
       -0.050278794 0.017726827 0.042776912 0.016391693
000030 36 f0 41 3d 8c 6a bd bc 24 69 94 bd d1 20 58 3d
       0.047348224 -0.023122095 -0.072466165 0.05276567
000040 d3 ef 9c 3d 4e a5 63 bd d9 b7 37 bd 3e 9c 8a 3d
       0.0766293 -0.05557757 -0.044853065 0.06768082
000050 d2 31 93 bd c3 a1 8d 3b 94 c7 86 bd 28 e0 98 3c
       -0.07187237 0.004322262 -0.06581035 0.018661574
000060 26 25 15 3d 0f 9f 98 bd 22 2a dc 3c 6a 24 65 3d
       0.03641238 -0.07452213 0.02687556 0.05594293
000070 65 df 56 bd 89 cd f3 3c eb ab 96 bd 17 a3 94 bd
       -0.05245914 0.029761093 -0.073570095 -0.072576694
000080 32 c6 c9 3c ca 78 b5 bc 1b 0a 20 3d a7 92 81 3c
       0.02463064 -0.022152323 0.039072137 0.015817
000090 4b f8 48 3d 38 08 94 3c 10 00 20 3d 8e d9 b6 bc
       0.049064916 0.018070325 0.03906256 -0.022320535
0000a0 78 ac 6a 3d db d3 3b 3d 9b 74 82 bd 77 94 d1 3c
       0.057293385 0.045856338 -0.06369897 0.025583489
0000b0 3b 80 6d 3b 15 02 a3 bd 1d dc a2 3d 59 cf 7e 3d
       0.0036239761 -0.079593815 0.079521395 0.06220946
0000c0 cd 67 92 bd db 12 77 bd df 74 59 3d 09 36 b2 3d
       -0.07148705 -0.060320716 0.053089973 0.08701713
0000d0 08 4d 3a 3d 51 52 9f 3c 31 34 0d bd db 1a a7 3c
       0.04548362 0.019448431 -0.0344736 0.020398548
0000e0 7a ab 9d 3d 62 d8 97 bb 2b 7f 1f bd 00 7c 88 b9
       0.07698722 -0.004633949 -0.038939636 -0.0002603233
0000f0 b9 48 82 3c ad 41 ff bc dd be 99 bd 4f 0a 96 3c
       0.015903817 -0.031159246 -0.075071074 0.018315462
000100 50 8b e9 3c ab 42 1c bd 15 f9 88 3c 50 f5 6c 3d
       0.028508812 -0.038149517 0.016720334 0.057851136
000110 2e 26 6f 3c d0 4b 44 bc 4d 90 b9 3d 38 2c 3d 3d
       0.014596505 -0.011980966 0.09060726 0.04618475
000120 43 8f 3a bd 2d 62 7d 3d 12 75 8a 3d 7c 33 81 3c
       -0.04554678 0.061861206 0.06760611 0.01577162
000130 80 ed 5a bd 0d 53 90 bd ca 57 78 3d 03 de 08 3d
       -0.053449154 -0.07047091 0.060630597 0.033414852
000140 30 5f 8f bd 12 6a aa bc 64 ac 58 bd c0 71 2b bb
       -0.070005774 -0.020802531 -0.05289878 -0.002616033
000150 32 39 6f bd 56 97 9f 3d b2 f7 e7 bc a0 2b 07 3c
       -0.058404155 0.07792537 -0.028316353 0.008250147
000160 8c 00 8d 3d 14 2b 92 bc eb 8f d9 bc a2 7a e4 bc
       0.0688487 -0.017842807 -0.026557883 -0.027890507
000170 39 d8 73 bc 7a f9 6e bd a3 d1 7d bd c5 1b db 3a
       -0.0148830945 -0.05834339 -0.061967503 0.001671665
000180 e3 38 1d bc 9e 1a 57 3d a2 c4 94 bd 89 7b 22 3b
       -0.009596082 0.05251562 -0.07264067 0.002479287

layer4.weight f4 [80, 100]
000000 ed 9e 69 bd 20 bf 86 bc 71 eb 9c 3d 5f c1 1c bd
       -0.05703633 -0.016448557 0.076620944 -0.03827035
000010 1c 11 52 bd 54 b2 32 bb 80 24 5f ba 38 e4 84 bc
       -0.051285848 -0.0027266936 -0.0008512214 -0.016222104
000020 87 b4 2f bd 15 ec b2 3d 1c de c3 bc de dc 9a 3c
       -0.042896774 0.08736435 -0.023909621 0.018904146
000030 d6 da 5f 3d 33 e1 54 bd ea b5 41 bd 38 e5 81 bc
       0.054652058 -0.05197258 -0.047292627 -0.01585637
000040 80 bd cb bd 03 e2 bb 3d c0 9c 8c bc df f0 b1 bd
       -0.09948254 0.09173968 -0.017164588 -0.08688521
000050 76 c2 98 bd a6 d2 ab 3d dc ad d4 bb 80 64 85 ba
       -0.074589655 0.083897874 -0.006490452 -0.0010177046
000060 25 91 9f bd d5 5b 8b 3d aa 7a c5 3d 9a 0e 44 3d
       -0.07791356 0.06804625 0.09642537 0.047865488
000070 35 1b 5d bd de 38 c5 bd da 87 33 3d f9 e2 58 3d
       -0.053981025 -0.09629987 0.04383073 0.052950833
000080 26 a1 70 3d 40 f7 08 bd 1c 62 5f bc 08 4a c3 bd
       0.058747433 -0.03343892 -0.013634231 -0.09535605
000090 6c 54 f5 ba ea fc 35 bd 22 94 98 bd e5 18 a7 bd
       -0.0018717176 -0.04443065 -0.07450129 -0.08159045
0000a0 df f1 52 bc 97 9d 71 ba 27 42 b4 bd e2 5e 9a bd
       -0.012875049 -0.0009216903 -0.0880168 -0.07537629
0000b0 70 cd 07 bc e2 9d 6f 3d 94 b1 f9 3c f8 07 92 bc
       -0.008288726 0.05850018 0.030480184 -0.017826065
0000c0 c5 bf 81 bd c3 89 a3 3d dd 4a 43 bd fd cb 9a 3d
       -0.06335405 0.0798526 -0.047678817 0.07558439
0000d0 6f 34 c4 3d 0d 99 b2 3c c6 6a 75 3d 69 ad 51 bd
       0.095803134 0.021801496 0.05991628 -0.051190767
0000e0 b5 47 9f bc 8a 7a 01 3c 17 8c a4 3d 64 43 da 3c
       -0.019443372 0.007902751 0.080345325 0.026643462
0000f0 5a 8a 21 3d 25 34 9c 3d ec df 7d 3d 68 00 03 3c
       0.039438583 0.07627133 0.061981127 0.007995702
000100 20 a3 c8 3b 9e 69 9a bd 21 7b 72 3d b0 24 a7 bb
       0.0061229616 -0.07539676 0.059199456 -0.005100809
000110 13 66 4b bd 68 0b 8b bd 67 48 56 3b 51 98 2d 3d
       -0.049657892 -0.06789285 0.0032696964 0.04238159
000120 4e 56 06 bd 64 42 55 bd be 25 20 3d e1 2f 4e 3d
       -0.03279715 -0.05206527 0.039098494 0.05033863
000130 fb d7 ad 3d 5e 6a 31 3d 85 e7 b3 3d a3 7d 45 bd
       0.08488461 0.04331433 0.08784393 -0.04821552
000140 c9 44 9d 3d b2 b2 a1 bd 02 31 36 3d f4 a4 90 bc
       0.07679135 -0.078954116 0.04448033 -0.01765678
000150 49 73 b0 bd ca f7 1f 3d ad 63 49 bd 00 2b c0 bc
       -0.08615739 0.03905467 -0.049167324 -0.023458004
000160 e6 c2 8b bd 28 b3 9e 3c b4 4e 02 3d 72 03 01 3d
       -0.06824283 0.019372538 0.03181334 0.031497426
000170 87 a0 9f bd 98 d3 90 bc f3 b4 9d 3d 97 e1 df bc
       -0.0779429 -0.01767902 0.07700529 -0.02732925
000180 7c 0a ae 3d 49 de 20 3d d7 55 b9 bd a6 d7 ca bc
       0.084980935 0.039274488 -0.09049576 -0.024761032
000190 14 c6 98 3c 38 ca d1 bc 20 4c 9b 3b 30 85 f1 bb
       0.018649139 -0.02560912 0.0047392994 -0.0073706135
0001a0 ab 6c b8 3d 68 f0 4f bc 0a 8c a0 bd 80 c2 65 bc
       0.09005102 -0.012691595 -0.0783921 -0.014023423
0001b0 60 28 e1 bb 74 1d f1 3c 30 e3 0b 3c 42 01 c2 bd
       -0.006871268 0.02943299 0.008538052 -0.09472896
0001c0 b3 d4 70 bd 42 41 0a 3d ea a0 48 bd 80 79 12 ba
       -0.058796596 0.03375364 -0.048981585 -0.0005587563
0001d0 13 3d b9 bd 06 9c 1f 3d b0 70 e0 3b 30 47 93 bd
       -0.09044852 0.038967155 0.006849371 -0.07191312
0001e0 80 f9 5e 3c 53 ab c6 bd 3b 82 b8 3d 2a 0f 18 bd
       0.01360929 -0.09700646 0.090092145 -0.037123837
0001f0 74 f5 cd 3c 02 5c 08 3d 4e 05 16 3d 08 3a 85 3c
       0.025141455 0.03329087 0.036626153 0.016263023
000200 28 57 bb bc c0 77 a6 bd 5c 74 e2 3c 02 57 39 3d
       -0.022868708 -0.08128309 0.027643375 0.045248993
000210 b4 40 e8 3c 90 0d 80 bd 1d 0c 9d bd c0 c8 8a 3a
       0.028351165 -0.06252587 -0.07668326 0.0010588393
000220 ad 1e b8 bd a3 72 25 bd 32 d3 55 3d c0 fb 33 bb
       -0.08990226 -0.04039253 0.052203365 -0.0027463287
000230 f7 03 5e bd b3 35 41 bd 2d 4d a5 bd 25 32 cb bd
       -0.054203 -0.047170352 -0.08071361 -0.09921674
000240 48 4d a0 3c 93 16 49 bd 00 69 d2 3b 40 3b 37 bb
       0.0195681 -0.049093794 0.0064212084 -0.00279589
000250 b0 8e 75 bd 58 28 d7 bc 1a 65 13 3d 88 f2 9c bd
       -0.05995053 -0.026264355 0.03598509 -0.07663447
000260 28 ec b4 bd f3 d2 7b bd ca 80 3d bd 67 01 5a bd
       -0.08834106 -0.061480474 -0.0462654 -0.053223994
000270 cf 33 80 3d 62 b4 02 3d a7 0a 26 bd 4d cd 98 bd
       0.06259882 0.031910308 -0.040537503 -0.07461033
000280 3e bc 3c 3d ae 00 14 3d 58 4d 71 bc c0 e4 7e bd
       0.04607796 0.03613346 -0.014727913 -0.06222987
000290 0d 80 90 bd 94 e2 86 bd 3a c5 52 bd 33 dd cb 3d
       -0.07055674 -0.06586185 -0.05145762 0.099543
0002a0 80 fe 9b bb 21 bc b3 3d 49 c4 b8 3d 10 82 7a bd
       -0.0047605634 0.08776117 0.090218134 -0.061159194
0002b0 3d e4 a3 bd 88 2a a5 3c 48 df ae bc bd 9f a2 3d
       -0.08002517 0.020161882 -0.021346703 0.07940624
0002c0 80 51 a1 bc dc 07 f5 3c 3d 8f 77 bd f4 c9 da 3c
       -0.019692183 0.029910974 -0.060439337 0.026707627
0002d0 c8 c5 c9 3c 1a d1 49 bd 70 25 25 bc 10 2c 79 3c
       0.024630442 -0.04927168 -0.010079727 0.015208259
0002e0 12 10 2f 3d af c1 97 3d eb d1 c1 bd 80 11 c6 bb
       0.042739935 0.07409989 -0.09463867 -0.0060445666
0002f0 50 04 76 bc f1 64 bd 3d 90 80 70 bc 03 4d 78 bd
       -0.015015677 0.09247769 -0.014679089 -0.06062032
000300 38 82 d8 bc 82 43 34 3d b2 83 60 3d 15 59 99 3d
       -0.02642928 0.044009693 0.054813094 0.07487694
000310 87 65 5b bd e7 97 6d bd 14 42 97 3c 6c e3 07 bd
       -0.05356362 -0.058006193 0.018464126 -0.03317587
000320 ff bc 85 bd d9 58 d1 3d ed e1 b7 3d 0a 7f f2 bc
       -0.06530189 0.102220245 0.08978639 -0.029601593
000330 ba 92 21 bd 11 4f 7e bd 54 99 4b 3c 3a 5f 70 3d
       -0.03944657 -0.062087122 0.012426693 0.058684565
000340 ac ff f2 bc 83 6d a6 3d 95 65 88 3c 4e 1d ad 3c
       -0.02966293 0.081263565 0.01665 0.021132138
000350 d0 9b a8 bd c7 fa c8 3d 7d d4 8a 3d 99 5c ce 3c
       -0.08232844 0.09813457 0.0677881 0.025190638
000360 19 4d e6 bc d8 fe c0 bd d8 cf ab 3c 70 b0 36 3c
       -0.028112935 -0.094236076 0.020973131 0.011150464
000370 8a b4 01 bd 4b 0b f3 3d 1d c7 4c 3d 52 34 97 bd
       -0.031666316 0.11867388 0.049994577 -0.07383026
000380 26 69 20 3d e2 5b 18 3d 5c db c3 3d b6 f8 60 bd
       0.039162777 0.037197 0.09563324 -0.05492469
000390 f4 3c 91 3c 57 73 58 bd e8 38 6b bc 92 e1 ad bd
       0.01772926 -0.05284437 -0.014356829 -0.0849029
0003a0 1f b5 8b 3c 5f 0f 7a 3d aa dc 7b bd 0a 60 80 bd
       0.017054139 0.061049815 -0.06148974 -0.06268318
0003b0 e0 95 8e 3b 99 9a 99 bc 21 0f a7 3d ab 1f e4 3c
       0.0043513626 -0.018750476 0.081571825 0.027847132
0003c0 e1 68 0d bc 9e bb 4f bd 69 ca 9c 3d e0 69 8b 3d
       -0.008630962 -0.050716035 0.07655794 0.068073034
0003d0 f9 c3 7c 3d 80 f4 2d 3c 89 c0 7e 3d 93 22 ad 3d
       0.06171033 0.010617375 0.062195335 0.0845386
0003e0 c6 89 42 3d e6 f8 cc 3b 53 61 ca bd 92 b4 e9 3d
       0.047494672 0.006255257 -0.09881844 0.11411394
0003f0 82 f6 84 bd dd f1 d7 3d 22 9c 62 3d 17 aa 4a 3d
       -0.0649233 0.10544179 0.05532468 0.049478617

layer4.bias f4 [80]
000000 ed b3 c0 bd e5 59 94 bd 50 b3 ba 3d 27 ba b5 3d
       -0.09409318 -0.072437085 0.091162324 0.08873396
000010 14 9c 9f bd ff 58 01 bb 71 1d b3 3d c5 e1 af 3d
       -0.077934414 -0.0019736884 0.0874585 0.08587984
000020 f4 47 87 3d 87 64 86 3d d4 d4 0f bd 6b f2 d6 3c
       0.06605521 0.06562143 -0.035115078 0.02623864
000030 b3 8e b3 bd ba 03 42 3d 5a 43 22 bd 54 4b ab bd
       -0.08767452 0.047366835 -0.039615013 -0.08363977
000040 54 2c a2 3c 9c dc 84 3c ca 0b bb bd ea 62 9b bd
       0.019796528 0.016218476 -0.09133108 -0.07587226
000050 c4 9e 8a 3c 1a 9d 96 3d 2b 61 8f 3d eb 9e 82 bd
       0.016921408 0.073541835 0.07000955 -0.063779674
000060 bd 06 80 3d 1d f4 02 bd 70 96 8a bd e0 17 82 3d
       0.06251285 -0.031971086 -0.06766975 0.0635221
000070 94 27 82 bd c9 a6 a5 3d e7 7f 56 3c 32 1e c1 3d
       -0.06355205 0.08088452 0.013092018 0.094295874
000080 46 27 11 bb 05 b6 38 3c f1 1c 26 3c fe c8 70 bd
       -0.0022148653 0.011273866 0.010138736 -0.05878543
000090 35 6a ff bc da 3b d7 3c a9 dd a1 3d 00 77 47 bd
       -0.031178573 0.026273657 0.079036064 -0.04869747
0000a0 a4 63 c8 3c 34 a7 e0 3c ba 96 c3 bd 76 bd d0 3d
       0.024461575 0.027423479 -0.09550233 0.10192387
0000b0 74 fa e1 bc 7d 7d 1c 3d 5c d6 52 3d 00 70 5f 3d
       -0.027585246 0.038205612 0.05147396 0.05455017
0000c0 05 54 05 3d 7d 1e d3 3d 32 46 83 3d 70 e7 22 bc
       0.03255083 0.103085496 0.06409873 -0.009942874
0000d0 d5 f2 96 3d 10 61 59 3d c2 88 57 bc ba dd 54 bd
       0.07370535 0.05307108 -0.013155164 -0.051969267
0000e0 1c 93 a2 3d 02 d8 8b 3d 1b aa a6 bd 62 37 9a 3d
       0.07938215 0.068283096 -0.08137914 0.07530095
0000f0 7a 4f 3e bd f9 41 16 3d 76 62 43 bc 4b a1 99 3d
       -0.046462514 0.03668401 -0.01192533 0.07501467
000100 cd 16 8a 3d 25 cc 93 bd 15 bc bf bd 0f b5 a7 bd
       0.0674263 -0.07216672 -0.09362046 -0.08188831
000110 c1 19 44 3d cd 12 c3 3d 94 fc bc bc 0e 2b 52 3d
       0.047876123 0.0952507 -0.023069657 0.05131059
000120 be f1 56 bd 23 0c 14 3a 14 d9 93 3d c8 56 9e 3d
       -0.052476637 0.00056475605 0.07219139 0.07731396
000130 58 93 be 3c ea e5 ca 3d 80 c9 ef bc 2a 8e 88 3d
       0.023263618 0.09907134 -0.029270887 0.06667741

layer5.weight f4 [60, 80]
000000 3c ae 02 bd a0 43 2a bb d4 d7 f7 3d ff a4 bd bc
       -0.031904444 -0.002598025 0.12101713 -0.023149965
000010 ec 70 be 3d a0 ad c0 3d b3 67 9c 3d a0 f1 17 bd
       0.09298882 0.09408116 0.076369666 -0.037095666
000020 d8 8a 16 bd 46 79 97 3d ea 54 92 bd bb 87 82 bd
       -0.036753505 0.07396178 -0.07145102 -0.06373545
000030 30 97 81 3d b2 67 a4 bd 61 8c 74 3d ef 82 5e 3d
       0.06327665 -0.08027591 0.05970419 0.054324087
000040 e6 d0 9e bd 50 bb 36 bd a0 4b d3 bb 67 b1 a0 bd
       -0.07754688 -0.04461223 -0.006448224 -0.07846337
000050 68 9b fb bc f8 f9 b9 bd 1a a1 ac bd 80 44 fc 3d
       -0.030713752 -0.09080881 -0.08429165 0.12317753
000060 0a fa dc 3c 8a ff 1f bd 9c 53 ce 3d fa 09 7e 3b
       0.026974697 -0.03906206 0.10074541 0.003876327
000070 ce f4 21 3d 14 8c 03 bc 36 9c a9 3c 50 04 82 3d
       0.039540105 -0.008029003 0.02070437 0.06348479
000080 c5 c6 6c 3b 81 94 21 bd f5 5d 91 3d ad 7c 29 bd
       0.0036129218 -0.039448265 0.07097999 -0.041378666
000090 e6 43 72 bd fd c2 11 3c c0 4c 30 bd ce cf 91 3d
       -0.059146784 0.0088965865 -0.043041945 0.07119714
0000a0 70 08 48 3d 84 3b 99 bd f0 76 61 bd 17 db e7 bb
       0.04883617 -0.07482055 -0.05504507 -0.007075678
0000b0 d6 ed 76 bd f8 49 1b 3d c7 6a 92 bd 5e c6 c2 bd
       -0.06028541 0.03791234 -0.071492724 -0.09510492
0000c0 c2 a0 11 3d 3e 4b af bd 39 26 60 3d ee e0 8a 3d
       0.0355537 -0.08559273 0.054723952 0.06781183
0000d0 63 93 30 bd 49 f6 9b 3d b4 60 f1 3d 60 28 b8 bb
       -0.04310931 0.076153345 0.11786023 -0.0056200475
0000e0 2b c7 87 bc f4 47 be 3d e0 d3 97 3d d6 2d f8 39
       -0.016574463 0.09291068 0.07413459 0.00047336397
0000f0 48 59 b6 3c 08 eb 7e bd ed 0e 25 3c b7 3d e4 bb
       0.02225937 -0.062235862 0.010074359 -0.006965365
000100 af 86 5f bd 81 8f 9e 3d 10 56 81 3d 59 55 33 3d
       -0.054571804 0.07742215 0.06315243 0.043782566
000110 34 a0 b2 bd aa b4 e4 3d 80 93 88 bd a9 0a 84 bd
       -0.087219626 0.111672714 -0.066687584 -0.06447346
000120 15 4b 6c bd bb 04 3c bd ed ed d3 3d 57 5e f2 3d
       -0.05768879 -0.04590295 0.10348115 0.118344
000130 01 2f 3d bd 76 92 82 bd 6e aa 61 3c 9c 4d 55 bb
       -0.046187405 -0.063755915 0.013773544 -0.003254748
000140 b0 c7 0b bc c8 40 b0 3d f4 fb 31 3d 52 52 d3 3c
       -0.008531496 0.08606106 0.04345317 0.02579609
000150 18 c8 fd bc 4b 8e d7 bd 3a f6 e7 3c 0f 94 d7 bd
       -0.030979201 -0.10525187 0.028315652 -0.10526287
000160 64 cc ce bc 14 0f ae bd b0 50 80 3c 9d 1d 6e 3d
       -0.025243945 -0.0849897 0.015663475 0.05813371
000170 bc 43 1c 3d af d4 bb bd 54 60 96 3d 1e 60 57 3d
       0.038150534 -0.091714256 0.07342592 0.0525819
000180 cd 7e 2a bd 99 47 dc 3d 00 86 d1 bb 1b f2 a2 bd
       -0.041624833 0.10755844 -0.006394148 -0.07956334
000190 7a 00 a2 bd e9 9f 65 bd 41 55 29 bd 7f 8b a3 bd
       -0.07910247 -0.056060705 -0.04134107 -0.07985591
0001a0 7e dc 8d bd c5 c2 14 3d 38 cf 25 bd e9 d3 b8 bd
       -0.06926821 0.03631856 -0.040480822 -0.09024794
0001b0 ce 74 12 bd 0e dc bb bd 38 89 de 3d 2b eb e3 bc
       -0.035755925 -0.091728315 0.10866016 -0.027822098
0001c0 14 d4 07 3d 62 0d ab 3d 2d fe a1 3d 64 0a cf 3c
       0.033161238 0.08352162 0.07909808 0.02527351
0001d0 7e 25 cd 3d 0c 75 49 bd 1d e4 ad bd 9c a5 18 3d
       0.10016917 -0.04918389 -0.08490775 0.037267312
0001e0 52 13 dc bd a2 b6 c1 3d 31 9f 93 bd c2 33 98 bd
       -0.107458726 0.094586626 -0.07208098 -0.07431747
0001f0 5e b3 07 bd e3 fd 90 bd 46 cc a1 bb d4 fc b2 3d
       -0.033130042 -0.07079675 -0.0049376814 0.087396294
000200 37 18 76 3d 00 37 81 3c 10 c0 b0 ba f6 f5 af bd
       0.060081687 0.015773296 -0.0013484973 -0.08591835
000210 3d e5 14 bd 6a 72 74 3d 2f cb 5a bd 32 c9 d9 3d
       -0.03635143 0.059679426 -0.053416427 0.10634078
000220 0e 8f 8d bd 72 76 ca 3d aa d3 db 3d 05 78 be 3d
       -0.06912051 0.09885873 0.10733731 0.09300236
000230 34 ea e8 bc 68 b0 80 bd c2 c5 0c bc 2d d9 15 bd
       -0.02843199 -0.06283647 -0.008592071 -0.036584068
000240 a3 f3 d7 bd e1 63 0b bd cc 17 34 bd 44 9c e2 3d
       -0.10544517 -0.0340308 -0.043968007 0.110649616
000250 39 40 cc 3d 83 e5 fb bc 94 13 89 3d c5 b1 2c 3d
       0.09973187 -0.030749088 0.06693187 0.04216172
000260 a9 06 48 bd c6 6f e1 bd 76 3b 9e 3d ca 06 4c bd
       -0.048834477 -0.11007647 0.07726185 -0.049811162
000270 a8 0d d8 3d 00 69 9e 3d 42 e5 76 bd 53 67 b8 bc
       0.1054948 0.07734871 -0.06027723 -0.022510206
000280 c4 55 bb bd 7b da df bd a5 c2 9f bd 7e 6c f8 3c
       -0.09147218 -0.10930344 -0.078007974 0.03032517
000290 a0 50 b6 bd f9 13 cf bd 00 6a c4 3d 79 2d ac bc
       -0.08902097 -0.10111231 0.095905304 -0.021017777
0002a0 aa d2 a5 3b 3c be 96 3d 9c e5 56 3d 02 6c 8f bd
       0.0050605135 0.07360503 0.052465066 -0.07003023
0002b0 34 3b bc bc 40 1e e1 3c be d7 8b bd 08 7a ef bd
       -0.022977449 0.027480245 -0.06828259 -0.116931975
0002c0 1e fe d7 3d 9a 93 13 bd ac ec 4b 3d a0 65 c0 3d
       0.10546516 -0.036029436 0.049786255 0.093943834
0002d0 2c 47 8e 3c 13 bf dc bd 69 d1 64 3d 2a 73 95 bd
       0.017367922 -0.10778632 0.05586377 -0.072973564
0002e0 dd 1d 10 3d e1 42 9f bc 6e f2 d9 3d 27 94 80 bb
       0.03518473 -0.01944107 0.10641943 -0.003923911
0002f0 cc 15 52 3d e7 de c1 3d 2e 75 da bd ab 08 7e 3a
       0.05129032 0.094663434 -0.106668815 0.00096906227
000300 9b ec 98 3d 8d 4b c7 3d f4 a8 ba bb b5 16 27 3d
       0.07467004 0.09731207 -0.0056964103 0.04079314
000310 2c db 21 3c b1 c4 a0 3d 40 c1 a1 bd 7a f6 d2 3d
       0.009878915 0.07850016 -0.07898188 0.10300918
000320 1b 3b c9 bd fb 11 da bd 2a 3a 89 3d ef 77 b1 3c
       -0.098257266 -0.10647961 0.06700547 0.021663634
000330 88 c9 f6 3c f1 51 52 3c b5 17 60 bd 8d 1f 8e 3c
       0.030125394 0.012836919 -0.05471011 0.017349029
000340 37 69 52 bd 29 d5 0f bd c0 ef dd bd 60 b6 88 bc
       -0.051369872 -0.035115395 -0.10836744 -0.016688526
000350 70 63 f8 3c f5 a9 5c 3c 52 8e 82 3d 34 6c 60 3d
       0.030320853 0.013468255 0.06374802 0.05479069
000360 6d 9d fa 3c 92 43 ee bc 8c 76 72 3d fc b5 63 3c
       0.030592645 -0.029084954 0.059195086 0.013898369
000370 c6 b9 b1 3d 60 8b 81 3d c0 6b f5 bc b5 e7 c9 3d
       0.086780116 0.06325412 -0.029958606 0.09858648
000380 99 59 5f bc ce d6 05 3c 40 40 0d bc e0 6b e6 bd
       -0.013632202 0.008168889 -0.008621275 -0.11251044
000390 9d b4 86 bd 5f 8f 57 bc 8c ca a4 3d 9b 2a d1 3d
       -0.06577418 -0.013156741 0.08046445 0.102132045
0003a0 d6 69 d3 bd e9 42 a6 3d e2 32 39 3d 8e 6a c7 bd
       -0.10322921 0.08118231 0.04521454 -0.097371206
0003b0 a3 ff 04 bd 5c aa 07 3d 01 6f 6f bb 87 14 9e 3d
       -0.032470357 0.03312145 -0.003653467 0.07718759
0003c0 e8 35 94 3c e0 48 b0 bd 00 6d 1a bb 4a cf a3 bd
       0.01809211 -0.0860765 -0.0023563504 -0.079985216
0003d0 94 74 a7 3d 9c 96 b5 bd 94 6f 3f 3d b8 5c 84 3c
       0.081765324 -0.08866617 0.04673727 0.016157493
0003e0 8e a8 72 bd 40 75 7a bd e9 a9 dc bd 4c 8e 14 3d
       -0.059242778 -0.061146975 -0.10774595 0.036268517
0003f0 c0 b6 56 3d d4 8b fc bc c0 93 ea bc d0 8b e6 bc
       0.052420378 -0.030828394 -0.028634906 -0.02814284

layer5.bias f4 [60]
000000 39 36 89 3d 3d 2e ee 3c 84 14 77 3d da 0b d9 bd
       0.06699795 0.029074783 0.0603223 -0.10597964
000010 87 24 60 bd cb b6 6a bd bf ca 05 3c 12 71 ce bd
       -0.054722335 -0.05730323 0.008166014 -0.1008016
000020 24 4e c7 3d 92 5f ba bd cd 8b 60 3d 74 e9 47 bb
       0.09731701 -0.0910026 0.054820824 -0.003050414
000030 43 18 d1 3d 53 5b dc 3d 81 98 14 3d df 06 1c 3d
       0.10209706 0.10759606 0.03627825 0.03809249
000040 66 ce 19 3d a3 93 4f bd 5d 31 26 3d 20 d3 cf 3d
       0.037550353 -0.050677907 0.04057442 0.10147691
000050 9e 77 84 bd 0a ea d4 3d 49 ca 58 3d 90 b5 d6 bb
       -0.06468128 0.10396202 0.05292729 -0.0065524057
000060 7e 3a 95 3d 93 b9 e4 bc 98 d6 f0 3d 3d ec 2d bd
       0.07286547 -0.02792052 0.117596805 -0.042461623
000070 a0 06 19 bd a9 0a cb bd 3a 4c d5 bd 4a b6 58 3d
       -0.037359834 -0.09914143 -0.1041493 0.05290822
000080 f2 4d c2 bd f0 f6 11 3c bd d5 cf bc 90 28 8a bd
       -0.09487523 0.008908972 -0.025370473 -0.06746018
000090 81 0f 6b 3d 40 ed e9 3c a4 66 82 3d c3 4e da 3d
       0.057387833 0.028555512 0.063672334 0.10659554
0000a0 9f c6 35 3d 66 e5 8b 3d d6 60 8a bd 20 08 0a 3c
       0.044378873 0.06830864 -0.06756751 0.008424789
0000b0 78 b9 a5 bd e0 90 10 bd a3 a6 f3 3c 38 96 e3 bd
       -0.08092016 -0.035294414 0.029742545 -0.11112636
0000c0 b3 8d d3 3d 90 76 5d bc 5a 0d 92 3d af 22 0d bc
       0.10329761 -0.013517037 0.07131453 -0.008614226
0000d0 c3 50 98 bd 19 c1 ba bd 9a 4c e5 3d e2 ba 81 3d
       -0.07437279 -0.09118862 0.11196251 0.06334473
0000e0 e5 0e 6c bd ff 4d 92 bd 28 25 e7 bc 76 86 a5 bd
       -0.057631392 -0.07143783 -0.02821596 -0.08082287
