saved_models/model_NFLX.pt (torch_old, 190423 bytes, 15 tensors)

layer1.weight f4 [100, 5]
0.043622676 0.13520308 -0.054218438 -0.011990132 -0.24256521 0.0778417 -0.119353175 -0.13669008
0.14579523 -0.111246765 -0.27476025 0.3389286 0.17038858 0.05737725 -0.098430164 -0.10624337
-0.33455613 -0.09856084 0.16967738 0.20280015 0.32488042 0.05276164 0.45398477 0.059041765
0.08012433 -0.37156224 0.1893181 -0.24210599 -0.09459907 0.250929 0.33639613 0.033098944
0.022967443 0.008880046 -0.11041719 0.1490457 -0.1484267 0.17356572 -0.13197045 0.1851873
0.11434596 0.1331479 -0.012372131 -0.09561129 0.23741364 -0.10141623 -0.061277956 0.032185465
-0.4442433 0.040187985 0.34027925 -0.046428803 0.32982418 -0.11084156 0.17901562 -0.15988465
0.42937976 -0.09514368 0.04740648 0.14369221 0.34650868 0.24630708 -0.22772755 -0.31748408
-0.42686275 0.21815869 0.25039366 -0.34016627 -0.030184006 0.45121074 0.1895121 -0.007500953
0.46306008 0.049416102 -0.054349095 0.32912624 0.099979565 0.18562979 -0.20490716 -0.18732537
-0.3504544 -0.23094667 0.17170322 0.353804 0.09554061 -0.26823065 -0.35181868 0.3759818
0.112477936 0.33301145 0.083169565 0.016250392 0.18679993 0.2547145 -0.10713488 -0.08882943
-0.42146182 0.44458228 -0.27447233 -0.41652012 0.30086678 -0.4348984 0.40521294 0.19348262
-0.22465144 -0.33480072 -0.42934123 0.13719183 -0.20580463 -0.093393326 0.3785662 0.39160588
0.011295705 0.4400922 0.096838914 -0.26467896 -0.23856294 0.097844005 -0.025958478 -0.29082465
-0.092386365 -0.24122532 -0.23855682 -0.1735301 0.41470107 -0.34617746 0.4288289 0.08321531
0.39567128 0.4190947 -0.10216022 -0.35203764 -0.41478926 0.44773486 0.4704474 0.4426313
0.2112098 0.44235557 0.08166974 0.10100944 -0.28636196 -0.33901846 0.30444264 0.18540186
-0.14932323 0.0982275 0.35603094 0.42791915 0.110863805 0.37368083 0.1595476 0.4144335
0.30013752 -0.10590182 0.37868127 -0.17078583 0.35610515 -0.15051034 -0.23058552 0.28173354
-0.40770093 -0.41151676 0.23207834 -0.20756696 0.15824977 -0.34081587 0.37208015 -0.044817597
-0.37386665 0.22115684 0.021076916 -0.068743266 0.32922694 0.40174976 0.34362817 0.018561898
0.45292458 -0.16982156 0.25931633 -0.056646585 0.25108957 -0.2035689 0.17793569 0.23370795
-0.10462831 0.44498342 0.387697 0.002445737 0.3907244 0.31751978 -0.10153879 -0.28902718
-0.12578773 0.18667251 0.3682052 -0.19009677 0.26410058 0.41717967 0.42991066 0.3420909
-0.40156278 -0.440221 0.39007413 0.3016498 -0.3844374 0.2887013 -0.4115648 0.09063482
-0.44278833 0.4278524 0.28086895 0.23348227 0.12987591 0.095160775 0.22507028 -0.3782159
0.21208769 -0.20094696 0.09824401 -0.2703387 -0.027689334 0.40846336 -0.30404615 -0.3951454
-0.18309337 0.101660386 -0.032066952 0.46359894 0.14315669 0.33014402 0.20456122 0.0370857
0.06900655 -0.10587919 0.19802606 0.05843187 0.21598837 -0.010475397 -0.1619396 0.37392914
-0.08970711 0.28847766 -0.25053662 0.22528547 -0.38089526 -0.049735636 0.07626945 -0.38654393
0.42371523 -0.23224095 0.31822336 -0.35223 -0.04049304 -0.43959436 -0.095154494 -0.3729569
00000000: b1ad 323d ad72 0a3e 2714 5ebd 4272 44bc
00000010: 0463 78be 786b 9f3d 706f f4bd 7cf8 0bbe
00000020: 584b 153e 58d5 e3bd 60ad 8cbe 0d88 ad3e
00000030: 587a 2e3e 6804 6b3d c195 c9bd 2096 d9bd
00000040: f14a abbe 44da c9bd e8bf 2d3e d8aa 4f3e
00000050: ba56 a63e 971c 583d b170 e83e c7d5 713d
00000060: 3a18 a43d 683d bebe 9bdc 413e a2ea 77be
00000070: 28bd c1bd c479 803e 1d3c ac3e c292 073d
00000080: 3826 bc3c 9d7d 113c 6822 e2bd 709f 183e
00000090: 2bfd 17be 36bb 313e 4323 07be bda1 3d3e
000000a0: 372e ea3d ec57 083e 7bb4 4abc dacf c3bd
000000b0: 901c 733e 50b3 cfbd 98fe 7abd e8d4 033d
000000c0: dc73 e3be 289c 243d 1539 ae3e 212c 3ebd
000000d0: b7de a83e e600 e3bd df4f 373e cdb8 23be
000000e0: aad7 db3e b1da c2bd 4c2d 423d 0d24 133e
000000f0: 9669 b13e ec37 7c3e 6931 69be 468d a2be
00000100: c18d dabe fe64 5f3e 9933 803e 462a aebe
00000110: 7344 f7bc 1805 e73e 760f 423e 8eca f5bb
00000120: 3616 ed3e 8a68 4a3d 289d 5ebd 3c83 a83e
00000130: 16c2 cc3d bc15 3e3e 2fd3 51be 39d2 3fbe
00000140: c26e b3be 497d 6cbe f8d2 2f3e cc25 b53e
00000150: ccaa c33d 8755 89be 9421 b4be b080 c03e
00000160: d55a e63d 7a80 aa3e ce54 aa3d 8b1f 853c
00000170: 7b48 3f3e f069 823e 8869 dbbd 34ec b5bd
00000180: d8c9 d7be 4aa0 e33e a387 8cbe 2042 d5be
00000190: 360b 9a3e 01ab debe 1278 cf3e 4f20 463e
000001a0: 070b 66be 006b abbe 9dd2 dbbe 047c 0c3e
000001b0: 73be 52be 0045 bfbd 6ed3 c13e 9180 c83e
000001c0: 9f11 393c c453 e13e 7b53 c63d 0084 87be
000001d0: d849 74be 7062 c83d e0a6 d4bc f8e6 94be
000001e0: 1035 bdbd c503 77be 3d48 74be e0b1 31be
000001f0: b353 d43e 2c3e b1be 768f db3e ca6c aa3d
00000200: 6d95 ca3e 9593 d63e 6139 d1bd 473e b4be
00000210: 425f d4be 813d e53e 7bde f03e 92a0 e23e
00000220: 6247 583e 6e7c e23e 7742 a73d 0ade ce3d
00000230: 099e 92be d493 adbe e8df 9b3e fcd9 3d3e
00000240: 30e8 18be 802b c93d b049 b63e 3818 db3e
00000250: 900c e33d 1853 bf3e 7260 233e a130 d43e
00000260: a0ab 993e 0ee3 d8bd 83e2 c13e 7be2 2ebe
00000270: 6a53 b63e 621f 1abe 9c1e 6cbe 613f 903e
00000280: 2dbe d0be 53b2 d2be f2a5 6d3e 6f8c 54be
00000290: 3a0c 223e 6b7f aebe 4a81 be3e a892 37bd
000002a0: 736b bfbe f076 623e 7fa9 ac3c 45c9 8cbd
000002b0: 6f90 a83e 25b2 cd3e 08f0 af3e 1f0f 983c
000002c0: bbe5 e73e b4e5 2dbe 1cc5 843e 4006 68bd
000002d0: d08e 803e 5e74 50be c634 363e 2351 6f3e
000002e0: 5e47 d6bd ded4 e33e 3980 c63e a848 203b
000002f0: 070d c83e f491 a23e 92f3 cfbd 5ffb 93be
00000300: 80ce 00be 1427 3f3e 6485 bc3e baa8 42be
00000310: 3138 873e 9398 d53e 401d dc3e 8a26 af3e
00000320: a399 cdbe a664 e1be ccb7 c73e d871 9a3e
00000330: fbd4 c4be a8d0 933e 9fb8 d2be c09e b93d
00000340: 27b5 e2be 780f db3e 0ece 8f3e fa15 6f3e
00000350: 31fe 043e a7e3 c23d d378 663e 84a5 c1be
00000360: 842d 593e 0ac5 4dbe 2834 c93d d669 8abe
00000370: bed4 e2bc 1c22 d13e f0ab 9bbe 7f50 cabe
00000380: d47c 3bbe 5233 d03d a358 03bd d75c ed3e
00000390: ab97 123e a308 a93e 7f78 513e 2de7 173d
000003a0: 4e53 8d3d 30d7 d8bd 58c7 4a3e 4256 6f3d
000003b0: 0e2c 5d3e 00a1 2bbc 7fd3 25be a473 bf3e
000003c0: 5cb8 b7bd 58b3 933e 5646 80be 3cb1 663e
000003d0: b404 c3be 98b7 4bbd 2833 9c3d 16e9 c5be
000003e0: 34f1 d83e 92d0 6dbe 2cee a23e 7e57 b4be
000003f0: 08dc 25bd 8312 e1be 5ce0 c2bd 35f4 bebe

layer1.bias f4 [100]
0.38125005 -0.24804156 -0.057310533 -0.23565456 0.35661155 0.36802268 0.13832559 -0.017437497
0.3626597 -0.1358437 0.36916438 0.17552891 0.2832621 -0.13134354 0.08972419 0.08027708
-0.24224916 -0.30360276 -0.41181228 -0.40108916 0.07599671 -0.2628646 -0.19087645 0.1254729
0.3054505 -0.36995488 0.2575682 0.31354257 -0.010898799 -0.06635477 0.4314191 0.3386527
0.40997627 -0.030196398 0.38250777 0.34023556 -0.39084846 0.1623099 0.42809924 0.052497614
-0.43125448 -0.29757184 0.09724257 -0.25454232 0.122008935 0.024604658 0.30353945 -0.2175546
0.029754668 -0.14752784 -0.007587254 -0.2819095 -0.35817212 -0.25978425 0.19605358 0.012513633
0.14231671 -0.04545428 0.15522146 0.10935678 -0.10494451 -0.24811026 -0.048834294 0.119405486
0.34055233 -0.2853505 -0.17637597 -0.36727014 -0.09757069 -0.17741716 -0.12101418 0.27269235
-0.2848633 0.37865394 -0.28790832 -0.2288698 -0.31243935 0.12865321 0.41452563 0.23014086
0.33967018 -0.4133332 -0.04425776 -0.26010823 -0.27302337 -0.14311293 -0.42141345 0.14145625
-0.3367741 -0.36768764 0.3892807 0.33193162 -0.232375 0.3748348 0.3984321 0.36945274
0.2916867 0.030608041 0.12456116 0.044917196
00000000: 3533 c33e 9bfe 7dbe 73be 6abd 6e4f 71be
00000010: ca95 b63e 786d bc3e 39a5 0d3e 15d9 8ebc
00000020: 88ae b93e 9c1a 0bbe 1d03 bd3e dabd 333e
00000030: bb07 913e ec7e 06be 51c1 b73d 4f68 a43d
00000040: 2a10 78be d271 9bbe 0fd9 d2be 8f5b cdbe
00000050: 2aa4 9b3d 3096 86be 1e75 43be f87b 003e
00000060: 0264 9c3e ba6a bdbe fbdf 833e a788 a03e
00000070: e090 32bc 02e5 87bd f7e2 dc3e e363 ad3e
00000080: 69e8 d13e 705e f7bc 0fd8 c33e 5b33 ae3e
00000090: 4a1d c8be 9134 263e d32f db3e bd07 573d
000000a0: 63cd dcbe 565b 98be 1d27 c73d 5f53 82be
000000b0: d2df f93d b58f c93c 8669 9b3e a2c6 5ebe
000000c0: 10c0 f33c 8a11 17be 809e f8bb 7156 90be
000000d0: 5662 b7be 7102 85be 45c2 483e fb05 4d3c
000000e0: 79bb 113e 442e 3abd 60f2 1e3e 73f6 df3d
000000f0: 26ed d6bd 9e10 7ebe 7806 48bd dd8a f43d
00000100: e05c ae3e 7619 92be e79b 34be d50a bcbe
00000110: 24d3 c7bd d8ac 35be 48d6 f7bd 559e 8b3e
00000120: 9ad9 91be eede c13e b868 93be d85c 6abe
00000130: 0df8 9fbe abbd 033e b43c d43e 0caa 6b3e
00000140: 40e9 ad3e 69a0 d3be a047 35bd e82c 85be
00000150: b8c9 8bbe 328c 12be 81c3 d7be e8d9 103e
00000160: a86d acbe 8e41 bcbe cd4f c73e f1f2 a93e
00000170: b6f3 6dbe 59ea bf3e 4bff cb3e e928 bd3e
00000180: f657 953e b7bd fa3c ec19 ff3d 18fb 373d

layer2.weight f4 [150, 100]
0.09189547 -0.09954005 0.084835656 -0.044217885 -0.0764446 -0.04976206 0.011159167 0.038122796
-0.09628836 -0.0892 -0.028916135 0.090637244 0.08830165 0.03291645 0.028173722 -0.07366641
-0.035982206 -0.029354826 -0.040089883 -0.035887524 0.013692178 -0.0031144992 0.010325335 -0.06210972
-0.0752276 0.019546583 0.01622419 0.011624277 -0.01727444 0.058158286 -0.026934408 0.0478136
0.057554327 -0.09284794 0.07121337 0.09975002 0.022363916 -0.029263735 0.06949372 -0.088387325
-0.06773813 -0.03807937 -0.06213356 0.030568905 0.08644723 -0.06839983 -0.08237247 -0.062300038
0.041624866 0.060926042 -0.069522366 0.023994938 0.07285125 -0.0056984574 -0.059552323 0.07008427
-0.04762906 0.07133601 -0.06343404 0.036704086 -0.066777214 0.019194722 0.07339879 -0.07209127
-0.0866346 -0.07375847 -0.096650496 0.00862211 -0.059561897 0.06537942 -0.011328302 -0.041354667
-0.030526958 0.073352225 0.09966571 -0.091071144 0.05278536 0.070625134 -0.041211378 -0.0067228526
0.08863569 0.061389826 -0.051095963 -0.039357852 -0.010280311 -0.036849722 0.06912305 0.08315501
-0.007254258 0.0086989775 -0.053648103 -0.049631357 -0.09980857 0.008148804 0.05642716 0.0052091256
-0.07439049 -0.017379604 0.0771407 0.045045756 0.022767395 -0.00994762 0.01415866 -0.016692437
0.012913049 -0.06878775 0.020218056 -0.029194344 -0.030416403 0.09401455 0.069530874 0.043320477
-0.029984094 -0.052436505 0.022193413 0.00923865 0.03372917 0.098103605 0.07505197 -0.052972186
-0.025106633 0.047227003 0.095277674 -0.07871411 -0.0402757 -0.066089764 0.08414194 0.040062454
0.026142783 0.11210308 -0.04787896 0.07672251 -0.07426802 0.0890545 0.075746946 0.10651323
-0.023686223 -0.071614325 -0.0759034 0.03518063 -0.017498061 -0.046925854 0.07526699 0.057674326
0.021776391 0.0523541 0.025778078 0.08209871 0.055246808 -0.065851845 0.012316644 0.06014164
-0.011068366 -0.025252942 -0.075485036 -0.011195501 0.07641613 -0.027139496 -0.017779663 0.025250677
0.06615989 0.017065996 0.06604118 0.03567669 0.02392613 -0.008014324 -0.094517 -0.03297898
0.087404855 -0.0006926209 -0.005457081 -0.039098866 -0.061252322 0.081808746 -0.08268318 0.097316235
0.112217724 0.102747604 -0.06354587 0.0968357 0.047152083 0.040793926 -0.03991233 -0.015379481
-0.059541456 0.07994003 0.06727474 -0.0016335398 0.019754454 0.09256446 -0.047936354 0.015441557
0.043812755 0.0013094408 0.075110085 0.013856764 -0.09219382 0.029005624 0.06073793 -0.01850126
-0.08224877 -0.088160254 -0.03551825 -0.04063485 0.035671037 -0.10406856 0.022600204 0.06568616
0.016050944 0.056760155 -0.101276405 0.06160642 -0.031325027 -0.021739936 0.013269601 -0.012007251
0.060252577 -0.0627589 -0.010253743 0.03562457 -0.04087501 0.073279254 0.08866162 0.08536997
-0.07604816 -0.019509906 -0.03000341 -0.015792167 -0.0757213 0.07484948 0.032726713 0.07015403
0.07008895 -0.055079114 0.028484223 0.0035050774 0.03854817 0.08125339 0.072098844 0.025255032
0.057386883 -0.067407414 -0.0031218694 0.04501105 0.08834572 0.0043353406 0.021852365 0.03672699
-0.00021056831 0.050270878 -0.034761585 -0.010421612 0.09076658 -0.046226498 0.002225173 0.0034065344
00000000: b133 bc3d a7db cbbd 51be ad3d d01d 35bd
00000010: fd8e 9cbd 4dd3 4bbd f0d4 363c a626 1c3d
00000020: d532 c5bd 7dae b6bd 88e1 ecbc 05a0 b93d
00000030: 7fd7 b43d 66d3 063d 94cc e63c 6ade 96bd
00000040: 1462 13bd 8879 f0bc 4a35 24bd ccfe 12bd
00000050: 2855 603c a01c 4cbb 982b 293c c366 7ebd
00000060: ee10 9abd 2820 a03c 98e8 843c c073 3e3c
00000070: 2083 8dbc 6237 6e3d 8ca5 dcbc 32d8 433d
00000080: 16be 6b3d 1027 bebd 51d8 913d bd49 cc3d
00000090: 8834 b73c 80ba efbc b952 8e3d 6a04 b5bd
000000a0: 4aba 8abd 1df9 1bbd c37f 7ebd a46b fa3c
000000b0: 3f0b b13d 3615 8cbd e6b2 a8bd 532e 7fbd
000000c0: d67e 2a3d 968d 793d be61 8ebd 0891 c43c
000000d0: 0933 953d 20ba babb 23ed 73bd 5788 8f3d
000000e0: b016 43bd 9d18 923d b5e9 81bd 0657 163d
000000f0: 7ec2 88bd 403e 9d3c 1b52 963d 96a4 93bd
00000100: 7b6d b1bd ae0e 97bd b2f0 c5bd c043 0d3c
00000110: 2df7 73bd a5e5 853d 589a 39bc 8363 29bd
00000120: ac13 fabc b139 963d 891d cc3d 8283 babd
00000130: 7635 583d e9a3 903d 43cd 28bd 604b dcbb
00000140: a186 b53d e673 7b3d 004a 51bd b335 21bd
00000150: c06e 28bc bcef 16bd 6390 8d3d 2d4d aa3d
00000160: 20b5 edbb 2886 0e3c 1dbe 5bbd 404a 4bbd
00000170: 7068 ccbd 9082 053c 2a20 673d 50b1 aa3b
00000180: 0b5a 98bd ac5f 8ebc f1fb 9d3d e681 383d
00000190: b082 ba3c 58fb 22bc b9f9 673c 94be 88bc
000001a0: 4191 533c 98e0 8cbd 56a0 a53c fa28 efbc
000001b0: d22b f9bc b38a c03d 3466 8e3d d070 313d
000001c0: 34a1 f5bc a9c7 56bd f6ce b53c b55d 173c
000001d0: 9927 0a3d 8bea c83d d9b4 993d 5df9 58bd
000001e0: 6dac cdbc 1a71 413d f120 c33d dd34 a1bd
000001f0: 22f8 24bd 125a 87bd 9c52 ac3d 8718 243d
00000200: 6429 d63c 4d96 e53d ba1c 44bd b120 9d3d
00000210: d519 98bd 3562 b63d 3721 9b3d 9c23 da3d
00000220: 9c09 c2bc 88aa 92bd 3e73 9bbd 9019 103d
00000230: 1858 8fbc 5335 40bd 9425 9a3d ea3b 6c3d
00000240: 6764 b23c 4171 563d 8c2c d33c 5e23 a83d
00000250: 7a4a 623d 55dd 86bd c0cb 493c 1557 763d
00000260: 1758 35bc 42df cebc e697 9abd 566d 37bc
00000270: 0f80 9c3d a653 debc a8a6 91bc 82da ce3c
00000280: d67e 873d fdcd 8b3c 9940 873d b921 123d
00000290: bb00 c43c 834e 03bc 2192 c1bd f814 07bd
000002a0: 5101 b33d 0091 35ba 50d1 b2bb 2226 20bd
000002b0: b7e3 7abd 588b a73d cd55 a9bd bc4d c73d
000002c0: 68d2 e53d 566d d23d 5624 82bd cc51 c63d
000002d0: 8b22 413d 8817 273d 1d7b 23bd 38fa 7bbc
000002e0: bee1 73bd 99b7 a33d 57c7 893d 801c d6ba
000002f0: 18d4 a13c 7092 bd3d e958 44bd 96fe 7c3c
00000300: 0175 333d 8ba1 ab3a 51d3 993d 7b07 633c
00000310: 1dd0 bcbd 349d ed3c 56c8 783d f48f 97bc
00000320: 0b72 a8bd 5d8d b4bd 967b 11bd ba70 26bd
00000330: cb1b 123d e621 d5bd 1024 b93c 7786 863d
00000340: 457d 833c 567d 683d 016a cfbd 0357 7c3d
00000350: ac4e 00bd f317 b2bc be68 593c 10ba 44bc
00000360: 68cb 763d bd87 80bd 51ff 27bc 12eb 113d
00000370: 8e6c 27bd 6f13 963d 3994 b53d 73d6 ae3d
00000380: 23bf 9bbd 3dd3 9fbc b6c9 f5bc 935e 81bc
00000390: c513 9bbd af4a 993d 720c 063d ebac 8f3d
000003a0: cc8a 8f3d a39a 61bd bf57 e93c 71b5 653b
000003b0: b0e4 1d3d 2d68 a63d 8fa8 933d a4e3 ce3c
000003c0: 820e 6b3d e60c 8abd 4798 4cbb 825d 383d
000003d0: 9aee b43d 790f 8e3b bb03 b33c 0a6f 163d
000003e0: 00cc 5cb9 d6e8 4d3d 2a62 0ebd 69bf 2abc
000003f0: d4e3 b93d ff57 3dbd 35d4 113b 2a40 5f3b

layer2.bias f4 [150]
-0.058006894 -0.06569225 -0.0491584 -0.05593046 -0.017547563 -0.0027229935 0.090117104 0.10981949
-0.030260935 0.08469616 -0.10092309 -0.021533981 -0.10900029 -0.06316108 -0.0073577147 0.07608171
0.016487638 -0.048984148 0.091393456 0.03023861 -0.02494733 -0.012318537 -0.07182114 0.043005984
-0.026532844 -0.05276721 -0.02299118 -0.013869822 -0.07624148 0.07867398 0.08582429 0.10158736
-0.039320886 0.05412197 0.06677194 0.007584943 0.06165219 0.043257557 0.10655741 0.09166137
-0.0002604291 0.101045564 -0.042472906 0.034510326 -0.029130578 -0.078634955 0.024296558 -0.033948656
0.00085031986 -0.09911791 0.032898314 -0.07144081 -0.039006032 0.078911655 0.07657833 -0.08136157
-0.030345038 0.11169483 -0.095475934 0.05442071 -0.018762086 -0.059446264 0.12039809 0.087220244
0.08019753 -0.012172401 0.07865397 -0.00020626932 0.017321927 0.05126033 0.078220926 -0.05761062
-0.037699796 -0.023108546 -0.048502907 -0.05252324 -0.06403437 0.017491318 0.038548633 -0.014593199
0.0064792745 0.040211447 -0.071380936 -0.03646238 0.07369686 0.081124805 0.015552862 0.08427525
0.0909179 0.008045851 -0.050908744 0.112051316 -0.0034036015 -0.07931409 0.11641106 0.09411804
-0.0648251 0.03597615 0.016425475 -0.05948036 -0.08558891 0.07518173 0.04164608 -0.05441927
0.08087719 -0.019531224 0.028790196 0.038344685 0.01622598 -0.06856092 -0.097520806 -0.06711946
0.07860455 0.056853294 -0.08258207 0.02887177 0.103110336 0.028497986 -0.08365838 0.014583234
-0.06809488 -0.07892299 -0.0066514984 -0.041694332 0.045688614 -0.056464653 -0.06318466 -0.046435177
-0.00845116 0.06174821 -0.0625807 0.08974087 0.04366631 -0.010773806 0.005293168 -0.06560002
0.026449975 0.04947832 -0.03354062 0.09932412 -0.0175362 -0.08912827 -0.017449576 0.07689479
-0.002555309 0.056600027 -0.08065289 -0.007025972 -0.037618935 -0.08784788
00000000: a398 6dbd a989 86bd 525a 49bd 5717 65bd
00000010: e8bf 8fbc 4074 32bb 518f b83d 0ae9 e03d
00000020: c8e5 f7bc 2e75 ad3d c4b0 cebd 0868 b0bc
00000030: 8b3b dfbd 995a 81bd fc18 f1bb bad0 9b3d
00000040: 1511 873c 9aa3 48bd 7e2c bb3d f6b6 f73c
00000050: 585e ccbc b0d3 49bc f616 93bd 0b27 303d
00000060: 685b d9bc 6e22 58bd 0058 bcbc 403e 63bc
00000070: 7e24 9cbd d31f a13d a5c4 af3d 090d d03d
00000080: f00e 21bd 00af 5d3d babf 883d 1d8b f83b
00000090: 0287 7c3d d62e 313d c53a da3d f5b8 bb3d
000000a0: 348a 88b9 faf0 ce3d 12f8 2dbd b35a 0d3d
000000b0: 40a3 eebc 5d0b a1bd 9309 c73c bf0d 0bbd
000000c0: 00e8 5e3a 55fe cabd 62c0 063d 8f4f 92bd
000000d0: cac4 1fbd 6f9c a13d 19d5 9c3d e5a0 a6bd
000000e0: 2896 f8bc 42c0 e43d e388 c3bd 40e8 5e3d
000000f0: f2b2 99bc ed7d 73bd 4693 f63d 87a0 b23d
00000100: 9a3e a43d c06e 47bc 5515 a13d 004a 58b9
00000110: b7e6 8d3c 5af6 513d 4b32 a03d 1df9 6bbd
00000120: 1a6b 1abd 224e bdbc fcaa 46bd 9c22 57bd
00000130: 7424 83bd f449 8f3c 2ce5 1d3d 5018 6fbc
00000140: 1850 d43b c2b4 243d 2b30 92bd 9459 15bd
00000150: 61ee 963d c324 a63d 6ed1 7e3c 8198 ac3d
00000160: 2a33 ba3d bfd2 033c b085 50bd 297b e53d
00000170: f50e 5fbb 6d6f a2bd ec68 ee3d f5c0 c03d
00000180: 06c3 84bd ba5b 133d b88e 863c aea1 73bd
00000190: 3d49 afbd e1f8 993d 1495 2a3d bee6 5ebd
000001a0: f1a2 a53d f2ff 9fbc 6bd9 eb3c 510f 1d3d
000001b0: 59ec 843c ab69 8cbd fdb8 c7bd ed75 89bd
000001c0: 6cfb a03d 00df 683d ca20 a9bd 7d84 ec3c
000001d0: 832b d33d 9c74 e93c 1655 abbd 84ee 6e3c
000001e0: 5475 8bbd 60a2 a1bd d0f4 d9bb adc7 2abd
000001f0: fc23 3b3d 7b47 67bd f666 81bd d032 3ebd
00000200: bc76 0abc b1eb 7c3d 4f2a 80bd 10ca b73d
00000210: 72db 323d 9e84 30bc 5072 ad3b 4e59 86bd
00000220: 9ead d83c c7a9 4a3d e461 09bd 726a cb3d
00000230: 14a8 8fbc e288 b6bd 6af2 8ebc 047b 9d3d
00000240: f976 27bb 6ed5 673d 582d a5bd 203a e6bb
00000250: 5016 1abd 97e9 b3bd

layer3.weight f4 [100, 150]
-0.044655047 0.03337077 0.037117884 0.002977863 0.025641732 -0.027488362 -4.000962e-06 -0.0699656
0.07865642 -0.040044133 0.02255664 0.0441214 -0.01835315 0.066416234 0.07397312 0.031353414
0.07706338 0.030767292 0.06880544 -0.080033585 -0.06751616 0.06687142 0.03956818 0.0073887855
-0.063375644 -0.0143665075 0.05761148 -0.06395352 -0.029747084 -0.014189772 -0.023405407 0.036615007
-0.027652778 -0.02658673 0.031103112 -0.06162525 -0.029100455 -0.023061711 -0.021541867 0.049592003
0.0681389 -0.02859063 -0.042776346 0.031756558 -0.03381658 -0.035218842 0.023119539 0.037146397
-0.011422738 -0.070192106 0.039985195 0.05832538 0.042194963 0.018766768 -0.025176406 -0.07726316
-0.06076437 -0.004176855 -0.003785506 -0.05909438 0.06349413 0.07856102 -0.069454715 0.022978775
-0.027132325 -0.031755112 -0.08131585 -0.048646793 -0.021373939 -0.0316863 -0.07453891 0.008540995
-0.019334752 -0.026311468 -0.063380815 0.053766042 -0.036149606 -0.021134574 0.00081356615 -0.07169994
-0.00421685 0.06959827 -0.010133356 -0.06962255 -0.044610996 -0.0469931 -0.05004552 -0.057429746
-0.009063795 0.054870605 -0.07578784 0.048591793 0.080859676 -0.04841555 0.009997867 -0.06549008
0.011223026 -0.01809077 -0.06046117 0.039807387 0.059830382 -0.015418217 -0.07730376 -0.026706975
-0.030928466 0.004501812 -0.04164484 0.013060659 -0.080649205 -0.08145042 0.05793442 0.035403453
-0.07784322 0.046752915 -0.041137945 -0.020017747 -0.06514971 0.012738235 -0.065700464 0.043883577
-0.0033372343 -0.06556113 -0.056176152 0.024896681 0.04199539 -0.07676309 -0.03917244 -0.029046465
-0.012536176 -0.0573375 0.025806166 0.0739221 0.02966243 -0.04707563 0.035342194 -0.05359839
0.0103487745 -0.036525227 0.0009847581 0.07360031 0.0037622973 0.046783373 -0.0044824407 -0.007026948
-0.006451592 0.049977645 -0.02481629 -0.06545074 0.03648132 -0.05764237 0.02496627 0.050172344
-0.016799562 0.047777355 0.07691114 -0.03498588 -0.009023003 0.051249236 0.04726702 0.0017856956
0.0065893233 -0.044250198 -0.013976686 0.010495357 -0.046532195 -0.060509905 -0.036688983 -0.012332797
-0.065931395 0.033026032 -0.019265275 -0.034277115 0.04034113 0.010800824 0.075890556 0.06709437
0.011689074 -0.071788535 0.009510569 -0.036999322 0.024401754 0.056448847 0.043472067 -0.047086354
-0.068753734 -0.023824535 0.027156062 -0.061877634 0.01844994 -0.056756116 -0.021542765 0.026877135
0.0027844757 0.0056193843 0.005564548 0.027261212 -0.05669236 0.045607805 -0.03848243 0.0655534
-0.06267273 0.0074676275 0.019862264 -0.0374597 -0.047343053 -0.025645304 0.016519569 -0.07414629
0.021188408 -0.048692297 -0.07334591 -0.07606324 -0.06530891 0.044251412 -0.0006978363 0.05548516
-0.04939031 -0.0044694915 -0.079202645 0.076879695 -0.03779973 0.022787638 -0.053739317 0.06692621
0.079009324 -0.06268033 -0.081137165 -0.04394424 -0.011708818 0.018920973 0.052544907 0.064738646
0.012202315 0.023277618 0.021691605 0.053600892 -0.059374996 -0.06289601 0.04284864 0.080950096
0.002119571 0.035039455 -0.062818155 -0.062429003 0.029071927 0.01919698 -0.0688715 0.059331775
-0.008722939 -0.04255062 -0.071540385 -0.074229315 0.057862 0.04034836 0.0750169 -0.0070784613
00000000: 36e8 36bd caaf 083d ec08 183d 4028 433b
00000010: 9c0e d23c 462f e1bc 0040 86b6 204a 8fbd
00000020: 9e16 a13d 5105 24bd b4c8 b83c a4b8 343d
00000030: 5859 96bc 3c05 883d 387f 973d 706c 003d
00000040: 68d3 9d3d b00b fc3c dee9 8c3d a6e8 a3bd
00000050: ea45 8abd e2f3 883d 3e12 223d a01d f23b
00000060: 17cb 81bd 8061 6bbc 04fa 6b3d 10fa 82bd
00000070: 28b0 f3bc 387c 68bc b2bc bfbc 9ef9 153d
00000080: 1488 e2bc 6acc d9bc f4cb fe3c c26a 7cbd
00000090: 1464 eebc eaeb bcbc 9278 b0bc fc20 4b3d
000000a0: 688c 8b3d e636 eabc 4036 2fbd 2a13 023d
000000b0: 4183 0abd a241 10bd 3065 bd3c d226 183d
000000c0: 7026 3bbc e1c0 8fbd 84c7 233d 98e6 6e3d
000000d0: a0d4 2c3d c4bc 993c c03e cebc 263c 9ebd
000000e0: 0fe4 78bd 00de 88bb 4016 78bb f30c 72bd
000000f0: 3609 823d 9ae4 a03d 463e 8ebd fc3d bc3c
00000100: 9c44 debc a611 02bd ed88 a6bd dc41 47bd
00000110: 6618 afbc 7ec9 01bd dba7 98bd 88ef 0b3c
00000120: ea63 9ebc 268b d7bc cdcd 81bd c839 5c3d
00000130: 9c11 14bd 6a22 adbc 8045 553a 6bd7 92bd
00000140: 802d 8abb 8a89 8e3d 6006 26bc 4496 8ebd
00000150: 05ba 36bd d67b 40bd 88fc 4cbd 743b 6bbd
00000160: 5080 14bc 00c0 603d a836 9bbd 3008 473d
00000170: c299 a53d 624f 46bd 18ce 233c aa1f 86bd
00000180: c8e0 373c 1833 94bc 22a6 77bd 120d 233d
00000190: b410 753d b09c 7cbc 6f51 9ebd 96c8 dabc
000001a0: b25d fdbc f083 933b c893 2abd 60fc 553c
000001b0: 692b a5bd 7acf a6bd a44c 6d3d 3603 113d
000001c0: 446c 9fbd fc7f 3f3d 4380 28bd 42fc a3bc
000001d0: 366d 85bd 08b4 503c f78d 86bd 44bf 333d
000001e0: 80b5 5abb ea44 86bd f718 66bd 20f4 cb3c
000001f0: 5c03 2c3d f835 9dbd 4873 20bd daf2 edbc
00000200: 8864 4dbc bada 6abd 7467 d33c 7864 973d
00000210: a0fe f23c 60d2 40bd fac2 103d fc89 5bbd
00000220: e88d 293c 7a9b 15bd 0013 813a c2bb 963d
00000230: e090 763b ec9f 3f3d 70e1 92bb 5042 e6bb
00000240: e067 d3bb 5cb5 4c3d 884b cbbc 0a0b 86bd
00000250: 706d 153d 681a 6cbd 1086 cc3c 8481 4d3d
00000260: 3c9f 89bc 30b2 433d 9683 9d3d 5b4d 0fbd
00000270: 38d5 13bc b8ea 513d 109b 413d 000e ea3a
00000280: 40eb d73b b23f 35bd 78fe 64bc b8f4 2b3c
00000290: 8b98 3ebd 3cd9 77bd 3047 16bd 800f 4abc
000002a0: 0a07 87bd 4e46 073d 36d2 9dbc 2966 0cbd
000002b0: be3c 253d f0f5 303c 826c 9b3d c668 893d
000002c0: 8883 3f3c de05 93bd 38d2 1b3c 9a8c 17bd
000002d0: 30e6 c73c e836 673d c40f 323d 9fdd 40bd
000002e0: c2ce 8cbd ac2b c3bc 6476 de3c 6773 7dbd
000002f0: 5424 973c 1a79 68bd 747a b0bc 702d dc3c
00000300: c07b 363b d022 b83b d056 b63b e852 df3c
00000310: 4036 68bd 40cf 3a3d c19f 1dbd dc40 863d
00000320: 8f5a 80bd 00b3 f43b 30b6 a23c 586f 19bd
00000330: caea 41bd 1a16 d2bc 0c54 873c 03da 97bd
00000340: 5093 ad3c 9371 47bd 6136 96bd 0bc7 9bbd
00000350: aec0 85bd f840 353d 00ef 36ba 6844 633d
00000360: 7e4d 4abd d074 92bb ff34 a2bd 1a73 9d3d
00000370: e4d3 1abd 24ad ba3c c21d 5cbd 9c10 893d
00000380: a4cf a13d 8b5e 80bd 3e2b a6bd e0fe 33bd
00000390: 58d6 3fbc 2800 9b3c 5439 573d b295 843d
000003a0: 38ec 473c b4b0 be3c 98b2 b13c 9c8c 5b3d
000003b0: 3233 73bd a0cf 80bd 0e82 2f3d 2ac9 a53d
000003c0: 80e8 0a3b 8885 0f3d cea6 80bd 8eb5 7fbd
000003d0: 4028 ee3c fc42 9d3c 800c 8dbd e005 733d
000003e0: a8ea 0ebc 8f49 2ebd c483 92bd 8a05 98bd
000003f0: b400 6d3d 5244 253d 76a2 993d 70f2 e7bb

layer3.bias f4 [100]
0.038928024 -0.007545933 0.012523345 -0.06005753 0.027437069 -0.0675859 -0.07056882 -0.052796077
-0.0026151626 0.0814232 -0.044856947 0.046379756 0.045015015 0.0062167803 -0.041474868 0.044908293
0.04144673 -0.035054766 -0.043289445 -0.043796066 0.040982313 -0.0637332 -0.04810212 -0.03641798
-0.06561511 -0.032394357 0.030316683 -0.04050348 -0.007863745 0.054593742 0.081892185 -0.081553556
-0.035988934 0.08090691 0.072090656 0.07401729 0.06976017 -0.054570526 0.09019805 0.014072217
-0.043432057 0.08449324 -0.048537157 0.006259203 0.048354402 0.108017735 0.0024586916 -0.02510082
0.04822204 0.06524486 -0.025875604 0.057779793 -0.013926931 -0.041567683 -0.07605405 -0.042370766
0.06397913 -0.024546972 -0.07056528 -0.075081974 0.06654255 -0.03562954 0.08495516 0.012638474
-0.04822854 -0.061832093 0.06575465 0.05519104 0.035584122 0.0039625447 0.03701241 0.070461646
-0.008232122 0.023150714 0.022373455 0.019845687 -0.03993364 -0.014528807 0.016082957 0.07246924
0.053341407 0.048561398 -0.0714885 0.09506201 0.060274288 0.059610873 -0.066738576 0.037929345
-0.058362603 -0.05713757 -0.032796368 0.060625203 0.026505025 0.021179855 -0.059589718 0.042008158
0.039685268 0.0004761219 -0.016242359 0.035023868
00000000: fe72 1f3d e043 f7bb b72e 4d3c e2fe 75bd
00000010: b4c3 e03c 7a6a 8abd 6386 90bd b340 58bd
00000020: 2663 2bbb 35c1 a63d ebbb 37bd b3f8 3d3d
00000030: aa61 383d 22b6 cb3b 8de1 29bd c2f1 373d
00000040: 0cc4 293d 9695 0fbd 4650 31bd 8163 33bd
00000050: 12dd 273d 8d86 82bd bb06 45bd 052b 15bd
00000060: 3761 86bd f2af 04bd b15a f83c fae6 25bd
00000070: f0d6 00bc b09d 5f3d 17b7 a73d 8d05 a7bd
00000080: 2269 13bd 86b2 a53d 44a4 933d 6096 973d
00000090: 6cde 8e3d 5885 5fbd c1b9 b83d 288f 663c
000000a0: d0e5 31bd cb0a ad3d e6ce 46bd 001a cd3b
000000b0: 440f 463d 6738 dd3d 0022 213b 3ca0 cdbc
000000c0: 7984 453d 199f 853d 13f9 d3bc 81aa 6c3d
000000d0: c82d 64bc e042 2abd 3ac2 9bbd f88c 2dbd
000000e0: 7d07 833d bb16 c9bc 8884 90bd 94c4 99bd
000000f0: 7647 883d 48f0 11bd f9fc ad3d 9a11 4f3c
00000100: 4a8b 45bd a643 7dbd 60aa 863d 0010 623d
00000110: a8c0 113d 3cd8 813b 539a 173d 324e 903d
00000120: 06e0 06bc 91a6 bd3c 8948 b73c 6c93 a23c
00000130: 7591 23bd 3c0a 6ebc 68c0 833c c16a 943d
00000140: 857c 5a3d 51e8 463d 9068 92bd dfaf c23d
00000150: 2ce2 763d 882a 743d 3cae 88bd cd5b 1b3d
00000160: a00d 6fbd 1609 6abd 7c55 06bd 2252 783d
00000170: 1121 d93c 6081 ad3c 5914 74bd bf10 2c3d
00000180: 058d 223d 00a0 f939 b20e 85bc 3075 0f3d

layer4.weight f4 [80, 100]
0.02368299 -0.0014639646 -0.084321365 -0.083665684 -0.0128420815 -0.06342886 -0.0068788305 -0.025724588
-0.084378466 0.09091376 0.0406603 0.021033252 -0.027259924 0.09462486 0.026763387 0.05699811
0.08320287 0.051272385 0.024875358 0.051817454 0.0074876035 0.063047156 0.035286076 0.033559024
0.08176207 0.059817728 -0.0057577053 0.07025301 0.091899835 -0.023787886 -0.043927602 -0.09733243
-0.0032980265 -0.010527447 0.078706466 0.07376771 -0.036887277 -0.03434188 -0.018736448 0.04375238
-0.09883078 -0.0950424 -0.07617758 -0.004529913 0.039708413 -0.040685344 0.063077636 0.071139164
-0.0014298032 0.04858397 -0.092890196 -0.038599532 0.09854251 -0.07746352 -0.090994254 -0.06732942
0.09710775 0.04900338 0.04447901 -0.048253775 -0.039659377 0.024436833 -0.056728885 -0.0998176
0.02024623 0.02357884 -0.09629919 0.010043643 0.061544083 0.070072144 -0.095074445 -0.02660862
-0.0068062884 0.017852258 0.07599631 -0.0922253 -0.08438553 -0.07418075 0.0056908727 -0.014539957
-0.010943283 -0.05770254 -0.06931823 0.045119714 0.07934753 0.08949133 0.049475066 -0.03971812
0.06633892 -0.09409751 -0.006566799 -0.022586549 0.05780337 -0.026786651 0.064205565 -0.07163471
0.007652472 -0.067647785 0.064318955 0.023997394 -0.0687655 0.018123433 -0.0254773 -0.12196013
0.0836379 -0.038029563 -0.09997143 -0.023201339 0.06543179 0.068016484 0.11213644 -0.000996114
-0.07435531 -0.032293778 0.052631445 0.06452604 -0.06859806 -0.027084053 0.09355856 -0.06222352
0.049161606 0.02778018 -0.09627092 0.10859744 0.00992775 0.07084877 0.08115598 -0.034049176
0.014690403 -0.020207047 -0.07601275 0.04927943 0.0069917603 0.03857843 0.07558429 -0.067744166
0.07269722 -0.06286294 0.047910657 0.056365795 0.08720925 0.09682248 -0.042954482 0.04241625
-0.053040035 -0.10738148 0.03424705 0.026409034 0.104779914 0.0415706 -0.06410928 -0.016647397
-0.014059424 0.03725878 -0.015621158 0.028952263 0.034989502 0.098691486 -0.06465005 -0.061134744
-0.0060500535 0.103840016 -0.07443862 0.08931476 -0.023481108 0.10016334 -0.014924727 -0.014733389
-0.009135678 0.09666997 -0.060853023 -0.054725993 -0.012766723 0.042276416 0.022663536 -0.042012002
0.09061181 -0.0027580885 0.039223544 0.045972623 0.0701677 0.067491025 -0.06821372 -0.06895724
0.0593049 0.037815697 -0.029800594 0.06934835 0.043393113 0.038317364 0.018468356 -0.022284515
-0.050803877 0.00585128 0.098384865 -0.039515853 0.02600545 0.06390237 0.07278796 0.06378349
0.06894005 -0.09282424 0.10341183 0.027940236 0.05403865 -0.0297397 -0.09349865 -0.06561981
-0.029223926 0.059395548 -0.08515233 0.082833745 0.011355169 0.0071942657 -0.09226485 -0.07397272
0.00010192394 -0.093445085 -0.030986413 -0.07786361 0.08786882 0.071711384 -0.0067025796 -0.054623853
-0.014031999 0.005283378 -0.031853266 -0.04157139 -0.07213217 0.031832967 0.08599372 0.04675343
-0.054058492 -0.06626201 0.021727184 -0.03242054 -0.05319391 -0.036827423 0.105239674 -0.04035293
-0.068725705 0.09255784 -0.08097245 -0.052656453 0.07070008 -0.031524334 -0.07683053 0.061354917
0.07001075 -0.09108753 0.017654894 -0.018313121 0.057686545 0.09257778 -0.0738749 -0.057451405
00000000: d402 c23c 80e2 bfba aeb0 acbd ea58 abbd
00000010: 9867 52bc fde6 81bd d067 e1bb 5fbc d2bc
00000020: 9ece acbd fe30 ba3d 6a8b 263d ed4d ac3c
00000030: 3450 dfbc aeca c13d e43e db3c da76 693d
00000040: 4466 aa3d fe02 523d 68c7 cb3c 8a3e 543d
00000050: 925a f53b de1e 813d 2288 103d 3075 093d
00000060: df72 a73d 6f03 753d 22ab bcbb cfe0 8f3d
00000070: fb35 bc3d d0de c2bc 6eed 33bd 3a56 c7bd
00000080: b423 58bb 507b 2cbc db30 a13d 8613 973d
00000090: 1d17 17bd 12aa 0cbd 2e7d 99bc b235 333d
000000a0: cb67 cabd 97a5 c2bd fe02 9cbd aa6f 94bb
000000b0: 4aa5 223d ada5 26bd d92e 813d 69b1 913d
000000c0: 3c68 bbba fcff 463d 373d bebd 8b1a 1ebd
000000d0: a8d0 c93d 32a5 9ebd 325b babd 02e4 89bd
000000e0: 6ee0 c63d c5b7 483d 9f2f 363d c0a5 45bd
000000f0: df71 22bd c12f c83c 8c5c 68bd 2b6d ccbd
00000100: 6cdb a53c 6928 c13c 8238 c5bd 188e 243c
00000110: a615 7c3d fc81 8f3d 64b6 c2bd 52fa d9bc
00000120: 4907 dfbb e63e 923c f4a3 9b3d 9ee0 bcbd
00000130: 52d2 acbd 14ec 97bd 807a ba3b 0039 6ebc
00000140: 754b 33bc 8059 6cbd b7f6 8dbd 73cf 383d
00000150: f580 a23d 3b47 b73d 5ea6 4a3d 78af 22bd
00000160: b3dc 873d 32b6 c0bd 4d2e d7bb 6d07 b9bc
00000170: 3ac3 6c3d ae6f dbbc 357e 833d 38b5 92bd
00000180: 96c1 fa3b ec8a 8abd a8b9 833d 2f96 c43c
00000190: edd4 8cbd 9877 943c c5b5 d0bc 3cc6 f9bd
000001a0: 594a ab3d e3c4 1bbd d2bd ccbd bc10 bebc
000001b0: 1a01 863d 3a4c 8b3d caa7 e53d 0a90 82ba
000001c0: 9947 98bd 7b46 04bd 1294 573d 3a26 843d
000001d0: 247d 8cbd 60df ddbc a19b bf3d 17de 7ebd
000001e0: ae5d 493d 4393 e33c b029 c5bd 5668 de3d
000001f0: 00a8 223c 2919 913d 1b35 a63d 2677 0bbd
00000200: 04b0 703c 4089 a5bc 93ac 9bbd 3ad9 493d
00000210: 231b e53b 6a04 1e3d f0cb 9a3d 74bd 8abd
00000220: 48e2 943d 49be 80bd f73d 443d d2df 663d
00000230: c39a b23d dd4a c63d 0af1 2fbd a9bc 2d3d
00000240: 8240 59bd d2ea dbbd a246 0c3d c257 d83c
00000250: da96 d63d ef45 2a3d ba4b 83bd 1f60 88bc
00000260: 8059 66bc aa9c 183d e3ef 7fbc 4c2d ed3c
00000270: 2751 0f3d c31e ca3d 3f67 84bd 6d68 7abd
00000280: 873f c6bb 13aa d43d 4673 98bd a8ea b63d
00000290: 745b c0bc 7022 cd3d d886 74bc 5064 71bc
000002a0: d0ad 15bc e8fa c53d 0541 79bd 5d28 60bd
000002b0: 842b 51bc 092a 2d3d e1a8 b93c c714 2cbd
000002c0: af92 b93d 0cc1 34bb dea8 203d ca4d 3c3d
000002d0: 15b4 8f3d bc38 8a3d a3b3 8bbd 7439 8dbd
000002e0: b2e9 723d a2e4 1a3d 6020 f4bc 8206 8e3d
000002f0: fabc 313d abf2 1c3d f34a 973c 048e b6bc
00000300: ba17 50bd 18bc bf3b 017e c93d 60db 21bd
00000310: 6209 d53c 3fdf 823d db11 953d eba0 823d
00000320: 7130 8d3d a31a bebd 95c9 d33d ece2 e43c
00000330: a257 5d3d aca0 f3bc 387c bfbd ae63 86bd
00000340: 0467 efbc bf48 733d 5864 aebd bda4 a93d
00000350: 080b 3a3c e0bd eb3b 5bf5 bcbd 027f 97bd
00000360: 00c0 d538 2360 bfbd 38d7 fdbc f576 9fbd
00000370: 91f4 b33d 6bdd 923d 50a1 dbbb 43bd 5fbd
00000380: 78e6 65bc 3020 ad3b 9278 02bd c346 2abd
00000390: 08ba 93bd 4963 023d 7a1d b03d 8680 3f3d
000003a0: 706c 5dbd 60b4 87bd 35fd b13c 66cb 04bd
000003b0: dbe1 59bd 5ad8 16bd e687 d73d 1d49 25bd
000003c0: 10c0 8cbd f78e bd3d e2d4 a5bd 4bae 57bd
000003d0: 34cb 903d a91f 01bd 5359 9dbd 4b4f 7b3d
000003e0: cc61 8f3d 198c babd ffa0 903c 6605 96bc
000003f0: ba48 6c3d 6b99 bd3d b94b 97bd 2a52 6bbd

layer4.bias f4 [80]
-0.07559836 -0.07599452 -0.05302179 0.021769203 -0.06208994 -0.09318742 -0.039472464 0.061726704
0.03257877 0.009347737 0.035959136 0.08063036 -0.02606827 0.014794689 0.07899981 -0.029700335
-0.05834743 -0.017944217 -0.07493447 -0.072892174 -0.057966065 0.06689235 0.03763412 -0.060211178
0.10875356 0.056042712 -0.010281204 -0.08790725 -0.024651507 0.08898643 -0.0567485 -0.046520352
-0.04254044 -0.09384243 -0.04617851 0.042130224 0.11546146 -0.0580431 0.004601121 -0.011423307
0.10841106 0.068185136 -0.004826132 0.045023367 -0.05590254 -0.063104965 0.009369671 -0.05874897
-0.04828421 -0.039131086 -0.021810113 -0.050588883 -0.06534405 -0.083196424 0.055906795 -0.0120401
-0.01635137 0.07616402 0.107038945 -0.028167015 0.010895968 -0.06198677 0.042569675 0.08322729
-0.078537725 -0.06588037 -0.06618314 0.08666552 -0.09212552 -0.0038379799 -0.08580156 -0.0028448214
-0.070046745 -0.019416787 0.04000484 -0.0074253064 0.036141664 0.023727776 0.06895273 -0.03136599
00000000: 50d3 9abd 04a3 9bbd 602d 59bd 5455 b23c
00000010: 0552 7ebd 0cd9 bebd e1ad 21bd 24d5 7c3d
00000020: 5171 053d 4027 193c e349 133d 8821 a53d
00000030: 208d d5bc 6c65 723c a7ca a13d 1e4e f3bc
00000040: b7fd 6ebd c0ff 92bc 3e77 99bd 7e48 95bd
00000050: d36d 6dbd dbfe 883d 3c26 1a3d ff9f 76bd
00000060: 30ba de3d 0b8d 653d 7f72 28bc b708 b4bd
00000070: f5f1 c9bc 843e b63d 1d71 68bd 208c 3ebd
00000080: e23e 2ebd 7630 c0bd ad25 3dbd be90 2c3d
00000090: 0f77 ec3d 9abe 6dbd 00c5 963b d228 3bbc
000000a0: 9e06 de3d a6a4 8b3d 8824 9ebb 6c6a 383d
000000b0: 10fa 64bd 2d3d 81bd 4083 193c c3a2 70bd
000000c0: aac5 45bd eb47 20bd 1fab b2bc 4a36 4fbd
000000d0: 1ad3 85bd e362 aabd 86fe 643d d743 45bc
000000e0: 4ff3 85bc e2fb 9b3d 3c37 db3d 83be e6bc
000000f0: 0185 323c d7e5 7dbd 8a5d 2e3d 1273 aa3d
00000100: 63d8 a0bd 4aec 86bd 078b 87bd b17d b13d
00000110: 4eac bcbd 9e86 7bbb bab8 afbd 2f70 3abb
00000120: ab74 8fbd f40f 9fbc 1ddc 233d fc4f f3bb
00000130: 4809 143d c160 c23c 1737 8d3d a079 00bd

layer5.weight f4 [60, 80]
0.041100144 -0.009112053 -0.07932113 0.060039476 -0.06898081 -0.0048935115 0.02604948 0.022948444
0.08108789 0.005351953 0.06854184 0.042905807 0.080175474 -0.018248372 0.08231163 -0.078927696
-0.09534879 -0.013654046 0.078021616 -0.10413401 0.01501812 -0.07933522 0.037389144 -0.015071683
-0.04141604 0.007917635 0.06453416 -0.049392596 -0.043679625 -0.08362976 -0.00050050765 -0.104153946
0.089848936 0.023268104 -0.08632001 -0.108716324 -0.019741721 -0.08232148 -0.027047567 0.09017134
0.07767923 -0.045856945 0.10594268 0.0037423447 0.06545247 0.006287016 0.0043657497 -0.087519005
0.06929903 0.01243148 0.029931113 -0.03631781 -0.065637805 0.023128599 0.026489347 -0.10108879
-0.07306061 -0.08099051 0.023012504 0.10936627 0.09112571 0.03440453 0.0578966 -0.06399156
0.027015418 0.102415845 -0.003935918 0.039730832 0.009109065 0.101491034 0.10794777 0.011199191
-0.049278386 -0.043209217 -0.0654593 0.07092172 0.015959501 0.1031474 -0.105938315 0.047277406
0.06044671 -0.068044126 -0.068899944 -0.06042012 0.05188577 -0.0871194 0.07870807 -0.016707197
-0.060637712 0.067368716 -0.034004174 0.0955883 -0.013325393 -0.04725144 0.10512145 0.01656951
0.1005913 0.0049306527 0.0077895224 0.07341379 0.059580833 0.06327692 -0.006816596 0.009359777
0.020408005 0.096221745 0.0056246147 -0.03448849 -0.0471213 -0.09739443 -0.011194684 -0.07260245
-0.09969829 -0.06272273 -0.03232707 0.06359677 -0.052111894 -0.09063719 -0.04369995 -0.089839675
-0.062375244 -0.008704536 -0.028836079 0.0129023865 -0.057243694 0.028790846 0.0813518 -0.06973274
-0.07542983 -0.01741501 0.03956005 0.075072795 -0.03624347 0.04622546 0.0031528622 0.06641449
0.05515629 0.105042845 -0.07603346 -0.023929603 0.04291609 -0.0016405284 -0.028656714 -0.042526767
0.09591898 -0.024627298 -0.09128255 0.09464438 0.09789865 -0.09514422 0.018402413 0.048316747
0.07600959 0.017818198 -0.007519059 -0.103075184 0.05849047 -0.08155219 0.011165097 0.07110304
-0.03218057 -0.0063077495 0.08444491 -0.06413103 -0.07086736 0.080048256 -0.010376798 0.0009687681
-0.10266038 -0.050928447 -0.02573816 -0.070363194 -0.04672929 -0.023574084 0.04281203 0.05525343
-0.08961733 -0.066943124 -0.11136425 -0.10018803 -0.08914399 -0.13046703 0.08888435 -0.032107737
0.1143759 0.11492407 0.02904752 -0.0036793128 0.016270006 -0.09831155 -0.09367282 0.032002717
0.1160219 0.016546246 -0.08958755 0.044213317 0.0955555 0.1055052 0.107073255 0.070536554
0.046109524 -0.08760533 0.06463422 -0.09747633 -0.02499245 0.045617897 -0.061653163 -0.10172519
0.04355876 0.09764583 0.035520963 0.050327547 0.09105326 -0.013769373 0.0062830523 0.10098359
0.024497448 0.012460671 0.0011871675 0.12313626 0.082610376 -0.10208069 0.023562744 0.0014645519
0.09361241 0.075250074 -0.049346082 0.11402234 0.070884906 -0.08239563 -0.043830484 -0.069885515
0.03129901 0.047287762 -0.09882814 0.07316312 -0.08730716 0.09555376 -0.09131396 0.0049083554
-0.096598305 -0.0007253514 0.0022564055 0.003106048 -0.073525146 -0.012245664 0.052410383 -0.05705543
-0.096095234 -0.022271454 0.056402232 0.05359373 -0.051592607 0.008846993 -0.022137655 -0.05490709
00000000: a058 283d b84a 15bc 1e73 a2bd f4eb 753d
00000010: d045 8dbd c059 a0bb b865 d53c 60fe bb3c
00000020: 6811 a63d 705f af3b aa5f 8c3d 00be 2f3d
00000030: 0a33 a43d 9c7d 95bc 0093 a83d d8a4 a1bd
00000040: 3a46 c3bd 38b5 5fbc ccc9 9f3d 3644 d5bd
00000050: 900e 763c 817a a2bd 5c25 193d 38ef 76bc
00000060: dea3 29bd f8b8 013c 7c2a 843d e44f 4abd
00000070: 68e9 32bd 1446 abbd 8034 03ba aa4e d5bd
00000080: b802 b83d c09c be3c 8cc8 b0bd aaa6 debd
00000090: 64b9 a1bc 2a98 a8bd dc92 ddbc c0ab b83d
000000a0: 4a16 9f3d 7ed4 3bbd 7af8 d83d 2042 753b
000000b0: f20b 863d 5003 ce3b 900e 8f3b 2a3d b3bd
000000c0: a6ec 8d3d 68ad 4b3c 1832 f53c fcc1 14bd
000000d0: 1d6d 86bd 3078 bd3c 3000 d93c a407 cfbd
000000e0: cda0 95bd 5ade a5bd b884 bc3c 6cfb df3d
000000f0: 1ea0 ba3d c4eb 0c3d fc24 6d3d 020e 83bd
00000100: 704f dd3c 66bf d13d e0f8 80bb ccbc 223d
00000110: 303e 153c 88da cf3d b813 dd3d d07c 373c
00000120: 22d8 49bd 26fc 30bd 870f 86bd 683f 913d
00000130: 80bd 823c f23e d33d 30f6 d8bd f4a5 413d
00000140: f896 773d b85a 8bbd 6a1b 8dbd 167b 77bd
00000150: 2c86 543d a86b b2bd b231 a13d 88dd 88bc
00000160: 405f 78bd 9cf8 893d f647 0bbd ccc3 c33d
00000170: c052 5abc ba8a 41bd ea49 d73d c8bc 873c
00000180: d002 ce3d 5091 a13b 403f ff3b f859 963d
00000190: 080b 743d 5497 813d c05d dfbb c059 193c
000001a0: b02e a73c e80f c53d b04e b83b ce43 0dbd
000001b0: 4402 41bd bb76 c7bd e869 37bc 98b0 94bd
000001c0: 9e2e ccbd c674 80bd 6469 04bd 063f 823d
000001d0: 4873 55bd fe9f b9bd b8fe 32bd ddfd b7bd
000001e0: 2f7d 7fbd 789d 0ebc a439 ecbc 8864 533c
000001f0: 5d78 6abd c8da eb3c c69b a63d 0ad0 8ebd
00000200: f47a 9abd eca9 8ebc b809 223d c4bf 993d
00000210: 0874 14bd e856 3d3d 40a0 4e3b 5204 883d
00000220: 90eb 613d b420 d73d 6eb7 9bbd 0408 c4bc
00000230: c8c8 2f3d 0007 d7ba 7cc1 eabc 8c30 2ebd
00000240: 2c71 c43d 30bf c9bc 58f2 babd ead4 c13d
00000250: 167f c83d f9da c2bd a8c0 963c c8e7 453d
00000260: eaaa 9b3d 78f7 913c 7062 f6bb 1519 d3bd
00000270: b493 6f3d d604 a7bd d0ed 363c 789e 913d
00000280: c6cf 03bd 3db1 cebb 74f1 ac3d 2157 83bd
00000290: e822 91bd 57f0 a33d 7203 2abc edf4 7d3a
000002a0: 9b3f d2bd 599a 50bd d5d8 d2bc 941a 90bd
000002b0: 3667 3fbd 701e c1bc ab5b 2f3d 6c51 623d
000002c0: 4a89 b7bd 7a19 89bd f112 e4bd 622f cdbd
000002d0: 2091 b6bd 2699 05be 0009 b63d 6783 03bd
000002e0: e93d ea3d 505d eb3d 11f5 ed3c a020 71bb
000002f0: ad48 853c 9157 c9bd 89d7 bfbd 4815 033d
00000300: e49c ed3d fe8b 873c ad79 b7bd 0619 353d
00000310: 9ab2 c33d 1c13 d83d 3949 db3d 7875 903d
00000320: 57dd 3c3d 6c6a b3bd f25e 843d aca1 c7bd
00000330: f7bc ccbc d5d9 3a3d 0788 7cbd 4c55 d0bd
00000340: ac6a 323d 89fa c73d 6e7e 113d 4224 4e3d
00000350: 227a ba3d f098 61bc 10e2 cd3b 7cd0 ce3d
00000360: dfae c83c d827 4c3c bb9a 9b3a dd2e fc3d
00000370: a12f a93d ae0f d1bd a806 c13c 35f6 bf3a
00000380: ddb7 bf3d b61c 9a3d 1e1f 4abd 8b84 e93d
00000390: 1b2c 913d 0abf a8bd 9887 33bd 2320 8fbd
000003a0: 6433 003d d0b0 413d 6866 cabd 8cd6 953d
000003b0: 19ce b2bd b1b1 c33d d002 bbbd 45d6 a03b
000003c0: 55d5 c5bd 8225 3eba 34e0 133b d78e 4b3b
000003d0: 5a94 96bd 0aa2 48bc 45ac 563d f4b2 69bd
000003e0: 94cd c4bd a072 b6bc 0706 673d 1985 5b3d
000003f0: c552 53bd faf2 103c 075a b5bc 42e6 60bd

layer5.bias f4 [60]
-0.009427108 -0.09534536 0.058573134 -0.020687034 -0.08277635 0.084246896 -0.027133413 0.03280878
0.11605494 0.02846987 -0.08327399 0.049871646 -0.04981791 -0.04633907 -0.047076013 -0.10466311
-0.0876776 0.07622784 -0.034485884 0.012859814 0.040875863 -0.06567016 -0.039081678 0.071465686
0.046794467 -0.0981436 -0.059544843 0.10123126 0.07794944 0.024168221 0.059133597 -0.0444991
0.048272107 0.07403373 -0.09154837 -0.04098121 0.050567683 -0.08242952 -0.101903304 0.064543016
0.059817836 0.066869184 0.0024954528 0.030501734 0.05936873 -0.03722297 0.090969376 0.1114072
0.016582567 0.0649952 -0.07849701 -0.001343072 -0.10147649 -0.10727855 0.099530794 0.037704326
0.028626356 -0.045524202 0.06895727 -0.08110143
00000000: 2874 1abc 6e44 c3bd 62ea 6f3d db77 a9bc
00000010: a686 a9bd a389 ac3d e446 debc 8062 063d
00000020: 36ae ed3d a539 e93c 8e8b aabd 3646 4c3d
00000030: dd0d 4cbd 09ce 3dbd c7d2 40bd 9d59 d6bd
00000040: 5090 b3bd 571d 9c3d 1241 0dbd f8b1 523c
00000050: 736d 273d 147e 86bd 1c14 20bd 9a5c 923d
00000060: 8eab 3f3d 83ff c8bd 4be5 73bd 5652 cf3d
00000070: f5a3 9f3d 6ffc c53c 1236 723d b044 36bd
00000080: f9b8 453d ff9e 973d b67d bbbd eadb 27bd
00000090: 0f20 4f3d cfd0 a8bd aeb2 d0bd 212f 843d
000000a0: 8c03 753d b6f2 883d c08a 233b c6de f93c
000000b0: a02c 733d 1d77 18bd 274e ba3d 7529 e43d
000000c0: 2ad8 873c 341c 853d 0ac3 a0bd 050a b0ba
000000d0: e8d2 cfbd dbb4 dbbd cdd6 cb3d da6f 1a3d
000000e0: d281 ea3c 9677 3abd 7839 8d3d 8218 a6bd

layer6.weight f4 [40, 60]
-0.043177806 0.023867294 0.13810942 0.017038677 0.031330556 0.08745222 0.056983605 -0.027281687
-0.038388528 0.05956365 -0.10357872 0.09957779 -0.0125712585 0.022963932 0.06674921 0.09785416
0.09546365 0.085047014 -0.021812377 0.008084238 -0.102483146 0.07172418 0.028326988 -0.11910204
-0.11109072 -0.028460333 0.007127236 0.08699701 -0.0758002 -0.07728034 0.0076394035 0.11795314
0.10654826 -0.08933666 0.058278248 -0.0847425 -0.06556064 -0.00026344892 0.13077424 0.10984225
0.064425044 0.07730846 0.06781858 -0.028544512 -0.075519845 0.089526474 0.112818025 0.0807254
0.085041344 -0.08459603 -0.09273685 -0.035197303 -0.09022491 0.113661446 -0.08442462 0.12700118
0.09331661 0.0662988 0.021344665 -0.12043423 0.035602838 0.090044096 0.063264325 -0.053488843
0.117700905 0.026201023 0.035432115 0.11976049 -0.1207566 0.040418535 0.03352779 -0.13885404
-0.111192 0.074627414 0.114876136 0.071448624 0.11077548 0.01964395 -0.016619384 0.0823663
-0.102378964 -0.011351034 -0.014424436 -0.05387727 -0.13331628 0.0789495 0.020446073 0.042649303
-0.025665127 0.05033808 0.0976516 -0.031148419 -0.07741746 0.07222786 -0.11760882 -0.0972886
-0.09910195 -0.02311359 0.026026217 -0.10319095 0.036162842 0.049374387 0.0009358227 -0.09606559
-0.12416034 -0.055282366 0.01832178 0.03159814 0.07635378 -0.054197665 -0.084988706 -0.07662929
0.113032654 -0.11970378 -0.10183257 -0.026449967 0.10450623 0.03486837 -0.011459131 -0.12310053
0.026567385 0.026987791 0.11286686 -0.12564708 -0.008981936 0.0928849 0.008301705 -0.06107142
-0.1160584 0.11404525 -0.090466835 0.0616918 -0.022439184 -0.08313963 0.04682458 0.11808066
0.069667116 -0.11180629 0.080759846 0.12249656 -0.042597294 -0.12888244 0.10012668 0.009190485
-0.017847572 -0.03788022 0.0697176 0.10023895 -0.074166246 -0.0013253242 0.07000012 -0.10801396
0.10000941 0.012045532 0.108926415 -0.081385605 -0.03675053 0.059650667 -0.05069593 0.10279756
-0.059071217 -0.077071905 0.012830481 0.10242349 0.11404902 -0.119482584 -0.011342708 -0.025881387
0.07406615 0.048560772 0.08186653 0.039369334 0.08054678 -0.057258043 0.014703845 -0.06849537
0.108196996 -0.11463822 0.05940871 0.06554225 -0.09785967 -0.0908093 0.069616444 0.011952582
-0.028172128 -0.125734 -0.060434632 0.09320855 -0.021677911 0.118930236 0.066175416 0.03753476
0.0061758882 0.074116945 0.07675382 -0.061331905 -0.027287005 0.02503602 0.14486012 0.08164805
0.074595235 0.07567817 -0.06202483 -0.053326312 0.12753598 -0.05103342 -0.06985085 -0.042405922
0.002309474 -0.103510134 0.14537498 0.080083504 0.03687492 -0.07512159 0.042050064 0.10184348
0.045629434 -0.00077262754 0.015996004 0.10816461 -0.025261853 0.12297318 -0.117701516 -0.07050593
-0.05213089 0.07932378 -0.008660074 -0.030336792 0.0017659758 0.12865205 -0.0330298 0.09188783
0.025482103 0.0075741755 0.06309199 -0.11751159 -0.059330147 -0.08564549 0.009755099 0.044743538
-0.12881857 -0.03691224 0.12707086 -0.06382714 0.05985488 -0.028944837 0.044463396 -0.071126334
-0.042318135 -0.09568362 0.085298896 -0.090898834 -0.013632716 0.037348416 -0.09061967 0.09344982
00000000: 36db 30bd 5885 c33c 8e6c 0d3e b294 8b3c
00000010: 7854 003d 261a b33d a467 693d d87d dfbc
00000020: 4a3d 1dbd 04f9 733d 1421 d4bd 71ef cb3d
00000030: aef7 4dbc db1e bc3c cfb3 883d c367 c83d
00000040: 7282 c33d 212d ae3d dfaf b2bc c073 043c
00000050: afe2 d1bd 20e4 923d 000e e83c c5eb f3bd
00000060: 8883 e3bd a525 e9bc 978b e93b 7d2b b23d
00000070: 233d 9bbd 2845 9ebd f653 fa3b 6a91 f13d
00000080: f935 da3d 24f6 b6bd 2cb5 6e3d 7a8d adbd
00000090: a844 86bd 841f 8ab9 afe9 053e f9f4 e03d
000000a0: 47f1 833d e653 9e3d 78e4 8a3d 2ed6 e9bc
000000b0: 26aa 9abd a859 b73d 230d e73d 5c53 a53d
000000c0: 282a ae3d af40 adbd d1ec bdbd 0c2b 10bd
000000d0: d6c7 b8bd 55c7 e83d d1e6 acbd 990c 023e
000000e0: c71c bf3d aac7 873d 02db ae3c 39a6 f6bd
000000f0: 48d4 113d 0a69 b83d ba90 813d 1e17 5bbd
00000100: 2c0d f13d 87a3 d63c 4421 113d fd44 f53d
00000110: 3c4f f7bd e88d 253d 7054 093d c12f 0ebe
00000120: a2b8 e3bd 42d6 983d 2e44 eb3d a853 923d
00000130: 41de e23d 59ec a03c 6025 88bc aaaf a83d
00000140: 10ac d1bd b0f9 39bc 7854 6cbc 6aae 5cbd
00000150: 1084 08be 47b0 a13d 867e a73c 09b1 2e3d
00000160: ac3f d2bc 4d2f 4e3d 90fd c73d f82a ffbc
00000170: 0c8d 9ebd 33ec 933d e5dc f0bd 3f3f c7bd
00000180: f7f5 cabd b658 bdbc ef34 d53c c755 d3bd
00000190: 7d1f 143d cc3c 4a3d 0052 753a 09be c4bd
000001a0: c747 febd c36f 62bd 8f17 963c 0d6d 013d
000001b0: 5f5f 9c3d 5ffe 5dbd 8f0e aebd d1ef 9cbd
000001c0: aa7d e73d 4127 f5bd 988d d0bd 9aad d8bc
000001d0: 5d07 d63d 23d2 0e3d 14bf 3bbc 211c fcbd
000001e0: d8a3 d93c 8015 dd3c be26 e73d a1a9 00be
000001f0: f828 13bc 703a be3d e003 083c 0626 7abd
00000200: 07b0 edbd 8e90 e93d ad46 b9bd 8ab0 7c3d
00000210: 61d2 b7bc 1c45 aabd 21cb 3f3d 46d4 f13d
00000220: a2ad 8e3d b2fa e4bd 6b65 a53d 7adf fa3d
00000230: 807a 2ebd c2f9 03be 380f cd3d b093 163c
00000240: 1235 92bc 4a28 1bbd 1ac8 8e3d 144a cd3d
00000250: 79e4 97bd 80b6 adba 395c 8f3d 6c36 ddbd
00000260: bcd1 cc3d a05a 453c d014 df3d 7fad a6bd
00000270: b987 16bd 4254 743d 89a6 4fbd 8787 d23d
00000280: a9f4 71bd e0d7 9dbd f036 523c 68c3 d13d
00000290: 8892 e93d 49b3 f4bd c4d6 39bc 3405 d4bc
000002a0: feaf 973d a9e7 463d a4a9 a73d bd41 213d
000002b0: b6f5 a43d 6987 6abd 65e8 703c 4d47 8cbd
000002c0: 6396 dd3d 71c7 eabd 8c56 733d 043b 863d
000002d0: a76a c8bd 3afa b9bd 1193 8e3d c3d4 433c
000002e0: 3cc9 e6bc 6ac0 00be 4e8a 77bd 20e4 be3d
000002f0: e095 b1bc b291 f33d fa86 873d 0cbe 193d
00000300: 1b5f ca3b a0ca 973d 1b31 9d3d 2a37 7bbd
00000310: ff88 dfbc 5718 cd3c 3656 143e 1837 a73d
00000320: 63c5 983d 28fd 9a3d c00d 7ebd b16c 5abd
00000330: cb98 023e 6b08 51bd f60d 8fbd d5b1 2dbd
00000340: 8b5a 173b 1ffd d3bd 2edd 143e d202 a43d
00000350: 280a 173d 59d9 99bd b03c 2c3d 5093 d03d
00000360: eee5 3a3d 288a 4aba 0d0a 833c 6885 dd3d
00000370: f2f1 cebc 5dd9 fb3d 7e0d f1bd 6a65 90bd
00000380: 3387 55bd 8274 a23d fce2 0dbc dd84 f8bc
00000390: 5178 e73a 5dbd 033e 414a 07bd b02f bc3d
000003a0: d8bf d03c ca30 f83b 6036 813d eba9 f0bd
000003b0: 2b04 73bd e766 afbd dad3 1f3c 0045 373d
000003c0: 04e9 03be 4a31 17bd dd1e 023e ceb7 82bd
000003d0: 642a 753d b91d edbc 401f 363d afaa 91bd
000003e0: c855 2dbd c6f5 c3bd 30b1 ae3d 2b29 babd
000003f0: c15b 5fbc a7fa 183d ce96 b9bd 9f62 bf3d
