saved_models/model_VZ.pt (torch_old, 190423 bytes, 15 tensors)

layer1.weight f4 [100, 5]
0	0xbe213348	-0.15742218
1	0x3ca426d9	0.020038055
2	0x3eaf20b8	0.3420465
3	0xbe8397e5	-0.25701824
4	0x3ea4fb33	0.322229
5	0x3e4873ba	0.19575396
6	0x3ea3298c	0.31867635
7	0xbd92c6f7	-0.07166856
8	0x3e98146c	0.2970308
9	0xbe530912	-0.20608929
10	0xbe88a94c	-0.26691663
11	0xbda0f5fc	-0.07859418
12	0x3c636120	0.013878137
13	0xbe6ffd73	-0.23436527
14	0xbdd5e4ec	-0.10444054
15	0x3ee5c0df	0.4487371
16	0xbe5974c2	-0.21235946
17	0x3eba5b8f	0.3639798
18	0xbe9d1f94	-0.30688155
19	0x3e04b72a	0.12960497
20	0xbd9b46c3	-0.07581856
21	0x3e302cea	0.17204633
22	0x3ed50003	0.4160157
23	0x3dc5548b	0.09635266
24	0x3ded275f	0.11579775
25	0x3eba5629	0.3639386
26	0xbe690cf9	-0.22758855
27	0x3e9746c9	0.29546192
28	0x3e6b6519	0.22987784
29	0xbed93565	-0.4242355
30	0xbe32e74c	-0.17471045
31	0x3cad7650	0.02117458
32	0xbdf88e08	-0.12136465
33	0xbea63814	-0.3246466
34	0xbee35a20	-0.44404697
35	0xbe110c96	-0.14164957
36	0x3ee88796	0.45415944
37	0xbed783d1	-0.42092755
38	0x3e3d3e04	0.18480688
39	0x3eef941b	0.46792683
40	0x3e04dfe3	0.12976031
41	0x3eefda48	0.46846223
42	0xbdc8e088	-0.09808451
43	0x3e9dc10c	0.30811346
44	0xbdaaad4f	-0.08333837
45	0x3d2464f0	0.040135324
46	0x3e9c60b6	0.30542535
47	0xbeba2f0e	-0.36364025
48	0xbed10ac0	-0.40828514
49	0x3ead5460	0.33853436
50	0xbd19d5a7	-0.03755727
51	0x3e90409e	0.281743
52	0x3e99cd16	0.3003928
53	0xba7a4f7d	-0.0009548588
54	0x3eca1e40	0.39476204
55	0xbe72a4d1	-0.23695685
56	0xbd410228	-0.047121197
57	0x3dc92371	0.09821213
58	0x3e73e34f	0.2381718
59	0xbda9916f	-0.082796924
60	0x3eca17a8	0.39471173
61	0xbe50d353	-0.20393114
62	0xbea97aca	-0.33101493
63	0x3eba1566	0.3634445
64	0xbea023d4	-0.31277335
65	0xbd322600	-0.04349327
66	0x3d183ad0	0.037165463
67	0xbcdc6240	-0.026902318
68	0xbea6a856	-0.32550305
69	0x3e086208	0.13318646
70	0x3d8bbaba	0.06822725
71	0x3de64d82	0.11245252
72	0xbec97191	-0.39344457
73	0x3ebc3bf4	0.3676449
74	0x3ee5fbe0	0.44918728
75	0x3e5e65dc	0.21718544
76	0xbeaccd40	-0.33750343
77	0xbdaacfd8	-0.08340424
78	0xbe341e2a	-0.17589632
79	0xbd47fd68	-0.04882565
80	0x3df85c98	0.12127036
81	0x3e46162c	0.19344395
82	0xbeb4b239	-0.35292223
83	0xbe89f60a	-0.26945525
84	0xbe4033f2	-0.18769816
85	0xbedae5fe	-0.42753595
86	0x3dc666e8	0.096875966
87	0xbddf973c	-0.109175175
88	0xbe99ea9e	-0.3006181
89	0x3d527f80	0.051391125
90	0xbebcccf4	-0.36875117
91	0xbc9f7740	-0.019466043
92	0x3e944cee	0.28964943
93	0xbd432198	-0.04763946
94	0xbea98ad9	-0.33113745
95	0xbec1ed8f	-0.37876555
96	0x3e30c004	0.17260748
97	0xbd8d6624	-0.069042474
98	0xbed757ad	-0.4205908
99	0x3df3c168	0.11902124
100	0x3eceb631	0.40373376
101	0xbe46c9d6	-0.19412932
102	0x3ee31f31	0.44359735
103	0x3e97119f	0.2950563
104	0xbc15e706	-0.009149319
105	0xbe81fc18	-0.25387645
106	0xbe47561a	-0.19466439
107	0x3df71cb0	0.120660186
108	0xbe74c49b	-0.23903124
109	0x3e77c19c	0.2419495
110	0x3ee113ae	0.43960327
111	0xbd982da3	-0.074305795
112	0xbe860bf5	-0.26180997
113	0x3e818c4b	0.25302348
114	0x3d2d5209	0.042314563
115	0xbee16be7	-0.44027635
116	0xbed856a9	-0.42253616
117	0xbdd265ec	-0.10273346
118	0x3d9962d8	0.07489556
119	0xbe146ef4	-0.1449545
120	0x3e4e2621	0.20131733
121	0x3e9854a3	0.29752073
122	0x3de916d0	0.11381304
123	0x3ea8eeb0	0.32994604
124	0x3eacfdca	0.33787376
125	0xbe1a6dec	-0.15080994
126	0xbea631d3	-0.32459888
127	0xbdb23e30	-0.087032676
128	0xbaa7ce00	-0.0012802482
129	0xbe96f090	-0.2948041
130	0x3e26b35d	0.16279359
131	0xbeba63bf	-0.36404225
132	0x3e1e007e	0.15429875
133	0x3e095cc1	0.13414289
134	0x3d8fc40f	0.07019817
135	0xbe98762b	-0.29777655
136	0x3eb728ba	0.3577326
137	0x3dbeb705	0.09312252
138	0x3ea24924	0.31696427
139	0xbe9b579f	-0.30340287
140	0xbde10a08	-0.109882414
141	0x3e3bf9d0	0.18357015
142	0xbe1799f0	-0.14804816
143	0xbdbba950	-0.09163153
144	0xbee0a444	-0.43875325
145	0x3df97e24	0.121822625
146	0x3ed7f977	0.42182514
147	0x3db0527c	0.08609483
148	0x3d557742	0.052115686
149	0xbe08a6c0	-0.1334486
150	0xbdf5ea20	-0.120075464
151	0x3e79c130	0.24390101
152	0xbe894f5c	-0.2681836
153	0xbec39fb6	-0.38207787
154	0x3d9bcea0	0.0760777
155	0x3e81367e	0.25236887
156	0xbe2d9698	-0.16951978
157	0xbe39057e	-0.18068501
158	0xbe88625f	-0.2663755
159	0x3ded58d8	0.11589211
160	0x3ebb2704	0.36553204
161	0x3e69e5ac	0.22841519
162	0xbe93e226	-0.28883475
163	0xbd888a78	-0.06667036
164	0xbec69799	-0.38787535
165	0xbeb8f1ed	-0.36122075
166	0x3d58bb3e	0.052912943
167	0x3e9869fd	0.29768363
168	0xbe7b7f72	-0.24560335
169	0x3ed3eccd	0.41391602
170	0xbddb54e0	-0.10709548
171	0xbe27cc32	-0.16386488
172	0x3ea4caf8	0.32186103
173	0xbedccb92	-0.43124062
174	0x3e988db8	0.29795623
175	0xbee10f43	-0.43956956
176	0xbd3aed50	-0.045636475
177	0xbcb12d80	-0.021628141
178	0xbe8c5fce	-0.27416843
179	0xbc1fb4c0	-0.009747684
180	0x3e58fa94	0.21189338
181	0x3e62e891	0.2215903
182	0x3df4e7db	0.119582854
183	0xbe40f74d	-0.18844338
184	0xbda2cc1e	-0.079490885
185	0x3c1a7260	0.009426683
186	0x3e0ae148	0.135625
187	0xbeb55d0a	-0.35422546
188	0xbe2ca728	-0.1686064
189	0xbd4f10b8	-0.050553054
190	0xbe3d5e22	-0.1849294
191	0x3e75774d	0.23971291
192	0x3e83bee2	0.2573157
193	0x3e3d7814	0.18502837
194	0xbdf25f49	-0.118345805
195	0xbea65485	-0.32486358
196	0x3db02378	0.08600515
197	0xbd0d7e48	-0.03454426
198	0xbe958c5e	-0.29208654
199	0xbddd8cb8	-0.108178556
200	0xbe3e2858	-0.18570077
201	0xbde6f6d0	-0.112775445
202	0xbe5fab57	-0.21842705
203	0x3b5c2880	0.0033593476
204	0x3e1db690	0.15401673
205	0xbdc2153a	-0.09476705
206	0xbed28997	-0.41120598
207	0x3e8b30f6	0.27185792
208	0x3ea7c35a	0.3276623
209	0x3e862648	0.2620108
210	0x3e0ff9f1	0.14060189
211	0xbe79b21c	-0.2438435
212	0x3e301a94	0.17197639
213	0x3ea943cd	0.3305954
214	0xbdbf51e7	-0.093417935
215	0x3d9208a8	0.07130557
216	0x3edc7477	0.43057606
217	0xbd75977a	-0.059958912
218	0x3ead60f3	0.3386303
219	0xbe9dec82	-0.30844504
220	0x3ed7ff86	0.42187136
221	0xbe107b70	-0.14109588
222	0x3ea3cbef	0.31991526
223	0x3dc8b6fc	0.098005265
224	0xbea8ce48	-0.3296988
225	0x3ee4bcd8	0.44675326
226	0x3ee4246a	0.44559032
227	0x3cf91d32	0.03040943
228	0xbeab75e8	-0.33488393
229	0x3ee76950	0.45197535
230	0x3ea66673	0.32500038
231	0x3e9755ed	0.29557744
232	0x3a3bbe42	0.00071618345
233	0xbe55a815	-0.208649
234	0xbe92f2fb	-0.28701004
235	0x3edc4637	0.4302232
236	0x3ecd4869	0.40094307
237	0x3d903d61	0.07042957
238	0xbd88dc6e	-0.066826686
239	0xbe6c3941	-0.23068716
240	0x3e2eae1c	0.17058605
241	0xbea17fcc	-0.31542814
242	0x3e43fc10	0.19139123
243	0xbe9e3dfc	-0.30906665
244	0xbeb3b399	-0.3509796
245	0xbec12be1	-0.3772879
246	0x3c97c440	0.018526196
247	0xbe81eaf8	-0.2537458
248	0xbeced8a4	-0.4039966
249	0x3ec153a6	0.3775913
250	0x3e926391	0.28591588
251	0xbd82918a	-0.063754156
252	0x3ea2a470	0.3176608
253	0x3e5b6f21	0.21429111
254	0xbdc3d992	-0.095629826
255	0xbe073e97	-0.1320747

layer1.bias f4 [100]
0	0xba5f47b8	-0.0008517462
1	0x3d30dab8	0.043177336
2	0x3e3e29ec	0.1857068
3	0x3e0a5fc3	0.13513093
4	0x3e890c87	0.2676737
5	0x3e4d9ec3	0.20080094
6	0x3e3a4210	0.18189263
7	0xbd89df52	-0.06732048
8	0xbe663240	-0.22480106
9	0xbe196e44	-0.14983469
10	0x3eeb726c	0.45985734
11	0x3cb3140c	0.021860145
12	0xbdf38cfc	-0.11892125
13	0xbd0a9cc8	-0.033840925
14	0x3eaa63a6	0.3327915
15	0xbd8becf8	-0.068323076
16	0x3e454028	0.19262755
17	0xbe3e93d0	-0.18611073
18	0xbe8fdaf3	-0.28096732
19	0xbeada98c	-0.33918417
20	0xbe142611	-0.14467646
21	0xbd714ff8	-0.058914155
22	0x3cd543b5	0.026033262
23	0xbdf6e110	-0.12054646
24	0xbe45517f	-0.1926937
25	0xbdae0eb8	-0.08498901
26	0x3dbc47ff	0.0919342
27	0x3ed1114f	0.40833518
28	0x3e82243e	0.25418276
29	0xbe8dd5be	-0.27702135
30	0x3e748bdc	0.23881477
31	0xbd58c908	-0.052926093
32	0x3e04395c	0.12912506
33	0x3d654b70	0.055980146
34	0xbe0e564a	-0.13900104
35	0x3ec6e374	0.38845408
36	0xbdee0ebb	-0.11623903
37	0x3ec87da6	0.39158362
38	0xbde63ee1	-0.11242462
39	0x3ddc53c8	0.107581675
40	0x3e0df4f0	0.13862967
41	0x3e87ff1d	0.26561823
42	0x3d982739	0.07429356
43	0x3d4e2e63	0.050337207
44	0x3eea5bf2	0.45773274
45	0x3e9a1ad2	0.30098587
46	0x3ea2ffe2	0.31835848
47	0x3eaacec0	0.33360863
48	0xbe8e45d4	-0.2778765
49	0x3ead33e6	0.33828658
50	0x3ed709f0	0.4199977
51	0x3ed68a75	0.4190251
52	0x3e8ee134	0.2790619
53	0xbdfcf867	-0.123520665
54	0xbe812b10	-0.25228167
55	0xbe04ef42	-0.12981895
56	0xbec5e200	-0.38648987
57	0x3e89fa48	0.26948762
58	0x3e3020d8	0.17200029
59	0xbe1a7a9c	-0.15085834
60	0x3e92ae07	0.28648397
61	0xbe83fe84	-0.25780118
62	0x3e96e942	0.29474837
63	0x3dcea039	0.10089154
64	0x3d9a0020	0.07519555
65	0x3ec2229a	0.37917024
66	0x3dafcc80	0.08583927
67	0xbd9173c4	-0.07102159
68	0xbe630f74	-0.22173864
69	0x3e905272	0.281879
70	0xbd894380	-0.06702328
71	0x3dc85685	0.09782127
72	0xbdcc1000	-0.09963989
73	0x3e20cead	0.1570384
74	0x3ecc08f1	0.39850572
75	0x3ea8dca7	0.32980844
76	0xbd7877aa	-0.060660996
77	0x3eb424b8	0.35184264
78	0xbe79c948	-0.24393189
79	0x3e89e562	0.26932818
80	0xbedd82a4	-0.43263733
81	0xbe909fc8	-0.28246903
82	0x3e51f4cc	0.20503539
83	0x3eb3b126	0.3509609
84	0xbed91f0d	-0.42406502
85	0x3e806b2a	0.2508176
86	0x3cf4c63e	0.029879685
87	0x3e509a54	0.20371372
88	0x3dfaa885	0.12239174
89	0xbea8e0b4	-0.32983935
90	0x3e92da13	0.28682002
91	0x3e9c8d9c	0.3057679
92	0xbe7cadc2	-0.24675658
93	0x3ecec1a1	0.40382102
94	0xbeced946	-0.4040014
95	0xbe49cd2d	-0.19707175
96	0x3e843283	0.25819787
97	0x3ebd0f3a	0.3692568
98	0x3e9d89ce	0.307692
99	0x3ed6d032	0.41955715

layer2.weight f4 [150, 100]
0	0xbd0e7891	-0.03478295
1	0x3d16e37e	0.036838047
2	0x3d88f6ff	0.06687736
3	0x3ccf33b9	0.025293218
4	0x3ca1afbe	0.01973712
5	0x3dc318b2	0.09526195
6	0x3cf1d724	0.029521532
7	0xbd8c2f78	-0.068449914
8	0x3b296765	0.0025848981
9	0xbd8afd88	-0.067866385
10	0x3cd812ea	0.026376206
11	0xbd9eb750	-0.07749808
12	0xbd3430d0	-0.043991864
13	0x3d444772	0.047919698
14	0x3b014c61	0.0019729363
15	0xbb14efc0	-0.002272591
16	0x3db855b9	0.09000725
17	0x3d61bd5a	0.05511222
18	0x3d9eb8cf	0.07750093
19	0xbb29c4a0	-0.002590455
20	0xbbc519d5	-0.0060150423
21	0x3cd07124	0.025444575
22	0x3dbc11a7	0.091830544
23	0xbcd200d4	-0.02563516
24	0x3db8adae	0.09017502
25	0x3bcf2c20	0.006322399
26	0xba3dd2ee	-0.0007241209
27	0x3dbd36b3	0.09238949
28	0xbd8708e8	-0.065934956
29	0xbc0c97ae	-0.008581085
30	0xbdbf20bb	-0.09332415
31	0xbd41dc20	-0.04732907
32	0xbd5df067	-0.054184344
33	0xbda6d5b0	-0.081462264
34	0xbc1d2e10	-0.009593502
35	0x3d3c462a	0.04596535
36	0xbd15412b	-0.036439102
37	0xbd2519ba	-0.040307738
38	0xbcef656e	-0.02922317
39	0x3c9adc74	0.018903948
40	0x3dbf08a3	0.09327819
41	0xbafaa1d6	-0.0019121717
42	0x3d2c1b49	0.04201821
43	0x3d781a94	0.060572222
44	0xbd87e42b	-0.066353165
45	0xbd9e736f	-0.07736861
46	0x3d0e071f	0.03467476
47	0xbd85a4d0	-0.06525576
48	0x3d13772a	0.036002316
49	0xbd983d18	-0.07433528
50	0xbd6f7450	-0.058460534
51	0x3dc5fbbd	0.09667156
52	0x3be993b0	0.0071282014
53	0xbd8f23cb	-0.06989249
54	0x3d8f3137	0.06991809
55	0x3de676a7	0.112531
56	0xbda9992a	-0.08281167
57	0xbd868606	-0.06568532
58	0xbd4d523d	-0.050127257
59	0x3ca199a8	0.01972659
60	0x3d5b1295	0.053484518
61	0x3da90e01	0.08254624
62	0x3d215ad2	0.039393254
63	0x3d76e8ed	0.06028073
64	0xbd99919a	-0.074984744
65	0x3dbb6803	0.09150698
66	0x3db20b4e	0.086935624
67	0x3d335a36	0.043787204
68	0x3d6e6d7a	0.058209874
69	0x3caa5e49	0.020796912
70	0x3dba8dc5	0.09109072
71	0x3cb7bcf2	0.022428963
72	0xbd831e2a	-0.06402238
73	0x3d96ce45	0.073635615
74	0xbd449d14	-0.048001364
75	0x3d41bf81	0.047301773
76	0x3c16cae4	0.009203646
77	0xbdb38250	-0.087650895
78	0x3d8574f1	0.065164454
79	0xbd3852fa	-0.045001008
80	0x3d22e18a	0.039765872
81	0xbc57a698	-0.013162278
82	0x3d0d7c7e	0.034542553
83	0x3d284a1e	0.04108631
84	0xbd2119bd	-0.039331187
85	0x3d8f68f2	0.070024386
86	0xbda4de62	-0.08050229
87	0xbc610670	-0.013734445
88	0x3c4bf28b	0.0124479635
89	0x3be38100	0.006942868
90	0xbd576a05	-0.052591342
91	0x3d93dcfd	0.072198845
92	0x3d016d8d	0.031598616
93	0x3d55abd4	0.05216582
94	0x3d2b7ab2	0.04186506
95	0x3da9605f	0.082703345
96	0x3d520448	0.051273614
97	0x3dd0767a	0.101788476
98	0xbd8af4f4	-0.06785002
99	0x3dd2da2f	0.102955215
100	0x3d69268e	0.056921534
101	0xbce68954	-0.028141655
102	0xbd1ca803	-0.038246166
103	0xbd77f647	-0.060537603
104	0xbcdbb218	-0.02681832
105	0xbdcb0d95	-0.099147
106	0x3d59dc16	0.053188406
107	0xbd8f710b	-0.07003983
108	0x3dcbbe09	0.09948356
109	0x3da8f36b	0.08249553
110	0x3d485262	0.04890669
111	0xbd3de0a3	-0.04635681
112	0xbd9dfb75	-0.07713977
113	0xbc384300	-0.011246443
114	0xbd9fcff2	-0.07803334
115	0x3d861a39	0.0654797
116	0x3d89c3d1	0.06726802
117	0xbc99bb28	-0.018766
118	0x3da7bcf9	0.081903405
119	0x3d5b17b2	0.053489394
120	0x3cac54c8	0.02103652
121	0xbd7e04a7	-0.062016156
122	0xbd9d8b4b	-0.07692584
123	0xbd266727	-0.040625717
124	0x3cb8c5ec	0.022555314
125	0xbdc1b930	-0.0945915
126	0xbdaa0262	-0.08301236
127	0xbda050ca	-0.07827909
128	0x3c73adc0	0.014872968
129	0x3d135132	0.035966106
130	0xbdb36eda	-0.08761378
131	0x3c99b994	0.018765248
132	0xbda22556	-0.079172775
133	0x3dc62981	0.09675885
134	0xbd1853a0	-0.037189126
135	0xbb89f7b0	-0.004210435
136	0x3a85a480	0.001019612
137	0xbd008c1c	-0.03138362
138	0xbdbdb580	-0.09263134
139	0x3cc95d4c	0.02458062
140	0x3dbea741	0.09309245
141	0xbd6e955a	-0.0582479
142	0xbbfd2b60	-0.007726118
143	0xbd81cff4	-0.06338492
144	0x3c99d1ec	0.018776856
145	0xbc457410	-0.012051597
146	0xbda2e8eb	-0.07954582
147	0xbcf3aa28	-0.029744223
148	0xbdcad700	-0.09904289
149	0xbdc8bd0f	-0.09801685
150	0x3d6e2f8e	0.05815082
151	0x3d8ff319	0.07028789
152	0xbd759de3	-0.059965026
153	0x3c4ea4e8	0.012612559
154	0xbdcac807	-0.099014334
155	0x3dcac091	0.099000104
156	0xbd061334	-0.032733157
157	0xbd14bac4	-0.036310926
158	0x3d88bb99	0.066764064
159	0xba949c80	-0.0011338145
160	0x3db8b287	0.090184264
161	0xbda2b58e	-0.07944785
162	0xbdbf73da	-0.09348269
163	0xbcdfff08	-0.027343288
164	0xbda03010	-0.07821667
165	0x3cb1c9e8	0.021702722
166	0x3d87f099	0.06637687
167	0x3d548bea	0.051891245
168	0x3cd15724	0.025554247
169	0xbdbc3e35	-0.091915525
170	0x3d69d972	0.057092138
171	0x3dbd7efd	0.09252737
172	0xbd8117a6	-0.06303339
173	0xbdbfe378	-0.09369558
174	0xbdcc7767	-0.09983712
175	0xbcddaf14	-0.027061023
176	0x3cca914c	0.024727486
177	0x3d8f5e79	0.07000441
178	0xbb674a00	-0.003529191
179	0x3ce55d64	0.027998634
180	0xbda523b2	-0.08063449
181	0xbcb220c0	-0.021744132
182	0xbd4a21ad	-0.049348522
183	0xbd08755a	-0.03331504
184	0x3d8d8965	0.069109716
185	0x3d0a7c2e	0.033809833
186	0xbd2609ad	-0.04053657
187	0xbc8d8460	-0.017275035
188	0x3d4f4ce2	0.05061043
189	0x3d5a022e	0.053224735
190	0xbd3a1c0d	-0.045436908
191	0x3c821d98	0.015883252
192	0x3da920b1	0.082581885
193	0xbdb1a7ea	-0.08674605
194	0x3d58ce5a	0.052931167
195	0xbc83c980	-0.016087294
196	0xbc668118	-0.014068864
197	0x3c8871c8	0.016655818
198	0x3dc4ef57	0.09615963
199	0xbd930318	-0.071783245
200	0xbdbbf87f	-0.09178256
201	0x3bc7717a	0.0060865255
202	0xbc9d8dac	-0.019232593
203	0xbdb5a0cc	-0.0886856
204	0xbd4114d4	-0.047139004
205	0xbda8353c	-0.08213279
206	0xbd5ec030	-0.054382503
207	0xbbf20f72	-0.007387095
208	0xbd299c96	-0.041409098
209	0x3c69e0d8	0.014274798
210	0x3cf8e6ac	0.03038343
211	0x3d2a83f0	0.04162973
212	0xbd6364a3	-0.055515897
213	0x3d2e7a4e	0.042597108
214	0x3dbb0b1b	0.091329776
215	0xbda14e1b	-0.078762256
216	0xbd5ad7a0	-0.053428292
217	0xbc933e4c	-0.017974041
218	0xbd356e2a	-0.044294514
219	0xbdcc95fa	-0.09989543
220	0x3da1ed87	0.07906633
221	0x3ccc00d4	0.024902739
222	0xbd26978d	-0.040671874
223	0x3da398d5	0.07988135
224	0x3dabfc3c	0.08397719
225	0x3d2c99f2	0.042139
226	0x3c46a441	0.012124122
227	0xbd5e7bd1	-0.0543173
228	0xbd84d22a	-0.06485398
229	0x3d7ec835	0.06220265
230	0xbca540d4	-0.020172514
231	0xbd2a7a93	-0.041620802
232	0xbc541258	-0.012943827
233	0x3d8beaa7	0.06831866
234	0xbdbbb4ff	-0.09165382
235	0x3d849581	0.06473828
236	0xbd7c2234	-0.061556056
237	0xbd8c54b5	-0.06852094
238	0x3dbae8f9	0.09126467
239	0x3d817101	0.06320382
240	0x3abcb200	0.001439631
241	0x3d8028eb	0.062578045
242	0xbd4df93d	-0.05028652
243	0xbd29dfba	-0.041473128
244	0xbc7b8570	-0.015351638
245	0xbd3607ba	-0.044440962
246	0x3d523b64	0.05132617
247	0xbd5725d3	-0.052526306
248	0xbcac0da8	-0.021002606
249	0x3d1814a2	0.037129052
250	0xbdb15bdd	-0.086601
251	0x3da4db53	0.08049645
252	0xbc1a6530	-0.009423539
253	0x3d90bfaf	0.07067811
254	0xbd494513	-0.04913814
255	0x3c7a597d	0.015280125

layer2.bias f4 [150]
0	0x3dbac2a5	0.09119157
1	0xbd2c2d07	-0.04203513
2	0x3d0595a9	0.03261343
3	0xbdb5d4bd	-0.08878467
4	0x3d5b8f01	0.053603176
5	0x3b73a640	0.003717795
6	0xbc66b70c	-0.014081728
7	0xbd8763b9	-0.066108175
8	0x3d899f47	0.06719833
9	0x3da4594a	0.08024843
10	0x3ce8c72c	0.028415285
11	0xbd9bcb05	-0.07607082
12	0xbd844580	-0.064585686
13	0x3d98a14d	0.07452641
14	0xbd9c244a	-0.07624109
15	0x3d79e54a	0.061009683
16	0xbd9f9fd5	-0.077941574
17	0x3ddab33e	0.10678719
18	0x3b22a640	0.002481833
19	0x3d96a729	0.07356102
20	0xbd8ba688	-0.06818873
21	0x3d44badc	0.048029765
22	0xbc719be8	-0.014746644
23	0x3c4f6606	0.012658602
24	0xbdcb4e00	-0.09926987
25	0x3df1d3d7	0.11807983
26	0x3d4dc288	0.050234348
27	0xbd00e156	-0.031464897
28	0x3d016b72	0.03159661
29	0x3d848a3c	0.064716786
30	0xbd2804b8	-0.041020125
31	0xbd0d8840	-0.034553766
32	0xbdc094d0	-0.09403384
33	0xbd64822a	-0.055788197
34	0xbdca04ef	-0.09864222
35	0x3bc4a207	0.0060007605
36	0xbd810a9f	-0.06300854
37	0x3d318e8a	0.043348826
38	0xbd46a75c	-0.04849945
39	0xbd9e7260	-0.07736659
40	0xbce5e6ac	-0.028064094
41	0x3d7538ec	0.059868738
42	0xbd86d55d	-0.065836646
43	0xbda24038	-0.07922405
44	0x3d6b3815	0.05742653
45	0xbcf1a3a0	-0.029496968
46	0xbd380b0b	-0.044932406
47	0xbdba674b	-0.09101733
48	0x3dc614ed	0.0967196
49	0xbd9689c7	-0.07350498
50	0x3cb6ad85	0.022299537
51	0x3d80d94e	0.062914476
52	0x3d898d96	0.067164585
53	0xbdc6fe67	-0.09716492
54	0x3dd57fa6	0.10424738
55	0x3dac7547	0.084208064
56	0xbc6a6730	-0.014306828
57	0xbdacd3cb	-0.08438834
58	0xbce001a8	-0.02734454
59	0x3d57f075	0.052719552
60	0x3a82b740	0.0009972826
61	0x3cbfb175	0.023400048
62	0xbbf2a0a0	-0.007404402
63	0xbb121155	-0.0022288163
64	0xbcf9da6c	-0.03049966
65	0xbbe61251	-0.0070212265
66	0xbaac6480	-0.001315251
67	0xbcc27be8	-0.023740724
68	0xbd86169c	-0.06547281
69	0xbd8691c4	-0.06570771
70	0x3cbbed12	0.022940192
71	0x3dbbb1d1	0.09164775
72	0x3d272722	0.040808804
73	0x3c054378	0.008133762
74	0xbd89ac35	-0.06722299
75	0x3db00471	0.08594597
76	0x3c23b9db	0.009993042
77	0x3db1899d	0.08668826
78	0x3d4e87bb	0.05042241
79	0xbda3f971	-0.080065615
80	0x3da049b1	0.078265555
81	0x3ca71e78	0.02040027
82	0xbc3eec18	-0.011652969
83	0x3bd70200	0.0065615177
84	0x3d5e8b12	0.054331847
85	0xbcd1cab8	-0.02560936
86	0x3d05bcad	0.03265064
87	0xbda01582	-0.07816602
88	0x3de24f81	0.110503204
89	0x3ca022f8	0.019547924
90	0x3bc21b7e	0.0059236875
91	0xbc76c2fd	-0.015061137
92	0xbdc79105	-0.09744457
93	0xbbb7a3ab	-0.0056042275
94	0x3dbc0d8d	0.09182272
95	0xbd652390	-0.05594212
96	0xbd11588c	-0.035484836
97	0x3c824b28	0.015904978
98	0x3d3dd3ee	0.04634469
99	0x3c9431a7	0.018090082
100	0x3d9dfa33	0.07713737
101	0x3dacfcaf	0.08446633
102	0xbdbcf347	-0.09226089
103	0x3d1c5bee	0.03817361
104	0xbc9bd4ec	-0.019022427
105	0xbd59df42	-0.05319143
106	0x3befa15a	0.007312936
107	0xbd8d4684	-0.068982154
108	0xbdc39a43	-0.095509075
109	0xbbd2aeb0	-0.006429516
110	0x3d2bdf99	0.041961286
111	0xbd9fe71c	-0.078077525
112	0xbca902ef	-0.020631282
113	0x3cca352c	0.024683557
114	0xbd48f7f3	-0.049064588
115	0x3d2de6b2	0.042456336
116	0x3c7c5427	0.015400923
117	0xbd4c556a	-0.049886145
118	0xbd4f59e3	-0.050622832
119	0xbd8217ca	-0.06352194
120	0xbd9c87c2	-0.07643081
121	0x3d478646	0.048712038
122	0x3ad48c2b	0.001621609
123	0xbd290253	-0.041261982
124	0x3c7f8fb9	0.015598231
125	0x3d50badd	0.050959457
126	0xbdca17ba	-0.09867807
127	0x3d4a8af3	0.04944892
128	0x3dca5989	0.09880359
129	0xbd96054e	-0.073252305
130	0xbd1a6463	-0.037693392
131	0xbc92f5d7	-0.017939491
132	0x3d87bed2	0.06628193
133	0x3dafe143	0.08587887
134	0xbd9ec154	-0.07751718
135	0xbd90b0b0	-0.070649505
136	0x3b358761	0.00276991
137	0x3d909c9d	0.070611216
138	0x3d1c4366	0.038150214
139	0xbd994e43	-0.0748563
140	0x3dc84f5a	0.0978076
141	0xbd6c46ef	-0.057684835
142	0x3daf9081	0.08572484
143	0xbd8a14a9	-0.06742222
144	0x3dae5ebf	0.08514165
145	0x3d0f21de	0.034944408
146	0xbcfc0838	-0.030765638
147	0xbd77595f	-0.060387965
148	0x3dc12215	0.09430329
149	0x3d2efa6b	0.042719286

layer3.weight f4 [100, 150]
0	0x3d7350d4	0.059403256
1	0xbd5d91e8	-0.054094225
2	0xbd340ff3	-0.043960523
3	0x3c0902c0	0.008362472
4	0x3d340958	0.043954223
5	0xbb2eca00	-0.0026670694
6	0xbd6b9eba	-0.05752442
7	0xbd412eef	-0.0471639
8	0x3d3058b4	0.043053344
9	0xbc4d4fc0	-0.012531221
10	0xbb7b6da0	-0.0038364902
11	0xbbcca380	-0.0062450767
12	0x3d539f74	0.05166574
13	0xbcda3192	-0.026634965
14	0x3ca70408	0.020387664
15	0xbd0feb7b	-0.03513668
16	0x3d828ba8	0.063742936
17	0xbd60b083	-0.054855835
18	0xbd84d78a	-0.06486423
19	0x3cddb3e8	0.027063325
20	0xbd82584a	-0.06364496
21	0x3d14a240	0.036287546
22	0xbb868b30	-0.004105948
23	0xbd814ab5	-0.06313077
24	0x3d9bb7e8	0.07603437
25	0x3d4aa748	0.049475938
26	0x3b9aaf40	0.0047205985
27	0xbc587898	-0.013212346
28	0xbcb44aa2	-0.022008244
29	0x3d13eb30	0.036112964
30	0xbc119de0	-0.008887738
31	0x3d3cf8bc	0.04613565
32	0x3d766adc	0.060160503
33	0xbd1deefc	-0.03855799
34	0x3d464d9c	0.048413858
35	0xbcf25d1c	-0.029585414
36	0xbc9af74c	-0.018916748
37	0x3d0f8cb0	0.03504628
38	0xbc015f10	-0.0078962
39	0x3c605b80	0.01369369
40	0x3d9ceb6c	0.07662091
41	0xbd710f8a	-0.05885271
42	0x3d439404	0.04774858
43	0x3cc00544	0.02344001
44	0xbc9c589c	-0.019085221
45	0x3cb12bc8	0.021627322
46	0xbd0a8a7d	-0.03382348
47	0x3d437310	0.047717154
48	0xbcc4cac8	-0.024022475
49	0xbb5c70a0	-0.0033636466
50	0x3b9e99b0	0.0048400983
51	0xbd8e106e	-0.069367275
52	0xbbf4e050	-0.007473029
53	0x3d81beac	0.06335196
54	0xbd909d65	-0.070612706
55	0xbd82eb87	-0.063925795
56	0x3d4f5588	0.05061868
57	0x3d9202bc	0.07129428
58	0xbd47878f	-0.048713263
59	0xbc942b78	-0.018087134
60	0xbc8c37e4	-0.017116494
61	0xbc22b898	-0.009931706
62	0x3cf9ea78	0.030507311
63	0xbda5c889	-0.0809489
64	0xbda5a956	-0.08088939
65	0x3be9f4d0	0.0071397796
66	0xbd848a15	-0.064716496
67	0xbce6bc24	-0.028165884
68	0xbd8b9522	-0.06815554
69	0xbd7bcd88	-0.061475307
70	0xbd6f82ac	-0.058474228
71	0xbd778519	-0.060429666
72	0xba88d180	-0.0010438412
73	0x3d8afa74	0.067860514
74	0xbc85d4a0	-0.016336739
75	0x3c4633c0	0.012097299
76	0xbca746bc	-0.020419471
77	0xbd1f9c76	-0.038967572
78	0x3d842c44	0.064537555
79	0xbc1f7cb8	-0.009734325
80	0x3d196cb8	0.037457198
81	0x3b0d9d60	0.0021608695
82	0x3bcfdfc0	0.0063438118
83	0x3bb62ee0	0.005559787
84	0x3cb34620	0.021884024
85	0xbd87e58f	-0.06635582
86	0x3d505760	0.050864577
87	0x3d851d62	0.06499745
88	0x3be146b0	0.0068748817
89	0x3c0445b8	0.008073263
90	0x3d1a2024	0.037628308
91	0x3c8f8cf0	0.017523259
92	0xbd11456c	-0.035466596
93	0xbd1ed876	-0.038780652
94	0x3d9dddee	0.07708345
95	0xbcee2b5a	-0.029073406
96	0xbd022fc2	-0.031783827
97	0x3c86c6d0	0.016452223
98	0xbd18e554	-0.03732808
99	0xbbf6df20	-0.007533923
100	0xbd7f5f8e	-0.062346987
101	0x3d5b210c	0.053498313
102	0xbb2a95e0	-0.0026029274
103	0x3c3c6190	0.01149787
104	0x3d8b8a6e	0.06813513
105	0xbc650888	-0.013979085
106	0xbd38bb0b	-0.045100253
107	0xbd14575c	-0.036216125
108	0xbd36f9cf	-0.04467183
109	0xbd6010f3	-0.054703664
110	0xbb91a580	-0.004444778
111	0x3d1f8760	0.038947463
112	0xbd364aa4	-0.044504777
113	0xbcc1a098	-0.023636147
114	0xbd537cc2	-0.05163265
115	0xbd9f2826	-0.077713296
116	0xbd80e033	-0.062927626
117	0xbd30e8bd	-0.043190707
118	0xbda1043d	-0.078621365
119	0x398ff300	0.00027456135
120	0xbd0c3c3c	-0.03423713
121	0xbc857c58	-0.016294643
122	0xbc54d768	-0.01299081
123	0x3d85f5a8	0.06540996
124	0x3d692694	0.056921557
125	0xba8e53c0	-0.00108587
126	0xbd5a4233	-0.05328579
127	0xbd850314	-0.06494728
128	0xbd3af122	-0.04564012
129	0x3ce21118	0.027596042
130	0xbca9250a	-0.020647544
131	0xbcfe997a	-0.031079043
132	0xbc506bd0	-0.012721017
133	0xbd91d516	-0.07120721
134	0x3d54a494	0.051914766
135	0x3cd96d2c	0.026541315
136	0xbd8ae1f1	-0.06781376
137	0xbd0a1882	-0.03371478
138	0xbd113946	-0.03545501
139	0x3d9d9ff0	0.07696521
140	0xbd6f0270	-0.058351934
141	0x3d3c44c8	0.045964032
142	0xbd965070	-0.07339561
143	0x3c6cfe70	0.0144649595
144	0xbd2b8120	-0.04187119
145	0xbd575657	-0.052572574
146	0xbd182c7b	-0.037151795
147	0xbda12550	-0.07868445
148	0x3cd43cf8	0.025907978
149	0xbd3e5e9f	-0.046476956
150	0x3c0eeb6a	0.008723119
151	0x3d91a4e4	0.071115285
152	0xbab56862	-0.0013840313
153	0x3d934eb0	0.07192743
154	0xbd4bdce1	-0.049771193
155	0xbd68347c	-0.056690678
156	0xbc003e41	-0.0078273425
157	0xbd062c7e	-0.032757275
158	0xbd1d32a9	-0.03837839
159	0x3cd583e9	0.026063876
160	0x3d2aa82e	0.041664295
161	0xbb96c940	-0.0046016276
162	0xbd30a5fb	-0.04312704
163	0x3c7a3028	0.01527027
164	0x3cdad59c	0.026713185
165	0xbd10ba1e	-0.035333745
166	0xbd88db5d	-0.06682465
167	0x3d4e78d8	0.050408214
168	0xbd12291a	-0.03568373
169	0x3c3a8948	0.011385269
170	0xbd07c05f	-0.033142444
171	0x3cf17fc4	0.029479869
172	0x3d4bdf11	0.04977328
173	0x3d840465	0.06446151
174	0xbd5b2196	-0.053498827
175	0x3d495c78	0.04916045
176	0x3d13adbf	0.03605437
177	0xbd948bb1	-0.072532065
178	0x3bba08e0	0.0056773275
179	0x3dac2478	0.08405393
180	0xbd9898ef	-0.07451045
181	0xbd94ac09	-0.072593756
182	0x3cee83f0	0.029115647
183	0xbd2b68a9	-0.04184786
184	0xbd16b8fd	-0.036797512
185	0x3d6eae97	0.05827197
186	0xbbb85256	-0.0056250496
187	0x3cde98b0	0.027172416
188	0x3db2d890	0.08732712
189	0x39894100	0.00026179105
190	0xbc8101dc	-0.015747957
191	0x3dcc0780	0.09962368
192	0x3b9d9410	0.00480891
193	0x3bacae42	0.0052697966
194	0x3c710b74	0.014712203
195	0x3d553df0	0.05206102
196	0x3d41e2f4	0.04733558
197	0xbc8eb1fc	-0.017418854
198	0x3cffb876	0.031215888
199	0x3da98bbf	0.082786076
200	0x3c90374b	0.01760449
201	0x3da74928	0.0816825
202	0xbcb38597	-0.021914287
203	0xbc273b20	-0.010206968
204	0xbd7145d3	-0.05890448
205	0xbd8655c8	-0.0655933
206	0x3c924870	0.017856807
207	0x3d40a460	0.04703176
208	0xbd179caa	-0.03701464
209	0xbd33e8f1	-0.043923322
210	0xbd996473	-0.07489862
211	0x3d65d296	0.056109034
212	0x3cd220f0	0.025650471
213	0x3d9591ef	0.07303225
214	0x3c131f70	0.008979663
215	0x3da26cf8	0.079309404
216	0x3d1bfe1a	0.038084127
217	0xbd4aa2af	-0.049471553
218	0x3cd89fc2	0.026443366
219	0x3d087e10	0.033323348
220	0xbd159f44	-0.03652884
221	0x3d21e9da	0.03952966
222	0xbbfff900	-0.0078116655
223	0x3d823ef8	0.063596666
224	0xbd6782be	-0.05652117
225	0xbd531bad	-0.051540066
226	0xbc000572	-0.007813798
227	0x3dcaf473	0.09909906
228	0x3d916ac2	0.071004406
229	0x3ccc942e	0.024973001
230	0xbd358fe8	-0.044326693
231	0x3c89e5a4	0.016833134
232	0xbcda275e	-0.0266301
233	0xbd236675	-0.039892633
234	0xbd7d145a	-0.061786987
235	0xbd094efb	-0.033522587
236	0xbb41fd07	-0.002960028
237	0x3da4c240	0.08044863
238	0x3c19fb7b	0.0093983365
239	0x3ba88339	0.005142596
240	0x3b215fd4	0.0024623768
241	0x3d136dd2	0.035993405
242	0xbd9f995c	-0.07792923
243	0xbd724edf	-0.05915725
244	0x3d1790cd	0.037003327
245	0x3da5acdc	0.08089611
246	0xbcdbbf88	-0.026824728
247	0xbd83ea37	-0.06441157
248	0x3ced51c7	0.028969659
249	0xbd281a6e	-0.04104083
250	0x3d812c2c	0.06307253
251	0xbd791240	-0.06080842
252	0x3d2d7d33	0.042355727
253	0x3d1aa3f4	0.037754014
254	0xbcda0de4	-0.026617952
255	0xbd75782d	-0.05992906

layer3.bias f4 [100]
0	0x3d147f68	0.036254317
1	0xbd5e903c	-0.05433677
2	0x3ccbd51d	0.024881894
3	0x3d471d3c	0.048611864
4	0x3d8a93c0	0.06766462
5	0xbd7ba66b	-0.061438005
6	0x3d47a0e2	0.048737414
7	0xb831c800	-4.2386353e-05
8	0xbd69af13	-0.05705173
9	0x3d74aac3	0.059733164
10	0xbd22fb3b	-0.039790373
11	0x3d86e48b	0.0658656
12	0x3d88dc96	0.066826984
13	0xbc368040	-0.011138976
14	0x3d498768	0.0492014
15	0x3c8ce8b4	0.017200805
16	0xbc507225	-0.012722527
17	0x3dae495c	0.08510086
18	0x3d276036	0.04086324
19	0xba943ebe	-0.0011310203
20	0xbd124c1c	-0.035717115
21	0x3d8e3d9a	0.06945343
22	0x3cfea422	0.031084124
23	0xbd65ee8c	-0.0561357
24	0xbbdc19c0	-0.006716937
25	0x3d9fa191	0.07794488
26	0x3c666ea8	0.014064468
27	0x3cd08330	0.02545318
28	0xbd665636	-0.05623456
29	0xbc60ccb9	-0.013720685
30	0x3d0aab5e	0.033854835
31	0x3cf4bf7d	0.029876465
32	0x3d6296bc	0.055319533
33	0x3d08df90	0.03341633
34	0xbcfd2af4	-0.03090427
35	0x3cf4dced	0.029890502
36	0xbd987b57	-0.074454
37	0xbd58795c	-0.052850112
38	0xbd2f1459	-0.042744014
39	0xbd31a828	-0.043373257
40	0x3cf27808	0.029598251
41	0x3db4b386	0.08823304
42	0x3d46f784	0.048575893
43	0xbd1fefd6	-0.039047085
44	0xbd1fcca0	-0.039013505
45	0x3c618b98	0.013766192
46	0xbd006058	-0.03134188
47	0x3a363700	0.00069509447
48	0x3d0bd508	0.03413871
49	0x3d61a922	0.05509294
50	0x3d2772b9	0.040880892
51	0x3c822f07	0.015891565
52	0x3d19cdbb	0.037549715
53	0xbbe4d819	-0.0069837687
54	0x3ca30800	0.019901276
55	0xbc8ce3b7	-0.017198427
56	0x3d92c9e8	0.07167417
57	0x3d945db4	0.07244435
58	0xbd644a5c	-0.055734977
59	0xba8063fc	-0.0009795423
60	0xbd832764	-0.064039975
61	0x3d222496	0.039585672
62	0x3d0d61e4	0.034517184
63	0xbcd08cea	-0.025457818
64	0x3d37fce0	0.044918895
65	0x3d890945	0.06691221
66	0xbd9631f9	-0.0733375
67	0x3d028a47	0.031870153
68	0x3ccf7c41	0.025327804
69	0x3c5f8bea	0.013644198
70	0xbd3235fb	-0.04350851
71	0xbca87450	-0.020563275
72	0x3cacc9f1	0.021092387
73	0x3d3876d8	0.045035213
74	0x3d1ea7cb	0.03873424
75	0x3d771dde	0.060331218
76	0x3bd2663a	0.0064208778
77	0x3d709734	0.05873795
78	0xbd488ba6	-0.048961304
79	0x3ccdb924	0.025112696
80	0x3d67f1db	0.056627136
81	0x3dbd52d2	0.09244312
82	0x3d9933a0	0.0748055
83	0x3dbe481b	0.09291097
84	0xbd7b019e	-0.06128084
85	0x3da36649	0.07978494
86	0x3d204272	0.039125867
87	0x3d6589e4	0.056039706
88	0x3c0b335a	0.00849613
89	0xbcf09777	-0.029369099
90	0x3c2e6c50	0.010645941
91	0xbd9bab6f	-0.07601058
92	0x3daaa04a	0.08331354
93	0x3d790445	0.060795087
94	0xbc55fcb0	-0.013060734
95	0xbc9ba527	-0.01899965
96	0x3d251562	0.040303595
97	0x3d62a85c	0.05533634
98	0x3cea3906	0.028591644
99	0xbd961393	-0.07327952

layer4.weight f4 [80, 100]
0	0x3daa2e29	0.083095856
1	0xbb695e41	-0.0035609158
2	0x3d23756b	0.0399069
3	0xbd5e4f57	-0.054274883
4	0xbdc54755	-0.09632746
5	0x3d29e0c5	0.041474123
6	0xbcfb6854	-0.030689396
7	0x3cff102c	0.031135641
8	0xbdac6f40	-0.08419657
9	0xbdab5876	-0.08366482
10	0x3d68123a	0.056658007
11	0x3d8372bf	0.064183705
12	0x3c5af886	0.013364917
13	0xbd5f308d	-0.05448966
14	0xbcb16ecb	-0.021659276
15	0x3ca644f8	0.020296559
16	0xbc9c7638	-0.01909934
17	0xbdb14df8	-0.086574495
18	0xbd0d9a1b	-0.034570795
19	0xbda6b95b	-0.081408225
20	0x3cf52ab4	0.029927589
21	0xbd9c07f6	-0.07618706
22	0xbc7aa1fb	-0.015297408
23	0x3d7d3f66	0.06182804
24	0x3c7da4f0	0.015481219
25	0x3d9e201a	0.07720967
26	0xbd178d40	-0.03699994
27	0xbda04b45	-0.078268565
28	0x3bb36bb0	0.005475484
29	0xbd9b7ded	-0.07592378
30	0x3cafd078	0.02146171
31	0x3d1cb30c	0.03825669
32	0x3d1b2062	0.03787268
33	0xbd9c053c	-0.07618186
34	0x3d9e3b2d	0.07726131
35	0x3d021792	0.03176076
36	0x3dbd395b	0.09239455
37	0x3d96cb96	0.0736305
38	0xbcda8a38	-0.026677236
39	0x3c653700	0.013990164
40	0x3cb57878	0.02215217
41	0xbd1286da	-0.035773136
42	0xbd8198ea	-0.06327994
43	0x3bc48950	0.0059978142
44	0x3d694c77	0.05695769
45	0x3c484c31	0.012225197
46	0xbd8b9426	-0.068153664
47	0x3d80c771	0.062880404
48	0x3cdc0be4	0.026861139
49	0x3db93e8d	0.09045134
50	0xbd1945ca	-0.03742007
51	0xbba9a294	-0.0051768515
52	0x3d156102	0.036469467
53	0xbd7c3be9	-0.061580572
54	0x3be75db0	0.007060729
55	0xbd2a382d	-0.04155748
56	0x3d18b7ac	0.03728454
57	0x3d83af52	0.06429924
58	0xbd01630c	-0.0315886
59	0x3ced0645	0.028933654
60	0xbd76a8e7	-0.06021967
61	0xbd21b3fd	-0.03947829
62	0xbd13b2fb	-0.03605936
63	0x3daec731	0.085340865
64	0x3dc34bd1	0.09535945
65	0x3da82b91	0.08211435
66	0xbc8f3e54	-0.017485775
67	0xbd61e871	-0.055153314
68	0x3db9a476	0.090645716
69	0x3b2f6b51	0.0026766846
70	0xbbd56dd0	-0.006513335
71	0xbd09b3b7	-0.033618655
72	0xbd04db71	-0.032435838
73	0x3cf857c4	0.030315287
74	0x3d9b5442	0.0758443
75	0x3d191dee	0.03738206
76	0x3d923436	0.07138865
77	0x3d0df097	0.034653272
78	0x3cb1fa48	0.021725789
79	0x3d5d594e	0.054040246
80	0xbd9cc986	-0.07655625
81	0xbdc96d25	-0.09835271
82	0xbd13caea	-0.036082186
83	0xbd952ca2	-0.07283904
84	0xbd9ff792	-0.07810892
85	0xbd21efa7	-0.03953519
86	0xbd48142a	-0.048847355
87	0x3c153a80	0.009108186
88	0xbd0d51ec	-0.034501955
89	0xbd82d890	-0.06388962
90	0xbccf7620	-0.025324881
91	0x3d7cb696	0.061697565
92	0x3d7f15b1	0.062276546
93	0xbd262fcf	-0.040572938
94	0xbc9e2e28	-0.019309118
95	0xbdc03a4c	-0.09386119
96	0x3baa7cd0	0.005202867
97	0x3d621b32	0.055201717
98	0x3d2997c7	0.04140451
99	0x3db39ae9	0.08769781
100	0xbd650ed0	-0.05592233
101	0xbcf826c8	-0.03029193
102	0xbc831068	-0.015999034
103	0xbd2c5cf0	-0.04208082
104	0x3da76869	0.081742115
105	0x3c95aa60	0.018269718
106	0xbd236ae3	-0.039896857
107	0x3c5bd2d8	0.013416968
108	0xbd9c7dc0	-0.076411724
109	0x3dc70809	0.097183295
110	0x3d14236e	0.0361666
111	0xbd6bf303	-0.0576048
112	0x3dc17795	0.094466366
113	0xbd7ea873	-0.062172364
114	0xbca85d88	-0.020552412
115	0xbc1da090	-0.009620801
116	0x3d876efb	0.06612965
117	0x3d258242	0.040407427
118	0xbd59541a	-0.05305872
119	0x3d30144e	0.042988114
120	0x3dc4d90b	0.0961171
121	0xbd365877	-0.04451796
122	0xbda6d545	-0.08146147
123	0x3bf061e0	0.0073358864
124	0xbd396ae3	-0.04526795
125	0xbbdcf850	-0.0067434683
126	0x3d3a5ba2	0.045497544
127	0xbc3c5fe8	-0.011497475
128	0xbd65efcd	-0.056136895
129	0xbdc4fadd	-0.09618161
130	0x3c87b4c8	0.016565695
131	0xbb02d460	-0.001996301
132	0x3c93910c	0.0180135
133	0x37464000	1.1816621e-05
134	0xbcab2558	-0.02089183
135	0xbcfc3634	-0.030787565
136	0xbd0a0f76	-0.03370615
137	0x3da2b951	0.079455025
138	0x3d443182	0.047898777
139	0x3d5206e6	0.05127611
140	0x3d0fd056	0.035110794
141	0xbd6532cd	-0.05595665
142	0xbdb87392	-0.09006418
143	0x3d8df831	0.069321044
144	0xbc216228	-0.009850062
145	0xbc591b50	-0.013251141
146	0xbdbf03fd	-0.093269326
147	0xbd878924	-0.066179544
148	0xbc307490	-0.010769978
149	0x3d0ae0c2	0.033905752
150	0x3dc2ee11	0.09518064
151	0xbcb84aa8	-0.022496536
152	0x3d0a5f02	0.033782013
153	0x3d3cf32e	0.04613035
154	0x3d00f6ba	0.031485297
155	0x3d40bd46	0.047055505
156	0xbd8b203e	-0.06793259
157	0x3d86447f	0.06556033
158	0xbd3d30f0	-0.04618925
159	0x3db27829	0.08714325
160	0x3cbb2840	0.022846341
161	0xbb77ac60	-0.0037791952
162	0x3dbe6b51	0.09297813
163	0xbd157006	-0.036483787
164	0xbdc9eddf	-0.098598234
165	0xbd6ca92d	-0.057778526
166	0x3d91c14f	0.07116949
167	0x3d91ae59	0.07113332
168	0x3d8283d9	0.06372804
169	0xbda098a2	-0.078416124
170	0xbdbd7055	-0.09249941
171	0xbceb3b68	-0.02871485
172	0xbcdbb000	-0.026817322
173	0x3d2cff62	0.04223574
174	0xbc0a94b0	-0.008458301
175	0xbdc788e8	-0.0974291
176	0xbd9c1b8a	-0.0762244
177	0x3ca4d298	0.02011995
178	0xbd0915f4	-0.0334682
179	0xbda90f6b	-0.08254894
180	0x3db4393f	0.08799981
181	0x3d4d8ce6	0.0501832
182	0xbd78bedd	-0.060728896
183	0xbc9c1ca0	-0.019056618
184	0x3cded444	0.027200826
185	0xbd0997fc	-0.03359221
186	0x3d530166	0.051515006
187	0x3d0350a2	0.03205932
188	0x3da8f745	0.08250288
189	0xbc558580	-0.013032317
190	0x3d822f6b	0.063567005
191	0x3dc2ba7f	0.095082276
192	0xbd80fbbd	-0.06298015
193	0xbd3f35ea	-0.046682276
194	0xbb160cc0	-0.0022895783
195	0x3d8aad8f	0.06771385
196	0xbdc61e02	-0.09673692
197	0x3d14b232	0.036302753
198	0x3baa6da0	0.0052010566
199	0xbac3c140	-0.0014934912
200	0xbdbb7607	-0.09153371
201	0x3d6809a2	0.05664981
202	0x3d7d6dd2	0.06187231
203	0x3d4f3382	0.05058623
204	0xbd986d52	-0.07442726
205	0xbcefcca0	-0.029272377
206	0xbc1feeb0	-0.009761497
207	0x3c843ce8	0.016142324
208	0x3d49c71e	0.04926216
209	0x3db0c1a9	0.08630688
210	0xbd71c7b3	-0.05902834
211	0xbd853876	-0.0650491
212	0xbd7469ad	-0.059671093
213	0xbd52d72a	-0.051474728
214	0xbc75ac98	-0.014994763
215	0x3d44b56a	0.048024572
216	0xbdc74a98	-0.097310245
217	0x3d657e0e	0.05602842
218	0xbdc0eb5f	-0.094198935
219	0xbd8af1b8	-0.067843854
220	0xbd6f8487	-0.058475997
221	0x3da7baa1	0.081898935
222	0xbd729ed3	-0.059233498
223	0xbdb3b485	-0.08774666
224	0xbd2cfc47	-0.042232778
225	0xbd1847ac	-0.037177727
226	0x3ce77054	0.028251804
227	0xbd82cbaa	-0.06386502
228	0x3c421bb0	0.0118474215
229	0xbd931202	-0.07181169
230	0xbd183620	-0.037160993
231	0x3d07f7f6	0.03319546
232	0xbdc9ebcb	-0.09859427
233	0x3d4b68ca	0.04966048
234	0xb97ed400	-0.00024302304
235	0x3cdd1de4	0.026991792
236	0xbd2ad89d	-0.041710485
237	0xbc5a9528	-0.013341226
238	0x3c9a97ec	0.01887127
239	0x3d943657	0.07236927
240	0x3d6c8282	0.05774165
241	0x3caf0340	0.021363854
242	0x3d28c41a	0.041202642
243	0xbca054d4	-0.0195717
244	0xbd625733	-0.05525894
245	0xbdb49c12	-0.088188305
246	0xbc2aa268	-0.010414697
247	0xbda24b33	-0.07924499
248	0xbdcb67c0	-0.09931898
249	0xbc2fe968	-0.010736801
250	0x3dc480f1	0.09594906
251	0xbd5e33ed	-0.05424874
252	0x3b63d0c0	0.0034761876
253	0xba6b2d80	-0.00089713186
254	0xbd0cd566	-0.0343832
255	0x3b1b2dc0	0.0023678392

layer4.bias f4 [80]
0	0x3d29d983	0.0414672
1	0xbd7f46a0	-0.062323213
2	0xbd0bfc70	-0.03417629
3	0xbd8dbef3	-0.06921186
4	0x3da8f6e5	0.082502164
5	0x3dbc35ab	0.09189924
6	0xbd56de2d	-0.052457977
7	0x3de3077c	0.11085412
8	0x3d06763a	0.032827593
9	0xbd0ddd2c	-0.034634754
10	0x3d008333	0.03137512
11	0xbd9f686b	-0.07783588
12	0x3dbcad06	0.09212689
13	0x3dc34e1e	0.09536384
14	0xbda9cf77	-0.08291524
15	0x3b862444	0.0040936787
16	0x3d606a18	0.05478868
17	0xbd2cff97	-0.042235937
18	0x3a6feb00	0.0009152144
19	0xbc2e72fe	-0.010647533
20	0x3d85f187	0.06540208
21	0xbd941a83	-0.07231619
22	0x3ca66518	0.020311877
23	0x3ddf2da5	0.10897378
24	0x3da845da	0.08216448
25	0xbd68eb3d	-0.056864966
26	0x3dcc34fc	0.099710435
27	0x3cdcce7f	0.026953934
28	0x3daf1ec0	0.08550787
29	0xbd2686a7	-0.04065576
30	0x3db7f7a7	0.08982783
31	0x3ddc28af	0.10749947
32	0xbcacbe40	-0.021086812
33	0x3db43c8e	0.088006124
34	0xbdcc3e40	-0.09972811
35	0x3dbcfb7b	0.092276536
36	0x3d0f4ba7	0.034984257
37	0x3dbef828	0.09324676
38	0x3d1a292a	0.037636913
39	0xbda0a3b0	-0.07843721
40	0xbd691149	-0.05690125
41	0x3dd3a523	0.10334232
42	0x3d997816	0.07493608
43	0x3d4e14f4	0.05031295
44	0xbd328d1d	-0.043591607
45	0x3d6c4a7c	0.05768822
46	0xbcf62934	-0.030048944
47	0xbd547727	-0.051871445
48	0x3d7a65a1	0.061132077
49	0x3db812b0	0.08987939
50	0x3da1c4d5	0.07898871
51	0x3d48e97b	0.04905079
52	0xbd931d34	-0.071833044
53	0x3de2936d	0.110632755
54	0xbc892980	-0.016743422
55	0x3c8e77d1	0.017391117
56	0x3cf67e9f	0.030089675
57	0x3b807cdd	0.003921135
58	0xb9911b30	-0.0002767681
59	0x3d290fcb	0.041274827
60	0x3d92484a	0.07142694
61	0xbdc2e4db	-0.09516307
62	0x3d9e79df	0.07738089
63	0xbd844a62	-0.064595
64	0x3bdea580	0.0067946315
65	0xbd0634aa	-0.032765068
66	0x3cd34004	0.025787361
67	0xbcbcfea8	-0.023070648
68	0x3d86a86c	0.06575093
69	0x3d9928e5	0.07478503
70	0xbabc9c04	-0.0014389758
71	0xbca8b48d	-0.020593906
72	0xbd9a38a7	-0.07530337
73	0x3d9e5727	0.07731467
74	0xbca2328c	-0.019799493
75	0x3de1d9d1	0.11027873
76	0x3be8cf22	0.0071047703
77	0x3cb1d7b1	0.021709295
78	0x3dd70dad	0.10500655
79	0xbdc363e0	-0.09540534

layer5.weight f4 [60, 80]
0	0x3c848a22	0.016179148
1	0xbd2a37e0	-0.041557193
2	0xbc787f48	-0.015167065
3	0xbd3668b0	-0.04453343
4	0xbcedd3af	-0.029031603
5	0x3de87312	0.11350073
6	0x3d2eb704	0.042655006
7	0x3d30b28c	0.043139026
8	0xbd84e419	-0.06488819
9	0x3d8b4df6	0.06801979
10	0xbd7353c1	-0.059406046
11	0xbd8f2ebb	-0.06991335
12	0xbd8227a0	-0.06355214
13	0x3de31bd7	0.110892944
14	0xbdb2a547	-0.087229304
15	0x3c09c33a	0.008408362
16	0xbd245107	-0.040116336
17	0x3d4258bb	0.0474479
18	0xbcd407d8	-0.025882646
19	0x3ca27d8d	0.019835258
20	0xbda9912d	-0.08279643
21	0x3d0a1c6a	0.033718504
22	0xbc53ecb8	-0.012934856
23	0x3ade89cb	0.0016978321
24	0xbdb98d18	-0.090601146
25	0x3c0ed304	0.008717302
26	0x3d91c4b6	0.07117598
27	0x3d8bd3d3	0.06827512
28	0x3d83d248	0.06436592
29	0x3c4e2610	0.012582317
30	0x3da1def3	0.07903852
31	0xbd78b398	-0.06071815
32	0x3d9c3178	0.07626623
33	0x3db4043c	0.0878987
34	0xbd28f420	-0.04124844
35	0x3dbdeb56	0.092734024
36	0xbcedc812	-0.029026065
37	0x3dd1bfa4	0.10241631
38	0x3d19dd1c	0.037564382
39	0xbc3fbd90	-0.01170291
40	0x3df292d7	0.11844414
41	0xbd5a6813	-0.05332191
42	0xbd9fda24	-0.07805279
43	0x3dff83e1	0.12476326
44	0xba64ff2a	-0.0008735532
45	0xbda29d9e	-0.07940219
46	0xbba3b220	-0.0049955994
47	0x3cb7af20	0.022422373
48	0x3df1d92a	0.11808999
49	0xbc0779e9	-0.008268812
50	0x3d1be917	0.03806409
51	0xbd0607f7	-0.03272244
52	0xbcd44159	-0.025910066
53	0x3cf32907	0.02968265
54	0x3dc6fe90	0.09716523
55	0xbdbdd5dd	-0.09269307
56	0x3d20a2be	0.039217703
57	0x3dcc7baf	0.09984528
58	0xbdc7dd7f	-0.09759044
59	0x3dcfc6eb	0.101453625
60	0x3c57169b	0.013127948
61	0x3d92fe5e	0.07177423
62	0xbc0de700	-0.008661032
63	0x385bb9bb	5.2386644e-05
64	0x3c86f5d0	0.016474634
65	0x3d9e6560	0.077341795
66	0x3c3ee7cd	0.011651945
67	0x3c884106	0.016632568
68	0x3c8d79f4	0.017270066
69	0xbc83d7d1	-0.01609412
70	0x3dff633a	0.12470098
71	0x3d53775e	0.05162751
72	0xbc537aab	-0.012907664
73	0x3dcaac24	0.098961145
74	0xbdc6f839	-0.097153135
75	0x3df1481e	0.117813334
76	0x3c27d1cd	0.0102428915
77	0x3cb7e180	0.022446394
78	0x3e01eb3b	0.1268739
79	0x3d89e1d2	0.06732525
80	0x3c0a7330	0.008450314
81	0x3da9f6de	0.08299039
82	0xbb80d050	-0.003931083
83	0x3cccbf50	0.024993569
84	0xbdb255b7	-0.08707755
85	0xbd070f10	-0.03297335
86	0xbd8fd43a	-0.07022901
87	0x3cb06630	0.021533102
88	0x3da24360	0.07923007
89	0xbd2933a8	-0.04130903
90	0xbdc47238	-0.09592098
91	0xbdaaa02a	-0.0833133
92	0x3dda3c42	0.106560245
93	0xbd4bbfef	-0.04974359
94	0x3bde38d0	0.006781675
95	0x3dbbd20c	0.09170923
96	0x3dcbcb9a	0.09950943
97	0xbdd8c2d9	-0.10584039
98	0xbdd14d5c	-0.10219833
99	0xbddc0412	-0.10742964
100	0xbd6fa78e	-0.058509402
101	0xbd6d286e	-0.057899885
102	0xbd41bdc4	-0.047300115
103	0xbda9780b	-0.082748495
104	0xbddd437c	-0.10803887
105	0xbdd47b34	-0.10375062
106	0xbbc89880	-0.006121695
107	0xbd810969	-0.06300623
108	0x3d8d735e	0.0690677
109	0x3d90e4ca	0.07074888
110	0x3c3d67c8	0.011560388
111	0xbd5725eb	-0.052526396
112	0x3b059400	0.0020382404
113	0xbd0c7e1e	-0.034299962
114	0xbca2be88	-0.019866243
115	0x3dda264a	0.10651834
116	0xbd8de34a	-0.069281176
117	0xbd574cf3	-0.05256362
118	0x3d7db088	0.06193593
119	0x3d097548	0.033559114
120	0x3c9a9420	0.01886946
121	0x39e22a00	0.00043137372
122	0xbcf6dda0	-0.030134976
123	0x3d7a4170	0.061097562
124	0xbd7c7849	-0.06163815
125	0x3bad5f40	0.0052908957
126	0xbd63645b	-0.05551563
127	0xbd3fc172	-0.046815343
128	0xbd8866f6	-0.06660263
129	0x3d14ccd4	0.03632815
130	0x3db61a16	0.08891694
131	0x3ba88370	0.0051426217
132	0xbd80031a	-0.062505916
133	0x3d802db6	0.06258719
134	0xbdba0444	-0.09082845
135	0xbde3c478	-0.11121458
136	0xbcee841c	-0.029115729
137	0x3dae0eb8	0.08498901
138	0xbd5cdefd	-0.053923596
139	0xb8cb8800	-9.705126e-05
140	0x3da85ac2	0.08220436
141	0x3c4d78c0	0.012540996
142	0x3dadbb8a	0.08483036
143	0x3d515190	0.051103175
144	0x3c20ca80	0.009813905
145	0x3b5a0600	0.0033267736
146	0xbd35f9b6	-0.044427596
147	0x3ccfb118	0.025353
148	0xbd9d663b	-0.076855145
149	0x3d2aefc4	0.041732565
150	0x3da59392	0.080847874
151	0xbc7df398	-0.015499972
152	0xbbf04e00	-0.007333517
153	0xbc7ec3b8	-0.015549593
154	0x3d8d35c8	0.068950236
155	0xbd9364cd	-0.071969606
156	0x3cc3e660	0.023913562
157	0xbdd88f00	-0.1057415
158	0xbc99dbec	-0.018781625
159	0x3d82de6e	0.06390081
160	0x3ddd9b18	0.108205974
161	0xbdd1a828	-0.102371514
162	0x3dd55b9c	0.10417864
163	0x3d397dd4	0.045286015
164	0x3dd08d4a	0.10183199
165	0xbdc205fe	-0.09473799
166	0x3ce68368	0.028138831
167	0xbc807c78	-0.015684351
168	0x3da492a8	0.08035785
169	0x3d0eaa2c	0.034830257
170	0x3d7b7b5c	0.06139694
171	0x3d529a34	0.05141659
172	0x3d8cce78	0.06875318
173	0xbd8a8e3c	-0.0676541
174	0x3dda52b6	0.10660307
175	0xbdb73654	-0.08945909
176	0x3da6172a	0.08109887
177	0x3da8eb8c	0.08248052
178	0xbdbf3022	-0.093353525
179	0x3d33749c	0.04381238
180	0x3d5a9a48	0.05336979
181	0xbd8d0e14	-0.06887451
182	0xbdc87dd1	-0.097896226
183	0xbdbd35c6	-0.09238772
184	0xbde0bcb5	-0.10973493
185	0x3c57abe0	0.013163537
186	0xbdcf3f38	-0.1011948
187	0xbd858eaa	-0.06521352
188	0x3ddcd7de	0.10783361
189	0x3dc9f122	0.098604456
190	0x3c0e1088	0.008670934
191	0xbd87e6dd	-0.066358306
192	0xbc1aac78	-0.009440534
193	0xbd94ab85	-0.07259277
194	0x3c5f5b70	0.01363264
195	0xbd8cf042	-0.06881763
196	0x3d6e3584	0.058156505
197	0x3ddcabc4	0.10774949
198	0xbd7abc0d	-0.061214495
199	0xbd52254b	-0.051305097
200	0x3be71dd0	0.0070531145
201	0x3cec35d8	0.028834268
202	0xbd12932e	-0.035784893
203	0xbd444400	-0.047916412
204	0x3de40cae	0.11135231
205	0xbddda318	-0.10822123
206	0x3d9b9e32	0.07598533
207	0xbcf9d98c	-0.030499242
208	0x3caa1c58	0.020765468
209	0xbda3ad91	-0.079920895
210	0x3d95ead8	0.073201835
211	0x3d063b08	0.03277114
212	0xbb86dcb0	-0.0041156635
213	0xbdc3a0ff	-0.09552192
214	0x3b4f2b80	0.0031611621
215	0x3d93f5dc	0.07224628
216	0xbc1167f0	-0.008874878
217	0x3da31aa8	0.07964069
218	0xbb91ae40	-0.004445821
219	0xbd289750	-0.041159928
220	0xbdd24e35	-0.10268823
221	0xbdb7a903	-0.08967783
222	0x3cbae778	0.022815451
223	0x3d78d11c	0.060746297
224	0x3dc0f676	0.09422009
225	0x3dac968c	0.08427152
226	0xbd59d0c2	-0.053177603
227	0x3d936de4	0.07198694
228	0xbdafe96a	-0.08589442
229	0xbda2afda	-0.07943697
230	0x3db0b7da	0.08628817
231	0x3dd53890	0.10411179
232	0xbdb0990e	-0.08622943
233	0x3c008590	0.007844344
234	0x3cdda4c0	0.027056098
235	0x3d9e0c90	0.0771724
236	0x3d868a90	0.065693974
237	0xbdcedbac	-0.10100493
238	0x3d3d1424	0.046161786
239	0xbdafd464	-0.08585432
240	0x3d0f66c4	0.035010114
241	0x3d24c86c	0.0402302
242	0x3d49a0b0	0.04922551
243	0xbce28684	-0.027652033
244	0xbc9fac68	-0.01949139
245	0x3d4bf8f8	0.049797982
246	0xbdb8fca6	-0.09032564
247	0xbc4cbd08	-0.01249624
248	0xbd194648	-0.03742054
249	0x3cf5b738	0.029994592
250	0x3ca958d8	0.020672247
251	0xbde150fd	-0.110017754
252	0xbdde7196	-0.108615085
253	0x3dd28958	0.102801025
254	0x3d8cc098	0.06872672
255	0x3d2817e4	0.04103841

layer5.bias f4 [60]
0	0x3d44303f	0.047897574
1	0xbd3d0de0	-0.04615581
2	0x3dc6bd36	0.09704058
3	0xbd5f6f2a	-0.054549374
4	0x3ca88de9	0.02057548
5	0x3dbd15a9	0.09232647
6	0xbdbe43e2	-0.09290291
7	0xbad49340	-0.00162182
8	0x3d39e5c9	0.045385156
9	0x3dd0d596	0.10196988
10	0xbd3a59fe	-0.04549598
11	0x3dcc4585	0.09974197
12	0x3d912a8b	0.070881926
13	0x3d8396d7	0.06425255
14	0xbc157950	-0.009123161
15	0x3d506ded	0.050886083
16	0x3da4f770	0.080550075
17	0xbd93b11f	-0.072115175
18	0xbd15418f	-0.036439475
19	0xbca7a7f2	-0.020465825
20	0x3d6aeca3	0.05735458
21	0xbc5592b7	-0.013035468
22	0x3d0605e8	0.032720476
23	0x3d86a1cc	0.06573829
24	0xbdb5a0ba	-0.08868547
25	0x3db85ae5	0.09001712
26	0x3d95ef89	0.07321078
27	0xbdb702cc	-0.0893608
28	0xbcecd1f7	-0.028908713
29	0xbbe587c0	-0.007004708
30	0x3d8b4419	0.06800098
31	0x3d9cda5f	0.076588385
32	0x3dbaa1c6	0.09112887
33	0x3df658fa	0.1202869
34	0xbce2496d	-0.027622903
35	0x3cf8b3f5	0.030359248
36	0x3d2945dc	0.04132639
37	0xbca3e358	-0.020005867
38	0x3d155053	0.036453556
39	0xbd68d590	-0.056844294
40	0xbda6e4fa	-0.081491426
41	0x3d3d08d0	0.046150982
42	0x3d86a61f	0.06574654
43	0xbd9d6aaa	-0.0768636
44	0x3dd6bdb6	0.10485403
45	0x3deb04d1	0.11475528
46	0xba922a21	-0.0011151471
47	0xbcff99fb	-0.031201353
48	0xbd4cf9dd	-0.050042976
49	0x3d8034ae	0.06260048
50	0xbc55188f	-0.0130063435
51	0x3dce5af6	0.10075943
52	0xbd862416	-0.065498516
53	0x3d1fcd29	0.039014015
54	0xbdd2e846	-0.10298209
55	0xbc827c00	-0.015928268
56	0xbd51d9c9	-0.051233087
57	0xbd5f291e	-0.05448257
58	0xbd0357a0	-0.032065988
59	0xbdcf85a7	-0.10132914
