saved_models/model_GOOG.pt (torch_old, 190423 bytes, 15 tensors)

layer1.weight f4 [100, 5]
000000 85 5e b5 be 60 f2 35 be ba ce a2 be 50 60 32 3e
       -0.35423675 -0.1776824 -0.31798345 0.17419553
000010 c8 11 36 3e 3a c2 90 be 38 be e2 3e 30 44 a2 be
       0.1778022 -0.28273183 0.4428575 -0.31692648
000020 61 cc b8 3e 9d 32 89 3e 9c 76 a0 be c1 f9 85 be
       0.3609343 0.26796427 -0.31340492 -0.2616711
000030 20 40 b4 be f3 f7 b2 be 7e 22 90 be 8a 06 a5 3e
       -0.35205173 -0.34954795 -0.28151315 0.3223155
000040 b0 6a f8 3d a3 71 cb be 46 6e d2 be cc 68 bb be
       0.12129724 -0.39735135 -0.41099757 -0.3660339
000050 e6 8f d7 3e 5a c6 b0 3e 07 ba 93 3d 11 f9 ca 3d
       0.42101973 0.3452633 0.07213216 0.09910787
000060 b5 05 51 3e 3e 29 c3 3e fb 23 4f be 39 7b 80 3d
       0.20412333 0.38117403 -0.20228569 0.06273503
000070 ac 96 1b 3e 36 35 a0 bc a9 6c be 3c 76 11 73 3e
       0.15194196 -0.019556623 0.023245173 0.2373713
000080 13 68 85 be c0 8b e7 3e 60 45 45 3e 77 a7 d5 be
       -0.26055965 0.45223808 0.19264746 -0.41729328
000090 3e 85 c8 be 10 37 7f 3d a0 ae 0b 3d 44 f3 e2 be
       -0.39164156 0.06230837 0.034102082 -0.44326222
0000a0 2c c2 e3 3e f3 2c 0a be 87 c1 39 be 0f 8d 7b 3e
       0.4448408 -0.1349371 -0.18140231 0.24565528
0000b0 4d 42 85 3e fe 9b cb 3e 77 26 94 be 90 0d a4 be
       0.26027146 0.3976745 -0.28935596 -0.32041597
0000c0 4a 38 1d be 60 0f 0e 3c 53 00 0c 3e 57 69 fb 3c
       -0.15353504 0.008670658 0.13671999 0.030689878
0000d0 7b 68 c5 3d 32 07 96 3e d0 1c b9 3e 84 b4 a1 be
       0.09639069 0.29302365 0.36154795 -0.31583035
0000e0 56 84 b5 be ce 3d 39 be f2 43 35 be bc b8 9e 3e
       -0.35452527 -0.18089983 -0.177017 0.31000316
0000f0 51 ad c2 3e 8e a0 90 bd e6 d0 de bd b4 ef c1 3d
       0.38022855 -0.070618734 -0.10879688 0.09469548
000100 d3 b5 14 3e de d5 37 be 62 72 3e 3d 30 a0 fb 3d
       0.14522485 -0.17952678 0.046495803 0.12286413
000110 f8 3c 81 bd 87 1c 6c 3d 5c ae 95 be 60 6a 86 3d
       -0.06310457 0.057644393 -0.29234588 0.06563258
000120 ad b8 60 be 52 db 92 be 74 57 d4 3e d4 81 e3 3e
       -0.21945448 -0.28682953 0.4147297 0.44434988
000130 00 ab a5 3e 91 32 0e be 9f 84 79 3e 93 d2 f4 bc
       0.32357025 -0.13886477 0.24366997 -0.029885566
000140 37 d7 d1 3e 0c 4d 3d be cf e6 29 bb ac 12 bd 3e
       0.40984508 -0.18486422 -0.0025924926 0.36928308
000150 c3 f9 ab 3e 28 e2 f8 bd 13 12 c8 be f8 17 cf be
       0.3358899 -0.12152511 -0.3907629 -0.40447974
000160 8c f8 80 3e 08 d9 89 bd 9c f4 aa be f4 09 89 bd
       0.25189626 -0.067308486 -0.33389747 -0.066913515
000170 9c 55 e5 bd ba f2 a9 be 31 a8 d0 be 22 5e 86 be
       -0.11197969 -0.33192998 -0.4075332 -0.26243693
000180 c4 fa 49 be d3 3c 76 be 94 21 9e bd f0 00 9b 3e
       -0.19724566 -0.2404664 -0.07721248 0.30274153
000190 1c 44 95 be 00 57 30 be b4 06 1c be 67 5a a5 be
       -0.29153526 -0.17220688 -0.15236932 -0.32295534
0001a0 12 49 bc 3e ea 7c 29 3e 04 3d e7 3e ef 0e b8 3e
       0.36774498 0.16551557 0.4516374 0.35948893
0001b0 b2 56 3c be 26 89 a7 3e 38 fe 42 be 2f fe 4e be
       -0.18392447 0.32721823 -0.1904229 -0.20214151
0001c0 ee 11 99 be 30 9f 99 3d e8 1c 93 be 9e 87 17 be
       -0.29896492 0.07501066 -0.2873299 -0.14797828
0001d0 a4 91 89 3e a5 b7 b8 be 70 59 8c 3d 76 03 25 be
       0.26868927 -0.3607761 0.06852996 -0.16114601
0001e0 67 a4 b2 3b d8 72 bc 3e 2f 97 7a 3c 12 4d 21 3d
       0.005451727 0.3680637 0.015294834 0.03938014
0001f0 93 de 48 be 7e 54 1b 3e 79 15 ed bd 1f 03 b1 3e
       -0.19616155 0.1516895 -0.11576361 0.34572694
000200 42 92 3f 3e e9 1d 8c 3e 0f 1c c4 3d 28 03 7a be
       0.18708137 0.2736657 0.09575664 -0.24415267
000210 77 97 50 3e 7e 74 7a be b3 be dc 3e 97 b0 53 be
       0.20370279 -0.244585 0.43114242 -0.20672832
000220 24 b0 cf bd 80 86 34 3d 58 1e fd 3d 70 3b 76 bd
       -0.10141018 0.04407358 0.12359303 -0.060115278
000230 02 da 9e 3e b4 6c c6 3e f0 ce d4 be 38 bf 9e be
       0.31025702 0.3875481 -0.4156413 -0.31005263
000240 91 30 66 be 52 56 38 be be 95 45 3e 10 15 8c 3d
       -0.22479464 -0.18001679 0.19295403 0.06839955
000250 b7 f4 83 be c5 88 83 3e 82 3e 91 3e 10 3a 84 bd
       -0.2577264 0.25690284 0.28368002 -0.06456387
000260 82 db 7d be 1f 02 db 3e 38 a1 e7 3e 90 88 9c be
       -0.24790767 0.42775056 0.45240188 -0.3057294
000270 7b e6 94 3e 63 ee 88 3d c1 03 e2 3e cc 71 39 be
       0.29082093 0.06686094 0.4414349 -0.18109816
000280 bc 43 24 be 74 b6 3f be a1 df de be 88 80 b6 3e
       -0.16041464 -0.18721944 -0.4352999 0.35644937
000290 08 3f 44 bd af 8a bc 3e c1 d5 9c be b6 11 46 be
       -0.047911674 0.36824557 -0.3063183 -0.19342694
0002a0 4d c1 13 3d 6a e6 6c 3e fe d0 bc 3e 3a 6d d4 3e
       0.036073018 0.23134771 0.36878198 0.41489583
0002b0 6c 53 8c 3e 34 56 73 3e 8f 47 07 3e b0 34 b1 be
       0.27407396 0.23763353 0.13210891 -0.3461051
0002c0 d8 db 05 bd 86 04 8f 3e 64 98 49 be 28 26 4e 3e
       -0.032680362 0.2793314 -0.19687039 0.20131743
0002d0 82 bb 03 be c0 99 0a 3c f8 a6 1a be 78 d4 5c 3e
       -0.12864497 0.008459508 -0.15102756 0.21565425
0002e0 45 1c d0 be b2 df 1e 3e c4 cb 95 be 80 91 8e be
       -0.40646568 0.1551502 -0.29257023 -0.27845383
0002f0 69 1e c6 3e 91 9a 15 3d c4 67 ff bd 2e 19 bb 3e
       0.38695076 0.03652436 -0.124709636 0.36542648
000300 c6 18 60 be 50 da c5 3e 20 c9 f9 bb 38 1f 50 3e
       -0.2188445 0.38643122 -0.007622853 0.20324409
000310 d4 ba 45 3e e5 db d5 be a0 ac b4 bd 48 98 3a 3d
       0.1930955 -0.4176933 -0.08821988 0.045555383
000320 00 ae 54 3e 0a ee b1 be 1e d6 ad be 28 d1 88 3e
       0.207695 -0.34751922 -0.3395242 0.26722074
000330 c0 78 c0 bb f1 80 dd be 60 50 3a be f4 d2 27 3e
       -0.0058737695 -0.43262437 -0.18194723 0.16389066
000340 38 d3 ed 3d f2 69 8b be 00 43 da 3a 7a 49 8f be
       0.116125524 -0.27229267 0.0016652048 -0.27985746
000350 3c bd 4b 3e 58 ed 8e bd 68 4b 05 bd 30 85 a0 be
       0.19896406 -0.069788635 -0.032542616 -0.31351614
000360 9f 5b a3 be 08 1e 8e 3e 30 13 c2 bd 60 fa e2 3c
       -0.3190584 0.27757287 -0.09476316 0.027707279
000370 d2 38 b0 3e a9 fd 90 3e 09 bb 0c 3e 6d ef 18 be
       0.3441835 0.28318527 0.13743223 -0.14935084
000380 db fc 31 3d 1c 55 8f 3e a4 c2 16 3e 42 9c c7 be
       0.043454032 0.2799462 0.14722687 -0.38986403
000390 19 e9 f2 3c 19 00 fc bd d4 7e 60 bd 7d 7f cc 3e
       0.029652165 -0.12304706 -0.054808453 0.39941016
0003a0 9f 00 92 be 6d 30 9d 3d 83 a9 b7 3e ad 41 a0 39
       -0.285161 0.07675252 0.35871515 0.0003056651
0003b0 8c fd d2 3e d9 bc db 3e 67 44 cd 3d 45 7a 41 3e
       0.41209066 0.42917517 0.10022812 0.18894298
0003c0 fb 8f 68 be 80 0e 62 3e 88 3a 8e bd ba dd 9a be
       -0.22711174 0.22075844 -0.06944758 -0.3024729
0003d0 ee 15 9b be 70 67 9f 3e dc b0 c0 be 40 9b cb bb
       -0.3029017 0.31133604 -0.37634933 -0.0062135756
0003e0 4b e4 ba be 94 d6 40 be db 17 a8 be 80 56 8d 3d
       -0.365023 -0.18831855 -0.328307 0.06901264
0003f0 52 c0 7e be c2 e9 0b be b0 f5 fa 3d 80 66 a2 3e
       -0.24878052 -0.1366339 0.122538924 0.31718826

layer1.bias f4 [100]
000000 b4 93 a3 3e b9 a0 d1 3e 68 d7 9e 3d 30 45 81 bd
       0.31948626 0.40942934 0.07755929 -0.063120246
000010 63 37 b7 3e 88 3c bf be eb ad cb bd 6e e4 e3 be
       0.35784444 -0.3735087 -0.099452816 -0.44510216
000020 81 a4 1d 3e 73 80 4e be c3 fa cd be 52 13 c7 3e
       0.15394785 -0.20166187 -0.40230379 0.38881928
000030 4a 1b 86 bd 9e 7b 8a 3d ec ff ad be a7 9f 79 be
       -0.06548174 0.06761859 -0.33984315 -0.24377309
000040 64 26 8d 3e 60 4d 4d 3c a4 65 16 be 4c 22 71 3e
       0.27568352 0.012530655 -0.1468721 0.2354824
000050 dc a9 d6 be 8e 50 4f 3e 3a d5 c8 3e ee fc 98 3e
       -0.41926467 0.20245573 0.3922518 0.2988047
000060 80 25 34 bd 1e c5 81 3e a2 92 66 3e 60 3b 4d bd
       -0.043981075 0.253457 0.22516873 -0.050105453
000070 90 22 92 bc a8 69 32 be ff c8 ed 3e cb 87 9e be
       -0.017838746 -0.17423117 0.4644241 -0.30962977
000080 66 d9 9c be ec 33 96 be bd dd ce be 00 3f 8d 3c
       -0.30634612 -0.29336488 -0.40403548 0.017241955
000090 e0 46 17 3c ca 9e de be ae b8 9a bd a0 d1 5b bd
       0.0092332065 -0.4348052 -0.07554756 -0.05366671
0000a0 a2 f3 bb 3e 90 f4 82 be 7c d5 0b 3e 00 2e 72 bb
       0.36709315 -0.2557721 0.13655657 -0.0036953688
0000b0 28 e5 bf 3e b4 fe e1 3c 91 45 db 3e 1e ed 86 3e
       0.3747952 0.027587272 0.42826512 0.2635278
0000c0 06 83 29 be aa 0f 0f be 30 9d e4 3d ab df 00 3e
       -0.16553888 -0.13970819 0.11162794 0.12585323
0000d0 31 65 b4 be f8 35 b4 be 22 8b 0a be 54 fc dd 3e
       -0.35233453 -0.35197425 -0.13529637 0.43356574
0000e0 80 75 cb 3c 20 42 c2 bd 1e 1b b3 be 70 5d f7 3d
       0.024836302 -0.094852686 -0.34981626 0.12078369
0000f0 18 3a b1 bd 4a 48 8e be 38 07 2b 3d 2f 2a c2 be
       -0.08653659 -0.27789527 0.04175493 -0.3792281
000100 08 f5 64 bd f2 93 c3 be e3 8e af 3e 62 11 92 be
       -0.055897743 -0.3819881 0.342887 -0.28528887
000110 80 85 45 bb f4 80 35 3e f7 a7 9a be f8 f6 8a 3e
       -0.0030139387 0.17724973 -0.30206272 0.27141547
000120 1a a7 9f be bd b5 96 3e 63 05 53 be 77 54 8c 3e
       -0.31182176 0.2943553 -0.20607524 0.27408192
000130 70 df 81 bc 28 be 43 3d 9a 51 87 be fd 37 1a 3e
       -0.015853614 0.04778877 -0.26429445 0.1506042
000140 37 0c 95 ba 20 95 8f bd 37 6a 30 bd c0 50 d3 3e
       -0.0011371438 -0.07010865 -0.043070044 0.41272545
000150 52 62 e3 be f5 35 81 3e d3 13 c1 be 70 db 96 3d
       -0.4441095 0.25236478 -0.37710437 0.07366073
000160 8d 82 aa 3d d7 2a 7b be 88 da d4 3d 25 e1 dd 3e
       0.08325682 -0.24528061 0.10393244 0.43335834
000170 a0 0c 9f be fb 7a 23 be 62 44 14 be ea 8b 57 bd
       -0.3106432 -0.15964882 -0.14479211 -0.052623667
000180 b4 12 da bd 28 7d d5 be 15 c5 d7 3e 32 fb b6 3e
       -0.106480986 -0.4169705 0.4214255 0.35738522

layer2.weight f4 [150, 100]
000000 e0 e3 82 bd 11 01 e5 3d 91 da a8 3d a6 2f 09 3d
       -0.0639112 0.11181844 0.08244813 0.033492707
000010 5a c7 7b 3d b0 49 15 3d 55 33 99 bc 6d 22 84 3d
       0.061469413 0.036447227 -0.018701235 0.06451879
000020 01 21 31 3c 02 9f 55 3d b5 af 4f bd e0 cf a7 bb
       0.010811091 0.052153595 -0.050704677 -0.005121216
000030 d5 ac 92 3d 4d 0d 9a bd b4 5c 82 bc 60 e1 88 3d
       0.07161871 -0.07522068 -0.015913345 0.06683612
000040 38 10 e4 3d 7f e6 c9 3d 42 43 ba bd b7 62 3d bd
       0.11135906 0.09858417 -0.0909486 -0.04623672
000050 a9 52 97 3d 49 96 e1 bc 68 f7 0a 3c ba 08 14 3d
       0.07388813 -0.027537482 0.008481838 0.036141135
000060 76 cc 5c bc a6 ed e0 bc aa 3e 76 bd ba 9b 7f 3d
       -0.013476482 -0.02745707 -0.060118355 0.06240437
000070 8f 11 9b 3d 96 ad 31 bd 3d 3c 52 bd 27 26 c6 3c
       0.075717084 -0.043378435 -0.05132698 0.024188114
000080 c0 48 97 bd a1 b1 96 bd 6d d9 d3 3d 83 2b 65 bd
       -0.07386923 -0.07358099 0.10344205 -0.0559497
000090 9a df 2c bd b1 e3 e7 bc d9 6d 04 3c 22 8f aa bd
       -0.04220543 -0.028306814 0.00808283 -0.08328082
0000a0 e8 df aa 3c f0 a6 9b bd a9 9e a1 3d 30 cb a0 bd
       0.02085872 -0.076002 0.0789159 -0.07851255
0000b0 72 17 b4 3c ab 26 0f 3c 0a 05 aa bd 7c df 93 bd
       0.021983836 0.0087372465 -0.083017424 -0.07220361
0000c0 c4 cc db 3c 3d fe a9 bd a3 7e 21 bd 1e 7e d4 3d
       0.026831038 -0.08300445 -0.03942741 0.103756174
0000d0 56 d8 10 bd ae f4 9d bd 52 49 cd 3d 5e 84 99 bd
       -0.035362564 -0.077126846 0.1002375 -0.0749595
0000e0 07 c8 33 bd 37 1a c7 3d 98 5f ca bd 94 ab a6 bb
       -0.043891933 0.09721797 -0.09881514 -0.0050863717
0000f0 7b f7 b2 3d ab f2 b7 3b 41 6b 9e 3d d3 1d 25 bd
       0.087386094 0.005613645 0.07735301 -0.040311646
000100 40 91 c6 bc e0 3b e7 3d 69 3a 98 bd 3e 6e 35 3d
       -0.024239182 0.11290717 -0.07433016 0.04429459
000110 39 b0 c8 3d e3 74 23 bd 76 25 a7 bc 50 72 99 bd
       0.09799237 -0.039906394 -0.020403605 -0.074925065
000120 bd 9a 99 bd 23 96 28 3c e0 af d5 bb 56 87 bd 3d
       -0.07500217 0.010289702 -0.00652121 0.09254329
000130 19 01 9e 3d 00 34 c3 bb 3f ce 7d bd 75 1d ad 3d
       0.07715053 -0.0059571266 -0.06196427 0.08452884
000140 99 d4 24 bc 6a 9a 91 bd 11 4b ae 3d dc 38 7c bd
       -0.010060453 -0.0710953 0.085104115 -0.061577663
000150 f9 91 8f 3d ed 80 e7 3c 6f c5 66 3d 49 67 bf 3d
       0.07010264 0.028259719 0.05634063 0.09345872
000160 b9 c5 59 3c d2 a2 d9 3b 13 c1 9f bd fa be 5b bc
       0.01329177 0.006641724 -0.07800498 -0.013412232
000170 50 ea d2 bb ef 9d 05 bd 4e 87 7c bd b0 fa a2 3d
       -0.0064366236 -0.03262132 -0.061652474 0.07957971
000180 2c 64 d1 3c 89 6e b3 3d cb 98 fb bb a8 d1 c6 bd
       0.025560461 0.08761317 -0.0076781265 -0.097079575
000190 fa 10 98 bd d1 04 48 bd 43 72 b1 bd 16 00 46 3d
       -0.07425113 -0.04883272 -0.08664372 0.048339926
0001a0 94 e7 c7 3d fb b7 38 3c 11 cd b0 3d 34 3a cc 3c
       0.09760967 0.011274333 0.08632863 0.024930097
0001b0 da 6c 6f 3d 1d 94 8a bd b3 32 03 bd 14 e6 f6 3c
       0.05845342 -0.067665316 -0.032030772 0.030139007
0001c0 d8 a0 8e 3d 86 71 ea 3b 94 5a af 3c 77 6f 1b bd
       0.06964272 0.0071546463 0.021405496 -0.037948098
0001d0 89 32 06 3d 16 d3 25 3d 4e 78 25 3d 3d df 67 bd
       0.032763038 0.04048451 0.040397935 -0.05660938
0001e0 4b e6 c6 3d ad 2d ea 3d 2d 3e 51 bd 42 27 cb bd
       0.09711894 0.11434493 -0.051084686 -0.09919597
0001f0 70 bc 2e 3d 36 14 e3 3c df 60 1a bd 85 f5 c8 3d
       0.042660177 0.027719598 -0.03769004 0.09812454
000200 68 41 b4 bc 92 28 0b bd 28 5c 29 3c ab 67 7c 3d
       -0.022003844 -0.033974238 0.010336913 0.061622303
000210 f1 de aa 3d 58 eb de 3d ff 23 d6 3a b0 85 be 3b
       0.08343304 0.10884732 0.0016337632 0.0058142766
000220 da 91 71 bd cc 55 91 3c 84 f0 96 3c ce 82 36 3d
       -0.058976986 0.017741106 0.018425234 0.04455834
000230 f0 61 6d bd 87 3d 60 bd 6b 9f a1 bd e8 65 c7 bc
       -0.05795473 -0.054746177 -0.07891735 -0.024340585
000240 ee f4 d1 3d ec 47 ce bc 7b a0 84 bd 35 cd 3f 3d
       0.10251795 -0.02518078 -0.06475922 0.04682656
000250 73 b5 62 bd 18 fc 7a bc 8d 46 c9 3d 5a 23 cd 3d
       -0.055348825 -0.015318893 0.098279096 0.100165084
000260 55 61 94 bd e0 b4 9f bc 26 6a c8 3d 90 ea 00 3c
       -0.07245127 -0.019495428 0.09785871 0.007868424
000270 73 7e cc 3d 8a 48 08 3d 64 fe 14 bd f1 4a 9f 3d
       0.09985056 0.033272304 -0.03637542 0.07777966
000280 42 28 53 3d 42 89 8c 3d 60 e6 d4 bc b4 07 7f bd
       0.051552065 0.06862117 -0.025988758 -0.062263206
000290 57 9b 0d bd 01 16 65 bd 1b dc b8 3d e3 a7 1b bd
       -0.03457197 -0.055929188 0.09026357 -0.038001906
0002a0 ed 41 62 bd 91 b3 8b 3d 81 0a 5a 3d 62 82 9b bd
       -0.055238653 0.06821359 0.053232674 -0.07593228
0002b0 b9 50 77 3d 34 0f 4e bd 35 6c 51 3c 35 c2 c4 bb
       0.060379717 -0.050307468 0.012782146 -0.0060045966
0002c0 68 cd 2c 3c 23 41 a6 3d 64 00 db 3d 8e 43 8c 3d
       0.01054702 0.081178926 0.10693434 0.068488225
0002d0 4d 10 6a 3c f5 c7 bd bd cc 28 9a bd 62 ae db bc
       0.014286113 -0.092666544 -0.07527313 -0.02681655
0002e0 00 74 98 3c a3 09 59 39 75 42 04 3d 7d 1b c1 3d
       0.01861 0.00020698323 0.03228994 0.09429071
0002f0 fc ff 53 bd b6 2c e2 bb f0 c9 73 bc bc e2 24 3c
       -0.051757798 -0.0069023026 -0.014879689 0.010063823
000300 1a 4e 3f 3d 1d 71 80 bd 2d 7d 0c 3d 43 e2 8c bc
       0.046705343 -0.06271575 0.034299064 -0.017197734
000310 c0 fc 0a 3c 5a df b5 bd 5a 46 91 3b 80 c1 a7 ba
       0.008483112 -0.088804916 0.0044334354 -0.0012798756
000320 00 06 8c bd b7 5d cc 3d 50 dc f1 3b ca 1f 49 bd
       -0.06837082 0.09978812 0.0073809996 -0.049102582
000330 2d 5d 2a 3d 64 4b 76 3d 87 48 cb 3d 9a 69 8b bd
       0.041592766 0.06013049 0.09925943 -0.06807251
000340 0f ae b9 bc 60 71 f7 bc 47 32 9c bd 5d 31 96 3d
       -0.022666005 -0.030205429 -0.07626777 0.07333634
000350 f8 ad a0 bd 3f ca 59 3c d5 8e ca 3d a4 0a 26 3d
       -0.07845682 0.013292848 0.09890524 0.04053749
000360 04 ee 4c 3c ed 94 5a bd 46 03 89 bd 70 f2 3f bc
       0.012507919 -0.053364683 -0.066900775 -0.011715516
000370 e7 0a 4c bd 14 75 e4 3d f2 0f 70 3d b6 7c 18 3d
       -0.049815085 0.111551434 0.058608957 0.03722831
000380 38 a3 6b bc e4 95 a6 39 c7 bb ae bc 36 b2 37 3d
       -0.014382176 0.00031773665 -0.021329774 0.04484769
000390 09 0d 90 3d d4 69 9f bd eb 37 cf 3d b0 5e e1 3d
       0.07033736 -0.07783857 0.101180874 0.11004388
0003a0 f1 ab b8 3d 6f c0 b4 3d 36 0a c7 bc 5d ad c1 3d
       0.0901717 0.08825766 -0.024296861 0.094568945
0003b0 b6 f6 12 3d 60 25 c3 bc da 22 5c 3d b0 3c 67 bd
       0.035879813 -0.023821533 0.053744175 -0.05645436
0003c0 57 19 c7 bd ba d6 05 bd d2 a1 54 3d 13 1a 9a 3d
       -0.0972163 -0.032675482 0.051912136 0.075245045
0003d0 ca 07 e5 3d 23 9b 90 bd 66 5b 6c 3c 15 48 8d 3d
       0.11183126 -0.0706084 0.014426088 0.06898514
0003e0 a4 8d e1 3c a6 d1 00 3d 73 89 ca 3d f9 d0 cf bb
       0.02753336 0.031449936 0.098894976 -0.00634205
0003f0 6c 64 f6 bc be c3 34 3d 34 0c ad 3c 81 93 8a 3d
       -0.030077182 0.044131987 0.021123983 0.067664154

layer2.bias f4 [150]
000000 46 83 a7 bc 93 41 b4 3d 73 33 a3 3c 1c 40 c8 bd
       -0.020448338 0.0880157 0.019921994 -0.09777853
000010 c8 1a 97 bd 8e 13 c4 bd 67 9a 65 bd e5 7e a8 ba
       -0.07378155 -0.09574042 -0.056055453 -0.00128552
000020 87 4d 20 bd d7 5f f4 3d 15 fe 4e bd 6c f7 0f bd
       -0.039136436 0.119323425 -0.05053528 -0.03514807
000030 60 da a7 bb 27 b3 a1 3d 62 cf 6e 3d 0d b7 94 3d
       -0.005122468 0.07895499 0.058303244 0.07261477
000040 4e 1e 9e 3b 89 4e ab bd 48 49 b8 bc 2a 48 0a 3c
       0.00482539 -0.08364589 -0.02249588 0.008440057
000050 81 e9 c2 3d 54 d0 41 3c ea 4a dd bd e6 dc 97 3d
       0.095171936 0.011829454 -0.10805304 0.0741518
000060 ad 04 62 3d c0 8f f2 bc 7e 21 96 bd 80 b9 2d bc
       0.05518024 -0.029609561 -0.07330607 -0.010603309
000070 b0 99 16 bd c5 9a 83 ba c6 a4 40 3d 1d 38 e5 3d
       -0.03676766 -0.0010040632 0.04703214 0.111923434
000080 cf 63 0c bd 99 3b 87 3d 2c 1d ab 3d e0 36 d0 bb
       -0.034274872 0.06603164 0.083551735 -0.006354198
000090 77 f9 d5 3d 50 13 ae 3d 63 9a 49 bd 83 13 cd 3d
       0.10447972 0.08499777 -0.0492195 0.10013487
0000a0 60 ca c1 3b 50 ae 94 3b 58 e8 d9 3d 13 1d b9 3d
       0.0059140176 0.004537381 0.10640019 0.090387486
0000b0 3a 16 c0 3c 3d da bf 3d 19 e8 99 3d a4 16 56 bd
       0.023448098 0.093677975 0.07514972 -0.052267686
0000c0 1e 7f 5a 3d 3f d0 90 3d ab a5 f4 3d 67 cb c1 bd
       0.053343885 0.0707097 0.11945661 -0.09462624
0000d0 00 c4 26 ba 9d 73 73 bd 4c 51 c8 bc 4f f6 5b bb
       -0.0006361604 -0.05943643 -0.024452828 -0.003356356
0000e0 73 7b 64 bd fc 60 e9 3d 0b 67 7a bd fa 6f 93 3d
       -0.055781793 0.113954514 -0.061133426 0.07199092
0000f0 f6 a4 a8 bd d9 1c 6d 3d 4a 3d 63 3d 67 dd 50 bd
       -0.08234589 0.05788884 0.05547837 -0.050992396
000100 d4 79 cc 3c d6 2b 80 bd 65 c1 83 3d 5d 0e 91 bd
       0.024960436 -0.06258361 0.064333715 -0.07082818
000110 1a cb 3b 3c 98 b2 e6 bc 57 ea a1 3d 94 97 90 bc
       0.011461997 -0.028161332 0.07906025 -0.017650403
000120 98 b1 8e 3d 72 96 aa 3d e8 ea b0 bc e2 d2 87 3d
       0.06967467 0.083294764 -0.021596387 0.066320196
000130 b0 74 d9 3b 98 b6 c4 bd ca a4 80 3c 3a 9e bd 3d
       0.0066362247 -0.096051395 0.015703578 0.09258695
000140 b1 c5 04 bd f9 80 9d 3d a4 36 01 3d 94 f2 bc 3d
       -0.032415096 0.07690615 0.03154625 0.092259556
000150 13 bc a1 bd b1 91 b3 3d d0 b1 eb 3d 34 66 a3 3d
       -0.078972004 0.08768023 0.115085244 0.07978478
000160 81 d0 a6 3d e2 09 8a bd 27 54 b2 3d d0 84 42 3c
       0.08145238 -0.06740166 0.08707457 0.011872485
000170 fd 75 87 3d 18 b7 b3 bc 00 7f 87 3c a2 d6 70 bd
       0.06614301 -0.021937892 0.01654005 -0.05879844
000180 86 64 5c 3d 67 35 3e 3a a9 44 c3 3d c5 08 8e bd
       0.053806804 0.00072558824 0.0953458 -0.069352664
000190 85 b1 82 3d 36 3c 5a 3d c4 d1 bd bc f0 11 9b bd
       0.063815154 0.053280078 -0.023171313 -0.07571781
0001a0 e0 e3 49 bd 49 b5 90 3d 59 e0 ea ba 48 6c d0 bc
       -0.049289584 0.070658274 -0.0017919644 -0.025442258
0001b0 70 4e 39 3c 0d 23 22 bb bb d9 35 bd e0 fc 9e 3c
       0.011310205 -0.002474013 -0.044397097 0.01940769
0001c0 73 94 b5 3d 90 0c 59 bc d8 a8 01 3d f4 74 e0 bc
       0.08866205 -0.013247624 0.031655163 -0.027399518
0001d0 10 d6 3b bc a8 74 50 bc 8d cf 1e bd 6a bb 34 bd
       -0.011464611 -0.0127231255 -0.038772155 -0.044124044
0001e0 4d 59 50 3d 50 04 c7 3d 5c fe d5 3c 81 43 87 3d
       0.050866414 0.097176194 0.026122265 0.06604672
0001f0 df 02 12 3c 62 f6 4e 3d 10 6a b8 3d 18 ca 9c 3c
       0.008911817 0.050527938 0.09004605 0.019139335
000200 5a 12 11 bd 31 7c d5 3d 8a f3 eb 3d 00 bc 12 bb
       -0.035417892 0.10424078 0.11521061 -0.0022389889
000210 5e 32 52 bd 58 bd 0a 3c 07 e6 a8 bc 83 73 b3 bd
       -0.051317565 0.008467995 -0.020617498 -0.087622665
000220 14 14 15 bd 41 88 12 3d 3a f5 9a bd 53 a9 52 bd
       -0.0363961 0.035774473 -0.075663045 -0.05143101
000230 d4 af de 3d da c5 8b bd 9f 5b d7 3c c0 3e 23 3b
       0.1087338 -0.068248466 0.026288806 0.0024909228
000240 06 5c 32 3d 11 34 98 3d e6 6f 30 3d f5 f7 05 bc
       0.04354479 0.07431806 0.043075465 -0.008176793
000250 5c a7 da 3d 43 f9 3a bd
       0.106764525 -0.04564787

layer3.weight f4 [100, 150]
000000 28 f5 10 3d 35 c4 eb 3c 2d 97 44 3b 58 df 8f 3d
       0.03539005 0.028780082 0.0029997334 0.07025021
000010 3c 58 92 3d 16 59 c7 b7 a3 65 86 bd 8d e4 97 3d
       0.071457356 -2.3764132e-05 -0.065623544 0.074166395
000020 6e 1b e4 bc 19 59 63 bd a4 6f e0 bc 48 ca 6d 3c
       -0.02784511 -0.055504892 -0.027396984 0.01451356
000030 ad 9c 4b bd 2a 74 b1 bc d9 ff 91 bd d0 70 90 3d
       -0.049709965 -0.021661837 -0.07128877 0.07052767
000040 47 52 0e bd f3 66 80 3d 00 ee fe 3c 6c 8a 83 3c
       -0.034746435 0.06269636 0.031119347 0.016057216
000050 00 c9 9b 3d 56 44 0c 3c a6 c0 a5 3d 07 0a 9f bc
       0.07606697 0.008561214 0.080933854 -0.019413961
000060 0a 1e c0 3b 94 87 5a 3d 90 66 0b 3d dd bd ca 3d
       0.005862956 0.053351954 0.034033358 0.09899495
000070 94 ad 9c bd 58 74 a1 3d ac 0f b6 3c ee 68 13 bd
       -0.07650295 0.07883519 0.02222427 -0.03598874
000080 25 e4 be 3d 36 49 00 3d 17 75 d4 3b 0f 8e a1 bd
       0.09320859 0.03131982 0.0064836848 -0.07888424
000090 5e 03 85 3d 51 71 8f 3d 3b 9b b7 3d fa 55 91 3d
       0.06494783 0.07004035 0.08965155 0.07096477
0000a0 80 e2 4f 3c fc c2 a2 3d 08 31 4f ba 14 2e d0 3c
       0.012688279 0.079473466 -0.00079037296 0.025412597
0000b0 45 69 54 3d 60 7b 44 3c 6a c6 2c 3d f7 3e b9 3d
       0.051858205 0.0119923055 0.04218141 0.09045213
0000c0 ec 1e e2 3c 31 a0 40 3d 3b fc 14 bc 40 3c 99 bc
       0.027602635 0.04702777 -0.00909334 -0.018705487
0000d0 70 5d 95 3c 43 e8 a4 3d c3 11 b8 3d 78 b4 22 3d
       0.018233031 0.08052113 0.08987763 0.03972289
0000e0 3e 2f fc bc 86 a1 bc 3d 12 9e 7f bc 60 7a 18 3d
       -0.030784246 0.09210496 -0.015601652 0.03722608
0000f0 ad 6f 29 3d 3e 3a 90 3d 70 1a 98 3c 54 fb 97 3d
       0.041366268 0.07042359 0.018567294 0.07420984
000100 d6 77 29 3c 57 1e 8b 3d cf fc 4b 3c 3f 49 c3 3d
       0.0103435125 0.06792896 0.012450411 0.09535455
000110 4e 5a d0 bb ec 6e 6a bd 10 44 52 3c 18 9e 74 3d
       -0.0063584214 -0.05723469 0.01283361 0.059721082
000120 73 d2 98 3d a4 cf 67 bd 97 08 85 3d 74 b2 d1 3c
       0.07462015 -0.056594506 0.06495779 0.025597788
000130 e2 4e 86 3d 6c 66 18 bd c3 9d 88 bd bf 78 c1 3d
       0.065580145 -0.037207052 -0.06670716 0.094468586
000140 04 e9 1c bd 14 1b f2 3c 17 a9 04 bd 62 55 88 3d
       -0.03830816 0.029553927 -0.03238782 0.066569105
000150 50 1b 58 3d 06 97 e2 bc 66 2a b2 3d d7 5b e7 3b
       0.052760422 -0.027659904 0.08699493 0.0070605087
000160 e4 18 76 bd 69 39 11 3d 0c 5f ac 3d f6 9d 81 3d
       -0.06008233 0.03545514 0.08416566 0.06328957
000170 d8 4e b1 3c 12 aa b6 bc df 54 9c bd 11 0c e6 bc
       0.021644041 -0.022297893 -0.076333754 -0.028081926
000180 d8 0d 06 bd 73 51 bc 3b 40 6a 8e bc 0b 59 9a bd
       -0.032728046 0.005747014 -0.017384648 -0.07536515
000190 50 9e d3 3c 62 c1 a5 3d 38 81 68 bd a2 ca 81 3d
       0.025832325 0.080935255 -0.056763858 0.06337477
0001a0 9d 28 ea 3b f6 28 37 bd 2c f5 fd 3b f0 63 bf 3c
       0.0071459548 -0.044716798 0.007750174 0.023363084
0001b0 42 d5 a2 bd 5a 08 c9 3c a1 20 1a bd 14 04 57 bd
       -0.07950832 0.024540115 -0.037628774 -0.052494124
0001c0 be 4a 88 3d 88 2d 4e bc a0 d2 df bc 0c 29 f3 3c
       0.06654881 -0.012584098 -0.027322114 0.029682659
0001d0 f8 7b 5c 3c 78 9a 87 3d 3a 0d ca bc 61 b9 01 bc
       0.013457291 0.066212595 -0.02466451 -0.007917733
0001e0 e3 14 1c bd 74 10 ed 3c a4 d6 11 3d 6c 4e ec 3c
       -0.038105857 0.02893851 0.035605088 0.028845988
0001f0 a3 83 0f 3c fa e2 2e 3d c7 e8 fd bc 9d 98 b4 bc
       0.008759412 0.04269693 -0.030994786 -0.022045428
000200 c8 ba 32 bc d4 a6 0c bc 75 59 3f bd 8a 66 80 3d
       -0.01090879 -0.008584697 -0.046716172 0.06269558
000210 7b 11 d4 3c 2c 82 c2 bc 1b 9d 60 3d 98 18 23 bd
       0.025887242 -0.023743711 0.054837327 -0.039818376
000220 b8 80 3a 3d de b0 1a 3d d0 55 7f bc b1 01 6b bd
       0.045532912 0.03776633 -0.015584424 -0.05737466
000230 32 3c ee bc 40 1b a4 3d 10 43 4f 3d 34 a7 c7 3c
       -0.029081438 0.0801301 0.050601065 0.02437172
000240 80 6d 8a 3a f1 25 33 bd 60 b8 7f bc fe 30 09 bd
       0.0010561198 -0.043737356 -0.015607923 -0.03349399
000250 a3 b9 73 3d a2 74 db 3c dd 31 0e bb 45 aa 26 bd
       0.05950321 0.026789013 -0.0021697201 -0.040689725
000260 85 10 79 bc 2e e2 90 bd 7e 04 82 3d 65 85 62 bd
       -0.0152016925 -0.0707439 0.06348513 -0.055302996
000270 38 58 3d bc bb d5 da bc 5c 17 89 3d 23 99 07 bb
       -0.0115566775 -0.026713243 0.066939086 -0.0020690642
000280 b0 15 a6 bd 14 51 72 3d 10 cc a4 bb ab 88 c8 3c
       -0.08109605 0.059159353 -0.005029209 0.02447923
000290 04 2e 9b 3d 80 14 cf bb 8d c3 5f bc 87 5c 9b 3d
       0.07577136 -0.0063195825 -0.013657463 0.075860076
0002a0 54 ba 47 3d 8e 30 aa bd ba e8 88 3c 6e 20 84 bd
       0.04876168 -0.08310042 0.016712535 -0.06451498
0002b0 23 d5 bf 3c 1e c3 08 bd 10 7a b2 3b ec 7c d9 bc
       0.023417061 -0.033389203 0.00544668 -0.026548825
0002c0 8c 2d 46 bd 56 4a 5b 3d fa e3 02 3d 9c 31 54 bd
       -0.04838328 0.05353769 0.031955697 -0.051805124
0002d0 00 ff 4c bb 04 95 32 bc 4c aa 7a bd 40 82 36 3d
       -0.0031279922 -0.010899786 -0.061197564 0.04455781
0002e0 00 f9 42 3c f8 5c b6 3c db e7 9b bd 0e 57 3d bd
       0.011900187 0.022261128 -0.07612582 -0.0462256
0002f0 a7 47 09 bd 08 29 97 39 a8 a0 f7 3c ac dc 49 bd
       -0.0335156 0.00028831535 0.030227974 -0.049282715
000300 25 d2 8a ba 8d ec 13 bd e0 84 af 3c d7 5b 8f bd
       -0.0010591192 -0.036114264 0.021425664 -0.06999939
000310 b4 77 0f bd 9c 48 9a 3d 7e cd ad bc 27 b6 8c 3d
       -0.035026267 0.075333804 -0.02121615 0.0687068
000320 ff 9c 80 bb 00 7f 77 3a a0 50 4e 3c 3c bf 88 bd
       -0.0039249654 0.0009441227 0.012592465 -0.066771
000330 25 2f 97 3c fb e8 21 3d 32 a3 a0 3d 9a 07 e8 3c
       0.018455097 0.039528828 0.07843627 0.028323937
000340 5d bc 99 3d f0 dd 88 bd e9 21 9e 3d 25 60 83 3d
       0.075066306 -0.06682956 0.077213116 0.064148225
000350 8e 6f 17 3d 74 95 a7 bd 65 f0 a3 bb f5 12 2e 3d
       0.03697162 -0.08182803 -0.0050030225 0.042498548
000360 91 8d 11 bd 83 28 d8 bc 9a 36 48 3c 98 99 01 3d
       -0.0355354 -0.026386505 0.012220049 0.03164062
000370 50 e5 d1 bb d4 4f bf 3c 7a 10 82 3d 7e 37 89 3c
       -0.00640551 0.023353495 0.06350799 0.016750094
000380 21 8e 25 3d 7a d6 49 bd a0 73 08 3d 34 b4 96 bd
       0.040418748 -0.049276806 0.033313394 -0.0735859
000390 4a 12 9a 3d 73 05 14 bd 6c 79 91 3c 08 1c a2 bc
       0.075230196 -0.03613801 0.017758094 -0.019788757
0003a0 e8 48 3b bd fe b6 80 3d 79 f2 c2 bb b0 16 d0 3b
       -0.045723826 0.06284903 -0.005949315 0.006350361
0003b0 79 0b 0e bd 1d 7a 2e bd b7 b5 a5 bd 6d 61 85 3d
       -0.03467891 -0.042596925 -0.080913 0.06512723
0003c0 64 3a db bc f6 4e 46 bd 50 63 51 3d cd 5f 6d bd
       -0.026761241 -0.048415147 0.051120102 -0.05795269
0003d0 f8 01 34 3c e9 57 23 3c 80 b8 63 bb af 65 24 3d
       0.0109867975 0.00996969 -0.0034747422 0.040136036
0003e0 c3 96 9c bd ac 2e a7 3d 10 7a 85 bb 55 26 15 bd
       -0.07645943 0.08163199 -0.004073389 -0.03641351
0003f0 50 59 86 3c 13 51 f2 bc 86 26 9d 3c 4d a7 32 bd
       0.01640001 -0.029579675 0.019183408 -0.04361658

layer3.bias f4 [100]
000000 92 62 16 bd 14 95 52 3d 53 b5 b8 3c 36 8c 62 bd
       -0.036715098 0.051411703 0.0225474 -0.055309497
000010 84 45 b1 3d 7e d0 c3 3d 6f b5 a0 bd 96 8a 0c 3d
       0.08655837 0.09561251 -0.07847106 0.034311853
000020 92 33 a5 bd 16 e4 32 3d 2b 94 4e bd d2 3a 7a 3d
       -0.08066477 0.04367455 -0.050434273 0.06109125
000030 27 a4 8d 3d 1e ea 8c 3d d0 7c 7d bc 98 0a 11 3c
       0.06916075 0.06880592 -0.015471652 0.008852623
000040 ff 90 87 3d ac 89 2a 3d 76 08 4c 3c 8b fa 5d 3d
       0.06619453 0.0416352 0.012453189 0.054194015
000050 ec b0 a2 3d 66 9e a1 bd 5b 4b 94 bd f8 20 6f 3d
       0.079439014 -0.0789154 -0.072409354 0.05838105
000060 d0 6b 76 3d 45 2c 46 3d 9e ff 59 bd c5 35 bb 3d
       0.06016141 0.048382062 -0.05322229 0.09141115
000070 3b 8f 39 bd 90 d7 66 3d 00 48 52 bd 2d 24 d2 3c
       -0.04530261 0.05635792 -0.051338196 0.025652016
000080 8c ef 37 bd 58 7a cb bc 6a 69 a0 bc a0 6d c0 bc
       -0.044906184 -0.024838611 -0.019581515 -0.023489773
000090 fc b7 d2 3c 61 94 fb bc 98 7f 71 bd 30 77 b2 3c
       0.025722496 -0.030710401 -0.058959574 0.021785349
0000a0 95 74 8f bd a5 ce 78 3d ff 36 bc bc 90 62 79 bd
       -0.07004658 0.060743947 -0.022975443 -0.060885012
0000b0 17 7e cd 3b b0 73 85 bd 4f 55 38 3d 25 4b d8 bc
       0.0062711346 -0.06516206 0.04500323 -0.02640302
0000c0 70 5d a2 3d 25 09 04 bd ca 14 22 3d 85 46 a6 3d
       0.07927978 -0.032235283 0.039570607 0.08118919
0000d0 ea 55 08 3d 32 d9 27 3d d5 b4 2e 3b 0d 46 23 bd
       0.03328506 0.040978618 0.0026658077 -0.039861728
0000e0 a0 de 13 3b cc 5b b0 3c a4 97 45 3d e4 ae fb 3c
       0.0022563115 0.021528147 0.04824032 0.030723043
0000f0 26 cd 83 3d 74 dc 70 3d 3b da f7 3b 8e 0a 5e bd
       0.06435613 0.05880399 0.007563857 -0.054209284
000100 ce c3 83 3d 1a ac 3a bd f0 7f 72 3d b4 50 f6 bc
       0.06433831 -0.045574285 0.059204042 -0.03006778
000110 40 7d c3 3d 4f a1 84 3c 70 52 d4 3c 03 af 1e bd
       0.09545374 0.0161902 0.025918216 -0.038741123
000120 dd 90 42 bd d8 c9 50 3d 89 3d 52 3d 20 ae 90 bd
       -0.047501434 0.050973743 0.051328216 -0.07064462
000130 0e 61 8a 3d 0a af f5 bc de ca b4 3d 73 af 47 3b
       0.06756793 -0.029990692 0.08827756 0.0030469566
000140 07 49 64 bd 30 34 70 bc 54 1f e6 3c f8 8d 93 bc
       -0.055733707 -0.01466088 0.02809111 -0.018012032
000150 b7 67 01 bd 19 a7 96 3d 1d 34 12 bd 9f b7 8a 3d
       -0.03159305 0.0735609 -0.03569423 0.06773304
000160 2a eb 92 bd 12 e7 37 bc 1c 26 38 3d cb d0 2e bd
       -0.0717376 -0.011224525 0.04495822 -0.04267959
000170 9a d4 fe 3c 8b 60 2d 3d d8 38 28 3c 10 5b d4 3c
       0.031107236 0.0423284 0.010267459 0.025922328
000180 fe 86 3c bd c4 db db 3c 77 94 92 3c e9 00 06 bd
       -0.046027176 0.02683819 0.01789306 -0.03271571

layer4.weight f4 [80, 100]
000000 0c a9 26 3d 3a 12 62 bd 23 36 a4 3d c0 20 7a 3c
       0.04068856 -0.055193163 0.08018138 0.015266597
000010 31 c0 29 3d ca d9 7f bd e0 44 c8 bd 00 a8 5b 3c
       0.041443054 -0.06246356 -0.09778762 0.013406754
000020 c0 76 96 bc d5 2e ac bd a9 43 09 3c df c1 c4 3d
       -0.018367171 -0.0840737 0.008377948 0.096072905
000030 c5 c9 9d bd 2f 1a d8 bd 12 03 5c 3d 73 3a 60 bd
       -0.077045 -0.10551869 0.053713866 -0.05474324
000040 5c 4b 81 bd 08 bb 81 3c 13 9e b5 3d 21 bc 2e 3d
       -0.06313202 0.015836254 0.08868041 0.042659882
000050 72 35 2b 3d ce bf bc 3d 2d 6c c4 bd e0 c1 95 bd
       0.041799016 0.09216271 -0.095909454 -0.07312369
000060 29 d5 70 bc a9 d0 66 3c aa 94 30 3b 35 bf 01 3d
       -0.014699259 0.014087834 0.002694408 0.03167649
000070 92 d0 5a 3d fb c2 b4 3d 89 03 ac 3d 71 46 b3 bd
       0.053421564 0.08826252 0.08399112 -0.0875367
000080 97 f1 c8 3b 08 7f b6 bd cd f7 b9 3d e7 ae 7e bd
       0.0061323154 -0.08910948 0.090804674 -0.06217852
000090 47 15 61 bd 87 70 b7 3d a4 0c f3 3c b7 56 c9 bd
       -0.054951932 0.0895701 0.029669113 -0.09830993
0000a0 68 9b 44 bc 41 f5 01 ba 3c bb c8 bb a0 dd 58 bb
       -0.011999942 -0.0004957505 -0.0061258357 -0.0033091083
0000b0 e9 c7 f5 3b df f8 ac bd 1f f7 39 3d 44 2f 8d 3d
       0.007500638 -0.08445906 0.04540169 0.06893781
0000c0 9a 8d 6b 3d 28 9e 7e bc c2 c8 1a 3d 6f 1c 2e 3d
       0.05750809 -0.015540637 0.037789114 0.042507585
0000d0 b3 87 78 bd 66 52 69 3d f2 18 cd bc 29 27 4b 3b
       -0.060676288 0.056963347 -0.025036309 0.0030998683
0000e0 60 66 19 3b a2 e4 11 3d 98 94 71 3c a0 58 13 3d
       0.0023406968 0.035618432 0.0147449 0.03597319
0000f0 a0 ed 6f 3b 40 f9 5e bc 16 1b d4 3c 1c 1b b2 3d
       0.0036610141 -0.0136092305 0.025891822 0.08696577
000100 f0 2e 82 bd ec e1 63 bd 97 18 c1 bd e1 1c b6 3d
       -0.06356609 -0.055635378 -0.09428518 0.08892227
000110 a9 a6 81 3d 02 5b d5 bd 93 28 b9 bd 4c c3 b0 bc
       0.06330616 -0.10417749 -0.09040942 -0.0215775
000120 94 fe 0c bd c0 c8 11 bb c7 bc 73 3c 32 e2 f9 bb
       -0.034422472 -0.00222449 0.014876551 -0.0076258415
000130 62 50 c1 bd 40 f1 7c bc a7 2f 2c 3c ca e9 4f bd
       -0.0943916 -0.015438378 0.010509408 -0.050760068
000140 6e 74 82 bd 1f 14 aa 3d b0 76 3a bd 8c 45 09 bd
       -0.063698635 0.08304619 -0.045523345 -0.03351359
000150 51 0a 65 3d 7d b7 ec bb b2 88 3b 3d 65 13 99 bd
       0.05591804 -0.007224022 0.04578466 -0.07474402
000160 7e 62 90 bd 30 85 9b 3d 40 ce 12 bc 30 04 9c bd
       -0.07050036 0.07593763 -0.008960307 -0.07617986
000170 3c f7 f9 3c 24 dd 43 3d e8 16 82 3c 80 3d 5e bd
       0.030513398 0.047818318 0.015880063 -0.05425787
000180 e3 99 59 bd 38 51 f0 bc 82 cb 6d 3d ed f2 74 bd
       -0.053125273 -0.029335603 0.05805541 -0.059801985
000190 ad 06 4f bd aa 7e 9f bd 9a 67 60 bd bd 2e 7f bd
       -0.050543476 -0.07787831 -0.054786302 -0.062300432
0001a0 02 3c 4b 3d b6 b5 0d bd d0 2d fc bb a0 1f 99 3c
       0.049617775 -0.03459712 -0.007695891 0.018691838
0001b0 20 90 e5 bb 68 14 56 3c c2 72 0d 3d 60 5e 56 bd
       -0.0070057064 0.013066389 0.03453327 -0.052336097
0001c0 34 9f 03 bd 70 33 4e bd 6c 67 90 bc 34 d9 05 bd
       -0.03213425 -0.050342023 -0.01762744 -0.032677844
0001d0 eb 66 b3 bd de 23 06 3d 98 bd 87 bc 93 e6 a2 3d
       -0.087598644 0.03274905 -0.016569898 0.07954135
0001e0 6c 20 84 3c 05 60 af bd 78 2b 97 bd 68 f8 62 3c
       0.016128741 -0.08563236 -0.07381338 0.01385317
0001f0 f7 c7 24 bd 9e 10 3f 3d 80 e1 4d 3c b4 6b dc 3c
       -0.040229764 0.046646707 0.01256597 0.026906826
000200 47 de c9 bd 34 d2 8f bc b9 7f ae 3d 8a be 5c 3d
       -0.09856849 -0.017556287 0.08520455 0.05389265
000210 8b 16 9b 3d 83 f0 b1 bd 23 81 ca 3d 58 bc 8f bc
       0.07572659 -0.08688452 0.09887912 -0.017545864
000220 e8 52 2f bc 80 2c c8 3b b5 c4 c7 bd a0 57 55 bd
       -0.010700919 0.0061088204 -0.09754316 -0.05208552
000230 2a 69 1b bd 15 43 a6 3d 20 22 8b bc a2 ad 64 3d
       -0.03794209 0.08118264 -0.016984046 0.05582965
000240 aa 21 4f bd 17 a5 37 bd 8c 1d b6 3c 4e a6 9c bd
       -0.050569214 -0.044835176 0.022230886 -0.076489076
000250 c7 64 2e bd b0 81 77 bc fe f5 72 3d 0d a7 b8 bd
       -0.042576578 -0.0151066035 0.059316628 -0.090162374
000260 8a d3 9d bd b2 49 81 bd a6 53 3b 3d 1d 08 9a 3d
       -0.077063635 -0.063128844 0.04573407 0.07521079
000270 12 70 45 3d 77 71 6e bd 21 4f 96 3d bd 38 b8 bd
       0.04820258 -0.058213677 0.073393114 -0.08995197
000280 0a ad 77 3d 80 98 4b bc 17 63 24 bd 58 85 9a 3c
       0.060467757 -0.012426496 -0.040133562 0.018862411
000290 d0 d0 64 bc e0 55 83 bc 38 3e 8d bd 7f 80 ba 3d
       -0.0139658 -0.01603216 -0.06896633 0.0910654
0002a0 41 c5 a3 3d 04 14 d8 3c c0 67 78 bc 6d 00 c8 3d
       0.079966076 0.026376732 -0.015161455 0.09765706
0002b0 b0 fd 4c bd 0c 7a e4 3c 80 7c f8 bc 00 e0 90 bc
       -0.050046623 0.027890228 -0.030332804 -0.017684937
0002c0 8c 1e 87 bd 1b 0e 8d 3d b1 94 99 3d c2 2a 1d 3d
       -0.06597623 0.06887456 0.07499064 0.038370855
0002d0 00 c2 bd 3c 23 bf ca 3d 36 b5 2c 3d 63 e5 80 3d
       0.023163795 0.09899738 0.042165004 0.06293752
0002e0 be 10 45 3d a6 28 3a 3d d3 8b 6a bd a6 55 99 bd
       0.04811167 0.04544892 -0.057262253 -0.07487039
0002f0 c9 4a b7 3d f3 e2 47 bd 30 d7 21 bc d5 7e 9e bd
       0.08949811 -0.04880042 -0.009877965 -0.07739035
000300 44 da d0 3c 30 3a 70 3c 60 6c c2 bc d0 9f 55 bc
       0.025494702 0.0146623105 -0.023733318 -0.013038591
000310 80 47 bc ba 02 84 c6 bd 78 21 a3 bd 1a e5 05 3d
       -0.001436457 -0.09693147 -0.07965368 0.03268919
000320 12 58 d4 3c 7e 3b 00 bd 96 c1 0a bc 40 fd d1 ba
       0.025920901 -0.031306736 -0.008469006 -0.0016020909
000330 2a 78 9a bd ca ba 5d 3d 20 6c e0 3b f4 39 82 bd
       -0.07542451 0.054133214 0.006848827 -0.0635871
000340 a9 9b c9 3d e7 0d f6 3d 9a 4f 24 bd 6e 35 3b bd
       0.09844143 0.120143704 -0.040114976 -0.04570525
000350 ac 5e 89 bd 84 58 e8 3d 0c a5 e4 3c d1 1a 85 3d
       -0.0670751 0.11345008 0.027910732 0.064992554
000360 2a 12 49 3d 58 9f ba bd 20 31 b0 3c 9e 11 4a bd
       0.04908959 -0.09112424 0.0215078 -0.049333207
000370 76 db c4 3d af 70 a6 3d 7e be 26 3d d7 fc 94 3d
       0.09612171 0.081269614 0.04070901 0.07274788
000380 16 85 5a 3b e3 1e c7 3c 12 e0 c3 3d 12 39 5a bc
       0.0033343486 0.02430672 0.095642224 -0.013319271
000390 1b 47 97 3d 0c 54 d5 3c 8b 2a bf 3d 5e fc 8c bd
       0.07386609 0.026041053 0.09334286 -0.06884073
0003a0 f0 b7 b2 3d b1 86 8a 3d 7f 11 ca bd 9e d6 22 3d
       0.087264895 0.067639716 -0.09866618 0.039755456
0003b0 20 29 c8 3b 85 4e 92 bd 00 52 3f bc 47 27 34 bd
       0.006108418 -0.07143883 -0.011677265 -0.04398277
0003c0 68 1c 16 3c c7 5c 86 bd 38 9f 15 3d 2d 46 a2 bd
       0.009162046 -0.065606646 0.036528796 -0.07923541
0003d0 ce 6f b7 3d e6 44 4a 3d 5b f3 03 bd 24 1a 19 3a
       0.08956872 0.049382113 -0.032214504 0.0005840382
0003e0 9d 8b 53 bd 82 d8 6f 3d 49 33 6a 3d 38 c8 1e 3c
       -0.051646817 0.058556087 0.057177816 0.009691291
0003f0 00 1e b0 bc 21 ee c1 3d b3 84 2f 3d b5 05 b9 3c
       -0.02149868 0.094692476 0.04285116 0.02258573

layer4.bias f4 [80]
000000 8f 47 e2 bc 4b b4 8d bd ff c1 8a 3d f9 1f e2 3d
       -0.027622012 -0.06919154 0.06775283 0.110412546
000010 cc 0a db 3c 6b 34 8e bd 54 c5 d7 3d 58 31 f0 bc
       0.026738547 -0.06943592 0.10535684 -0.029320404
000020 aa 2b d8 3c 2a 36 98 bd ca f4 62 3d 60 22 c3 bd
       0.026388008 -0.07432206 0.05540923 -0.09528041
000030 f7 df 9d 3d 10 89 bf bb 19 0b 12 3c 00 bd 48 bb
       0.077087335 -0.0058451965 0.008913779 -0.003063023
000040 f7 f5 a5 bd 2f 1f c2 bd 52 32 68 bd 0d 73 4b 3d
       -0.08103555 -0.09478604 -0.056688614 0.049670268
000050 f7 4d c6 3d a0 bc 50 bd 17 16 18 3d 07 71 d0 bd
       0.09682839 -0.050961137 0.03713044 -0.10177808
000060 d2 d4 5e bd e0 7c df bc 95 c8 89 bd 5d 13 b9 3d
       -0.05440218 -0.027281225 -0.06727711 0.090368964
000070 a1 6e ce 3b 8d 59 b1 3d c1 4b 48 bc 94 1a 17 bc
       0.006299809 0.086596586 -0.012225092 -0.009222645
000080 12 89 fd 3b de fa 8a bc 93 1b 70 bd 33 ad 99 3d
       0.0077372873 -0.016965326 -0.058620047 0.07503738
000090 c8 f3 8e 3c 69 da c0 3c 54 16 eb bc b9 af bf 3d
       0.017450228 0.023541646 -0.02869717 0.09359688
0000a0 03 4e e2 3d b3 77 68 bd f7 08 4d 3c 6a 4c 01 bd
       0.11050036 -0.05675478 0.012514344 -0.031567015
0000b0 30 34 92 bd c3 fc c9 bd 01 c6 fd 3b 30 8a 13 3c
       -0.0713886 -0.098626636 0.007744551 0.009005114
0000c0 32 6f 85 bc cd 55 a8 bd 08 2d 8c bd 12 ab e1 ba
       -0.016288374 -0.0821949 -0.068445265 -0.0017217121
0000d0 41 f3 c4 3d a0 79 9f bc 99 c1 3d bd a9 ff aa bc
       0.096167095 -0.019467175 -0.046327207 -0.020873861
0000e0 2d a8 86 bd a5 1b 1e bc c2 5b cc 3d 23 b2 ae 3d
       -0.06575046 -0.009650146 0.09978439 0.08530071
0000f0 64 32 89 bd 58 ae 0b 3c 97 01 8f bd b6 38 54 3b
       -0.066990644 0.0085254535 -0.06982725 0.0032382435
000100 74 0a 68 bc c1 78 50 3d 1f 13 a4 3d 94 99 39 3d
       -0.0141626485 0.05089641 0.080114596 0.04531248
000110 f4 49 f9 bc 30 81 69 3c a4 0d e5 3c be 45 91 3d
       -0.030430771 0.014251992 0.027960606 0.070933804
000120 99 a4 c6 3c 12 56 c5 bd 32 16 50 3d 40 b1 b1 bc
       0.024248408 -0.09635557 0.050802417 -0.021690965
000130 7f 87 b5 3d ee b4 c3 3c 98 22 1b 3c 17 da 93 3d
       0.088637345 0.023889985 0.009468697 0.07219332

layer5.weight f4 [60, 80]
000000 e2 5d b1 bd 00 d0 77 3c e2 d0 41 bd 6c 74 50 3d
       -0.08660485 0.015125275 -0.047318347 0.05089228
000010 58 58 5d 3d f8 08 66 3d 84 00 87 3d 3f 5a dd bd
       0.05403933 0.056160897 0.06591895 -0.10808229
000020 9e 0c 25 bd 36 04 9c 3d 0a 8d 21 bd 68 55 91 bc
       -0.040295236 0.07617991 -0.039441146 -0.01774092
000030 03 be 5f bd 9c 45 a0 bd b0 5b 25 bc 60 b1 2d 3c
       -0.05462457 -0.07825777 -0.010092661 0.0106013715
000040 20 50 86 bc 6a 7b d3 3d b0 f8 c9 3b c8 8a 60 bd
       -0.016395628 0.10326274 0.006163679 -0.054819852
000050 78 95 0c 3d 50 52 c4 bb cc 01 a2 3d d3 27 d6 bd
       0.034322232 -0.0059912577 0.07910499 -0.104568146
000060 a8 fc 59 bc f8 1e 12 3c 6c 45 d6 3d f8 ee 1a 3c
       -0.013304867 0.008918516 0.1046246 0.009456389
000070 30 28 0e bc 48 77 c3 3c d6 02 ad 3d 50 59 d2 3b
       -0.008676574 0.023860589 0.084478065 0.0064193383
000080 00 eb 72 3d dc b9 c7 bd 1f b8 71 bd f0 47 10 3d
       0.059306145 -0.09752247 -0.059013482 0.035224855
000090 c8 7d 03 bc d7 9a 98 bd cc 4f 60 3d ae 1d b9 bd
       -0.008025594 -0.07451408 0.0547636 -0.09038864
0000a0 58 01 cc bd 38 96 13 bc 1a ae 89 3d 7a c1 e3 3d
       -0.09961194 -0.009007983 0.0672266 0.11120887
0000b0 50 18 e0 bb b0 34 cf bb c7 11 57 bd 48 d6 a6 3d
       -0.006838836 -0.0063234195 -0.05250719 0.0814634
0000c0 78 6a 44 3c 00 eb fb 3a f8 22 63 3d 7e aa 2a bd
       0.011988275 0.0019219816 0.05545327 -0.0416665
0000d0 40 e8 39 bc 20 fb 6b bc b8 7a 9a 3c 52 02 91 bd
       -0.011346877 -0.014403135 0.018857345 -0.07080521
0000e0 d0 b7 83 3d f4 70 20 3d 4e 45 28 bd 47 d0 c0 bd
       0.06431544 0.03917022 -0.04108172 -0.09414726
0000f0 70 5d cd bb 84 4c c5 3d 98 88 73 bc 20 88 67 3d
       -0.006267242 0.09633735 -0.014864109 0.056526303
000100 a2 24 cd 3d 0e ef a4 3d 24 8a 05 3d c4 a6 c9 3d
       0.10016753 0.080534086 0.032602444 0.09846261
000110 e8 0e 4f 3d 94 09 2a bd 14 60 01 bd 18 01 23 3d
       0.050551325 -0.04151304 -0.031585768 0.039795965
000120 09 fa b4 bd 78 e2 28 3d 02 c7 ce 3d 91 35 c6 bd
       -0.08836753 0.041231602 0.100965515 -0.09678186
000130 60 6a 89 bd 60 43 78 3c c6 c8 21 bd a8 48 3b 3c
       -0.067097425 0.015152782 -0.039498113 0.011430897
000140 d4 26 ed bc 02 76 85 3d cc b1 a2 3d fc 4d d9 3d
       -0.028949179 0.06516649 0.07944068 0.106105775
000150 42 2c 19 bd 1c fb f5 bc c8 65 bd bd 5a 3b 64 3d
       -0.037395723 -0.030026965 -0.09247929 0.055720665
000160 ef 54 50 3d 5a a2 db 3d 76 87 49 bd e8 0b 8a bc
       0.05086225 0.107243255 -0.04920145 -0.01685138
000170 b0 0b 2b 3d 5e f4 68 3d ed 88 ef 3d 93 45 84 bd
       0.041759193 0.05687367 0.116960384 -0.06458583
000180 60 77 89 bd 88 b0 f0 3c 7a 2c e8 3d 0a 77 f8 3d
       -0.06712222 0.029381052 0.11336608 0.1213208
000190 8c 70 c8 3d 10 f0 a8 bc ea 93 1b bd 35 8f a9 3c
       0.097870916 -0.020622283 -0.03798286 0.02069817
0001a0 fa ff 9a bb a4 7c ea bc a0 46 a1 bb f9 35 0c bd
       -0.004730222 -0.028623886 -0.0049217492 -0.03423116
0001b0 46 8c 3c 3c f8 13 33 3d b9 06 88 bd 41 34 91 bd
       0.011508053 0.043720216 -0.06641907 -0.07090045
0001c0 c8 0a 27 3d bb f5 2c 3d 54 b8 ba 3d fe 25 a2 bd
       0.040781766 0.042226534 0.09117189 -0.07917403
0001d0 c8 ff 46 3c f4 45 08 bd 2f 78 b1 bd e8 a2 8d bd
       0.012145944 -0.033269837 -0.08665501 -0.069158375
0001e0 a6 8e 93 3c d2 6a 13 bd 57 32 8d 3b f0 23 f1 bc
       0.018012356 -0.035990544 0.0043089795 -0.029436082
0001f0 d0 f8 db bc 7c a5 d0 bc 20 2a 39 3c e0 4d bd bd
       -0.026852041 -0.025469534 0.011301547 -0.09243369
000200 29 95 37 bd 08 31 c5 bd ad 98 d1 3d 78 d1 a9 3c
       -0.044819985 -0.096284926 0.10234199 0.020729765
000210 84 a4 7e 3d 20 5c cb bb 98 b6 a5 3d 1d d0 80 bc
       0.062168613 -0.0062060505 0.080914676 -0.015724236
000220 34 50 7a 3d 83 ca 4f bd f7 c9 97 3d c6 39 c1 3d
       0.061111644 -0.05073024 0.074115686 0.094348475
000230 28 76 29 3d e0 7b cd 3c 19 e3 ea 3d ab c7 b1 3d
       0.04137245 0.025083482 0.11469097 0.08680662
000240 b0 2d bc 3d e6 0d d3 bd 14 97 fd 3d 8d 1e c4 3d
       0.09188402 -0.10305385 0.123823315 0.095761396
000250 be 6f cd 3d cc e2 e2 3d 26 30 c0 bd 5c 82 6b 3d
       0.10031079 0.11078414 -0.093841836 0.057497367
000260 11 0e 0e bd 68 5e 55 3d 14 07 ae bd a5 0b c9 bd
       -0.034681384 0.052091986 -0.08497444 -0.09816674
000270 d0 c3 4f bd 4d a2 c8 bc 2a f2 ce bd 2a ad da b9
       -0.05072385 -0.024491454 -0.10104783 -0.00041709217
000280 e0 42 11 bb 38 b4 07 bd a4 32 89 bd 0a 9d 18 bd
       -0.0022165105 -0.033130854 -0.06699112 -0.03725914
000290 6a c5 d1 bd 9b 67 78 bd 50 50 0b 3d 7b 11 bd bd
       -0.10242732 -0.06064568 0.03401214 -0.0923185
0002a0 10 14 34 3d 72 71 e1 bd ac 70 cb bc b4 97 bd 3d
       0.043964446 -0.11007966 -0.024834 0.09257451
0002b0 3e 7e bc bd 94 8a c5 bc 70 f3 48 3d d8 0b 63 3d
       -0.09203766 -0.02411393 0.049060285 0.055431217
0002c0 78 eb 8c bd 44 db 47 3d 76 05 b1 3d 67 8f 8a bd
       -0.068808496 0.048793092 0.0864362 -0.06765633
0002d0 87 c8 71 bd b0 59 59 bc 54 4e b2 3d 4e 68 d4 3d
       -0.05902913 -0.013266012 0.08706346 0.10371457
0002e0 24 ce 61 3d 14 49 95 3d 32 24 b4 3d 2e 23 a8 3d
       0.05512823 0.07289329 0.08795966 0.08209835
0002f0 33 be b0 bd 06 ad d2 bd 74 fc b4 bc 94 e9 af bd
       -0.086300276 -0.10286908 -0.022093035 -0.08589473
000300 69 43 91 bd 1c 68 8e 3d c0 d4 55 3d 09 0f d9 bd
       -0.070929356 0.06953451 0.052204847 -0.10598571
000310 a4 94 c1 bd 98 91 4e bd 00 3f 2e ba 88 b2 1b 3c
       -0.09452179 -0.050431818 -0.0006646961 0.009503014
000320 20 ac db bb 80 4c af 3c 48 4b 56 3d d8 df 11 bd
       -0.0067038685 0.021398783 0.052317888 -0.035613865
000330 ac 54 9e bc 74 b2 34 3d 1e 2f 91 3d a0 f2 f4 3c
       -0.019327484 0.0441155 0.07089065 0.029900849
000340 75 6d 5f bd a0 7e 2c 3d 80 a7 de 3b 26 6a d4 3d
       -0.054547746 0.042112947 0.00679487 0.10371809
000350 e8 ba 9d 3d ec 2e 39 3d 44 63 70 3d 9c ed 1a bd
       0.07701665 0.045210764 0.058688417 -0.03782426
000360 c4 78 d4 bd 96 17 33 bd 08 24 68 bc e0 a7 8c 3c
       -0.10374597 -0.043723665 -0.014168747 0.017169893
000370 9c c0 5e 3d c8 c9 10 3d 2c c3 46 3d 98 1a 96 3c
       0.054382905 0.035348684 0.048525974 0.018323228
000380 f3 04 9a bd 9c 9e dd 3d 58 06 fa 3c 29 59 d1 bd
       -0.07520475 0.10821268 0.030520603 -0.10222084
000390 30 e3 5f 3d 40 45 86 3d a0 66 ad 3d b8 9c 00 bd
       0.054660022 0.06556177 0.0846684 -0.03139946
0003a0 6e 6a c0 bd 35 7e 4b bd b3 3b cc bd 54 6a 60 bd
       -0.093953 -0.049680907 -0.09972324 -0.054788902
0003b0 18 2c 31 3d da f1 98 bd 96 ac 8d 3d fc 1f 67 3d
       0.04325494 -0.074680045 0.06917684 0.056426987
0003c0 e0 60 4d bd dc ba a1 3d d0 57 a6 bb 9b 5a a9 bd
       -0.050141215 0.07896969 -0.005076386 -0.08269235
0003d0 30 21 dc 3d b4 e1 00 bd f8 b1 6e 3d 80 86 5e bc
       0.107485175 -0.031465247 0.058275193 -0.013581872
0003e0 79 17 95 bd 20 c3 10 bc 90 f0 a7 bb dc a3 bd bd
       -0.07279868 -0.008835584 -0.005125113 -0.09259769
0003f0 3c 05 41 bd e8 95 85 bd 53 d5 77 bd 36 ea a8 3d
       -0.047124133 -0.06522733 -0.060506176 0.08247797

layer5.bias f4 [60]
000000 60 20 62 bd cc 0d ba 3d 78 33 14 bc 96 47 aa bd
       -0.055206656 0.09084663 -0.009045474 -0.08314435
000010 b0 97 19 bd cf 84 79 bd 81 38 c9 bb e6 bf 6d bd
       -0.037498176 -0.06091767 -0.006140769 -0.058044337
000020 98 0d a1 3d eb 20 9a bd cb b8 db 3c b5 82 a2 3c
       0.07863921 -0.0752581 0.026821515 0.019837717
000030 06 1a 2f 3d 03 a9 77 3d c8 2e cf 3d f7 44 29 bd
       0.042749427 0.060463917 0.10116345 -0.041325536
000040 64 56 a3 3d e6 03 a5 bd bf d8 9c 3d 9a 11 d0 3d
       0.07975462 -0.08057384 0.076585285 0.10159607
000050 1c f6 bc 3d 63 90 21 bd 1e bb dd bc 92 c5 e2 bd
       0.09226629 -0.03944434 -0.027066763 -0.1107284
000060 40 a1 77 3d 26 d9 11 bd 30 7d d7 bc e4 ed a5 bc
       0.060456514 -0.03560748 -0.026304811 -0.020255037
000070 b6 92 3c bd 3a 47 fc 3d e8 73 fe 3c 53 9b 4d 3d
       -0.046038352 0.12318273 0.031061128 0.050196957
000080 6c 08 bd bc ee df bf bd 89 0c 94 3d 4e a1 9a 3d
       -0.023075305 -0.09368883 0.072289534 0.07550298
000090 2c 07 8d bd b1 d4 78 3d a8 e9 82 3c ee dd 7f 3b
       -0.068861336 0.060749713 0.015980557 0.0039042193
0000a0 30 72 49 bd bc 0c 9a bd a5 f7 a5 3d 3f 3d 17 3d
       -0.049181163 -0.0752196 0.08103875 0.036923643
0000b0 26 39 a2 bd 2f 97 e9 3d ed 12 b9 3d df 69 74 bd
       -0.079210564 0.11405789 0.09036813 -0.05967128
0000c0 04 b9 77 3d b8 1d e2 3c 94 38 ae 3d b1 57 bb bd
       0.06047918 0.027602062 0.08506885 -0.09147585
0000d0 98 40 80 bd 24 70 96 3d d0 30 99 3b 70 e0 f6 3d
       -0.0626232 0.07345608 0.0046750084 0.12054527
0000e0 f9 5e 42 bd 5e b7 06 bc ad f5 e9 3b 7c c6 b7 bd
       -0.047453854 -0.008222429 0.0071398825 -0.08973405
