saved_models/model_MCD.pt (torch_old, 190423 bytes, 15 tensors)

layer1.weight f4 [100, 5]
000000 58 7b b2 3d 7c ea 51 be 01 81 88 be 50 e2 8f 3d
       0.08714932 -0.20499605 -0.26660922 0.070255876
000010 e4 c5 10 be aa 31 89 3e ee f1 89 3d 9b d6 89 3e
       -0.1413799 0.26795703 0.067355976 0.26921543
000020 47 b8 e1 3e 9b 5f e7 3d 61 9b b3 3e df 81 95 3e
       0.44085905 0.11297532 0.35079482 0.29200646
000030 6f bf d0 be 9f c2 e6 3c 67 3d 6f 3d b0 29 a3 be
       -0.40771052 0.028168974 0.058408167 -0.31867743
000040 73 c9 b7 be c0 a1 73 3e e0 27 fe bd c0 19 b6 3d
       -0.3589588 0.23792171 -0.12409949 0.0889163
000050 f0 d2 cf 3d b6 b1 c2 be 1e c0 9c be 44 4b d1 3e
       0.10147655 -0.38026208 -0.30615324 0.40877736
000060 40 4d ec bb 81 87 36 3e 60 84 69 3e 4b 4b 64 be
       -0.0072113574 0.17825128 0.22804403 -0.22294347
000070 b3 bf 90 3d b5 70 db 3e 2b da 3f 3e da 84 80 be
       0.07067814 0.42859426 0.18735568 -0.25101358
000080 fb 05 95 be 5f 07 ca 3e 1e 0e b8 3e 42 9d a0 be
       -0.29106125 0.3945875 0.3594827 -0.31369978
000090 c0 2f e0 3e 10 48 16 3d a0 60 a0 3d 70 89 ba be
       0.4378643 0.036689818 0.0783093 -0.36432981
0000a0 30 90 49 be 62 15 66 be 42 5c 4a be 30 3a bc 3d
       -0.1968391 -0.22469094 -0.19761756 0.09190786
0000b0 30 70 c3 3d 5d 4a e7 3e a6 e9 71 3e 90 d5 bf 3e
       0.095428824 0.45173922 0.23624286 0.37467623
0000c0 94 4e 60 be 66 4f ab 3b 4e 5c a6 be b0 c8 90 3e
       -0.21904975 0.005227971 -0.32492298 0.28278112
0000d0 ce 14 5f be 01 81 97 3e aa 81 23 3e e2 27 80 be
       -0.2178528 0.2959061 0.15967432 -0.25030428
0000e0 48 f8 e5 bd b0 8c 17 bd b7 de c4 be 50 8b b9 3e
       -0.112289965 -0.036999404 -0.38451168 0.362391
0000f0 e4 94 0b 3e b0 e2 07 3d 4c 6d 9a be 7c 50 6e 3e
       0.13631016 0.03317517 -0.30161512 0.2327289
000100 2e ca 4d be 88 ba 56 be 8f 99 b1 be 40 92 b6 be
       -0.20096657 -0.20969594 -0.34687468 -0.35658455
000110 3d 6d 69 be 78 4f 3b 3d da 50 69 3c cf ad 9e 3e
       -0.22795577 0.045730084 0.014240468 0.3099198
000120 39 71 f1 3c be 94 ce be 58 0b 64 3d 60 e5 6e bd
       0.029472934 -0.40347856 0.05567488 -0.058324218
000130 74 94 29 3d d1 c1 c2 3e a1 97 d3 3e 0d 6d c1 be
       0.04140134 0.38038495 0.4132662 -0.37778512
000140 9b bd b3 3e fe d5 6c be 39 f9 d7 be 39 74 9a 3e
       0.35105595 -0.23128507 -0.4218233 0.30166796
000150 3e ef 3a 3e 5a 08 8a be 4f 49 8d be 24 05 b0 3e
       0.18255326 -0.26959497 -0.27594993 0.34378922
000160 8e 32 d2 3e 70 10 74 3d d0 c7 bc 3e 51 8f 54 bd
       0.41054195 0.05958599 0.36871195 -0.05189449
000170 b0 1b da bb 1b 33 5e 3e 43 89 c9 3d d8 f7 04 be
       -0.0066561326 0.21699183 0.09840634 -0.1298517
000180 ca 4a 83 3e 82 cb e1 be 9c f6 b9 bd 7c 9d 51 3e
       0.25642997 -0.44100577 -0.0908024 0.20470232
000190 d8 e8 69 bd 90 71 be bc e0 a6 ae 3d 3e bd 27 be
       -0.057106823 -0.02324751 0.08527923 -0.16380784
0001a0 7c 75 8e be 95 d4 8e be 86 f0 3b be b0 81 8f be
       -0.27824008 -0.27896562 -0.18353471 -0.2802863
0001b0 30 f7 41 3d 6c 6b 92 be ac e3 a2 be 70 33 63 bd
       0.047354877 -0.2859758 -0.31814325 -0.055468976
0001c0 9c 6c db 3e 9e 56 8c be c0 e0 a5 3b 5c 4b 8a 3e
       0.428563 -0.27409834 0.0050621927 0.2701062
0001d0 de 04 1d be e9 00 aa 3e e2 1f 6f be e2 01 c2 3d
       -0.15333888 0.3320382 -0.23352006 0.09473015
0001e0 b9 15 3f be 60 6c 19 be c5 e5 a9 3e 17 09 d4 3e
       -0.1866063 -0.14982748 0.33183113 0.41413185
0001f0 fd 3b 00 3e 7f 55 9b be 58 65 df 3e a6 0b d1 3e
       0.12522884 -0.30338666 0.43632007 0.408292
000200 1d ff cc 3d 52 a5 a4 bc 28 ea e9 bd 3c 6a 34 be
       0.100095965 -0.020098362 -0.11421615 -0.1761865
000210 50 22 cd bd 3e df d6 3e 00 8e a2 be 1c 1b 3d be
       -0.1001631 0.41967195 -0.31748962 -0.18467373
000220 91 47 e4 be 78 29 8d be 16 30 92 3e ba 20 c9 3e
       -0.4458585 -0.275707 0.28552312 0.3928278
000230 36 5e 6f be 64 3b 6a be 32 b9 81 be f4 83 34 be
       -0.23375782 -0.22874218 -0.25336605 -0.17628461
000240 70 29 8d bc 38 7b ba 3d 34 ec b1 3e 89 a5 6f 3e
       -0.017231673 0.09105533 0.3475052 0.2340299
000250 8f 49 48 3e bc a9 bf bd 62 45 df 3e 8b d5 97 be
       0.1955931 -0.09358546 0.43607622 -0.29655108
000260 f0 59 83 3d 42 13 68 3e e7 8a 80 be 1a 1a b8 be
       0.064136386 0.22663596 -0.25105974 -0.35957414
000270 52 1a 04 be 80 79 4a 3e 23 e9 ca be 10 52 ed 3d
       -0.12900665 0.19772911 -0.39630994 0.11587918
000280 0c 80 58 3e 38 ef 36 be 60 0e 5a bc e2 79 9f be
       0.21142596 -0.17864692 -0.013309091 -0.31147677
000290 80 b1 7a be 47 4e cc 3e 6d 66 af 3e 1f 52 27 3a
       -0.24481773 0.3990347 0.34257832 0.00063827814
0002a0 f0 90 57 be 61 ec 33 3e 08 f5 a7 be 80 38 b7 be
       -0.21051383 0.1757064 -0.32804132 -0.35785294
0002b0 8c da de be a8 7d bb 3d 91 c5 97 be 40 fd 90 3c
       -0.43526113 0.091548264 -0.2964292 0.017698884
0002c0 d2 3f 9b 3e ad e5 c1 be cc 21 a0 be 2a 22 9a be
       0.3032213 -0.3787054 -0.31275785 -0.3010419
0002d0 e0 1b 32 3c 30 73 79 3e 4a 3a c6 be 1e 6d da 3e
       0.010870904 0.24360347 -0.38716346 0.42661375
0002e0 df 9e c2 be 30 53 e8 3d d0 02 13 bd a3 75 6f be
       -0.38011834 0.11343992 -0.035891354 -0.23384719
0002f0 c6 bb b2 be 94 e2 24 be e4 09 b0 3e fd 2f b7 be
       -0.34908885 -0.16102058 0.34382546 -0.357788
000300 c5 4a d1 3e d2 85 1b be 67 2a 94 be 0b 91 55 be
       0.40877357 -0.15187767 -0.289386 -0.20856111
000310 3b 9b 68 bd e5 ab f2 3c 88 64 d4 3d 2b 43 be 3e
       -0.056788664 0.029622981 0.10370737 0.3716062
000320 cc aa ce bd a6 95 36 3e 3e 74 bc 3b 7a 50 06 be
       -0.10091171 0.17830524 0.005751162 -0.13116637
000330 54 69 5e 3e 9e 4a c0 be cc ca bb be 80 e8 60 bc
       0.21719867 -0.37556928 -0.3667816 -0.013727307
000340 a0 46 81 3d f8 10 13 3d 32 8f 9f be 51 dc b3 3d
       0.06312299 0.035904855 -0.31163937 0.087822564
000350 73 d9 40 3e 04 1b 46 3e e8 70 c2 bd 48 67 36 be
       0.1883295 0.19346243 -0.094941914 -0.17812836
000360 04 25 ad be bf d4 ec 3e 66 ca 9b 3e 4e 02 9b 3e
       -0.33817303 0.46256062 0.30427855 0.30275196
000370 d4 cb e5 3e 3c 86 c8 3e 79 64 ec 3e 7a 61 57 3e
       0.4488207 0.39164913 0.46170405 0.21033278
000380 37 59 c2 3e d2 df b0 be 93 2c 3c be 84 67 04 3d
       0.3795869 -0.3454576 -0.18376379 0.032325283
000390 92 d5 ec 3e d8 fd e5 3e ae 28 d2 bd 1d d0 25 3d
       0.4625669 0.4492023 -0.10261665 0.040481675
0003a0 85 1a 01 be e5 9b 9a bd b3 1d db 3e 80 44 10 3b
       -0.12607773 -0.07549266 0.42796096 0.0022013485
0003b0 9c 61 d4 be 80 12 47 3d 00 3d 2f 3e 83 7b 55 be
       -0.4148072 0.048601627 0.17113113 -0.20847897
0003c0 e1 6c ac 3e b8 e5 aa be 3d 89 4d 3e 54 96 0f be
       0.33676818 -0.33378386 0.20071883 -0.1402219
0003d0 35 86 e1 3d f1 b6 a6 be 90 61 86 bc eb 40 67 be
       0.11011926 -0.32561448 -0.016403943 -0.22583358
0003e0 5f 08 a8 be 42 ef c0 3e 0a 10 08 be cd c0 9e be
       -0.32818887 0.3768254 -0.13287368 -0.3100647
0003f0 bc 6b 18 be f1 b9 b6 be 24 12 b0 3e 8f c2 71 3e
       -0.14884847 -0.35688737 0.3438884 0.23609374

layer1.bias f4 [100]
000000 84 4a b1 3e 94 4e 8a be 68 d1 2d bb 3c e1 4f 3e
       0.34627163 -0.27013075 -0.002652252 0.20300764
000010 18 10 c3 be ae 25 d9 3e 40 50 fc bc 78 8b 12 3e
       -0.38098216 0.4241156 -0.030799985 0.14311016
000020 08 2d ca 3e 8e 53 2a be 89 e9 f1 bd 9e a9 be 3e
       0.3948748 -0.16633436 -0.118121214 0.37238783
000030 48 36 40 3e 02 73 84 3e 19 63 97 3d 14 b1 88 3e
       0.18770707 0.25868994 0.07391948 0.266976
000040 8a 1f 96 3e f1 7e df be 77 ed ce 3d a4 88 40 be
       0.29320937 -0.43651536 0.101038866 -0.18802124
000050 02 e8 56 be 30 fb 2e be fc 5b 84 be c7 05 8c be
       -0.20986941 -0.17088008 -0.25851429 -0.27348158
000060 fb e6 52 3e 10 76 a2 3d 30 0f a5 3e b6 4d 9f 3e
       0.20595925 0.07932675 0.3223815 0.31113976
000070 80 1e ca bb 86 76 89 be 37 60 b8 3d 3c e4 96 3e
       -0.0061681867 -0.2684824 0.090027265 0.29471004
000080 88 5a 7c 3e 1a 83 1d 3e d8 79 9d 3d e0 4a 2d bd
       0.2464391 0.15382043 0.076892555 -0.042307734
000090 98 c0 ca bd b0 a5 bb 3e f3 f3 b1 3c fa 6a c6 3c
       -0.099000156 0.36649847 0.02172277 0.024220932
0000a0 f2 c1 96 3d 40 d7 4c 3e 8c 98 8f 3e 8c 1f 91 3e
       0.07361211 0.20003986 0.28046072 0.2834438
0000b0 83 db 98 3e d8 77 58 be c1 b6 89 bd d0 83 a9 3e
       0.29854974 -0.21139467 -0.06724311 0.33108377
0000c0 15 71 88 3e 20 83 2e be 80 da c1 bc c7 4f 82 3e
       0.26648775 -0.17042208 -0.02366376 0.2545149
0000d0 a0 65 0b 3e ca 37 ba be 50 4b 61 3d da d9 8f be
       0.13612986 -0.3637069 0.055003464 -0.28095895
0000e0 38 72 76 bd 58 dd 3c 3e e5 73 a1 3e d7 65 30 bd
       -0.06016752 0.18443811 0.31533733 -0.043065872
0000f0 2f fa e1 3e 78 a1 8f 3e 1e e1 e4 3e 10 8e 92 3d
       0.44136187 0.28052878 0.44703 0.071560025
000100 86 ca ee 3e 76 2b ca 3e 03 23 c5 3e a3 ef 58 3e
       0.46638888 0.39486283 0.38503274 0.21185164
000110 e0 c3 86 bd 5c cd 9a 3e 07 e5 c8 bd 96 4c 8b be
       -0.06580329 0.30234802 -0.098093085 -0.27206868
000120 58 48 cf be 38 6b a8 3e 70 6e b0 3e cf 20 0b be
       -0.4048488 0.328943 0.34459257 -0.13586734
000130 c8 68 26 3e 3c f9 59 bc 83 80 cb be b9 5e 8a be
       0.16250908 -0.013304051 -0.39746484 -0.27025393
000140 48 b2 63 3e e8 8c 1b be c3 30 c3 be 0c 78 d9 be
       0.22235978 -0.1519047 -0.3812314 -0.424744
000150 48 f0 0f 3d f8 98 de 3d 3e a4 d3 be 96 39 93 3e
       0.03514126 0.1086902 -0.41336244 0.28754872
000160 21 91 86 be d8 ee 71 bd fd 30 c4 3e e6 86 ad 3e
       -0.262826 -0.05906567 0.38318625 0.33891982
000170 d1 87 7a 3d 52 02 9a 3e 1e a6 57 3e 8c 0d 22 3e
       0.06116468 0.30079895 0.21059462 0.1582548
000180 ba 7c 9a 3e 2e 19 1e be 0c ab a7 3d c9 9c 09 be
       0.30173284 -0.15439293 0.081869215 -0.13438715

layer2.weight f4 [150, 100]
000000 64 ee 83 bd cd 2b 89 bd 59 32 c9 3d c5 b0 b5 3d
       -0.06441954 -0.066978075 0.09824056 0.08871607
000010 f0 88 58 bd 1f 8d 88 3d f3 06 db 3c 67 b0 1a bd
       -0.05286497 0.06667542 0.026736712 -0.037765887
000020 92 26 4e 3d 81 52 63 3b 7d 8f 44 3d ad 58 65 bd
       0.050329752 0.0034686627 0.047988404 -0.05599277
000030 6a 30 09 3d dd 6f b6 bd 23 b6 72 3c 97 cf c9 bc
       0.033493437 -0.08908055 0.014813933 -0.02463512
000040 dd d9 19 bc 3c 50 c1 3d 06 c0 68 bd 12 27 9b bd
       -0.009390322 0.094391316 -0.056823753 -0.075758114
000050 6c 1d e0 bc 7a 93 88 bd b5 16 89 bd 7b db 92 bc
       -0.02735778 -0.06668754 -0.06693784 -0.017926922
000060 7b ca 4e bd 7f 57 be bc 6c 1b a9 3c 2e 12 72 3d
       -0.05048607 -0.02323508 0.020642959 0.05909937
000070 50 a8 b8 bd ba b9 5d 3d 64 e7 c8 3d fd 35 57 bd
       -0.09016478 0.0541322 0.09809759 -0.05254172
000080 86 74 1e 3d d4 35 c4 3c ab d3 c4 bd a6 57 a1 bd
       0.038685344 0.023951449 -0.09610685 -0.07878046
000090 4c 53 ba 3c eb bf c8 bd 6b a5 a0 3d 0f a4 5a bd
       0.022744797 -0.098022304 0.07844051 -0.053379115
0000a0 8e b5 c2 bc d7 16 87 3d a6 f9 66 3c f4 44 ac 3b
       -0.023768213 0.06596153 0.014097607 0.0052572433
0000b0 1c be 9b 3d 5d 88 8a 3d ba a1 8e 3d 49 0d 83 3d
       0.0760462 0.067642905 0.06964441 0.06399018
0000c0 ee a6 d2 3c 0a a2 18 3d d6 8c 89 bd 60 75 bb 3b
       0.025714364 0.037263907 -0.067163154 0.0057207793
0000d0 e2 27 41 3d b4 0f df bc 13 ed a5 bc 92 67 55 3d
       0.047157176 -0.027229168 -0.020254647 0.052100725
0000e0 f0 61 64 3c 4c ff 9a 3c e2 e4 c2 3d 38 e9 ba 3b
       0.013939366 0.018920563 0.09516312 0.0057040714
0000f0 1e 84 b1 3d 6a 2d aa bd 14 9e 9a 3c f1 ce b2 3d
       0.086677775 -0.08309443 0.018874206 0.08730877
000100 0d 10 4c bd 92 1a 35 3d 04 66 ac 3d 95 a4 3f bd
       -0.049819995 0.044214793 0.084178954 -0.046787817
000110 cc 47 a1 bc 51 67 9f 3d 01 e8 e8 bc c3 a0 8f 3d
       -0.019687556 0.07783378 -0.02843094 0.07013085
000120 62 06 34 3d a8 09 b5 bd 06 80 a5 bd 80 2a 13 3d
       0.0439514 -0.088397324 -0.08081059 0.035929203
000130 af 55 b5 bd 65 88 94 3d 78 18 d8 bc a9 08 af bd
       -0.088542335 0.07252578 -0.026378855 -0.08546574
000140 02 c4 96 bd 45 b3 83 3c d0 5d 99 bb d8 ce 57 3c
       -0.07361604 0.016076693 -0.004680373 0.013171874
000150 c0 8b b5 bc c5 ee ac bd c0 ab 9c 3c 89 a5 2a 3d
       -0.022161365 -0.08443979 0.019124866 0.041661773
000160 77 70 b6 3d 30 c0 1d bd 1f d3 87 bd 20 0b ad 3b
       0.0890817 -0.038513362 -0.06632065 0.005280867
000170 89 d5 aa bd 2a 8e 95 bd d7 28 9d bd 1d 3a c9 3d
       -0.0834151 -0.07302506 -0.07673805 0.09825537
000180 57 75 95 bd ec fa 9f bc 46 7d 9e bc 51 81 c7 3d
       -0.072977714 -0.019528829 -0.019346844 0.09741462
000190 c0 8b 2e bc 5b f1 08 bd 4d 1e 86 bc 08 62 bb bc
       -0.010653436 -0.0334333 -0.01637187 -0.022873893
0001a0 60 04 c7 bc a1 1b 80 bd b1 02 4d bd 00 91 42 bc
       -0.024294078 -0.0625527 -0.050051395 -0.011875391
0001b0 40 eb 8b bc 7e 68 b7 ba 3e 37 16 bc ad a8 c6 3d
       -0.01707995 -0.0013992933 -0.009168444 0.09700141
0001c0 5c 44 dd 3c 60 bf 33 bb d3 8f a4 bd b2 ec f1 3c
       0.027010135 -0.00274273 -0.08035245 0.02953181
0001d0 ce e8 ca 3d b5 4a 01 3d f0 aa 3f 3c b4 89 d9 3c
       0.09907685 0.031565387 0.0116984695 0.02655492
0001e0 9d 3d cc 3d 9a 60 28 3d 0c 43 b3 bc 14 ec b5 3d
       0.09972689 0.04110775 -0.021882556 0.08882919
0001f0 57 71 24 3d 94 32 42 3d 76 71 0f 3d 52 eb 51 3d
       0.04014715 0.047411516 0.035020314 0.05124981
000200 ff cc 94 3d 88 e5 81 3d a5 12 02 3d b2 61 7a 3d
       0.072656624 0.06342608 0.031756062 0.061128326
000210 34 5c c5 3c 5f 1d ce 3d b0 45 e2 3b 36 4b 17 3d
       0.024091817 0.10064196 0.00690528 0.03693696
000220 c2 f7 7c 3d 2d 4f 99 3d be 0e 04 bd b8 89 c6 3d
       0.061759718 0.07485805 -0.03224062 0.096942365
000230 ec fe 80 3d f1 a4 c0 3d d1 8d 0f 3d 5c aa 04 bd
       0.062986225 0.0940646 0.035047356 -0.03238903
000240 f3 42 41 3d 40 60 4e bd fc 14 57 3d 40 1d da ba
       0.04718299 -0.05038476 0.052510247 -0.0016640797
000250 85 88 da 3d b0 53 24 3c 7a a9 a4 bd 97 0d a4 3c
       0.1067057 0.010029718 -0.080401376 0.020026011
000260 79 22 b6 3d 6b 01 a9 3d 47 c3 e0 bb b0 90 0a 3c
       0.08893294 0.082522236 -0.0068592164 0.008457348
000270 ed 0b a1 bd 26 e3 0f 3d 17 56 75 3b 69 39 42 3d
       -0.07863603 0.035128735 0.0037435347 0.04741803
000280 71 44 c4 3d 70 6d 46 3c 29 3a b4 3d cc b3 9a 3c
       0.09583367 0.012111053 0.08800156 0.018884562
000290 f6 cb d2 3c 10 5d 25 bc 91 9a 2f bd af 15 de 3d
       0.025732022 -0.010092989 -0.042872015 0.108439796
0002a0 24 31 fc 3c b8 af 66 3d 33 ad 85 bc 97 86 6d bd
       0.03078515 0.056319922 -0.01631794 -0.057989683
0002b0 40 f9 9f bd b2 fb 74 3d d9 32 a7 3d 35 94 be 3d
       -0.078112125 0.059810348 0.08163995 0.09305612
0002c0 0a 5b 6d bd 95 0b 19 bd 98 cb 9c 3c 12 dd 50 bd
       -0.05794815 -0.03736456 0.01914005 -0.05099208
0002d0 c4 89 05 3c b6 b9 08 bc f7 4e 44 3d 33 63 b5 bd
       0.008150522 -0.008345058 0.04792687 -0.088568114
0002e0 6d c9 65 bd 62 61 61 3d d8 f6 29 3c 6d c4 24 3d
       -0.056100298 0.055024512 0.010373794 0.04022639
0002f0 55 21 88 bc 2e 03 a5 bd 05 3a 27 bd 18 dc 80 3c
       -0.016617456 -0.08057247 -0.040826816 0.015729949
000300 86 7c 2e 3d cb 90 99 bd 2c 4f 71 bd 50 bd 68 3c
       0.042599224 -0.0749832 -0.058913395 0.014205292
000310 43 19 87 3d 80 09 f0 bc 80 a6 09 bd 43 b2 df 3d
       0.06596615 -0.029301405 -0.033606052 0.109226726
000320 f3 00 8e bd 28 96 93 bc 54 62 cc bc 6b 7f ad bd
       -0.06933775 -0.018015936 -0.02494923 -0.08471569
000330 d0 b6 62 bc 67 5f a2 3d 4c 6c d7 bc f1 a5 84 3d
       -0.013837531 0.07928353 -0.026296757 0.06476963
000340 b8 eb 88 3c 48 74 a1 bd a0 37 d1 bc f7 7b bf bd
       0.016713962 -0.07883507 -0.02553922 -0.09349816
000350 17 05 6f bd 83 cc 83 3d 67 6d 2e bd 43 3b 2e bd
       -0.058354463 0.06435492 -0.042584803 -0.042536985
000360 4c 4e b6 bc 40 74 5b bb 42 e5 0a 3d 4f 1b c3 bd
       -0.022254132 -0.0033486038 0.033910044 -0.09526693
000370 e0 38 bf bc 65 a4 83 3d 08 b3 f2 bc 54 e2 8d 3c
       -0.02334255 0.0642784 -0.029626384 0.017319836
000380 d6 b8 a3 bd 70 05 3f bd 52 0f 94 bd e2 1f 79 3d
       -0.07994239 -0.046636045 -0.072294846 0.06082142
000390 08 8b af 3c 50 f0 2f 3c 6f db a8 3d a0 b4 e7 bb
       0.0214286 0.010738447 0.08244979 -0.0070710927
0003a0 8b 3c a9 3d 06 e6 94 bd c0 ec 59 bb 92 e6 86 bd
       0.08263501 -0.07270436 -0.0033252686 -0.065869465
0003b0 80 db 8a bd c0 cf a7 3c 80 4a 8a 3a 80 6c 7b bd
       -0.067801476 0.020484805 0.0010550767 -0.06138277
0003c0 17 a9 33 bd c6 95 00 3d 16 45 a0 bd fe f2 72 3d
       -0.04386243 0.031392835 -0.07825677 0.059313767
0003d0 6c 69 dd 3c c0 0a 7f 3b 04 b1 f8 3c e1 4a 8e 3d
       0.027027808 0.003891632 0.030357845 0.06947876
0003e0 de 82 42 3d f0 b4 44 bc 72 80 36 3d 37 e1 94 3d
       0.047488086 -0.0120060295 0.04455609 0.07269519
0003f0 d0 b5 bc bd 40 c8 20 bd e0 e5 c4 bd 80 25 63 ba
       -0.092143655 -0.039253473 -0.09614158 -0.0008664951

layer2.bias f4 [150]
000000 f1 6b 8a bd ea 8a 67 bd d1 aa a9 3d 1d 14 8b bd
       -0.067588694 -0.056528963 0.08284534 -0.06790946
000010 68 d3 ad bc ff 21 b1 3d 00 ba 5d bd 3a f6 15 3d
       -0.02121897 0.08649062 -0.05413246 0.036611773
000020 50 67 5a 3c d4 d1 09 bd 03 84 dc 3c 8c 6f e6 3c
       0.013330296 -0.033647373 0.026918417 0.028129362
000030 d8 38 e6 bc 2f 38 ae 3d 2b 5d 9f 3d 60 66 be bc
       -0.028103277 0.0850681 0.07781442 -0.023242176
000040 15 42 21 3b ca e9 09 3d e0 09 cf bc e2 b6 b0 bd
       0.0024606038 0.033670224 -0.025273263 -0.08628632
000050 c3 cd a3 3d c0 8c 51 3c fc 96 9a 3d 36 b2 af 3d
       0.0799823 0.012789905 0.07548329 0.08578913
000060 fa fe 8b 3d 23 df 9c bd 05 1c d9 3d f8 1e c2 bc
       0.06835742 -0.076597475 0.106010474 -0.023696408
000070 66 23 6e bd 3a 58 8b 3c 49 99 b0 3d e5 84 83 3b
       -0.058139227 0.017009843 0.08622987 0.004013645
000080 f5 4f 34 bd 94 2f b1 3c 89 8e c7 3d 00 bc 29 3d
       -0.044021565 0.021629132 0.09743983 0.041439056
000090 ff 54 b7 bd 48 0d ba bd 69 d8 2b bd 07 79 5f bd
       -0.089517586 -0.090845644 -0.04195443 -0.05455878
0000a0 d0 9e 8c 3b 04 fc 85 bd f0 30 47 bd 9a 72 9b bd
       0.004291393 -0.06542209 -0.048630655 -0.07590218
0000b0 03 42 a8 3d cb 13 71 3d 8f 35 3c 3c b0 0b 4c 3c
       0.08215716 0.058856767 0.011487379 0.012453958
0000c0 30 c7 7c 3c 8b b6 c3 bd da d2 a9 3d cb a8 0d bd
       0.015428349 -0.09556302 0.0829217 -0.0345848
0000d0 90 64 14 3c 59 01 a4 3d e2 f7 b0 bd c0 4a a7 ba
       0.009057179 0.080080695 -0.0864103 -0.0012763366
0000e0 00 67 04 3a 4e 8e 03 bd 12 28 18 3d f4 a5 95 bc
       0.00050507486 -0.032118134 0.03714759 -0.01826761
0000f0 15 d1 ab 3d 68 d0 98 bd 77 8d a1 bd 04 64 95 3d
       0.083894886 -0.07461625 -0.078883104 0.07294467
000100 82 b0 2a 3d fc a0 04 bd 67 5d 63 bd 78 ed 57 3d
       0.041672237 -0.03238009 -0.055508997 0.052716702
000110 4f 2a 48 3c b8 73 a6 bd 68 19 b7 bd 4f 98 d3 3b
       0.012217118 -0.0812754 -0.08940393 0.0064573656
000120 14 ca c5 3c 4c 6d 01 bd 2e 05 30 3d 12 b2 15 3d
       0.02414421 -0.031598374 0.04297369 0.036546774
000130 24 3e 28 bd 80 74 82 bb e2 61 a1 bd 85 a3 aa bd
       -0.041074887 -0.003981173 -0.07879998 -0.0833197
000140 c0 dc d6 3d 4f 7a c8 3c 8f 65 8a bc 5c a0 f8 3c
       0.104913235 0.024472384 -0.01689413 0.030349903
000150 e6 32 44 3c 40 3f c4 bc f2 22 12 3d d0 ab 7c bd
       0.011975026 -0.023955941 0.035677858 -0.06168729
000160 75 6e 78 bd 53 bc 90 3d 3b 17 d0 3c 68 98 31 3c
       -0.060652215 0.0706717 0.025401702 0.010839559
000170 54 13 0d bd 81 ef d8 3d a6 a1 df 3d e5 78 a0 3c
       -0.03444226 0.10592557 0.10919504 0.019588897
000180 78 4c 81 bd d8 db 3c 3c 95 4b 1f 3d 6c 8e 97 bc
       -0.063134134 0.011527024 0.03889044 -0.01850053
000190 71 46 e3 3d da f0 3b 3d 44 4a 94 3c 3d 4b b0 3d
       0.1109742 0.04588399 0.018101819 0.086081006
0001a0 50 58 97 3b e0 49 c3 3d 96 5a 41 3d de 13 44 3d
       0.004618682 0.09535575 0.04720553 0.04787051
0001b0 62 33 a5 bc c0 1c 80 3a 4e 82 a7 3d 08 14 b2 bd
       -0.020166103 0.0009774193 0.081791505 -0.08695227
0001c0 ac e2 e4 bc 00 ad 82 bd cc 4b 96 3d 16 1a d5 3d
       -0.027940117 -0.063806534 0.07338676 0.10405366
0001d0 56 2d 49 3d 75 46 45 3d 98 3d c5 3c dd 28 0a 3c
       0.0491155 0.048162896 0.024077222 0.008432594
0001e0 49 a9 82 3d f0 e6 27 3c 54 03 8f bc 31 f1 03 bd
       0.06379945 0.010247931 -0.017457642 -0.03221244
0001f0 77 5d 43 bc 00 26 4a bc 33 b9 6b 3d 58 ea db bc
       -0.011924139 -0.0123381615 0.057549667 -0.026845142
000200 b7 58 7f bd a1 2b 1a bc 9a 1c 47 bd ff f4 88 3d
       -0.062340464 -0.009409816 -0.04861126 0.06687354
000210 93 8b 68 bd e5 8c 56 3d 8f 32 ab bd 18 6e 89 3c
       -0.056773733 0.05238046 -0.08359253 0.01677613
000220 c0 cd 68 bc f0 12 54 bc 90 66 98 bd 17 a1 7f bd
       -0.014209211 -0.012943968 -0.07441437 -0.062409487
000230 c0 b5 5b 3b 99 1e 9b 3d 08 8a cb bc 04 7b b5 3d
       0.003352508 0.075741954 -0.024846092 0.08861354
000240 0b 13 65 3d e5 8b c2 bc 57 d5 8a 3d 5f f5 58 3d
       0.055926364 -0.023748348 0.067789726 0.05296838
000250 dc be 11 bd 20 53 c5 bd
       -0.03558241 -0.096349955

layer3.weight f4 [100, 150]
000000 06 db 33 bd 6e 53 35 3d 40 bb e0 ba c4 59 3b bd
       -0.04391005 0.044269018 -0.0017145649 -0.045739904
000010 8c cd 74 3d ed 34 68 bd 74 d8 5d bd c3 5d 8c bd
       0.059766337 -0.0566911 -0.054161504 -0.06853821
000020 3a be bc bc 34 0a 9b 3c 30 be f1 3a 64 e0 b8 3c
       -0.023039926 0.018925764 0.0018443521 0.022567935
000030 b8 8d df bc cc 0f a2 3d ca e3 8e 3d fb ec 60 bd
       -0.027289256 0.07913169 0.06977041 -0.054913502
000040 fd 87 12 bd 31 2d 8f bd 62 c8 14 3d 72 f1 57 bd
       -0.03577422 -0.069910415 0.036323912 -0.052720495
000050 4d 22 2d 3d 02 d6 1d 3d 69 7c 63 bd 1f 72 99 3d
       0.04226904 0.038534172 -0.05553857 0.0749247
000060 d8 d5 40 bd 9f 49 9a bd 52 78 6a 3d d3 ab 9f bd
       -0.047078937 -0.07533573 0.057243653 -0.07796445
000070 3b 4b f5 3c e8 5c 30 bd 70 04 21 bc 34 d3 79 3d
       0.0299431 -0.043057352 -0.009827718 0.060992435
000080 2d 85 ed bc a0 28 ed 3c 7c ea d8 bc aa 7e f0 3c
       -0.028994167 0.028950036 -0.026478998 0.029357273
000090 74 65 46 3d 4c a3 44 3d c0 3e 70 bd aa 78 c4 bc
       0.048436597 0.048007295 -0.058653593 -0.023983318
0000a0 20 33 52 3d e8 66 3c 3d f0 5c 98 bd 9e e7 14 3d
       0.051318288 0.045996577 -0.074396014 0.0363537
0000b0 82 f7 f4 bc 63 a2 9c 3d 99 62 70 bd aa a2 1f bd
       -0.029903177 0.0764816 -0.05868778 -0.038973488
0000c0 30 8d e7 bc 6b c1 48 bd 70 aa 66 3d 84 b1 71 3d
       -0.028265566 -0.049012583 0.056314886 0.059007183
0000d0 4a eb 9f bd ac 64 78 bd 00 e7 88 3a 48 ec 79 3d
       -0.0780855 -0.060642883 0.001044482 0.06101635
0000e0 3d f8 3b bd 43 bf 58 3d 80 e0 17 3a 24 e6 9f 3d
       -0.045891035 0.052916776 0.0005793646 0.07807568
0000f0 50 07 66 bd 38 66 44 3d c9 b6 d9 3c bf 00 20 bd
       -0.056159317 0.047949046 0.026576417 -0.03906321
000100 60 24 29 3c 90 3a 9a bd bb 02 7c 3d e1 cb bc 3c
       0.010323614 -0.07530701 0.06152604 0.023046436
000110 f4 6f 71 3d b0 9e 09 bc e0 e8 24 bc 9d f6 90 bd
       0.058944657 -0.00839965 -0.010065287 -0.07078288
000120 68 59 8d bd 43 3c 85 bd 76 d6 8a bd 0a 3e a7 bd
       -0.069018185 -0.06505635 -0.067791864 -0.0816613
000130 a3 fc 24 3d e5 20 99 bd 6e 64 5d bd 58 a3 14 bc
       0.040279996 -0.07476977 -0.054050855 -0.009072147
000140 a8 f1 97 3d ba 98 3c bd 0b 79 5c bc 58 1c 3e 3c
       0.07419139 -0.04604409 -0.013456593 0.011603437
000150 a5 01 96 3d 8c e8 6a bd a4 64 10 3d 44 23 76 bd
       0.073245324 -0.05735068 0.03525223 -0.060092226
000160 f9 9e 8c bd 28 87 8b 3d 4a b8 c3 3c 72 aa e6 bc
       -0.06866259 0.068128884 0.023891587 -0.028157447
000170 e0 0a 0c bd ed a3 83 3d 2e c0 f0 bc 2d e4 9b 3d
       -0.03419006 0.06427751 -0.029388513 0.076118805
000180 0d 92 4d 3d 56 18 76 bd 8d 7f 8f 3c 2e 82 8e 3d
       0.050188113 -0.060081802 0.017516876 0.069584236
000190 1f a9 74 3d 34 0d cd 3c 34 92 25 bd 28 38 9a bc
       0.0597316 0.02503071 -0.040422633 -0.018825606
0001a0 28 cf 8f bc 87 16 16 bd 9d 52 0e bd 4e 76 b9 3b
       -0.017554834 -0.036642577 -0.034746755 0.005659855
0001b0 5f 85 3d bd fc 6c 93 3d 52 f0 3a 3d e6 6c 87 3d
       -0.04626977 0.071985215 0.045639344 0.066125676
0001c0 f4 62 ba 3c 4d 67 18 3d c5 a3 e0 bb 38 b7 92 bd
       0.022752263 0.03720789 -0.0068554603 -0.071638525
0001d0 74 6d 47 3d 74 77 6e bd 78 7a 1a 3c 74 35 1f 3c
       0.048688367 -0.058219388 0.009428613 0.009717334
0001e0 e9 f2 38 3d f1 de a1 bd 98 46 0e 3d 7a 5b 8e bc
       0.045153532 -0.07903851 0.034735292 -0.017377604
0001f0 e4 c7 0e bb 62 1b 97 bd 9c e3 8b bc 8a a3 ec bc
       -0.0021786625 -0.0737827 -0.017076306 -0.028886575
000200 3c 4a 48 3d 77 39 8e bb e0 b1 a5 3d ce 35 f1 bc
       0.04889892 -0.0043403464 0.080905676 -0.029444601
000210 9a a2 16 3d e3 dc 22 3d e9 be 2e bd 3e c4 99 bd
       0.036776163 0.039761435 -0.042662535 -0.07508133
000220 c2 d3 94 3d 66 dc 15 3d 34 29 41 3d 98 bc 93 3d
       0.07266952 0.03658714 0.047158435 0.07213706
000230 b8 49 78 bc 64 82 92 3c 90 aa 93 3d 3e 48 9c 3c
       -0.015154295 0.01788444 0.072102666 0.019077417
000240 54 01 cf 3b be 8e 72 bd 5e d9 ad bc 87 b4 fa 3b
       0.006317297 -0.05921816 -0.021221813 0.007650915
000250 36 62 dd bc 40 47 3e bd 30 1b dc bc 74 c0 fd bc
       -0.02702437 -0.046454668 -0.026868433 -0.030975558
000260 5c ac 8c bc c8 2e 72 bc 6a a6 b6 bc 1c 13 6b bd
       -0.017172031 -0.014781661 -0.02229615 -0.05739127
000270 28 12 20 3c 42 a0 9a 3d 7b a9 9a bd b8 54 03 3c
       0.009769954 0.07550098 -0.07551857 0.008015804
000280 76 e6 8f 3d b8 be 80 3d f4 c6 88 3d db c1 a1 bd
       0.07026379 0.06286377 0.06678572 -0.07898303
000290 70 d4 61 3d 66 b0 90 bd 38 95 56 bd 70 a7 9b 3c
       0.055134237 -0.07064895 -0.0523884 0.019000739
0002a0 b1 8f 46 bd 44 5e 83 bc b8 f1 58 3c fb 0e a5 bd
       -0.04847688 -0.01603616 0.013241224 -0.08059498
0002b0 90 06 65 3d ae 43 2e bd 40 a3 ab ba 83 b2 95 bd
       0.05591446 -0.042545013 -0.0013094917 -0.07309439
0002c0 e2 2c 80 bd 5c 92 ba bc dd cb 7e bd 04 a2 4e 3d
       -0.06258561 -0.022774868 -0.062206138 0.05044748
0002d0 20 83 94 3c 1e 24 9c bd 78 b8 5f bc 80 c2 12 ba
       0.018128932 -0.07624076 -0.013654821 -0.0005598441
0002e0 98 4a 22 3d 64 09 46 3d 08 87 5d 3d fb 03 3a bd
       0.03962192 0.0483488 0.054083854 -0.045413952
0002f0 80 aa 2b 3d 96 64 0c 3d 30 24 e3 3c 50 cc 62 3c
       0.04191065 0.034275614 0.027727216 0.013842657
000300 58 cc ec bc 00 18 1a 3b 50 20 73 bc 44 be f2 3c
       -0.028906032 0.002351284 -0.014839247 0.029631741
000310 20 ec 82 3b 80 06 11 3c 64 1d ba 3c 60 11 14 bd
       0.0039954334 0.008851647 0.022719093 -0.036149383
000320 12 cc ac bc 47 c5 a4 bd 00 4f 59 3d fe 94 8a bd
       -0.021093402 -0.0804544 0.053053856 -0.06766699
000330 a0 23 5a 3b 40 ad 20 bc 1d e3 5b bd 58 83 4b bd
       0.0033285394 -0.009806931 -0.05368339 -0.049685806
000340 fe 3b 59 bd a8 d3 fb bc 40 91 20 bb d4 68 04 3d
       -0.05303573 -0.030740574 -0.0024500638 0.032326534
000350 d0 59 92 bd de 30 97 3d 52 d9 ff bc d6 5c 5a bd
       -0.071460366 0.073823676 -0.031231556 -0.05331119
000360 80 59 a7 3b d0 5f c9 bb 68 89 58 3d 78 59 0e 3c
       0.005107105 -0.006145455 0.052865416 0.008688323
000370 8e 57 0b 3d 64 ac 4d 3d 20 fa fb 3c d8 51 a0 3d
       0.034019046 0.050213233 0.030758917 0.078281105
000380 96 b7 65 bd 00 6c 79 3b a5 58 88 bd 44 1e f9 3c
       -0.056083284 0.0038058758 -0.066575326 0.03040994
000390 8f b0 24 bd 5d db 59 bd 28 b5 4b bc e0 05 03 bd
       -0.040207442 -0.053187717 -0.012433328 -0.031988025
0003a0 40 c8 97 bb a0 2f d4 bb 2a 4c 81 3d 60 8b 13 bc
       -0.004632026 -0.006475404 0.06313355 -0.009005398
0003b0 a8 e5 79 3d 9b d3 97 bd e2 c6 9c 3d 24 1a 9c 3d
       0.061010033 -0.074134074 0.076551214 0.076221734
0003c0 80 01 93 3c d8 cc 2c 3c 0a 43 f7 bc c8 68 e2 3c
       0.017945051 0.010546885 -0.030183334 0.027637854
0003d0 a8 81 95 bd 00 b3 37 3b c6 d3 99 3d 2a a3 4e bd
       -0.073001206 0.0028030276 0.07511096 -0.050448574
0003e0 66 68 82 3d 34 71 96 3c 12 e1 8d bd a0 e2 63 bb
       0.06367569 0.018364526 -0.069276944 -0.003477253
0003f0 38 47 94 bd af d4 91 bd 3e 44 01 3d c0 c4 ca 3c
       -0.072401464 -0.07120644 0.03155922 0.02475202

layer3.bias f4 [100]
000000 10 9e 22 3d 0c ad 37 3d 86 d2 a9 bc 00 da ad b9
       0.03970152 0.044842765 -0.020730268 -0.00033159554
000010 7d 04 b0 3d d1 46 8b 3d 91 e2 58 bd 29 bb 1a 3d
       0.08594606 0.068006165 -0.052950446 0.037776146
000020 70 a8 3c 3c 02 a6 84 bd 8e e1 83 bd e8 37 50 3d
       0.011514768 -0.06476976 -0.064395055 0.050834566
000030 f3 cf a5 bd ad ea 1e 3d 58 31 88 3d f0 75 7b 3d
       -0.08096304 0.038798023 0.066500366 0.06139177
000040 0b 6d 20 3c 30 d9 f1 3c 23 7a 11 bd 4c 2f 3d bd
       0.009791623 0.029522508 -0.03551687 -0.046187684
000050 c8 b9 eb bc 70 e4 44 bd 7c e6 98 3d 72 96 31 3c
       -0.02877511 -0.048069417 0.074658364 0.010839092
000060 a6 54 fe 3c 4f cd 81 bd 32 60 8c 3d da 69 32 3d
       0.031046223 -0.06337988 0.06854285 0.04355798
000070 94 d3 8b 3c 68 21 60 bc e3 92 88 3d 58 0f 06 3c
       0.017068662 -0.01367984 0.066686414 0.008182369
000080 dd ab 8e bc 12 83 81 bd f0 c5 5f bc f4 3b b4 bb
       -0.017415935 -0.06323828 -0.013658032 -0.005500311
000090 ec 5f 9d bd 04 c3 ad 3d 0a 37 1a bd 87 db 46 3d
       -0.07684311 0.08484462 -0.037650146 0.0485492
0000a0 fc 5a 59 3d f0 d0 38 3c 6b 2f 0a bd 20 e7 5a 3d
       0.053065285 0.011280283 -0.033736628 0.053443074
0000b0 bd 59 41 3d b3 5f 8b bd f2 37 0c 3d f4 f6 80 3d
       0.04720472 -0.068053626 0.03423304 0.062971026
0000c0 cc 3a 97 3c 10 8a 7f 3d 95 ad c6 3d 76 9a 44 3c
       0.018460654 0.062387526 0.09701077 0.011999717
0000d0 37 1c b5 3d 33 ef 2f bd df 09 e4 3b 34 5d 92 bd
       0.08843272 -0.042952728 0.0069591845 -0.07146683
0000e0 40 81 46 3d 12 11 0e 3d b6 7f 11 3d 20 b0 07 bd
       0.048463106 0.03468425 0.035522185 -0.03312695
0000f0 20 de 33 bb 30 ad 81 bd ac b2 04 3d 3a 8f 80 3c
       -0.002744563 -0.06331861 0.032396957 0.015693296
000100 cf 73 81 3d 20 c3 6c bd b0 0f 6a bd 37 aa a5 bd
       0.06320917 -0.057803273 -0.057143867 -0.080891065
000110 71 65 35 3d f8 c4 2d 3d d5 86 03 bd 35 68 a5 3b
       0.044286195 0.042424172 -0.032111008 0.005047823
000120 a0 ce 9f bd e8 5b 00 3d 17 41 93 3d b2 4e 0a 3d
       -0.078030825 0.03133765 0.07190149 0.033766456
000130 d4 b2 e4 bc c0 27 af 3c 58 98 8e bc fe 64 2f 3d
       -0.027917303 0.021381259 -0.017406628 0.042820923
000140 85 2d 26 bd 60 69 58 3c c4 ac dd 3b c7 7b 07 bd
       -0.040570755 0.013208717 0.00676498 -0.033077028
000150 42 55 61 bd 0a a6 5b bb 8b d4 a1 bd 9a 37 8a 3d
       -0.05501295 -0.0033515715 -0.079018675 0.067488864
000160 6c 23 8f bd 51 97 1b bc 73 f7 86 bc 56 b0 ba 3d
       -0.06989178 -0.009496526 -0.016475415 0.09115665
000170 93 26 02 bd 49 22 ce bc ea 83 b5 3d 60 82 e7 3b
       -0.03177507 -0.025162833 0.08863051 0.0070651025
000180 79 e0 2f bd cb 5e fa 3c a0 c8 25 3d 99 d8 0a 3d
       -0.042938683 0.030562779 0.040474534 0.03389797

layer4.weight f4 [80, 100]
000000 79 bf 99 bd 40 3b c4 bd f7 43 45 bd 10 73 27 bd
       -0.07507224 -0.095816135 -0.04816052 -0.040881217
000010 01 c6 e8 3d bf 12 aa 3d b0 7d 6a bc 6f 02 ba 3d
       0.11365891 0.08304357 -0.014312193 0.090824954
000020 da cc 81 3d a3 3d ba bd e3 75 61 bd b1 0d b0 3d
       0.063379005 -0.090937875 -0.055044066 0.085963614
000030 ba 71 8d bd 84 89 d4 bc 7f 53 1f bd da df a0 bd
       -0.06906457 -0.025944479 -0.038897987 -0.07855196
000040 ee 29 c5 3c 30 c5 5c 3c db ce 89 3d 47 1d 38 3c
       0.024067845 0.013474748 0.06728908 0.011237449
000050 f6 fe 97 3d d0 11 78 bd 09 d1 85 3d 0a 4c 93 bc
       0.07421677 -0.060563862 0.06534011 -0.017980594
000060 76 38 e5 3d f0 2d a8 3d 0e 80 0b 3d c6 19 94 3d
       0.1119241 0.08211887 0.03405767 0.072314784
000070 13 59 26 3d 72 01 23 3d 1f 3f 02 bc ca b1 b5 bd
       0.04061229 0.0397963 -0.00794962 -0.08871801
000080 d7 60 fd 3c c2 80 78 3d ee 28 91 bd 25 a2 7d 3d
       0.030929966 0.060669668 -0.07087885 0.06192221
000090 66 17 03 bd 0b 23 eb 3c 45 75 8e 3d e4 61 34 bd
       -0.032004736 0.028703233 0.06955961 -0.04403867
0000a0 6a c9 73 3d f0 da 6c bc f4 67 fc bc 9b ab 90 3d
       0.059518255 -0.014456496 -0.030811287 0.07063981
0000b0 04 09 af bd 25 15 5e bc a3 c2 97 3d 2d 3f 57 bd
       -0.085466415 -0.013554846 0.07410171 -0.052550483
0000c0 cc 59 80 bd d5 5d b4 bd 1b af 53 3d 56 6e 2b 3d
       -0.062671274 -0.088069595 0.051680665 0.04185327
0000d0 71 32 d4 3d e7 73 86 3d 8a 2d 77 3d a2 67 ca bd
       0.103611834 0.06565075 0.060346164 -0.09883048
0000e0 35 d6 89 3d c0 f5 a4 3d 50 74 7b 3c b6 a1 32 3d
       0.0673031 0.080546856 0.015347555 0.04361125
0000f0 f7 2a 62 bd 1a fb f1 bc b6 31 50 3d 5c 46 20 3c
       -0.055216756 -0.02953868 0.050828658 0.0097824
000100 eb 2b 75 3d 58 20 62 3c 62 94 c6 bd d4 4d ef bc
       0.059856337 0.013801657 -0.096962705 -0.029211916
000110 33 88 99 3d b4 db d8 bc 98 cc e6 bc b4 fe 33 3c
       0.07496681 -0.02647195 -0.02817373 0.010986019
000120 f2 ea 41 3d d0 28 bb 3b e3 a1 7f 3b 00 ea af 3b
       0.047343202 0.0057116523 0.0039006404 0.005368471
000130 b1 22 bc 3d 34 d4 06 3c 19 0e a6 3d 72 be 8e bd
       0.09186304 0.008229304 0.08108158 -0.06969918
000140 46 f2 af 3d 20 cc 9b 3c 62 f2 9e 3d 77 9b 21 bd
       0.08591132 0.019018233 0.077610746 -0.039454903
000150 13 a6 a9 bd 12 2b c9 3b 21 40 84 3d d7 99 30 bd
       -0.08283629 0.0061391676 0.06457544 -0.043115463
000160 b2 0f 7d 3d ea bc 83 bc 77 9b 8f bc ae d0 d8 bc
       0.061782546 -0.016081292 -0.017530186 -0.026466694
000170 af 45 af 3d d5 7e 9d bc b1 87 90 3d 5d 9c b8 3d
       0.08558213 -0.019225517 0.07057131 0.09014199
000180 bb f8 c0 3d 48 a5 1b bd 83 3a 18 bc 0b 17 20 bc
       0.094224416 -0.03799942 -0.009291294 -0.009771119
000190 c7 fa ac bd e0 41 58 bd b6 da 21 3d b3 b1 bd bd
       -0.084462695 -0.0527972 0.03951522 -0.09262409
0001a0 2e 53 19 3d 0a 99 7a bd 56 e7 02 3d 86 aa 98 bd
       0.037432842 -0.061181106 0.0319589 -0.074544
0001b0 ec c7 f4 bc 20 a1 8d bc 68 e4 39 bc ce fc 33 3d
       -0.029880486 -0.017288744 -0.01134596 0.043942265
0001c0 dd 1f 9d 3d 7a e1 8e bd aa 5a 59 bd 74 e4 eb 3c
       0.07672093 -0.069766 -0.05306498 0.028795458
0001d0 06 36 6a 3d f2 86 67 3d c2 49 62 3d 2a cd ad bd
       0.057180427 0.05652518 0.055246122 -0.084863976
0001e0 98 2d 45 bc ba 83 56 bd e0 fa b6 3b f3 9b 71 bd
       -0.012034796 -0.052371718 0.005584106 -0.058986615
0001f0 e4 2b 18 bd f4 c1 c1 bc 0e 43 00 3d b0 50 47 bd
       -0.037151232 -0.023652054 0.03131395 -0.048660934
000200 e1 20 8b 3d b0 eb fd bb a0 35 aa 3c aa 12 81 bd
       0.067933805 -0.0077490434 0.020777524 -0.06302388
000210 74 71 fa bc 50 77 6b 3c 41 91 85 3d 60 a6 6b bd
       -0.030571677 0.014371708 0.065218456 -0.057531714
000220 50 6d 02 3c 71 f4 ab 3d 50 28 98 bb b5 22 bc 3d
       0.007960632 0.08396233 -0.0046434775 0.09186307
000230 f0 3a 9d bd 87 cd 51 bd fa 52 53 bd 02 cc 3c 3d
       -0.07677257 -0.051221397 -0.051592804 0.046092995
000240 2e 61 3f 3d 1d c1 1c bd 4b ef c2 3d e0 8f b9 bc
       0.046723537 -0.038270105 0.09518298 -0.022651613
000250 00 19 7f 3b 72 17 a7 bd ed 0e b0 bd 06 cf 33 3d
       0.0038924813 -0.08158769 -0.08596597 0.043898605
000260 9b 83 96 bd b1 55 8f 3d fa b9 b6 bd 58 10 86 3c
       -0.073493205 0.06998766 -0.08922191 0.016365215
000270 be 97 0c 3d b4 a4 85 3c 80 7d 50 3a 00 ba d3 b9
       0.0343244 0.016313888 0.0007953271 -0.00040383637
000280 7b b8 c9 bd 18 55 cc bc 73 f8 3c bd 9d 26 bf 3d
       -0.0984964 -0.02494292 -0.046135377 0.09333537
000290 db a4 bf bd 72 1a 7d 3d 32 7c ba bd d5 31 9f 3d
       -0.093576156 0.0617928 -0.091057196 0.077731766
0002a0 1e 41 3c 3d da 06 88 bd c0 86 ec bc 9d 4b 7c bd
       0.045960538 -0.06641932 -0.028872848 -0.061595548
0002b0 ae b2 a7 bd ec f1 c7 3c 87 84 c8 3d 34 cd 16 bd
       -0.08188377 0.02440735 0.097909026 -0.03681679
0002c0 20 a0 bd bd e8 1b 57 3c d0 d5 8e 3b 00 90 08 38
       -0.09259057 0.013129212 0.0043589845 3.2559037e-05
0002d0 0b a9 9c 3d c2 f4 1c 3d 9b b7 94 3d f0 aa 55 bd
       0.0764943 0.038319357 0.072615825 -0.05216497
0002e0 ca 48 0f 3d ef 16 b9 3d 37 63 1a bd 12 cf 95 bd
       0.034981526 0.09037577 -0.037692275 -0.07314886
0002f0 c7 82 a4 3d 20 d0 a1 bd cc 0c 9b 3c 62 dc b5 bd
       0.08032756 -0.07901025 0.018927 -0.08879925
000300 c4 51 d3 3c e0 57 a9 bd fd ee 66 bd 52 14 26 3d
       0.025795825 -0.08268714 -0.05638026 0.040546723
000310 40 81 2b 3c 20 f7 9e bd 60 03 eb bb 58 9a 77 3c
       0.010467827 -0.07761979 -0.007172033 0.015112482
000320 3b 0f c1 bc a3 f5 4a bd c0 1a 7e 3b 68 f5 0d 3c
       -0.023566833 -0.049550664 0.0038773268 0.008664466
000330 2b 27 98 3c 10 01 99 3d 33 81 a2 3d d0 f1 af 3c
       0.018573364 0.07470906 0.07934799 0.02147761
000340 72 59 b8 bc 66 83 82 bd 18 51 46 bc 70 80 0b bd
       -0.022503588 -0.063727185 -0.012104295 -0.034058034
000350 60 11 0a 3c b6 30 03 3d fe 99 c7 3d d8 27 de bc
       0.008426994 0.032028876 0.097461686 -0.027118608
000360 70 d1 83 3c c1 65 bf 3d ad f1 81 3d 1c e7 c1 3d
       0.016091079 0.0934558 0.06344924 0.09467909
000370 9f df 7f bc da 67 9d 3d 51 ea 82 3d 99 b9 22 3d
       -0.01561728 0.07685824 0.063923486 0.03972778
000380 c2 37 94 3d 94 f2 15 3d 4f e2 87 3d 20 60 0d bb
       0.072371975 0.036608294 0.06634962 -0.0021572188
000390 51 52 5b bd d6 78 41 3d 34 d0 da bc 8e 88 a8 bd
       -0.0535453 0.04723438 -0.026710607 -0.08229171
0003a0 94 98 14 bd c5 90 b4 3c 28 33 ad bd 5f 3a 76 bd
       -0.036278322 0.022041688 -0.08457023 -0.06011426
0003b0 c8 8d c3 bc e8 c2 3a bc ce e2 4f 3d a7 71 e3 3d
       -0.023871318 -0.011399008 0.050753407 0.11105662
0003c0 fb a9 31 bd a7 58 93 3d 7a 33 38 3d 80 0b fe bb
       -0.043374997 0.071946435 0.044970967 -0.0077528358
0003d0 4e 63 8a 3d 59 29 56 bc 62 5e 40 3d 3e c5 01 3d
       0.06757222 -0.0130713815 0.04696501 0.031682245
0003e0 23 0e 7f bd ec 7e 8c bd b5 1c 72 bd 52 ad b0 3d
       -0.06226934 -0.06860146 -0.05910941 0.08626808
0003f0 98 69 40 3c fa cb 08 3d 0f bc 90 3c 08 0f f7 bc
       0.0117439255 0.033397652 0.017667798 -0.030158535

layer4.bias f4 [80]
000000 d7 d0 d4 3d aa 21 74 3d 0a a3 1a bc cd a1 01 bd
       0.103913955 0.059602417 -0.009438286 -0.031648446
000010 e3 78 c1 3d 0c 6d bf bc 13 26 0e 3d 0a c9 e3 3d
       0.094468854 -0.023367427 0.03470428 0.111223295
000020 49 92 b5 3d 7a b0 95 bd bd 8f 65 bd 90 06 59 3d
       0.08865792 -0.07309051 -0.056045283 0.052984774
000030 97 e3 1a bd 4e 4e 2a 3d c2 60 6d 3c 73 b2 a1 bd
       -0.037814703 0.041578583 0.014488401 -0.078953646
000040 24 c4 d3 bd 2c aa df bc fb 3b bd bc 7f 10 99 bd
       -0.10340145 -0.027302824 -0.02309989 -0.074738495
000050 7c 82 99 3d 11 1e ac 3d e2 4e 63 3d 15 b5 8b bd
       0.07495591 0.08404172 0.05549515 -0.06821648
000060 00 c9 43 3c 0c 7d a5 3c 8e 32 6e 3d b0 7c 7c bd
       0.011949778 0.020201229 0.05815368 -0.06164235
000070 98 2c 87 bd 45 e8 b5 3d d0 20 a8 bb c5 e5 77 bc
       -0.066003025 0.088821925 -0.0051308647 -0.015130465
000080 e5 31 0d 3d e7 95 5f bd cc 98 cc bd f8 77 8d 3d
       0.03447141 -0.054586317 -0.09990081 0.06907648
000090 4d ec ee 3c 5f 1d 49 bd db 14 1d bd dd b6 ab bd
       0.029165411 -0.049100276 -0.038349967 -0.08384488
0000a0 73 d4 6f 3d 1c cb 81 bc bd cd 95 3d d4 af f0 3c
       0.058552217 -0.01584392 0.07314632 0.029380716
0000b0 da 4e c5 bc 27 bf 1f bd 5e 5c ab 3d fb 79 cf 3d
       -0.02408545 -0.039000656 0.08367227 0.10130688
0000c0 85 f4 9a 3d 98 56 99 bc 29 f8 b6 3d bd ab ab bd
       0.0756617 -0.018718049 0.089340515 -0.08382366
0000d0 98 54 88 bd 82 bb 02 bd ad 24 1a bd 65 03 8c bd
       -0.0665676 -0.031917103 -0.037632633 -0.06836585
0000e0 e5 76 b7 bd 00 4d ed bc d1 01 db bb 6a 4a 61 bd
       -0.08958224 -0.02896738 -0.006683566 -0.055002607
0000f0 ce 08 cd 3d 30 5a dc bb d1 3c fc bc 89 fb 1a bd
       0.10011445 -0.0067246184 -0.030790718 -0.03783754
000100 a9 b6 b1 3d 9b 37 c6 3d bf 6e b5 bc fd 72 86 bd
       0.08677418 0.09678575 -0.022147534 -0.06564901
000110 8e 2c 60 bd 08 b8 42 3c 96 61 c9 3d 5f c6 a7 3d
       -0.05472999 0.011884697 0.09833066 0.08192133
000120 9d 34 24 bd 12 d4 17 bd d4 fc 5f 3d 19 5a 7d bd
       -0.04008924 -0.03706748 0.054684475 -0.061853502
000130 0a 2c 86 3d 58 03 6e bc 94 80 c1 3d d2 37 8d bd
       0.065513685 -0.014527164 0.094483525 -0.068954125

layer5.weight f4 [60, 80]
000000 0f 7c c2 bd 34 dc 40 3d fd f3 45 3d c4 77 fe 3d
       -0.094963185 0.047085002 0.04832839 0.12425187
000010 44 1b 1c 3d ba 44 b0 3d e2 21 7e bd e7 7d 7b bd
       0.03811194 0.086068586 -0.062044032 -0.061399367
000020 fa 0e 98 3d 52 1a 8e 3d c0 64 29 bd 26 2b 32 3d
       0.074247316 0.06938614 -0.04135585 0.04349818
000030 84 d6 ef bc 00 84 1c bd 66 b1 cb 39 88 0b c7 3d
       -0.029277094 -0.038211823 0.0003885135 0.09718996
000040 3d 49 bd 3d 24 cf c3 3c 5a 3f 9c 3c 54 37 26 3d
       0.09242485 0.023902483 0.019073177 0.04058011
000050 94 ad db bd a7 ae 6d bd c8 ea c8 3c 03 b5 99 3d
       -0.10726467 -0.05802789 0.024526015 0.07505228
000060 e0 2d 80 3b e2 e2 80 bd 2d e6 ce bd 7e 75 e2 3d
       0.0039117187 -0.062932745 -0.10102496 0.11057566
000070 b8 d5 ff 3d f3 ba 9a 3d 20 cb b5 3d ca 8b b8 bd
       0.124919355 0.07555189 0.08876634 -0.09011038
000080 13 c8 d3 3d e2 60 1a bd ba a7 89 bd 59 6a ce 3b
       0.103408955 -0.03769005 -0.067214444 0.0062992987
000090 81 89 ef 3d 62 77 09 bd df d7 d4 3c e9 d5 01 3e
       0.11696149 -0.033561118 0.025981842 0.12679256
0000a0 37 19 93 bd 4b 90 e6 3d 09 3f 87 bd b4 8e a4 bd
       -0.07182544 0.112579904 -0.0660382 -0.08035031
0000b0 54 8a 34 bd d5 29 c9 3c f2 a7 4f bd c4 48 a1 3d
       -0.044077232 0.02455608 -0.050697275 0.07875207
0000c0 7b 78 8b bc 13 b1 62 3d b5 2c a4 3d 9c 5f 7e 3d
       -0.017025223 0.055344652 0.0801634 0.0621029
0000d0 18 64 90 3c 55 df 00 bd 20 6b 83 bd 00 4e 7d 3a
       0.017625853 -0.031462986 -0.06416917 0.0009662807
0000e0 16 86 8c bd 3c fb b6 3d 4b 4e cf 3d 41 cc d6 3d
       -0.06861512 0.08934638 0.10122355 0.10488177
0000f0 10 f3 75 3c 02 64 a4 3d 98 76 99 bd 4a 2d b9 bd
       0.015011564 0.080268875 -0.07493323 -0.09041841
000100 de 76 cc 3d cc b2 d5 3d 40 dc 71 bd 77 d6 83 bd
       0.099836096 0.104344934 -0.059047937 -0.0643739
000110 b2 27 b2 bd 62 c1 bc bd 4d 72 e2 bb 08 19 c2 3c
       -0.086989775 -0.09216572 -0.0069105984 0.023693576
000120 27 2b a6 bd 01 96 46 3d 41 a9 cb 39 e5 40 f6 3d
       -0.081136994 0.0484829 0.0003884528 0.120240964
000130 cb 4a b7 3d 88 15 db 3a d3 b3 63 bd 23 74 9b 3d
       0.089498125 0.0016714791 -0.055591416 0.07590511
000140 5c 26 cb 3c 68 41 aa 3c e6 06 d5 bd f8 99 b5 3d
       0.024798565 0.020783141 -0.104017064 0.08867258
000150 00 c3 84 ba d0 e1 9a bd 55 a2 d7 bd 42 04 27 bd
       -0.0010128915 -0.075626016 -0.10529009 -0.040775545
000160 4a ad 87 3d 62 d0 c5 bd e0 78 ff 3c aa ab b6 3d
       0.06624849 -0.096588865 0.031185567 0.08919461
000170 9a 6c 35 bd a2 02 a6 3d d8 62 38 bd e5 a9 9f 3d
       -0.044293024 0.08105971 -0.04501614 0.07796077
000180 c6 69 cd 3d 23 0f 19 39 96 87 d5 3d 9a 1d 22 3d
       0.1002994 0.00014596856 0.104262516 0.03957901
000190 27 cc db bd e0 d4 56 bd b4 5d 66 3d 18 b4 fe bc
       -0.10732298 -0.052449107 0.056241706 -0.031091735
0001a0 ec 8b 18 bd d6 aa c5 3d 10 ee 2f 3d 96 41 c2 3d
       -0.037242815 0.09651725 0.042951643 0.09485166
0001b0 89 38 a5 3c 6d 5b 5a 3d 4c 85 a9 bc ba ab 06 bd
       0.02016856 0.053309847 -0.020693444 -0.032878615
0001c0 56 cc d3 3c cc 70 30 bd 1b b3 6f 3d 3a eb a3 bd
       0.02585427 -0.04307632 0.058520418 -0.0800385
0001d0 c9 d4 9e bd 0e 83 3b 3d 9a 68 f3 3c d4 86 f9 3c
       -0.07755429 0.04577928 0.029712964 0.030459799
0001e0 0c 1f e9 bd 70 ed ce bd 14 c1 49 bd 10 ee 4d 3d
       -0.11382875 -0.10103881 -0.0492564 0.050275862
0001f0 ff 5b 89 bc 26 63 a9 3d 10 2c dc bd b9 48 aa 3d
       -0.0167675 0.08270864 -0.10750592 0.08314652
000200 95 82 d7 bc 6b 4f 0a bd b2 24 d2 3c 90 8c df bb
       -0.026307384 -0.033767145 0.025652263 -0.0068221763
000210 98 ab 94 3c 83 f4 2e 3d 5c ec 8c bd a6 1c c3 bd
       0.018148229 0.042713653 -0.068810195 -0.09526949
000220 8a ff 8c 3d 87 30 c1 bd f7 c8 6d bd 00 2d 8a bd
       0.06884678 -0.09433084 -0.058052983 -0.06746864
000230 b2 71 cf 3a b4 cc 87 bc 10 92 ad bd 57 c8 89 bd
       0.001582673 -0.016577102 -0.08475125 -0.06727665
000240 9b e5 45 3d ec f9 2b bd 9b 4b a7 3d 74 a6 44 3d
       0.048314672 -0.04198639 0.081687175 0.048010305
000250 45 d1 c0 bd 9a 64 8a bd cc 9b dd bd 2e d9 e2 3b
       -0.09414915 -0.067574695 -0.108207315 0.0069228625
000260 04 04 83 bc 9d 8e 85 3d 9d e5 34 3c 55 39 c9 3b
       -0.015993126 0.06521342 0.011041072 0.0061408677
000270 f3 46 1e 3d 0f 75 ce 3d 10 e2 92 3d 9c 5b db bd
       0.03864188 0.10080921 0.07172024 -0.107108325
000280 3b f1 59 bd 80 69 ae bb 26 c1 ed bc 8c bd 80 bd
       -0.05320857 -0.005322635 -0.029022764 -0.06286153
000290 48 e5 62 3d 5a 52 89 bd a1 39 c6 bc 6a 78 9c 3d
       0.05539444 -0.067051604 -0.024197401 0.07640155
0002a0 58 2b e1 3c 81 22 e0 bd f4 98 c1 3d 4d d6 c5 bc
       0.027486488 -0.10944081 0.094530016 -0.024150038
0002b0 65 92 cf bd 8e f8 94 3d 3b 15 44 3b 58 91 bc 3d
       -0.101353444 0.072739705 0.002991988 0.092074096
0002c0 e3 24 71 3c ad c7 3b 3d 74 75 f1 3d 37 23 86 3c
       0.014718267 0.045844723 0.117899805 0.016374214
0002d0 83 5c c1 bd b8 b3 b9 bd 00 4c bc 3d d1 ab 77 3d
       -0.09441473 -0.09067482 0.09194183 0.06046659
0002e0 61 b1 9a bd 98 88 bf 3c 12 d1 b3 bd 18 a6 6d bd
       -0.075533636 0.023380563 -0.08780111 -0.058019727
0002f0 74 de 29 bd 88 28 af bd 78 24 83 bd e0 0c 0b bd
       -0.041471913 -0.085526526 -0.0640344 -0.033947825
000300 72 38 4f 3d 80 da 46 3c 4f a0 4e bd bf 7a d4 3d
       0.05059094 0.012137055 -0.05044585 0.103749745
000310 ce bb 88 3d f6 8c 28 bb a5 9a 77 3d 57 8b ed bc
       0.06676446 -0.0025718785 0.060450215 -0.028997106
000320 99 45 a3 bd a5 8d 0c bd 7e 65 49 3d a2 23 93 3d
       -0.07972259 -0.03431477 0.049169056 0.07184531
000330 16 db 4f 3b 49 db ac bd 91 0f 63 bc 18 08 98 bd
       0.0031716279 -0.08440263 -0.013858692 -0.07423419
000340 32 a4 61 bd 77 7b 03 3e bd e2 d6 3d a0 14 47 3d
       -0.05508823 0.12840067 0.10492466 0.048603654
000350 e0 e1 0f bb 21 2d cb bc d8 80 fb 3c f4 2a b7 3d
       -0.00219547 -0.024801793 0.030701086 0.089437395
000360 f8 49 73 bd 94 43 d2 bd 1e a2 8e 3d d2 a9 e0 3b
       -0.059396714 -0.10266796 0.06964515 0.0068561817
000370 55 a8 e6 3d d0 f1 f8 3b 55 cd d2 3d 13 62 55 bd
       0.112625755 0.0075971857 0.1029307 -0.052095484
000380 a2 5f f0 3d ba cc 16 bd 97 43 84 bd 40 85 a4 3d
       0.117369905 -0.036816336 -0.06458204 0.08033228
000390 ce 13 8f bd 53 df cb 3c b1 98 d4 ba 92 1a f8 3c
       -0.06986199 0.024886763 -0.0016219822 0.030286107
0003a0 3c 77 d2 3d e5 9d e9 3d f8 d2 e7 3d 04 4f e6 3d
       0.102766484 0.11407069 0.11319536 0.1124554
0003b0 5f bf 65 bc 83 c6 a4 3d 56 e2 86 bc e7 82 89 3c
       -0.014022677 0.080456756 -0.016465347 0.016786052
0003c0 23 61 d7 bd 18 0c f1 bc 88 a6 ce 3c 7e 3e d4 bd
       -0.10516574 -0.029424712 0.025225893 -0.10363482
0003d0 38 6a c0 3d 6a bb 57 bd e8 e3 2a bd a1 7d 09 3c
       0.093952596 -0.052668966 -0.041721255 0.008391769
0003e0 54 56 b9 bd d4 9a aa bd 60 dd 6a 3b 8b c8 84 3c
       -0.09049669 -0.08330312 0.0035837516 0.016208908
0003f0 e8 29 e2 3c 94 90 a0 bc 26 d4 b3 3d 33 58 b3 3d
       0.027607873 -0.01960019 0.087806985 0.08757057

layer5.bias f4 [60]
000000 9b 55 86 3d c9 34 ee 3c e7 19 4d 3d b7 cb aa bc
       0.06559297 0.029077904 0.05007353 -0.020849092
000010 be 09 af bd 78 6c c0 bc 4a 81 f5 3d c8 58 9b bd
       -0.0854678 -0.023489222 0.119875506 -0.07585293
000020 58 14 b1 bc c5 87 76 3d a8 8d f7 3c d8 fe 80 bd
       -0.021616146 0.060188074 0.030218914 -0.062986076
000030 db 63 fa 3d 81 eb c5 bd 89 60 d2 3d 10 40 3a bc
       0.12226077 -0.096640594 0.10272319 -0.011367813
000040 cc de 12 3d 57 ba e1 bd b5 99 5f bd 6b 17 28 3d
       0.035857007 -0.1102187 -0.054589946 0.041037958
000050 b7 57 eb 3d 10 51 ca bc 08 2d 1c bd 0d a7 36 bc
       0.1149134 -0.024696857 -0.038128883 -0.011148226
000060 d1 e4 aa bd 3b e8 c2 bd 1c 92 c3 3d 40 eb 29 3d
       -0.083444245 -0.09516951 0.095493525 0.041484118
000070 a9 f4 2f 3d 4d 99 0b bd 64 4b 01 3d 09 66 97 3c
       0.042957935 -0.034081746 0.03156604 0.018481271
000080 90 bf 14 3d f4 65 d8 bc f4 a0 90 bc 96 2b af bd
       0.0363155 -0.026415803 -0.017654873 -0.08553235
000090 68 9d 24 bd 0f 82 9c bc df 09 58 3d 9a d9 be bd
       -0.040189177 -0.019104986 0.05274379 -0.09318848
0000a0 f4 a9 46 3d 68 31 c1 3d aa 4d 86 3d 94 68 e8 bc
       0.048501924 0.094332516 0.06557782 -0.02837018
0000b0 b8 82 cb 3d 61 ef d0 3d 3b 51 ad 3d 3d a8 5f 3d
       0.09937042 0.10201908 0.08462759 0.054603804
0000c0 1b 80 b1 3d 1e 02 86 bd fb 96 c2 3d 8e 39 33 bd
       0.08667012 -0.065433726 0.095014535 -0.04375606
0000d0 d2 e5 98 3d 53 97 ee 3d 54 91 3b 3d 3e a1 e1 3d
       0.0746571 0.116499566 0.045792893 0.11017083
0000e0 b1 fe 5d 3d 38 cd 3e 3d ea dd 87 bd e3 38 b6 3d
       0.05419797 0.04658243 -0.066341236 0.08897569
