saved_models/model_AMZN.pt (torch_old, 190423 bytes, 15 tensors)

layer1.weight f4 [100, 5]
000000 d8 a7 ab be 0e 66 9d 3e a0 86 44 bd 60 db d6 bc
       -0.33526492 0.30741924 -0.04797995 -0.026227653
000010 f3 f5 bc be c4 b3 94 be 10 03 7a 3e f3 24 dd be
       -0.36906394 -0.290434 0.24415231 -0.43192253
000020 06 09 9c 3e f2 8f 5d be 6c 79 00 be fe e3 07 3d
       0.30475634 -0.21636942 -0.12546319 0.033176415
000030 97 7c 89 be 94 7e a0 3e 53 0f 8d 3e 87 24 aa 3e
       -0.26852867 0.3134657 0.27550754 0.33230993
000040 0f 61 b7 3e 2c 9a 93 3e 9d 52 ab 3e 1f 83 1e 3e
       0.35816237 0.2882856 0.33461466 0.15479706
000050 37 c0 00 be 0e 3c 07 bb 58 5d d9 3b df 0a ae 3e
       -0.12573324 -0.002063516 0.006633442 0.3399267
000060 32 68 c6 3e 07 0a 8a 3d 9b 5e 8f be 5f 55 75 3e
       0.3875137 0.06740194 -0.28001866 0.23958348
000070 84 ac c0 3e dc 12 9b 3e 34 ae c6 be 3c e3 d3 be
       0.3763162 0.30287826 -0.3880478 -0.41384304
000080 a6 e7 b6 be 58 6b d5 3d 08 87 82 be 5c 3c 05 3e
       -0.3572361 0.10420865 -0.25493646 0.13011307
000090 85 35 db be f8 3e f2 bd 00 00 27 be 80 26 a6 3c
       -0.4281427 -0.118284166 -0.16308594 0.02028203
0000a0 2b 8e 5c be 90 c0 19 3d 78 50 12 be 60 87 10 3c
       -0.21538608 0.037537158 -0.14288509 0.008821338
0000b0 a0 57 af 3d 80 2c 4f bd 9f d4 5d be 4e 62 ae be
       0.08561635 -0.050579548 -0.2166314 -0.34059376
0000c0 60 dd 8f bc dc 79 42 3e 68 24 92 be 19 24 60 3e
       -0.017561615 0.18991798 -0.285434 0.2188877
0000d0 e0 4d 6c 3e e2 4d 3b bd 1a 3e f0 bd f3 6e 89 3e
       0.23076582 -0.04572857 -0.11730595 0.2684246
0000e0 32 6b 6b ba e1 b4 9f be 05 57 d7 3e ae b7 05 3e
       -0.0008980512 -0.31192687 0.42058578 0.1305835
0000f0 10 07 a7 3e 7e 71 be be bc 36 22 be d0 13 78 3d
       0.32622576 -0.37195963 -0.15841192 0.06056577
000100 42 30 c6 be d3 5f c4 be 38 0f ea 3d d6 e9 35 be
       -0.38708693 -0.38354358 0.11428684 -0.17764983
000110 00 7b 37 bb b6 87 85 3e 87 cc f1 bd 36 96 c7 be
       -0.0027996898 0.26080102 -0.118065886 -0.3898179
000120 68 6d e9 3e 16 dc a6 bd d0 21 b5 3e ae c6 49 be
       0.45591283 -0.08147447 0.3537736 -0.19704697
000130 0b f5 6c be 4c b2 47 be ce 31 83 3e 90 44 81 3d
       -0.23140351 -0.19501609 0.25623935 0.063119054
000140 48 45 88 3d ea bd b1 3e 3c 23 bf 3e fb 38 c5 be
       0.06653839 0.34715205 0.3733157 -0.38520035
000150 0f d5 c2 be 14 9f 4c be 74 f4 15 be 80 27 c8 3b
       -0.38053176 -0.19982558 -0.14644033 0.0061082244
000160 fb b9 dc be 5e 40 11 be e1 9a 95 3e ac ea c5 be
       -0.43110642 -0.1418471 0.29219726 -0.38655603
000170 1c 7a c6 3b 09 92 15 3e 46 2f ef bd 1c 83 b2 bd
       0.006057037 0.14606489 -0.116789386 -0.087164134
000180 35 03 b6 3e a6 46 e4 bd 05 48 be 3e 47 d4 67 3e
       0.35549322 -0.111462876 0.37164322 0.22639571
000190 28 67 59 3d e9 9b e3 3e 11 d5 82 be 2a 41 9c 3d
       0.053076893 0.44454888 -0.25553182 0.076296166
0001a0 7b b2 4c 3e 71 94 00 3e a0 1e 65 3c 47 79 c4 bd
       0.1998996 0.12556626 0.013984352 -0.09593444
0001b0 ff 6b 85 be cc 4d c4 3e 7f 89 85 be 90 af e4 3d
       -0.26058957 0.38340604 -0.26081464 0.111662984
0001c0 b1 20 b5 be d6 b8 c9 bd 4e 58 cf 3e 21 03 c8 3e
       -0.35376504 -0.09849708 0.4049706 0.39064887
0001d0 4e 5d 35 be 8e 19 e3 3c d7 84 13 3e 7c cf 79 be
       -0.17711374 0.027722146 0.14406143 -0.24395555
0001e0 cd 8d ac be b8 f2 25 be c0 27 ef bc 80 47 33 bb
       -0.33701935 -0.16205871 -0.029193759 -0.002735585
0001f0 e2 5c a4 be cb 38 b2 3e f0 fb a7 3e d4 fa 20 be
       -0.32102114 0.34808955 0.328094 -0.15720683
000200 ea 96 bb 3e 00 da 51 be e6 c5 8f be 96 a8 ce 3e
       0.36638576 -0.20493317 -0.28080672 0.40362996
000210 71 de 28 be e7 3e ae be 30 da 95 3e 58 fc c0 be
       -0.16491105 -0.34032366 0.29268026 -0.37692523
000220 00 0b 30 3e 28 d3 d2 3d 98 88 44 bd 8e 04 b0 be
       0.17191696 0.10294181 -0.04798183 -0.34378475
000230 a7 d5 b3 3e 62 64 9a bd b6 4d ab be e3 65 38 3e
       0.3512394 -0.07538678 -0.33457726 0.18007617
000240 e3 1d db 3e 8d 57 a3 be d4 48 de 3d a9 7e d7 3b
       0.4279624 -0.31902733 0.108537346 0.0065763784
000250 ab cc 2e 3e 4e b0 56 3e 3a ec 37 3e 2b 6f 6c 3e
       0.17070262 0.20965692 0.17961207 0.23089282
000260 31 dc a8 be 62 c1 88 3e d6 4f c3 3d 1b 3b 9f 3e
       -0.32980493 0.2671004 0.09536712 0.3109978
000270 f8 32 17 3d 1f 22 c5 be b3 64 70 3e 17 9f 4f bd
       0.036913842 -0.38502595 0.23475914 -0.05068883
000280 ea 19 71 bd 64 ba 42 be c5 fd d5 3d e3 2b 81 3e
       -0.058862604 -0.19016415 0.10448793 0.25228795
000290 1b 13 e4 3e 88 49 3a 3e 20 58 11 bd 9a 33 91 be
       0.44545826 0.18192112 -0.035484433 -0.2835968
0002a0 58 58 39 3d 98 a0 ad bd 34 c8 dc bd b5 d2 8a 3e
       0.045250267 -0.084778965 -0.10780373 0.27113882
0002b0 e1 31 d9 3d e1 84 be be b6 dc 7d 3e f2 1d b4 3e
       0.10605217 -0.37210754 0.24791226 0.35179096
0002c0 19 f2 d3 3e aa aa a5 3e df e0 4c 3e 27 63 47 3e
       0.41395643 0.3235677 0.20007657 0.19471417
0002d0 e1 1f 6b 3e 55 07 5f be ec 86 5e bd 67 3c b3 3e
       0.2296138 -0.2178014 -0.05432789 0.3500702
0002e0 3c df fc bd e4 20 63 3e 0c 3b 4d 3e 01 74 d7 be
       -0.12347266 0.22180516 0.20042056 -0.4208069
0002f0 b2 cd 9c 3e 64 f9 dc be 60 a7 b2 3d 1f ee d7 be
       0.30625683 -0.4315902 0.087233305 -0.4217386
000300 91 94 b4 be fe 7b de 3e 78 08 d2 be 70 1f 9b 3e
       -0.35269597 0.43453974 -0.41022086 0.30297422
000310 96 64 52 3e 8d 37 74 be 46 da 4c 3e 9a ef 3e 3d
       0.20546183 -0.23849316 0.2000514 0.04661522
000320 fa 35 bc 3e d3 a3 7e be 80 2b 9c bb f2 e9 d1 be
       0.3675993 -0.24867181 -0.004765928 -0.409988
000330 4c 4f ba bd 48 88 99 3d 2d e5 c6 3e 79 e6 b5 be
       -0.09097156 0.07496697 0.38846722 -0.355274
000340 77 2b dc 3e 88 be fe 3d 65 05 95 be 4b c9 30 3e
       0.4300191 0.12438685 -0.29105678 0.17264287
000350 71 1f 8e 3e a5 e3 9c 3e 57 f0 63 3e 78 d9 38 bd
       0.27758363 0.3064243 0.22259651 -0.04512927
000360 be e2 23 be 26 f1 da 3e c0 1f a2 be 6a 20 7e be
       -0.16004464 0.42762107 -0.31664848 -0.24817052
000370 b8 d0 b9 be 6c 4f b0 bd aa 67 e2 3e c8 e7 69 bd
       -0.36292052 -0.086088985 0.44219714 -0.05710581
000380 49 7e d8 be f3 82 cc 3e f0 bb da 3d ea 95 a7 3e
       -0.42283848 0.39943656 0.106803775 0.32731563
000390 29 63 86 3e 00 3b b2 3c a0 d9 f2 3d 74 78 55 be
       0.26247528 0.021756649 0.11857915 -0.2084673
0003a0 30 aa 85 bc da 8f 05 be 3c ed a2 be fc 14 27 3e
       -0.016316503 -0.13043156 -0.3182162 0.16316599
0003b0 b0 39 a9 be ea 7f c4 be e8 cf 5b be 91 43 92 be
       -0.33051825 -0.3837884 -0.21466029 -0.28567174
0003c0 cc 21 81 be dd 20 71 3e 5c 11 08 3e 51 eb 83 3e
       -0.25221097 0.23547693 0.13287872 0.2576547
0003d0 34 6b bc 3e 78 08 1b 3d 5f 4a c3 be 56 3f 08 be
       0.3680054 0.037849873 -0.38142678 -0.1330541
0003e0 ba ee b0 be b0 bb a8 bd ee 5e cb 3e ed 59 b8 3e
       -0.34557134 -0.082389235 0.39720863 0.36006108
0003f0 7b 04 8f be 0f 7a a6 bd 5d cd 6a be 8e 5a a5 3e
       -0.27933106 -0.081287496 -0.22929902 0.3229565

layer1.bias f4 [100]
000000 60 34 a2 be ea 48 9e 3e 89 99 b3 3e 97 7c 35 be
       -0.31680584 0.30915004 0.35078076 -0.17723309
000010 ff da 06 be 4c f1 c7 be d8 f8 0c 3d bc 4d eb bd
       -0.13169478 -0.39051282 0.034417003 -0.11489436
000020 e6 d4 98 3e 08 3c 7f 3e 25 ef a6 be 89 89 15 be
       0.2984993 0.24925244 -0.32604328 -0.14603247
000030 48 f7 1b 3e 12 b3 8c 3e 0d 76 8f 3c 00 d0 fe 3c
       0.15231049 0.2748037 0.017512346 0.031105042
000040 5c cb 6f 3e dc 0e ab be 6c a5 8a 3e 55 3a d0 3e
       0.23417419 -0.33409774 0.27079332 0.40669504
000050 f6 73 7e 3e c4 e3 66 3d fc b0 b4 3e 1a 32 b7 3e
       0.24848923 0.056369558 0.35291278 0.35780412
000060 1a ca 96 3e 27 0c c5 be a5 ad 9f 3d 0c 05 3a be
       0.29451066 -0.38485834 0.07796792 -0.18165988
000070 98 f8 05 be 53 f3 d1 3e 49 80 5b 3e 42 3d b1 3e
       -0.13083112 0.41005954 0.21435656 0.34617049
000080 33 d4 df 3e 6a 4d 89 3e b7 d2 50 be ca 84 65 3d
       0.43716583 0.26816875 -0.20392881 0.05603484
000090 e2 2b de 3e e0 91 b6 bc b4 49 22 3e f4 4b 9b 3e
       0.43392855 -0.022286355 0.15848428 0.30331385
0000a0 84 f6 b8 be 97 ff 83 3e c8 ce 03 bd 9a 33 e0 3e
       -0.36125576 0.25780937 -0.032179624 0.4378937
0000b0 db b9 84 be a6 13 c1 bd 0c bb 87 3e 84 04 80 be
       -0.25923046 -0.09427576 0.26509893 -0.25003445
0000c0 5d 12 15 bd 10 02 81 bc 42 3d 70 bd 42 c8 b8 3e
       -0.036394466 -0.015748054 -0.05865217 0.36090285
0000d0 05 05 d4 be a8 79 88 3e d5 42 c0 3e a1 60 97 be
       -0.4141008 0.26655316 0.3755099 -0.2956591
0000e0 cb d1 93 3e 84 78 b7 be 9a 7c dd bd 54 20 1e 3e
       0.28870997 -0.35834134 -0.108147815 0.1544202
0000f0 b8 50 02 be 16 05 2d bd fe 88 f2 3d 3e d1 49 3d
       -0.12726104 -0.04224118 0.118425354 0.049271815
000100 d0 f8 b4 bd aa f4 cf be 9a ac e1 be 2f 82 29 3e
       -0.0883652 -0.4061635 -0.44076997 0.16553567
000110 89 34 12 3e 94 02 eb bc 6f 00 8e be 90 10 99 be
       0.14277853 -0.028687753 -0.27734706 -0.2989545
000120 80 be b7 3e 4d 2e cc 3e 90 f5 95 3d c6 a1 df be
       0.35887527 0.39879075 0.07322228 -0.4367811
000130 0d 89 4f 3e 41 42 89 bd 30 de 2b be d0 30 53 be
       0.20267124 -0.0670209 -0.16783977 -0.20624089
000140 6a 51 a8 3e d0 5c 4b bd 7f d9 91 be f0 99 44 be
       0.32874614 -0.04964906 -0.2848625 -0.19199347
000150 47 cb c5 3c f3 de 3b be 47 be b8 3e 3c c3 b5 3e
       0.024144782 -0.18346767 0.3608267 0.35500515
000160 03 95 dd 3d 74 76 b4 be 84 58 d1 3e 35 94 8c 3c
       0.10819437 -0.35246623 0.40887845 0.017160514
000170 6a 2e 31 be 26 1d 85 bd d8 6e 7c 3e c5 79 a4 be
       -0.17302862 -0.064997 0.24651659 -0.32124153
000180 b6 6a 55 3e d4 cb 37 be 85 30 89 3e 2c 0f 0d bc
       0.20841488 -0.17948848 0.2679483 -0.008609574

layer2.weight f4 [150, 100]
000000 70 fb 53 3c 7e 76 1c 3d a9 6f 69 bc b4 c2 b0 3d
       0.012938365 0.03819894 -0.014247813 0.08630887
000010 be 32 b2 3d f6 2d a2 3d fc 94 16 bd 00 cc db bb
       0.087010846 0.079189226 -0.036763176 -0.0067076683
000020 80 1a 56 ba d0 b2 29 3c 0a 5b b3 3c 94 f3 08 bc
       -0.0008167401 0.010357574 0.021893997 -0.008358855
000030 a2 57 09 3d 43 99 8f 3d 0a 2f 4a bd c2 b8 95 bd
       0.03353084 0.07011654 -0.049361266 -0.073106304
000040 c2 54 db 3d ee 2e 8d bd 15 ab 3d 3d d3 c1 d6 3d
       0.10709526 -0.06893717 0.046305735 0.10486188
000050 b6 94 14 3d 38 39 e0 3c a7 02 a6 3d 18 a3 6d bd
       0.036274634 0.027371034 0.08105975 -0.058016866
000060 30 42 ad bb 20 12 2f bd 95 fe db bb b5 f4 96 bd
       -0.005287431 -0.042741895 -0.006713698 -0.07370893
000070 85 46 ee 3c cb ba e2 3d fb bf a2 bd 11 a6 35 3d
       0.02908636 0.11070784 -0.079467736 0.044347826
000080 bf 9c b2 3c e5 60 80 3d be 98 b3 3d b0 3a 91 bd
       0.021803258 0.06268481 0.08769368 -0.07091272
000090 ad c6 16 3d 50 fd 6a 3c 30 d7 8c bd 73 99 cd 3c
       0.036810566 0.014342621 -0.06876981 0.025097584
0000a0 29 52 c0 3d e2 cf aa 3d 76 48 8b bd 40 2c 0e bd
       0.09390671 0.08340432 -0.0680093 -0.03471017
0000b0 73 54 bf bd dc 95 0d bd 08 a8 9e bc 33 98 2c bd
       -0.09342279 -0.034566745 -0.019367233 -0.042137336
0000c0 19 6b 25 bd e2 db 41 3d e4 66 c6 3d 3e 86 45 3d
       -0.04038534 0.047328837 0.096875936 0.048223726
0000d0 ca 4c 48 3d a1 b2 1d 3d 95 9d b6 3d 62 92 2a b9
       0.048901357 0.038500432 0.08916775 -0.00016266995
0000e0 a2 d2 94 bd 7e 04 79 3d b3 a7 9b bd e0 00 a6 bc
       -0.072667375 0.0607953 -0.076003455 -0.02026409
0000f0 2a bb 29 bd 2d 43 80 bd f5 2b 73 3a 0b 7a 44 3d
       -0.04143826 -0.06262813 0.00092762645 0.04796795
000100 f8 74 cf bc de 52 b4 3d 83 0d 49 bd 9a 8c 32 bd
       -0.02532433 0.08804868 -0.04908515 -0.04359112
000110 16 fa 46 3d c8 c3 9d bc 51 f2 d6 3c f8 bb 82 bd
       0.048578344 -0.019258395 0.026238592 -0.063835084
000120 da 6f 6a bd 46 18 50 bc bc 60 ef 3c 22 c3 2a 3d
       -0.057235576 -0.0127011 0.029220931 0.04169
000130 d9 31 e4 3d d0 7e 22 bd cc eb b7 3c 4c 6d fd 3c
       0.1114232 -0.03967172 0.022451304 0.030935906
000140 60 75 6d bd d4 9d a6 3c 4a f7 76 bc c0 8a 38 bd
       -0.057973266 0.02033893 -0.015073607 -0.045054197
000150 8b c6 88 3d f1 54 f4 bc 1c 49 7b 3d 76 10 17 3d
       0.06678494 -0.02982566 0.06134902 0.036880933
000160 56 b1 8f bd ee a0 9e bb 79 7f bc 3c 2e 39 b5 3c
       -0.07016246 -0.0048409617 0.023010002 0.022121992
000170 1e 89 88 bd 7a e3 5f 3d d0 d8 81 bb 65 93 95 3d
       -0.06666778 0.054660298 -0.0039626136 0.07303504
000180 15 27 d9 bc 94 1a 91 3c 82 36 c5 3d ed c3 4f 3d
       -0.026507894 0.017712869 0.09629537 0.05072396
000190 b4 2a 92 bc fe a1 93 bd ac 02 81 bc 6c 8f c6 bc
       -0.017842628 -0.07208632 -0.015748344 -0.02423831
0001a0 1b 9c b4 3d a0 4f 9f bd e3 dc 9e 3d d1 58 c9 3d
       0.08818837 -0.07778859 0.077569745 0.098313935
0001b0 c2 38 5b 3d ee 87 a1 bd c0 b2 e6 bc af f1 ca bd
       0.053520925 -0.07887255 -0.028161407 -0.09909379
0001c0 08 3d b3 bd 23 14 5b bd 68 28 aa bd 11 d8 93 3d
       -0.08751875 -0.053486 -0.08308488 0.07218946
0001d0 3f 6c 8b 3d 07 c0 cb bd b2 c7 2b 3d 32 62 39 3d
       0.06807756 -0.09948736 0.04193849 0.045259662
0001e0 22 d1 72 3d 0c f1 b8 3c 80 d8 0a bd ca 7a 60 3d
       0.059281476 0.022575878 -0.033897877 0.0548046
0001f0 b0 0e 90 bd 26 f5 0c bd 50 b3 f4 bb 98 13 ba bc
       -0.070340514 -0.03441348 -0.007467665 -0.022714421
000200 80 e3 23 3c 2a 6c 28 bd 40 1c 68 3b 2f 82 b3 bd
       0.010002971 -0.04111878 0.003541723 -0.08765065
000210 30 66 91 bb e3 92 28 bd 81 49 9b 3d 7a 78 c1 bd
       -0.0044372305 -0.041155707 0.07582379 -0.09446807
000220 96 b2 0d bd 88 83 a4 3c 72 3d 82 bd 2e b4 7d 3d
       -0.03459414 0.02008225 -0.06359376 0.06193941
000230 70 c7 66 bd 5d 31 36 bd 68 bf 8b 3c 37 10 c7 3d
       -0.056342542 -0.04448067 0.017059043 0.097198896
000240 04 bc 86 bd 3a 71 38 3d 60 0a e4 bc fd 49 a3 bd
       -0.0657883 0.045029856 -0.027836978 -0.079730965
000250 49 25 98 3d 1a 3b 71 bd e0 fb c5 bd f6 05 0b 3d
       0.074289866 -0.058894254 -0.09667182 0.03394123
000260 96 13 5b 3d 4b 0f 99 bd 20 19 91 bd c0 48 22 bd
       0.053485475 -0.0747362 -0.0708487 -0.03962016
000270 85 49 96 bd 49 32 85 3d c0 52 2a 3c 60 dd a3 bd
       -0.073382415 0.06503732 0.010395706 -0.08001208
000280 a8 e8 0a 3c aa 7c 0d 3d 9a 0a b5 bd 78 5a b4 bd
       0.008478321 0.034542717 -0.08839913 -0.08806318
000290 f9 22 9f 3d 73 7a 8d bd df 9b 83 3d 41 42 ab 3d
       0.077703424 -0.06908121 0.064262144 0.08362246
0002a0 08 42 8a bc d0 f8 e8 bb 7f d0 93 3d 50 db 90 bb
       -0.01687719 -0.007109739 0.07217502 -0.0044206753
0002b0 cb db b3 3d 66 ec 83 bd 60 d8 ce bc e5 8c a0 3d
       0.087821566 -0.06441574 -0.02524966 0.078393735
0002c0 83 a1 9b 3d aa 23 7c bd 44 a3 fc 3c a4 bc ef 3c
       0.07599165 -0.06155745 0.03083957 0.029264756
0002d0 ec 7b 9b bc ce 3c 6d 3d ea c7 15 bd 90 b6 44 3c
       -0.018979989 0.057919316 -0.036567606 0.012006417
0002e0 b0 f1 b7 3b f0 6c 67 bc 30 74 8c bb d6 f2 20 3d
       0.005613528 -0.014125094 -0.0042863116 0.039294086
0002f0 38 92 a9 3c 3a d4 c6 bd c0 3c 86 bc df 7f c6 bd
       0.020699605 -0.09708448 -0.01638639 -0.09692358
000300 b4 6c d3 bc 82 28 85 bd 40 4d 32 3b 2f af 8e 3d
       -0.02580867 -0.06501867 0.002720669 0.06967007
000310 3c 79 09 bd 61 b2 ad 3d 56 19 01 bd 60 bd e1 3b
       -0.033562884 0.08481289 -0.031518303 0.0068890303
000320 00 c7 a2 3c 00 4e 2a 3b aa e1 e7 bc 8f 18 ac 3c
       0.019870281 0.0025986433 -0.028305847 0.021007804
000330 cf 75 5f bd c8 bd aa 3d 48 03 86 3c 8c 9b f8 3c
       -0.05455571 0.08336979 0.016358986 0.030347608
000340 40 69 99 bd d2 95 81 bd 0a ec 7b bd bc 35 d5 3d
       -0.07490778 -0.06327404 -0.0615044 0.1041064
000350 28 2e 8b bc d6 a0 ab bd e8 f1 a0 3c cc 5b dd 3c
       -0.016989782 -0.083802864 0.0196466 0.027021311
000360 2f 6e d8 3b 00 bc 13 bd dd 5a 21 3d c5 fa 23 bc
       0.006604932 -0.036067963 0.039393295 -0.010008519
000370 88 19 af 3c 52 81 82 3d 96 64 af bc de ae c7 3b
       0.021374479 0.06372322 -0.021410268 0.006093844
000380 70 69 19 bd 06 27 7b bc 99 c1 b2 bc ae c6 14 3d
       -0.03745407 -0.015329128 -0.02182083 0.03632229
000390 34 5d 7b bd 69 56 a1 3d 88 ad cf 3c 90 a7 a3 bc
       -0.061368182 0.078778096 0.0253513 -0.019977361
0003a0 8d 62 f1 3d 09 ef b6 3d db 80 d3 3d 2f 43 b7 bc
       0.11786375 0.08932311 0.103273116 -0.022370903
0003b0 c9 1a d8 3c 64 a5 fa 3c 1d f8 1e bd cf ab da 3d
       0.02637996 0.030596443 -0.038810838 0.10677301
0003c0 f6 7a 64 3d 36 d1 62 bc d4 43 36 3d b3 93 a4 3d
       0.055781327 -0.013843825 0.04449828 0.08035984
0003d0 00 7c 37 b9 6f e5 85 bd 50 5b 46 bc 22 06 3e 3d
       -0.00017498434 -0.065379016 -0.0121067315 0.046392567
0003e0 bb 80 a0 bd 00 7f 69 bd 74 16 71 bb 77 2a bc bd
       -0.078370534 -0.057005882 -0.0036787065 -0.09187787
0003f0 c2 d8 92 3d f6 7b 8a bd 2d 09 d9 3d b4 f8 dc 3c
       0.071702495 -0.06761925 0.10597453 0.02697406

layer2.bias f4 [150]
000000 fb fe e5 3d 90 a1 60 bd de b1 fa 3d 58 26 d2 3d
       0.11230274 -0.054841578 0.12240957 0.1026122
000010 bd 04 6f bd 3c 53 ed 3c ec 20 88 3c 7f 2d a3 bd
       -0.05835413 0.028970353 0.01661726 -0.07967662
000020 e5 70 bc 3d c6 78 2a 3c 92 f1 45 3d ea ab 05 3d
       0.092012204 0.010404771 0.048326083 0.032634653
000030 ba ec b1 bd ae c3 11 bc ae bb 5d 3d df 36 c2 3d
       -0.0868773 -0.008896751 0.054134063 0.09483122
000040 2c c2 98 bb 90 72 b0 bc a3 c4 07 bd 0f 27 a2 bc
       -0.004661819 -0.021539003 -0.03314651 -0.019794015
000050 30 a8 be bd 3a ec 7f bd 34 ba b7 3c 13 92 b3 3d
       -0.09309423 -0.062481143 0.022427656 0.08768096
000060 1b b7 1a bd f3 95 60 bd f9 8d 1e 3d 10 3a 19 bd
       -0.03777228 -0.054830503 0.038709614 -0.03740889
000070 1f 0e c0 bd d1 1d 3b bd 00 4c 18 3c a1 3f cb 3d
       -0.093776934 -0.045682732 0.009295464 0.099242456
000080 6d b9 a4 bd 04 75 02 bd b8 f9 7c 3d 96 70 ce 3d
       -0.0804318 -0.031849876 0.061761588 0.10080068
000090 c7 d8 1b bd a3 5c 90 3d 9a 45 14 bd 77 31 2a bd
       -0.03804853 0.07048919 -0.03619919 -0.04155108
0000a0 c2 8c 3f 3d 00 fb af bb c8 b7 41 3d 84 0a 60 3d
       0.046765096 -0.0053704977 0.047294408 0.05469753
0000b0 09 8c 90 bd 70 85 1b bd 73 aa 88 3d 40 61 32 bb
       -0.070579596 -0.037969053 0.066731356 -0.002721861
0000c0 40 85 6e bd 89 66 e1 bc 33 85 cf bc 88 d8 11 3d
       -0.058232546 -0.027514713 -0.025332069 0.03560689
0000d0 89 00 6e 3c b0 51 49 bc 4c 2b f2 bc 57 64 69 bd
       0.014526495 -0.012287542 -0.029561661 -0.056980457
0000e0 bf e9 8a 3d 00 0b 73 bd 53 af 6b 3d 20 c7 13 bd
       0.06782865 -0.059336662 0.05754025 -0.036078572
0000f0 98 c2 6d bc a5 2d 0b 3c aa 99 ca bd da 9e e0 3c
       -0.014511727 0.008494769 -0.0989259 0.027419496
000100 15 ca 05 bb 7d a0 0f 3d d1 21 7e bc a0 bd b1 bc
       -0.002041464 0.035065163 -0.015510992 -0.021696866
000110 1e 08 0d 3c a0 91 1d 3d f8 89 36 3d 20 31 7a bd
       0.008607892 0.038468957 0.04456517 -0.061082006
000120 a8 39 8e 3c 7a 24 97 bd ac 97 85 bd 22 9e 3c 3d
       0.017361477 -0.07380004 -0.0652307 0.046049245
000130 83 bc 7f 3d d0 f8 c6 3b b8 09 8d bd 8d 54 fe bc
       0.06243564 0.006072141 -0.06886619 -0.031046176
000140 0a 16 56 3d ef 05 99 bd 4b 4e ab 3d 0d d6 7c bd
       0.05226711 -0.07471835 0.083645426 -0.061727572
000150 c0 40 67 bc 35 f2 68 bd d5 3e 81 bd 6c 96 14 bd
       -0.014114559 -0.05687161 -0.063108124 -0.036276266
000160 51 68 4b 3d 58 e3 f2 bc aa 5f 63 3d 42 27 9c bd
       0.04966003 -0.029649422 0.055511154 -0.07624675
000170 20 a9 83 3b e2 df c1 bd 43 ec 0c 3d c0 15 1b bc
       0.004017964 -0.094665304 0.034405004 -0.009465635
000180 ed 1c e2 3c 52 a2 65 3d 30 64 f5 3b 69 15 2f bd
       0.027601684 0.056063004 0.00748875 -0.042745028
000190 31 a9 e9 bc 51 7f 8f bd ca c7 52 3d 31 83 8c 3d
       -0.02852306 -0.070067056 0.051460065 0.0686096
0001a0 a9 f4 47 bd 34 bf fc bc b1 e6 59 bd 62 d2 26 3d
       -0.04881731 -0.030852892 -0.05319852 0.04072798
0001b0 84 29 d3 3c 9c 63 01 bd 12 e0 28 3d da 68 b9 bd
       0.025776632 -0.031589136 0.041229315 -0.09053202
0001c0 e8 72 87 bd f3 72 4f bd 54 31 a2 3d a9 15 f9 3d
       -0.066137135 -0.050646733 0.07919565 0.121623345
0001d0 a4 c2 d0 3c 37 e9 82 3d 40 4f cb 3c 81 84 a6 3d
       0.025483437 0.063921385 0.024818063 0.08130742
0001e0 f5 f2 a4 3d 2e 34 ec bc 24 fa f2 3c 30 6e d6 bb
       0.08054153 -0.028833475 0.029660292 -0.006543897
0001f0 2a 8b 5d 3d 60 c1 67 bc 32 bc 32 3d a8 f4 78 3c
       0.054087795 -0.014145225 0.04363651 0.015195049
000200 2d 90 8c bc ba 8d 57 bd 43 99 9c bd 69 c5 2f 3c
       -0.017158592 -0.052625395 -0.0764642 0.010728219
000210 6b ec a5 3d 93 67 05 3d c2 29 dd bc b5 0d 80 bd
       0.08101734 0.03256948 -0.02699745 -0.062526144
000220 ee c3 6c 3d 9d 8f 44 bd da a4 44 bd 9d 86 1a bd
       0.05780404 -0.047988523 -0.048008777 -0.037726033
000230 b1 e9 2d 3d 81 62 8c bd 8a ac 53 bc c9 04 22 bd
       0.042459194 -0.06854726 -0.0129195545 -0.039555345
000240 52 c5 15 3d da 3e 14 3d 43 4d 75 bd ad 5e c4 3d
       0.036565132 0.036192752 -0.059888136 0.095883705
000250 87 2a 63 bc f4 ef bd 3d
       -0.01386512 0.09274283

layer3.weight f4 [100, 150]
000000 22 b5 b9 3c a8 82 c4 3c 99 d1 b4 3d 7c 46 a6 3b
       0.022669379 0.023988083 0.0882904 0.0050743204
000010 1e 9b 5e bd 54 b4 90 3c e8 b0 50 bd 63 cc bf 3d
       -0.05434715 0.017664112 -0.05094996 0.093651555
000020 70 40 4f bd e6 97 49 bb 04 0e 81 bd 6c 43 eb bc
       -0.05059856 -0.0030760705 -0.063015014 -0.028718673
000030 2c c5 5c bd 28 80 6c bd 45 ba 0c bd f3 f5 01 bd
       -0.053898975 -0.057739407 -0.034357328 -0.031728696
000040 0a 0d 84 3d dc 57 3a bd c5 7e ca 3c 23 1f 25 3d
       0.064477995 -0.045493945 0.024718652 0.040312897
000050 5e 3a df 3c 97 a0 0d bd 30 4e e0 3c 68 99 05 bc
       0.027249511 -0.03457698 0.027381033 -0.008154251
000060 a2 a2 83 3c 1c cc 56 bd fb fe 25 3d 49 33 87 bd
       0.01606876 -0.052440748 0.04052637 -0.06601579
000070 90 95 94 bd 23 05 ba 3c ce 7b 19 3d 88 39 14 3c
       -0.07255089 0.022707528 0.037471585 0.00904692
000080 94 99 97 bd 9c a1 7c 3d 3e 15 08 3c db b2 a3 3d
       -0.074023396 0.06167756 0.008305846 0.07993098
000090 c0 9b 37 3d 77 c6 98 3c eb 23 25 bd 76 f4 75 bd
       0.04482627 0.018649323 -0.040317457 -0.06004759
0000a0 98 23 93 bc 56 6b 86 bd 94 a2 ca bb 51 8c b7 3d
       -0.017961308 -0.065634415 -0.0061839316 0.0896231
0000b0 c9 94 14 3d 70 ce ff 3b e0 d6 04 bb 6b 1d 9f bd
       0.036274705 0.0078065917 -0.0020269677 -0.07769283
0000c0 e8 88 88 3d 21 e6 26 bd 7a 45 84 bc a4 71 9d 3d
       0.06666738 -0.04074681 -0.01614641 0.07687691
0000d0 51 c2 87 3d ae 45 1b 3d 05 3b 5c bd fe e7 b9 bc
       0.0662886 0.03790825 -0.053767223 -0.02269363
0000e0 f2 97 03 bd 10 55 91 bb e7 04 6e bc 30 1f 95 3d
       -0.03212733 -0.004435189 -0.014527536 0.07281339
0000f0 60 72 c1 3b 34 1a d0 3c 3a fd b4 bc f0 0f 26 3d
       0.005903527 0.02540312 -0.022093404 0.040542543
000100 3a 9d f9 bc 5d 47 e3 3b ed a0 af 3d 00 78 6b b9
       -0.03047048 0.0069359974 0.08575616 -0.0002245605
000110 18 d0 70 3d b5 c4 75 3d cc e9 05 bd e8 0c 83 bd
       0.058792204 0.060002048 -0.03269367 -0.06398946
000120 dc 70 cc bc 15 95 1d bd 34 c4 96 bd 6c b3 8f bc
       -0.02495616 -0.038472254 -0.073616415 -0.01754161
000130 52 8e 3c 3d ba b4 34 bd 6a 25 95 bd 7e 8b 8c 3d
       0.046034165 -0.044117667 -0.07282527 0.068625435
000140 2c b5 75 3d 51 ac 78 3d 7a 60 86 3d dd 13 ea 3a
       0.059987232 0.06071121 0.0656137 0.0017858703
000150 68 43 20 3d 0f 14 91 3d e0 ec 46 bb 23 c7 6c 3d
       0.039126784 0.07083904 -0.003035359 0.0578071
000160 0b 30 f3 3b 57 8c 02 bd 40 22 19 3b 0c 0c 56 3d
       0.0074214987 -0.03187212 0.0023366362 0.052257583
000170 5a f0 93 3d f8 0f 75 bc 7e 02 3b bd 95 62 17 bd
       0.07223578 -0.0149574205 -0.045656674 -0.03695925
000180 97 60 8e 3d eb 11 2f bd d2 40 78 bd 0e ad 27 3d
       0.06952017 -0.042741697 -0.060608692 0.040936522
000190 b3 9d ae bc ec 15 2c 3d 6b 71 10 bd 66 5a a6 3d
       -0.021315431 0.042013094 -0.035264414 0.08122711
0001a0 5b 3d 68 bd 98 73 82 bd e3 e7 2f bd a6 8a 8e 3d
       -0.056699138 -0.06369704 -0.042945754 0.06960039
0001b0 a0 63 2a 3d d2 4b 88 3d 0f f9 11 bd 8a 3b 93 3d
       0.041598916 0.066550866 -0.03563791 0.071890905
0001c0 9d ad a3 3d 8a 48 10 bd e1 97 14 3d d4 b5 c2 b8
       0.079920985 -0.03522543 0.036277656 -9.284509e-05
0001d0 6e ec 22 3d 9f 2b 03 bd 4e 6e 82 bd e7 3b 85 bd
       0.03977626 -0.032024022 -0.06368695 -0.06505566
0001e0 d1 85 01 bd 91 25 57 bd 46 c2 b4 bc 60 c3 68 3b
       -0.031621758 -0.05252606 -0.022065293 0.0035516843
0001f0 5b e0 8f bd 68 d0 7f 3d 10 e1 90 3b 90 01 34 3d
       -0.07025214 0.06245461 0.004421361 0.043946803
000200 dc f2 62 3d c8 24 1a 3c d4 96 38 3d a9 8e 8e 3d
       0.05540739 0.009408183 0.045065716 0.06960804
000210 82 da d3 3c e4 0b 12 bd 4f 38 c8 bb 40 87 70 bc
       0.025861029 -0.03565587 -0.006110228 -0.014680684
000220 e0 79 34 3d cd 2d 87 bd 8c 02 93 3d 0c 70 ae 3d
       0.04406154 -0.06600533 0.0717822 0.08517465
000230 38 34 82 3d 42 af b4 3d 33 5c b8 3d 0b 81 07 bd
       0.06357616 0.0882249 0.090019606 -0.03308205
000240 e4 9b c2 bc da 98 2e bd cd e6 1a bd 84 e1 05 3d
       -0.023755975 -0.04262624 -0.037817765 0.03268577
000250 a7 19 ee 3a 72 cf a4 bb 03 48 a9 3d 58 ca 8f 3d
       0.0018165604 -0.005029612 0.08265688 0.07021016
000260 38 f4 8a 3d 64 46 9e 3d d0 d1 51 3d 13 e1 38 bd
       0.06784862 0.0772827 0.051225483 -0.045136523
000270 fa 08 9e bc 4a 5e 29 3c fe 1d af 3d 8d aa 53 bd
       -0.01929139 0.010337422 0.085506424 -0.05167632
000280 97 ca 69 bd 34 c2 60 3d 86 13 ac bc 83 7d 9c bc
       -0.05707797 0.054872707 -0.021005403 -0.019102817
000290 c8 b2 49 3c c8 bd 26 3d 88 83 ac 3d 08 ea 5b ba
       0.012310691 0.040708333 0.08423525 -0.00083890604
0002a0 dd e4 c9 3d 6c 8f 3c 3d 03 04 16 bc 34 bf 37 3d
       0.09858105 0.046035215 -0.00915623 0.04486008
0002b0 98 4b 4d 3d 9a 68 11 3d a7 6d 9a bc 88 0d 94 3c
       0.05012092 0.035500146 -0.018851114 0.018072858
0002c0 d3 4d 5d bd cd 0e 0e bd e0 29 2a 3b a3 f0 94 3d
       -0.054029297 -0.034682084 0.00259649 0.0727246
0002d0 94 05 c8 3c ec 41 43 bd 96 24 8a bd 16 99 70 bd
       0.024416722 -0.04767029 -0.067452595 -0.058739744
0002e0 71 67 b9 3d 56 22 0e bd 10 10 c5 bc f5 05 d9 bc
       0.09052933 -0.034700714 -0.02405551 -0.026492098
0002f0 56 ed f5 bc ca 82 23 3d d8 17 9b bc d4 54 fc 3c
       -0.030020397 0.039919652 -0.018932268 0.030802168
000300 10 ed 03 3d 94 96 62 bd 36 a7 58 bd ea 77 da bc
       0.032208502 -0.055319384 -0.05289384 -0.026668508
000310 1e f1 6e bd 68 19 3b 3d 00 be 37 ba 5a 2b 2c 3d
       -0.058335416 0.045678526 -0.0007009208 0.04203353
000320 30 71 87 3d 4a 19 40 3d d2 ce 70 3d f2 a5 0e 3d
       0.06613386 0.046899118 0.05879099 0.034826227
000330 e0 93 52 3d 75 0e 4e bd 82 87 9e 3d d0 6d 08 bc
       0.051410556 -0.050306756 0.0774069 -0.008326963
000340 8f c4 65 3d 8b 1c b6 3c b6 9f db bc c8 18 65 3d
       0.056095656 0.022230407 -0.026809555 0.055931836
000350 d2 70 11 3d 75 3e 61 bd 09 17 3f bc 3b 2a 83 3c
       0.035507984 -0.054991204 -0.011663207 0.016011348
000360 2a 25 8d 3d 60 84 05 3d 62 b7 c6 3d 37 ba d7 3c
       0.06891854 0.032596946 0.09702946 0.026333911
000370 7e 73 79 3d 9f 57 8c bd ed 03 27 bd 7b 26 10 3d
       0.060901158 -0.0685265 -0.04077523 0.035192948
000380 86 e1 8d 3d 7c 49 b5 bc 9d 60 92 3d 74 a3 88 3c
       0.06927781 -0.022129767 0.07147334 0.016679503
000390 10 9b 5b bc 90 ee c5 3d 18 12 3d bc 11 3d 2d bb
       -0.013403669 0.09664643 -0.011539958 -0.0026434103
0003a0 cb 46 94 ba cc f0 22 3c d6 60 fd bc a4 92 f8 bc
       -0.0011312602 0.009945106 -0.030929964 -0.030343361
0003b0 d0 e7 b8 bb ec d2 05 3d 71 ff 92 3d 54 14 86 bd
       -0.0056428686 0.032671854 0.07177628 -0.06546846
0003c0 30 53 8d bc 2e f7 9c 3d 2c 64 db bc 10 6b b8 3b
       -0.017251581 0.07664333 -0.026781164 0.005627997
0003d0 50 3a b7 3c 72 99 0b bd 15 0d 9b 3d 70 67 96 bb
       0.022366673 -0.034081884 0.075708546 -0.0045899674
0003e0 a2 49 92 3d 98 0e 72 3d 48 2e 3b bb a7 eb 41 bd
       0.071429506 0.05909595 -0.0028561521 -0.047343876
0003f0 e2 81 16 bd 1c 0b ca 3d 42 af 33 3c 70 ab ea 3c
       -0.03674496 0.098654 0.010967078 0.0286462

layer3.bias f4 [100]
000000 c0 d1 f4 3c 37 74 17 3d 71 6c 4c bd 38 16 1e bc
       0.029885173 0.036976065 -0.049908105 -0.009648852
000010 b0 a5 d6 3c 5e 28 1d 3d 1b 1d 29 3d e2 02 44 bc
       0.026202053 0.038368575 0.041287523 -0.011963578
000020 c8 0c c3 3c cc da b7 3c 3a 26 40 bd e0 1d 96 3c
       0.023809806 0.022443198 -0.046911456 0.018324792
000030 98 e8 3a bc 09 85 bf 3d 80 2d 0b ba 6c 2f c9 3d
       -0.011407994 0.09351546 -0.0005309209 0.09823498
000040 aa 78 b4 bc e8 de 97 bd e3 43 34 bd e4 34 d7 3c
       -0.022030193 -0.07415563 -0.044010054 0.026270337
000050 3f ee 73 3d 47 46 2f 3d 66 33 c7 3c 67 46 3a bd
       0.05955338 0.04279163 0.0243165 -0.045477297
000060 18 9a a5 bc f8 dc 9f 3d e4 db 26 3d 57 c2 68 3d
       -0.02021508 0.07805818 0.040737048 0.056825962
000070 3e a0 7d 3d e0 d1 90 bd 9a 27 91 bd 3f 66 54 3d
       0.061920397 -0.070712805 -0.070876315 0.051855322
000080 0c c4 f7 bc c2 50 c1 3c db bf 6a 3d 76 d3 bb 3d
       -0.03024485 0.023598079 0.057311874 0.09171192
000090 e7 50 41 bd 23 5d 89 bd 3b 5d 0c 3d 90 af 95 3d
       -0.047196295 -0.067072175 0.0342686 0.073088765
0000a0 c1 87 b2 3c 40 45 47 3d 00 16 3b 3d a8 e1 28 3d
       0.021793248 0.048650026 0.045675278 0.041230828
0000b0 46 60 38 bd 7a ef 89 3c 27 bb ef 3c 20 e7 b7 3c
       -0.04501369 0.016837824 0.029264046 0.022449076
0000c0 c2 33 b2 3d 3d 2d 34 3d b2 ff c5 bc 25 6a d5 bb
       0.08701278 0.043988455 -0.024169777 -0.0065128976
0000d0 0c c8 04 bd e0 f4 7a bd 9b a6 ab 3c b7 74 a5 bd
       -0.032417342 -0.061268687 0.020953467 -0.08078902
0000e0 53 e7 9a 3a 21 a7 8d bd 11 e5 10 bd 73 dc 60 3d
       0.0011818208 -0.06916643 -0.035374705 0.054897737
0000f0 00 f4 8e bd 3c eb 7b bd 40 45 6a 3d 13 53 fd bb
       -0.06980133 -0.061503634 0.05719495 -0.0077308505
000100 46 37 a4 3d 77 0a ab 3d c3 6e 1c 3d 0e e5 a1 3d
       0.08018355 0.083516054 0.038191568 0.07905017
000110 f8 1a 5e bd 8a 76 bf bc 86 2c 0d bc 7b 80 5c 3d
       -0.05422494 -0.023371954 -0.008616572 0.053833466
000120 19 fc 90 bd 46 5b 73 3d cc 3e c3 bc e7 07 c3 3d
       -0.07079334 0.059413217 -0.023833655 0.095229916
000130 e3 36 18 3d a7 4b ae 3d 5d 1e 69 bd 9d 34 95 bd
       0.03716172 0.08510523 -0.056913722 -0.07285426
000140 e9 2d 8b bd f6 de 3a bd 6e c3 0b 3d 48 fa 88 3d
       -0.06795866 -0.04562279 0.034121923 0.06688362
000150 f6 63 a8 3d 3c 88 9a 3c 7e 60 37 bd 21 a0 96 3d
       0.08222191 0.01886379 -0.044769756 0.07354761
000160 fe 7a 93 bc ca dc 13 bc a3 b3 5c bc 6d 71 c3 3b
       -0.018002983 -0.009024808 -0.013470563 0.005964449
000170 30 aa 3e 3d ae 06 f6 bc b8 32 41 3b 84 12 f1 3c
       0.046549022 -0.030032482 0.0029479694 0.029427774
000180 2e bd ac 3c f6 02 58 bd 25 ce 92 3c b6 64 df 3c
       0.021086302 -0.0527372 0.017920563 0.027269702

layer4.weight f4 [80, 100]
000000 38 4d c1 3d 12 27 4a 3c f2 a3 6d bd 80 af 9b 3a
       0.094385564 0.012338417 -0.05801768 0.0011877865
000010 df 7c 67 3d e0 fd c6 3b 7c d9 cf 3c 7e b7 87 bd
       0.05651557 0.0060727447 0.02537226 -0.06626795
000020 c6 d2 93 ba 00 60 d6 bb 80 3b d2 bc c2 64 be bd
       -0.0011278025 -0.006542206 -0.025663137 -0.09296562
000030 75 75 a8 bd 3c 0a ff 3c e8 36 31 bc 1b c6 96 bd
       -0.08225528 0.03113281 -0.010816313 -0.07362004
000040 26 ee 31 3d 58 c8 de bc 8b 38 9c 3d 67 bd 49 3d
       0.043440007 -0.02719514 0.07627972 0.049252894
000050 4c 06 8b bd 20 2e 5a bd e1 03 40 3d d2 32 7c 3d
       -0.067883104 -0.053266644 0.0468787 0.061571904
000060 90 d9 42 bc 94 69 b4 3d d2 9d 48 3d 1c f2 0f bd
       -0.011892691 0.088092 0.048978634 -0.035143003
000070 60 cc 5e bd f6 4a 0c 3d ec a4 a9 3c fc 02 c7 3d
       -0.054394126 0.034251176 0.020708524 0.09717366
000080 5d 5f 46 bd 85 0b 4c 3c 99 8b f1 ba 91 cb 28 bd
       -0.04843079 0.012453918 -0.0018428444 -0.04120976
000090 10 de 31 3c 14 12 46 3d b8 1a 80 ba 9a 01 18 bb
       0.0108561665 0.048357084 -0.0009773588 -0.0023194314
0000a0 f6 2b ae bc 0d d4 1e bd d3 97 7f bd 32 3b 50 3d
       -0.021261197 -0.038776446 -0.06240065 0.050837703
0000b0 96 5d c3 bc 04 c7 47 3d f3 12 11 3d 7e 6a f6 3c
       -0.023848336 0.04877378 0.035418462 0.030080076
0000c0 f8 95 db 3c 4c 02 80 3c ea 28 93 3d 9e 08 d6 3d
       0.02680491 0.015626095 0.07185538 0.10450862
0000d0 25 21 5d bc 12 40 a3 bd 03 f0 85 bc 30 41 76 bc
       -0.013496672 -0.07971205 -0.016349798 -0.01503019
0000e0 be 24 d5 bc c0 b5 40 bb 61 bd f8 bc 38 93 ae bd
       -0.026018497 -0.0029405206 -0.03036374 -0.085241735
0000f0 e3 3c 7c bd 19 0c a6 3d a9 1b f7 bc 54 ee ef bc
       -0.061581504 0.08107776 -0.030164557 -0.029288448
000100 b8 1b 81 bc 7f b0 9b 3c 4f 85 ce bc 5d 75 cb 3d
       -0.015760288 0.019005058 -0.02521005 0.09934495
000110 50 dc bf bd e2 7d 36 3d 66 c4 80 bd 1e 5f bc 3d
       -0.09368193 0.044553645 -0.0628746 0.0919783
000120 b2 5f 94 bd 9c 27 d7 3d 06 89 1b 3d f3 15 5e bd
       -0.07244815 0.10505602 0.037972473 -0.05422015
000130 ce 46 a2 3d fc 4a 84 bd f4 76 bb 3d ee fb 8c bd
       0.07923661 -0.06459615 0.09153548 -0.06883989
000140 c5 27 a4 bd 62 02 d8 3c 2c 0e 8b 3c 4c 43 bf 3d
       -0.08015398 0.026368324 0.016974531 0.09339008
000150 4f 95 9d bd d3 1c 28 bd c0 a6 ff ba 13 69 ac 3d
       -0.07694494 -0.041043114 -0.0019504651 0.08418479
000160 89 c6 e5 3c b6 ac d0 3d ef 0f 6b 3d 68 65 c4 3d
       0.02804877 0.10189192 0.057388242 0.09589654
000170 b5 b1 a8 3d db 2d fd bc 77 27 81 b9 a8 29 91 bc
       0.0823702 -0.030905655 -0.000246342 -0.017720059
000180 73 2d 79 3d 39 95 dc 3c 04 07 97 3d e6 96 8d bd
       0.06083436 0.026926624 0.07374385 -0.06913547
000190 ff 4b 81 bc d9 fd d5 bc 07 ca 73 bd d2 5e 28 3d
       -0.015783308 -0.02612202 -0.05951884 0.041106053
0001a0 16 37 e8 3d aa f7 07 3d e7 f4 15 bd 47 c4 7f bd
       0.11338632 0.033195175 -0.03661051 -0.062443044
0001b0 e3 0a 81 3d ec d1 bc 3c a7 5c 60 bd a0 15 38 bd
       0.063009046 0.023049317 -0.05477586 -0.0449425
0001c0 6c 6b 93 bc b5 47 09 3d a6 c7 17 3d 82 b6 a1 bd
       -0.017995559 0.03351565 0.037055634 -0.07896139
0001d0 1a fb 2b bd d5 12 b6 bd cc e9 f6 bc 22 18 b8 3d
       -0.041987516 -0.08890311 -0.03014078 0.08988978
0001e0 80 92 54 3d d5 8c 53 3d 4f 64 b1 bb b0 bc 74 3c
       0.051897526 0.05164798 -0.005413569 0.014937565
0001f0 8a bc 44 bd aa 76 bb 3d a5 eb ab bd 55 97 2b bd
       -0.048031367 0.09153493 -0.08394555 -0.04189237
000200 05 51 1f bd ef 44 c4 bd a8 5c c1 bc c0 73 a0 3c
       -0.038895626 -0.095834605 -0.023603752 0.019586444
000210 28 eb 42 bc 08 40 8d 3d 01 a6 30 3d b6 7c ce 3d
       -0.011896886 0.068969786 0.043127064 0.100823805
000220 3a 13 66 3d 3c 7e 87 3b 2b 1e c7 bc 34 f2 eb 3b
       0.05617068 0.0041349214 -0.024306377 0.0072005037
000230 34 7e 91 3c 1a f3 aa bd 91 82 83 3d b0 3a 35 bc
       0.017760374 -0.08347149 0.06421388 -0.0110613555
000240 3c 6f ea 3c fd b1 60 3d 68 a2 c0 3d 46 00 b1 bd
       0.028617494 0.054857243 0.094059765 -0.0864263
000250 b5 71 b7 3d 0a 3e 3f 3a 9e da 3a bc 6a 35 76 bb
       0.08957235 0.00072953163 -0.011404661 -0.0037568458
000260 27 ad 98 3d 75 da c6 3c 38 7d da 3d 81 74 9e 3d
       0.07454901 0.02427409 0.10668415 0.07737065
000270 9b 8b e0 bc a6 5d 7e 3d 1e b1 75 bd 75 73 c6 3d
       -0.02741032 0.06210103 -0.059983365 0.096899904
000280 47 42 6e bd b0 6f 93 3d 7c 13 05 bc d5 51 ad 3c
       -0.058168676 0.07199037 -0.008122321 0.021157185
000290 09 43 82 3d 55 9e a0 bb 3d 76 2f 3d 47 ff 5d 3c
       0.06360442 -0.004901687 0.04283737 0.013549632
0002a0 87 28 a0 3d f0 37 63 bc ef 34 32 bc 29 c1 82 3c
       0.0782023 -0.013868317 -0.010876878 0.015961247
0002b0 a0 d6 c0 3b a1 e8 62 3d 0d 2c 58 bd 00 54 c3 3d
       0.0058849603 0.055397633 -0.052776385 0.09537506
0002c0 39 65 9f 3d 5a a7 82 3d e3 b6 48 bc ac 2a be 3c
       0.077829786 0.06379576 -0.012250635 0.023213707
0002d0 b4 3e c5 3c 39 1c dc 3d 60 c2 83 bc cd e6 2d 3c
       0.02407775 0.107475705 -0.016083896 0.010614109
0002e0 a0 ae e4 3d b3 d2 84 3d 90 49 2a bd eb d3 c2 bc
       0.111661196 0.064855 -0.04157406 -0.023782691
0002f0 5f d9 4b bd 33 28 44 3d 2d 7c bb 3d 52 87 a1 bc
       -0.049767848 0.0478899 0.09154544 -0.019717846
000300 b6 4f 8e 3d cc fc e8 bb 8c 3e 3b 3d 20 46 d4 bc
       0.069487974 -0.007110214 0.045713946 -0.025912344
000310 c6 70 ae bc f1 75 3d 3d a3 94 94 3c 74 6b ab bd
       -0.021294009 0.046255056 0.018137282 -0.083701044
000320 1a e2 94 3d a1 b3 ca 3d cb 2e 87 3d f7 86 a4 3d
       0.07269688 0.09897543 0.06600722 0.08033555
000330 0e b0 80 ba 53 0d 80 3d 51 1e 91 bc 66 be ad 3c
       -0.0009818093 0.062525414 -0.017714651 0.021208953
000340 db 64 cd 3d 8c 66 87 bd c3 09 b6 bd bd a8 8c 3d
       0.10029002 -0.06611356 -0.08888581 0.06868122
000350 3b 83 83 3d 9a df 20 bd 8a 5b 00 bd bc 50 2b 3d
       0.064215146 -0.039275743 -0.0313373 0.04182504
000360 78 c6 87 3c c0 5d f8 bc 2a 40 80 bd eb 5d a1 3d
       0.01657413 -0.030318141 -0.06262238 0.078792416
000370 f8 1f 32 3d c5 4a b2 3d 87 ae 74 bd 62 7c 0e 3d
       0.04348752 0.087056674 -0.059736755 0.03478659
000380 4e 2b 5b 3d dd 65 81 bd 34 b7 f4 bc c3 05 bd 3d
       0.053508095 -0.06318257 -0.029872514 0.092296146
000390 e5 08 12 bd ae bf 75 3d d5 17 86 bd a7 d1 89 bd
       -0.035653014 0.059997253 -0.06547514 -0.06729441
0003a0 c0 67 9f bc 7b 1d 57 3d 4d c0 42 3c 11 f8 4c 3d
       -0.019458652 0.05251835 0.011886668 0.050041262
0003b0 97 81 bb 3d 42 ed 05 bd 86 5b 0a bc f4 15 d5 3d
       0.09155577 -0.03269697 -0.008444672 0.10404578
0003c0 87 97 38 bd 8e d3 0c 3d c7 26 c6 bd 31 fb ca 3d
       -0.045066383 0.03438144 -0.09675365 0.09911192
0003d0 7a f3 9b bd 73 77 9e 3d 6e 81 43 3d da 4a 5f 3d
       -0.07614799 0.07737627 0.047730856 0.054514743
0003e0 0b cb e4 3a 40 a5 9c 3d 90 ac 79 bd 43 14 b2 3d
       0.0017455531 0.076487064 -0.060955584 0.08695271
0003f0 c6 5c a0 bd d9 15 cc 3d 4b 6d da 3c d7 e3 7f bd
       -0.07830195 0.099651046 0.026663443 -0.062473144

layer4.bias f4 [80]
000000 7d 66 90 3c b5 78 99 3b 6f 72 37 bd 21 13 15 bd
       0.017626995 0.004683579 -0.044786867 -0.036395196
000010 ba 18 aa 3d a3 73 68 3b 40 a7 04 bc 32 46 8d 3d
       0.083054975 0.0035469315 -0.008096516 0.06898154
000020 4a 5a 2c bd be bc 05 3d 0d 41 9f bd da c8 9d bc
       -0.042078294 0.0326507 -0.07776079 -0.019260813
000030 8b 24 78 bd 75 f0 a7 bc a2 19 98 bc ef c9 9d 3d
       -0.060581725 -0.020500401 -0.01856691 0.077045314
000040 ba fa 24 3b cb 0d f5 bc 1d 67 34 bd 40 f8 20 3d
       0.0025173859 -0.029913804 -0.04404365 0.03929925
000050 a9 8c c6 3d 73 c0 ce bc d6 74 8a bd 4c f4 12 3d
       0.096947975 -0.025238251 -0.06760566 0.03587751
000060 94 66 57 bd ed 07 3e bd 17 ae c7 3d 09 ba c3 3d
       -0.05258806 -0.046394277 0.09750002 0.09556968
000070 b4 23 ae 3c f1 55 a9 3d 14 d7 d4 3d b2 f0 a0 bd
       0.021257259 0.08268345 0.103925854 -0.07858409
000080 dc 24 9d 3d 53 7e 3f bd 1e f9 a7 3d 07 bc 8e bc
       0.07673046 -0.04675133 0.08201812 -0.017423643
000090 67 a4 84 3d 0d 1e 67 bd 91 2c 54 3c 20 36 5a bd
       0.0647667 -0.056425143 0.012950079 -0.053274274
0000a0 cc 1b 11 3d c2 01 8c bd 62 4d 21 3d 00 ff b5 bc
       0.0354269 -0.06836273 0.03938044 -0.02221632
0000b0 73 a6 3a bd 52 a3 73 3d 4d b2 19 bd 38 1f bf bc
       -0.045568895 0.059481926 -0.037523557 -0.023330316
0000c0 f0 b5 c8 3d 45 b7 af bd 6c dd 6a bd 31 5d 80 3c
       0.09800327 -0.08579878 -0.05734007 0.015669437
0000d0 00 6b 04 bc 65 2c 2d 3b 71 cf d9 3d 2a 31 69 ba
       -0.008082151 0.0026424166 0.106352694 -0.00088955706
0000e0 a3 8b 09 bd 4f c2 0f bb 44 48 b9 bc 65 bd ad 3c
       -0.033580434 -0.0021935885 -0.022617467 0.021208474
0000f0 42 2d c6 3d 17 7d 30 bd e6 e9 cc 3d b0 01 0b 3c
       0.09676601 -0.043088045 0.1000555 0.008484289
000100 50 83 c8 bb 40 92 20 3c 38 b8 75 bb 0d ed a3 bd
       -0.0061191693 0.009800494 -0.0037493836 -0.08004198
000110 d8 60 a5 3d 92 8d 76 3d a4 10 8f bd d4 8d cb 3c
       0.08075112 0.060193606 -0.06985596 0.024847902
000120 c0 4d a1 bd 34 2e 7a bd 71 0b 7c bb 94 23 e0 3c
       -0.07876158 -0.06107922 -0.0038458968 0.027360715
000130 97 58 2a 3c ca 86 7a 3c ff e2 97 3c 73 f8 93 bd
       0.010397098 0.015290925 0.018540857 -0.07225122

layer5.weight f4 [60, 80]
000000 83 25 86 bd 38 2b 9d bd 8e 7d 1d bd f8 09 bc bd
       -0.065501235 -0.07674259 -0.038449816 -0.09181589
000010 f5 27 8f bd f8 83 65 3d d4 97 cc 3d ce d5 f0 bc
       -0.06990043 0.05603406 0.099898964 -0.029398825
000020 58 d5 94 3c 4c 88 03 bd a2 a0 b6 3c 82 fd 7c 3d
       0.018168136 -0.032112405 0.022293393 0.0617652
000030 50 a8 0f bd 20 08 e2 ba 67 f6 8e bd 46 ee 00 bc
       -0.035072625 -0.0017244853 -0.06980591 -0.007869309
000040 b5 1d 0b bd 62 8b ff 3d c8 00 9a 3d 3b a4 bb 3d
       -0.033963878 0.12477757 0.0751968 0.09162184
000050 e3 16 16 bd af d2 38 bd d7 cc d4 bd 25 48 4f bd
       -0.03664292 -0.0451228 -0.103906326 -0.05060591
000060 45 b0 dc 3d 31 98 a6 bd 5d 1a a9 bd e7 72 fd bc
       0.10775808 -0.08134497 -0.082569815 -0.030938579
000070 28 aa 85 3d ee 25 e0 3d d5 06 9d 3d 90 19 8c 3d
       0.06526595 0.109447345 0.07667319 0.06840813
000080 91 bd c3 bc 78 0f 57 3d ef a4 94 3d 67 f9 57 bd
       -0.023894103 0.052504987 0.07258021 -0.052728083
000090 7f 7b 53 bd 59 fa b5 3d f5 b0 bb bc fd 0d e1 bd
       -0.051631447 0.08885641 -0.022911528 -0.10988996
0000a0 c5 3a 5a 3d e0 96 9f bc de b0 9a 3d fc e6 8a 3d
       0.053278703 -0.019481122 0.07553266 0.06782338
0000b0 a7 78 9e bd c0 ec 07 3c 50 0e 6a 3d b8 b3 3c 3c
       -0.07737856 0.008296192 0.057142556 0.011517458
0000c0 24 ec b3 3d df 85 48 bd 95 6d b2 3d 2c 82 d2 3d
       0.087852746 -0.048955794 0.08712307 0.102787346
0000d0 f4 e1 a1 3d e1 cc a4 3d 55 93 b6 bc 5e 11 69 3d
       0.07904425 0.0804689 -0.02228705 0.05690133
0000e0 68 21 b7 3d 2c 50 87 bd 7b fc e0 3c 2d 1b d4 3d
       0.089419186 -0.066070884 0.027464142 0.10356746
0000f0 d3 ec 67 bd 15 f3 fa 3d 1b bf f8 3d ac c7 7a 3d
       -0.056622338 0.122533955 0.121458255 0.06122558
000100 a2 e5 47 bd 54 0d 7e 3d 84 87 04 3e a0 b0 ff 3b
       -0.04880298 0.06202443 0.1294232 0.0078030378
000110 02 df 6a bd 9a 26 3a bd 24 62 c7 3d 40 b1 13 bd
       -0.057341583 -0.04544697 0.09735516 -0.03605771
000120 66 fb d7 bd 6a 95 d4 3b 02 20 78 bd ed 8a d0 bd
       -0.10545997 0.006487538 -0.0605774 -0.10182748
000130 0b b5 5a 3d 00 13 7c 3c 57 38 bf 3d 53 6d 9f bd
       0.053395312 0.015385389 0.09336918 -0.07784524
000140 56 ae 99 bd 24 6a 5d bd 2a d8 04 bd 80 2d 7b 3a
       -0.07503955 -0.0540563 -0.032432713 0.000958167
000150 05 c2 cd bd 7a 60 33 bd ac ac d7 3d 70 2b c7 bc
       -0.10046772 -0.04379318 0.105309814 -0.024312705
000160 08 39 a8 3d da 10 d8 3d 30 49 55 bc d0 58 f2 bb
       0.08214003 0.10550089 -0.013017938 -0.007395841
000170 1a 3f a4 3d 00 2b 08 bd c2 cd 0f bd 40 7a 0d 3d
       0.08019848 -0.033244133 -0.035108335 0.034540415
000180 ee d4 17 bd 60 c7 9e 3b 90 1d e6 bb 46 7a b3 3d
       -0.0370683 0.0048455447 -0.007022567 0.08763556
000190 08 5d b2 3d b8 1b 18 3d d3 f3 b1 bd 9e 12 bd bd
       0.087091506 0.03713581 -0.08689084 -0.092320666
0001a0 15 27 c6 bd cc 4e 85 bd 9a d9 c3 3d 17 cd 82 bd
       -0.09675423 -0.0650917 0.095629886 -0.06386774
0001b0 d4 09 c9 3d 3c 57 b0 bd 58 e7 38 3d 38 3a 61 3d
       0.09816328 -0.08610389 0.0451425 0.054987162
0001c0 58 40 27 3d d8 00 30 3d 22 98 ce 3d 4e de a4 3d
       0.040832847 0.042969555 0.10087611 0.08050214
0001d0 94 40 12 bd 00 82 f3 3c 89 c7 cf bd 38 52 cb 3d
       -0.035706118 0.029725075 -0.1014548 0.09927791
0001e0 c8 7c 59 3d 1a 89 aa 3d be dc 10 bd 72 24 06 bd
       0.053097516 0.08326931 -0.035366766 -0.0327496
0001f0 aa 9f 89 3d ec d3 82 3d 9f a1 4b bd 30 d8 ad 3d
       0.06719907 0.06388077 -0.04971468 0.084885
000200 e8 93 71 3d bc 23 c9 bd 60 72 5b 3d 1c fa ac bd
       0.058978945 -0.09821269 0.053575873 -0.08446142
000210 f8 e9 62 bc 96 48 1f bd b2 fa 7e bd 2a 69 8e bd
       -0.013849728 -0.038887583 -0.0622508 -0.06953652
000220 87 3a 64 bd f4 1a 63 bd 38 16 42 3d 48 71 8e bd
       -0.05571988 -0.055445626 0.04738447 -0.069552004
000230 d0 fb 48 bc b4 52 7a 3d 24 40 97 bc 64 8e e0 3d
       -0.012267068 0.061114028 -0.018463202 0.10964659
000240 58 b4 64 3d 68 c6 2e 3d de 8d c3 3d 2d 7c ae bd
       0.05583605 0.042669684 0.095485434 -0.085197784
000250 ae 3f de 3d d9 8f d6 bd 31 df 7f bd 3e 0a 82 bd
       0.1085199 -0.104766555 -0.06246871 -0.0634961
000260 e1 34 4c bd 71 78 5f bd f3 4e ad bd cc d7 1b bd
       -0.049855117 -0.05455822 -0.08462324 -0.038047597
000270 5c ae d8 bd 08 d0 b8 bd e8 30 fc bc b0 9b c8 3c
       -0.105801314 -0.09024054 -0.030785039 0.0244883
000280 b0 25 2e 3d 24 c3 6d 3d e0 3c 0f bb 44 a5 05 bd
       0.04251641 0.05804743 -0.0021856353 -0.032628313
000290 b8 13 ef bc 80 1c c3 bc 1d 2b cd bd dc 7f 0b 3d
       -0.029184207 -0.0238173 -0.10017989 0.034057483
0002a0 ad d6 82 bd 40 3b 6c 3c c8 ee 55 3c 10 06 04 3c
       -0.063886024 0.014418423 0.013057418 0.008058086
0002b0 36 86 1a bd d0 ab eb 3b 8c 50 b2 bd cc f1 52 3d
       -0.03772565 0.0071921125 -0.08706769 0.051500127
0002c0 44 43 23 bd 08 dc 50 bd 0c 44 c9 3d d4 4f 99 3d
       -0.03985907 -0.05099109 0.09827432 0.07485929
0002d0 00 11 8d bc 40 b5 05 3b e8 0d 82 3c 48 b2 45 3c
       -0.01722002 0.0020402223 0.015875772 0.012066431
0002e0 68 43 a3 bc 9c 8b e3 bd b2 64 19 bd c4 3d 6a 3d
       -0.019929603 -0.11110613 -0.037449546 0.05718781
0002f0 20 20 eb bb f0 b7 a7 3d 78 17 45 3c e2 c8 86 3d
       -0.0071754605 0.0818938 0.012029521 0.06581284
000300 ba 71 86 3d 0c 0f a3 3d a8 8b 54 3d 2c 21 d5 3d
       0.0656466 0.07961854 0.051891 0.10406718
000310 8f 7d df bd d0 77 e2 bd 8c 1b 25 3d 90 e3 b3 bd
       -0.1091262 -0.11058009 0.040309474 -0.087836385
000320 a8 4b 32 bd 00 c0 65 b8 14 90 5d 3d 00 93 f5 ba
       -0.043529183 -5.477667e-05 0.05409248 -0.0018735826
000330 65 3e c8 bd be cb a6 bd 60 64 15 3c 40 54 dc ba
       -0.09777526 -0.081443295 0.00911817 -0.0016809776
000340 7e 68 92 3d 52 80 9f 3d 70 65 c1 bb b9 5f af bd
       0.071488366 0.07788147 -0.005901985 -0.085631795
000350 eb 3e da bd e0 29 6e 3d ee 9a a6 bd 1c c2 72 3d
       -0.10656532 0.058145404 -0.08135019 0.05926715
000360 ff 77 c8 bd 2e ad d3 bd 78 0e 7e 3d 00 e3 bb bc
       -0.097885124 -0.10335766 0.062025517 -0.02293539
000370 20 96 8a 3d 60 de 90 3c 00 38 30 3a 70 1c a1 3c
       0.06766915 0.017684162 0.0006722212 0.01966688
000380 37 02 d6 bd fa 44 a3 3d 25 b3 ca bd 62 c2 d6 bd
       -0.10449641 0.079721406 -0.0989745 -0.10486294
000390 0c eb df bd 7a 01 53 bd 1c fd 47 bd f8 63 69 bc
       -0.109335035 -0.05151508 -0.04882537 -0.014245026
0003a0 d8 53 16 bc 18 9c e1 3c 16 a6 d7 bd 2f 2f a2 bd
       -0.009175263 0.027540252 -0.10529725 -0.07919156
0003b0 3a 0d 87 3d 78 cd 12 bc f4 5f 47 3d fc 0f b9 3d
       0.0659432 -0.00896012 0.048675492 0.09036252
0003c0 0b 55 e4 3d 4d 7e bc bd d0 17 66 bd b0 e3 d5 3b
       0.11149033 -0.092037775 -0.056175053 0.0065273866
0003d0 a9 2f 84 bd bd 6e 72 bc b8 58 e9 3c 91 1c b0 3b
       -0.06454403 -0.01479691 0.028484687 0.005374499
0003e0 40 c1 3c bd 26 b4 c9 3d 71 72 d2 bc 44 fc a6 3d
       -0.046082735 0.09848814 -0.025689336 0.081535846
0003f0 14 c5 bd 3d 0c fb 8b bd 1d a0 b9 3d 3a 25 07 3b
       0.09266105 -0.06834993 0.09063742 0.0020621554

layer5.bias f4 [60]
000000 b0 26 a9 3d 16 b4 01 bd d4 45 42 bd 53 35 79 3d
       0.08259332 -0.031665884 -0.047429875 0.06084187
000010 d0 fc 9b bc 7f 35 44 3a a3 e6 b6 3c 22 c2 a4 bd
       -0.019041449 0.0007484778 0.022326773 -0.080448404
000020 dc e8 9b 3d 28 91 a5 bd 49 4f a5 3d 00 34 e6 38
       0.07612774 -0.08084327 0.08071763 0.000109769404
000030 80 4a 4a bc ac ac 96 bd e0 ee a3 bd b3 7a 50 3d
       -0.012346864 -0.07357153 -0.08004546 0.050898265
000040 67 41 bb 3d b1 57 12 3d a6 d8 c7 bd fb df 2b bd
       0.09143334 0.03572816 -0.09758119 -0.04196165
000050 f6 c2 c4 bd 7b 65 87 3d c5 ee c1 3d c2 31 9e bd
       -0.09607498 0.06611153 0.0946937 -0.07724334
000060 e2 f3 f6 3d a4 f5 c2 bd 1a fd a1 bd 0d ba 84 3c
       0.12058236 -0.095195085 -0.079096034 0.016201997
000070 d9 3e b1 bd 26 d9 cf 3d b6 39 02 3d ed b5 45 3d
       -0.08654565 0.1014884 0.03179332 0.0482692
000080 8d f2 ea 3d dd f5 b8 bd d3 a2 f3 3d ca 2a b0 bd
       0.11472044 -0.0903127 0.11896291 -0.08601911
000090 0f d1 71 bd 13 58 ac bd 58 4a 63 3d 2b 4e 42 bd
       -0.059037264 -0.08415236 0.05549082 -0.047437828
0000a0 ec 94 c2 bd 43 f5 9e 3d d7 20 82 3d 17 75 d6 3d
       -0.09501061 0.07761624 0.0635392 0.10471552
0000b0 fd 84 44 bd f8 5c db bc 6a df 0d bd 2f 81 c0 bc
       -0.04797839 -0.02677773 -0.034636892 -0.0234991
0000c0 80 5d 13 bc 4d 96 4b bd ef be 9a bd b3 dd 8e 3d
       -0.00899446 -0.049703885 -0.07555949 0.069758795
0000d0 79 69 28 3d 1b 44 b6 bd 21 89 2a 3d 7c 90 ba bd
       0.04111621 -0.08899709 0.041634683 -0.091095895
0000e0 2d 16 fb 39 2e e6 1f 3d 68 17 41 3d 33 18 e1 bd
       0.00047890973 0.039037876 0.047141463 -0.10990944
