saved_models/model_BRK-B.pt (torch_old, 190423 bytes, 15 tensors)

layer1.weight f4 [100, 5]
-0.23391782 -0.26288587 -0.37322366 0.31190825 -0.2111119 -0.34956533 -0.3936533 -0.38411728
-0.23774877 -0.08523947 0.1969099 -0.006394297 -0.43859693 -0.4328242 0.11568463 -0.111566365
-0.17856304 0.43964648 0.3896218 0.2238897 -0.23704274 -0.20226166 0.36622736 0.351028
-0.21147087 -0.17731729 0.29941136 -0.36691627 -0.21550107 -0.16607216 0.015440071 0.22716238
-0.08933277 0.2840708 -0.27425602 -0.35315195 0.3905573 -0.38213503 0.12986755 -0.1458444
0.21275514 0.36409938 -0.3231243 -0.4339148 -0.41251776 -0.1394985 0.17412564 0.16509268
0.04768465 0.012570202 -0.39479515 -0.1697503 -0.3472391 0.08155447 -0.30882776 -0.19912452
0.37531552 0.37201697 0.19605929 0.12336941 0.002221346 0.14349765 -0.3326419 -0.2817651
0.2542482 0.3635416 -0.3619939 -0.34429923 -0.43899047 -0.051079214 -0.41192657 0.395492
0.08184016 0.30623007 0.3799027 0.08522843 0.37050208 -0.34355164 0.45634744 -0.02156855
0.18501633 0.1275244 0.4700356 0.023573674 -0.37837824 -0.30625883 -0.1161533 0.45321125
0.2683041 0.2008799 0.24320889 -0.3009523 -0.119840026 -0.08650839 -0.37403148 0.44924295
0.37526882 -0.29941568 0.15630221 0.14526142 -0.23345608 0.45655024 -0.15412498 0.3202719
0.3204872 -0.4163786 0.03326914 0.30737737 0.37148127 -0.15835448 0.3284853 0.0778473
0.14740807 -0.41983175 -0.28497475 0.2807901 0.4181251 0.0018451442 -0.10043118 0.0458236
-0.18415383 -0.13325194 -0.21131454 0.058654428 -0.31998527 0.34939316 -0.21236762 -0.38999107
-0.070576705 0.29521585 -0.41789088 0.020701796 0.0071101785 -0.4038994 -0.18743378 0.18888272
0.073007435 -0.3853046 -0.01719697 0.22984989 0.37415525 0.39218518 -0.18040588 -0.30679193
-0.31286043 -0.42798966 -0.3390441 0.18402839 -0.32449055 -0.03856346 -0.15641865 0.09940484
-0.36900598 0.09540138 0.3986318 0.44403365 0.2444678 -0.042423986 0.2973582 0.21426705
-0.36059737 0.22458862 -0.2104906 0.13509485 0.37621027 0.4212467 -0.22706535 -0.31746578
-0.010610968 -0.15091646 0.36591163 0.09560271 -0.033125117 0.15692213 -0.041120037 0.10556376
-0.25759727 -0.10940051 -0.11132145 0.15392482 -0.2040094 0.4087821 0.290429 0.29818177
0.4336907 0.21902615 -0.13711855 -0.33677238 0.009051949 -0.43561235 -0.024232715 -0.19697201
-0.2886545 -0.42689186 0.42381656 0.15181482 -0.41865414 -0.10533154 -0.14702234 -0.29335457
0.18498111 -0.40380907 -0.065122806 0.42294997 0.31951484 -0.3943052 0.28568205 -0.110862106
0.3130194 0.4449672 0.24132344 -0.09107486 0.17947176 -0.17261001 0.26555476 -0.33699507
0.3765542 0.19193554 -0.22927178 -0.33199784 -0.12375373 -0.17654118 -0.40938792 0.44406044
-0.13157463 -0.43676 0.08451766 -0.4392195 0.22830898 -0.14542311 -0.22628854 -0.16701892
-0.38335818 -0.14853847 0.3511638 0.38614288 0.31126502 0.28031245 -0.16275382 0.28524664
-0.10638669 -0.027772844 0.08762151 -0.019267023 -0.104635805 -0.12392405 0.057935834 -0.13747633
0.19501644 -0.07869136 0.32260185 -0.2863646 0.036946923 0.06267226 -0.43948218 -0.1434373
00000000: 2788 6fbe fa98 86be 2c17 bfbe 70b2 9f3e
00000010: b82d 58be 3afa b2be ed8c c9be 05ab c4be
00000020: 6a74 73be 0892 aebd c0a2 493e 4087 d1bb
00000030: c78f e0be 229b ddbe 10ec ec3d e87c e4bd
00000040: 3bd9 36be 5819 e13e 827c c73e 5743 653e
00000050: 55bb 72be ae1d 4fbe 2782 bb3e f1b9 b33e
00000060: d28b 58be aa92 35be 724c 993e 73dc bbbe
00000070: 50ac 5cbe d20e 2abe 5af8 7c3c 419d 683e
00000080: 19f4 b6bd ba71 913e 496b 8cbe 55d0 b4be
00000090: 20f7 c73e 34a7 c3be 00fc 043e 3c58 15be
000000a0: 7cdc 593e 3c6b ba3e 8c70 a5be 152a debe
000000b0: 8735 d3be b2d8 0ebe fe4d 323e 0e0e 293e
000000c0: fb50 433d 40f3 4d3c 9722 cabe 06d3 2dbe
000000d0: 53c9 b1be 0806 a73d ac1e 9ebe 4ce7 4bbe
000000e0: 5b29 c03e 0279 be3e c4c3 483e 1aa9 fc3d
000000f0: 0094 113b 0cf1 123e 0a50 aabe 8443 90be
00000100: d22c 823e 2022 ba3e 4457 b9be fd47 b0be
00000110: 5cc3 e0be 7038 51bd 0ae8 d2be ed7d ca3e
00000120: d09b a73d 30ca 9c3e 9b82 c23e 3e8c ae3d
00000130: 73b2 bd3e 00e6 afbe 5fa6 e93e 87b0 b0bc
00000140: ec74 3d3e c295 023e 82a8 f03e 941d c13c
00000150: cbba c1be f5cd 9cbe c8e1 edbd 4e0b e83e
00000160: 285f 893e 76b3 4d3e c00b 793e 6b16 9abe
00000170: b06e f5bd 502b b1bd 0e81 bfbe 2c03 e63e
00000180: 3c23 c03e 034d 99be b00d 203e 69bf 143e
00000190: 1c0f 6fbe f4c0 e93e f0d2 1dbe aefa a33e
000001a0: e616 a43e 932f d5be 3945 083d 9160 9d3e
000001b0: cb32 be3e ad27 22be 3a2f a83e 686e 9f3d
000001c0: 24f2 163e 30f4 d6be 36e8 91be b8c3 8f3e
000001d0: 7e14 d63e c4d8 f13a ddae cdbd 87b1 3b3d
000001e0: d292 3cbe 3273 08be d762 58be a03f 703d
000001f0: 1cd5 a3be a9e3 b23e e676 59be e9ac c7be
00000200: 858a 90bd 8826 973e cbf5 d5be d096 a93c
00000210: 80fc e83b e7cb cebe a4ee 3fbe 796a 413e
00000220: ec84 953d a546 c5be a9e0 8cbc c55d 6b3e
00000230: 4791 bf3e 7fcc c83e 52bc 38be d513 9dbe
00000240: 3e2f a0be 7621 dbbe 3097 adbe f071 3c3e
00000250: a023 a6be b8f4 1dbd 362c 20be c494 cb3d
00000260: 5aee bcbe cc61 c33d 7819 cc3e 6158 e33e
00000270: c455 7a3e c6c4 2dbd 563f 983e d268 5b3e
00000280: 38a0 b8be 8ffa 653e d98a 57be 4e56 0a3e
00000290: a29e c03e a6ad d73e d283 68be e08a a2be
000002a0: a0d9 2dbc d889 1abe c558 bb3e 5bcb c33d
000002b0: 34ae 07bd 32b0 203e 7c6d 28bd d031 d83d
000002c0: cae3 83be 600d e0bd 80fc e3bd 789e 1d3e
000002d0: d7e7 50be e34b d13e 1cb3 943e 48ab 983e
000002e0: b50c de3e 6448 603e ce68 0cbe 6e6d acbe
000002f0: a04e 143c 9508 dfbe b083 c6bc 08b3 49be
00000300: 86ca 93be 9291 dabe 7cfe d83e 5875 1b3e
00000310: d659 d6be 10b8 d7bd 068d 16be 9232 96be
00000320: b06b 3d3e 10c0 cebe 1b5f 85bd e68c d83e
00000330: 7397 a33e 5fe2 c9be eb44 923e ac0b e3bd
00000340: 1444 a03e bed2 e33e 7e1d 773e 7585 babd
00000350: 72c7 373e aec0 30be cbf6 873e 9e8a acbe
00000360: b6cb c03e c08a 443e 39c6 6abe 9ffb a9be
00000370: 9872 fdbd 36c7 34be 4b9b d1be e45b e33e
00000380: 80bb 06be 029f dfbe 9817 ad3d 61e1 e0be
00000390: d4c9 693e cce9 14be 2fb8 67be 0207 2bbe
000003a0: 8647 c4be 781a 18be becb b33e 85b4 c53e
000003b0: 215e 9f3e 1d85 8f3e f0a8 26be d90b 923e
000003c0: 44e1 d9bd e083 e3bc e872 b33d e0d5 9dbc
000003d0: 4c4b d6bd e4cb fdbd 204e 6d3d 98c6 0cbe
000003e0: 64b2 473e f028 a1bd 122c a53e 619e 92be
000003f0: a855 173d 505a 803d cf03 e1be 3ae1 12be

layer1.bias f4 [100]
-0.3247466 0.31143135 0.14759338 -0.10960868 -0.17854553 -0.11698362 -0.28899243 0.15757376
-0.41996524 0.06991036 -0.0137223005 -0.19091757 0.108397126 -0.09285924 -0.15449461 -0.33898833
0.09902959 -0.10753212 -0.21004875 -0.38556334 -0.36141402 0.32287243 -0.33242163 -0.013366402
0.4029072 0.18621504 0.4041747 -0.1531427 0.1669274 0.072411895 -0.35824427 0.31037658
0.29596114 0.16767466 -0.12237156 -0.14677924 -0.087180205 0.41126943 0.29941702 0.0784688
0.29388887 0.24719633 -0.18132627 -0.17978534 -0.17486575 -0.3402344 -0.44611666 -0.14692934
-0.10976699 -0.42432365 -0.022280216 0.46342745 -0.011362702 0.33347517 -0.09224093 0.16306373
0.40846753 0.15031204 -0.13768275 -0.0026893914 0.2547726 0.4154517 -0.07015567 -0.30905315
-0.33580387 0.18849224 -0.15623216 0.4245698 0.42176104 0.46235204 -0.23036222 -0.18591358
-0.40746602 -0.04636206 -0.015544911 -0.15195464 0.27338207 0.08287501 -0.16982484 -0.10455793
-0.39123404 -0.4166686 -0.24255873 -0.19048406 -0.2847969 -0.26424468 0.14645697 0.43703175
0.23367721 -0.2811852 0.25302878 0.29181653 -0.32875407 -0.32694733 0.0011304915 0.13396843
-0.35779086 -0.32927772 -0.21825778 -0.1364106
00000000: 3045 a6be ee73 9f3e b822 173e 847a e0bd
00000010: a4d4 36be 1c95 efbd d1f6 93be 045b 213e
00000020: af05 d7be 2a2d 8f3d 80d3 60bc e57f 43be
00000030: 50ff dd3d fc2c bebd d633 1ebe e18f adbe
00000040: 07d0 ca3d cd39 dcbd 0517 57be 8f68 c5be
00000050: 420b b9be 894f a53e 2b33 aabe c1fe 5abc
00000060: da49 ce3e 28af 3e3e fcef ce3e 71d1 1cbe
00000070: 04ef 2a3e b04c 943d cb6b b7be aee9 9e3e
00000080: 3888 973e e8b2 2b3e f19d fabd 4c4d 16be
00000090: 898b b2bd e891 d23e 304d 993e 40b4 a03d
000000a0: 9a78 963e 0921 7d3e 98ad 39be a619 38be
000000b0: 0210 33be 3433 aebe 6769 e4be a574 16be
000000c0: 84cd e0bd f340 d9be 0085 b6bc 5d46 ed3e
000000d0: a02a 3abc 42bd aa3e d0e8 bcbd 2efa 263e
000000e0: a822 d13e 66eb 193e b5fc 0cbe 8040 30bb
000000f0: 8e71 823e 16b6 d43e c7ad 8fbd 373c 9ebe
00000100: 7cee abbe 1c04 413e 53fb 1fbe 3661 d93e
00000110: 10f1 d73e 68b9 ec3e 13e4 6bbe 2160 3ebe
00000120: 639f d0be 25e6 3dbd 15b0 7ebc ff99 1bbe
00000130: bcf8 8b3e 60ba a93d 90e6 2dbe 7822 d6bd
00000140: d44f c8be 9655 d5be 5161 78be 410e 43be
00000150: e6d0 91be 144b 87be d1f8 153e a0c2 df3e
00000160: 1449 6f3e 82f7 8fbe fd8c 813e fa68 953e
00000170: 7452 a8be a465 a7be 002d 943a 052f 093e
00000180: 5d30 b7be 1797 a8be f87e 5fbe 38af 0bbe

layer2.weight f4 [150, 100]
-0.04176415 0.07454794 -0.06536423 -0.040419985 0.084575765 -0.0061807483 -0.05412767 -0.04393847
-0.07004895 0.064307876 0.0044117793 -0.03159733 -0.06289831 -0.092734076 0.008747354 -0.023805067
-0.0031777397 0.018996261 0.020264588 0.05779799 0.06453446 -0.041614402 -0.053288113 0.04862959
0.047129877 -0.00044371188 -0.07882567 0.09939463 -0.06269254 -0.052159823 0.0686103 -0.06740652
-0.0057542324 0.08445638 -0.072866894 0.093205996 -0.025995396 0.0024402365 0.011395775 0.06515408
-0.090545915 0.034944825 -0.029727839 -0.004374251 0.07675285 0.07244507 -0.07307919 0.04516337
-0.0055815205 0.085719 0.082867034 -0.08258893 -0.01165273 -0.065299846 -0.019845173 -0.08331698
0.04468011 0.09618629 -0.070755854 -0.074735954 -0.085432306 0.09975503 -0.03613536 0.0682972
0.07546974 0.023303129 -0.028784178 -0.057533205 0.09783792 0.09325967 -0.032011047 -0.014467835
0.0067466125 -0.094643645 -0.026314758 -0.019914195 0.022509828 0.01704146 0.022484377 -0.044196513
-0.00882782 0.08445271 -0.04641917 0.09140683 0.012991354 -0.06627695 0.031018458 0.021185085
0.02328606 0.061114453 -0.0076158196 -0.048183024 -0.028928496 0.06598986 0.083588175 -0.08458699
-0.09495218 -0.093500905 -0.07106061 -0.091843784 -0.031918764 0.042694233 -0.041659653 0.09499739
0.111271925 -0.08923038 0.036901884 -0.05380361 0.0022468716 0.040829618 0.078653745 0.015394155
-0.079335704 0.05352097 -0.06767773 -0.037898522 0.021063944 -0.054464355 0.07837226 -0.07383574
-0.002771337 -0.05381009 0.0053766593 0.027559519 -0.0048915744 0.06295435 0.04020805 0.11078147
-0.050101403 0.060844608 0.03569523 0.054676283 -0.07409858 -0.025847733 0.003179727 0.09702342
0.0049473825 -0.0068898425 0.09151781 0.02181767 0.058451667 0.09304831 0.081415884 -0.09405611
0.098345645 -0.03060539 0.04489664 0.030904055 -0.090089284 -0.05446824 0.035617076 0.045010354
-0.064485826 0.025906421 0.053576447 -0.0064744223 0.022323988 -0.04660121 -0.08541473 0.061013572
0.1005638 0.06336305 -0.05572976 -0.042313874 -0.059281945 -0.054459635 -0.054733858 0.067482956
0.004316195 0.019305196 -0.056598812 0.065515436 0.095767625 0.018358745 0.015278273 0.029886285
0.008902848 0.013912678 -0.016195022 -0.033147074 -0.08527559 0.008555996 0.09479187 0.10208716
0.09993937 0.029135995 0.031546623 0.016589059 0.047519397 -0.010561541 0.041164596 0.10783557
0.016797997 -0.0017882087 -0.041580774 0.012407804 -0.012704956 -0.01704559 0.09457121 0.02226634
0.06915272 -0.0068204626 -0.04754429 -0.071030505 -0.008131869 0.05117815 0.0743813 -0.0066093057
0.08700418 0.029635258 0.047349386 -0.004541082 -0.0313771 0.030305408 -0.037814494 0.11409731
-0.07934719 0.024199681 0.011060096 0.01052171 -0.06754863 -0.07473857 -0.09196953 0.02605396
-0.005813241 0.018156938 -0.09620358 -0.066924185 -0.0339154 -0.003634259 0.058808465 0.06518382
0.11205838 -0.047570456 0.022137415 0.01552701 0.09116953 0.06458599 -0.086505294 0.08579338
0.031139277 0.030406319 0.034690846 -0.035196587 0.09477312 -0.051033404 0.0047833472 0.030329468
0.01850821 -0.05329895 -0.07510321 0.009685797 -0.096237674 0.06093476 -0.061437704 -0.06817809
00000000: e310 2bbd 97ac 983d aedd 85bd 6d8f 25bd
00000010: 0f36 ad3d e087 cabb fab4 5dbd d3f8 33bd
00000020: d375 8fbd d9b3 833d b090 903b 346c 01bd
00000030: d4d0 80bd 5deb bdbd 1051 0f3c d802 c3bc
00000040: a041 50bb 0c9e 9b3c ec01 a63c 96bd 6c3d
00000050: a52a 843d dd73 2abd a344 5abd d22f 473d
00000060: 420b 413d 00a2 e8b9 5a6f a1bd 698f cb3d
00000070: f264 80bd 8aa5 55bd 8f83 8c3d 6e0c 8abd
00000080: 008e bcbb 77f7 ac3d 3d3b 95bd c9e2 be3d
00000090: 4cf4 d4bc 60ec 1f3b 58b5 3a3c 816f 853d
000000a0: 2370 b9bd 4e22 0f3d cc87 f3bc e055 8fbb
000000b0: 9930 9d3d 155e 943d 8baa 95bd 3afd 383d
000000c0: 30e5 b6bb 718d af3d 31b6 a93d 6324 a9bd
000000d0: 18eb 3ebc edbb 85bd 5892 a2bc 18a2 aabd
000000e0: 7e02 373d 51fd c43d 72e8 90bd 2a0f 99bd
000000f0: 22f7 aebd 5d4c cc3d ac02 14bd 67df 8b3d
00000100: e18f 9a3d 34e6 be3c cccc ebbc f0a7 6bbd
00000110: 3f5f c83d edfe be3d 041e 03bd 800a 6dbc
00000120: b012 dd3b 87d4 c1bd 0c92 d7bc 1823 a3bc
00000130: 8866 b83c 889a 8b3c 2831 b83c 6707 35bd
00000140: 90a2 10bc 8bf5 ac3d 0722 3ebd 8133 bb3d
00000150: b0d9 543c 36bc 87bd 6c1a fe3c 588c ad3c
00000160: 68c2 be3c 2653 7a3d 208e f9bb 905b 45bd
00000170: 74fb ecbc b125 873d 4730 ab3d f23b adbd
00000180: 4a76 c2bd 677d bfbd 3a88 91bd 9818 bcbd
00000190: 40bd 02bd 26e0 2e3d 50a3 2abd fe8d c23d
000001a0: 89e2 e33d 6bbe b6bd 6e26 173d 2d61 5cbd
000001b0: 4040 133b f53c 273d 3715 a13d c437 7c3c
000001c0: c27a a2bd ce38 5b3d 9f9a 8abd 7b3b 1bbd
000001d0: 4b8e ac3c 0416 5fbd a381 a03d 3137 97bd
000001e0: 529f 35bb f867 5cbd b02e b03b 80c4 e13c
000001f0: 8049 a0bb 36ee 803d 32b1 243d 65e1 e23d
00000200: 2137 4dbd 3238 793d 2935 123d 3df4 5f3d
00000210: ffc0 97bd a0be d3bc f762 503b 37b4 c63d
00000220: a71d a23b 30c4 e1bb b16d bb3d f8ba b23c
00000230: 046b 6f3d 1d90 be3d 5fbd a63d 7da0 c0bd
00000240: 7169 c93d 28b8 fabc 8ae5 373d 802a fd3c
00000250: bb80 b8bd 171a 5fbd 36e3 113d c75c 383d
00000260: 2511 84bd b439 d43c fa72 5b3d 6427 d4bb
00000270: cce0 b63c e9e0 3ebd ebed aebd 5ee9 793d
00000280: 65f4 cd3d 7dc4 813d e444 64bd 5051 2dbd
00000290: a0d1 72bd 1111 5fbd 9c30 60bd 8134 8a3d
000002a0: de6e 8d3b ee25 9e3c 28d4 67bd f52c 863d
000002b0: d121 c43d 1465 963c b951 7a3c 15d4 f43c
000002c0: 40dd 113c 00f2 633c 6cab 84bc 3ac5 07bd
000002d0: f8a4 aebd 732e 0c3c 3d22 c23d 1313 d13d
000002e0: 03ad cc3d 9cae ee3c 0837 013d c7e5 873c
000002f0: b3a3 423d 500a 2dbc 359c 283d e5d8 dc3d
00000300: f49b 893c 5462 eaba 9a50 2abd 1a4a 4b3c
00000310: 7328 50bc 31a3 8bbc 8dae c13d e667 b63c
00000320: f19f 8d3d 307e dfbb cdbd 42bd 7178 91bd
00000330: 883b 05bc 2ea0 513d 3955 983d e092 d8bb
00000340: 3f2f b23d a4c5 f23c 6ef1 413d 5bcd 94bb
00000350: 4685 00bd 0c43 f83c 5fe3 1abd daab e93d
00000360: c880 a2bd 693e c63c 6835 353c 4063 2c3c
00000370: f056 8abd 8910 99bd 855a bcbd 1d6f d53c
00000380: 007d bebb dcbd 943c 6206 c5bd 8c0f 89bd
00000390: e0ea 0abd c02c 6ebb 25e1 703d 187f 853d
000003a0: dd7e e53d 3dd9 42bd 8659 b53c 0065 7e3c
000003b0: 17b7 ba3d a945 843d b029 b1bd 71b4 af3d
000003c0: cc17 ff3c ac16 f93c fd17 0e3d 4c2a 10bd
000003d0: 6918 c23d 6708 51bd a0bd 9c3b 8175 f83c
000003e0: 889e 973c 0050 5abd b6cf 99bd 2db1 1e3c
000003f0: 4218 c5bd ba96 793d 1aa6 7bbd f4a0 8bbd

layer2.bias f4 [150]
0.0011366159 0.022216216 0.0077256085 -0.06463227 0.092732795 -0.03428884 -0.008739258 0.09175847
-0.060702708 -0.020520842 -0.06556477 0.08026331 -0.054033656 0.09495194 -0.099522434 -0.07631828
0.06588495 0.00802088 -0.01768361 0.083061196 -0.017752573 -0.020439243 0.06588241 -0.011030075
-0.06730497 0.050376352 -0.03728976 0.08189674 0.042933907 -0.02126135 0.057434075 0.036697365
-0.04570934 0.0021584183 0.02897762 -0.018473541 0.027908228 0.115329966 0.069057636 0.068990104
0.04467451 0.09905087 0.017599843 -0.07170969 0.09466314 0.03150358 -0.0019468006 -0.008090828
0.084837325 0.10813376 0.0500337 -0.07943531 -0.05540211 0.06412568 -0.07203957 0.042566247
-0.03404157 -0.019588694 0.036167644 0.036326677 -0.06492523 -0.06176802 0.11150493 -0.044418395
0.013597988 -0.0042036395 -0.034927294 0.027841542 -0.097676694 0.061005317 0.059952047 -0.011096932
0.030418273 -0.0069581596 0.061725803 -0.05700111 0.07253741 -0.06407205 0.08283337 -0.030167714
-0.010525106 -0.021816758 -0.08960873 0.0007957354 0.058998927 0.10085038 0.014247151 0.033330616
0.07823735 0.085606046 -0.06617585 0.11060813 0.09761986 0.0016107374 0.11752794 0.044354666
-0.008699572 0.016724735 0.019259177 -0.07169069 -0.03446225 0.0019721165 -0.09641799 -0.09610933
-0.009399854 -0.05752449 -0.055929672 0.07072698 -0.07514259 0.025645476 -0.025249016 -0.04407386
-0.019569922 -0.018935636 -0.027031377 0.090289734 0.04191529 -0.018328056 -0.06476384 -0.0736491
-0.026801841 -0.087042205 -0.048835795 0.008986339 0.03265377 -0.010062088 0.0857633 -0.0031420216
0.00790811 0.014254451 0.01651065 -0.01704876 -0.073677525 0.0828986 0.07576089 -0.05678883
0.091549456 0.05158194 -0.06368424 -0.046697367 0.026396269 0.050254874 -0.056642726 -0.034715235
-0.024675146 -0.023225367 0.057720117 0.073068395 -0.007910521 0.012946074
00000000: 80fa 943a c8fe b53c 1a27 fd3b ec5d 84bd
00000010: b1ea bd3d 7472 0cbd 1b2f 0fbc ddeb bb3d
00000020: 67a3 78bd 531b a8bc d246 86bd 1761 a43d
00000030: 6552 5dbd 2a76 c23d 6bd2 cbbd c24c 9cbd
00000040: b0ee 863d 026a 033c 38dd 90bc fd1b aa3d
00000050: d86d 91bc 3370 a7bc 5bed 863d 7db7 34bc
00000060: 30d7 89bd 6f57 4e3d 26bd 18bd 7ab9 a73d
00000070: 77db 2f3d 482c aebc fe3f 6b3d fa4f 163d
00000080: b839 3bbd 4074 0d3b 7962 ed3c d355 97bc
00000090: cc9f e43c 1e32 ec3d 176e 8d3d af4a 8d3d
000000a0: 9efc 363d 2fdb ca3d 8c2d 903c 88dc 92bd
000000b0: c0de c13d e609 013d ca2b ffba 648f 04bc
000000c0: 31bf ad3d 3c75 dd3d 23f0 4c3d fbae a2bd
000000d0: 53ed 62bd 5354 833d 7b89 93bd f259 2e3d
000000e0: 2c6f 0bbd 7878 a0bc 8624 143d 48cb 143d
000000f0: 85f7 84bd 7700 7dbd b25c e43d 10f0 35bd
00000100: 18ca 5e3c afbe 89bb ec0f 0fbd f213 e43c
00000110: b80a c8bd b6e0 793d 4790 753d e8cf 35bc
00000120: be2f f93c 4601 e4bb 32d4 7c3d ff79 69bd
00000130: 7e8e 943d 3538 83bd 8ba4 a93d 4822 f7bc
00000140: 7f71 2cbc 0fb9 b2bc c884 b7bd e698 503a
00000150: dca8 713d a58a ce3d e26c 693c af85 083d
00000160: e73a a03d 3952 af3d 3487 87bd 8486 e23d
00000170: ecec c73d 611f d33a 7db2 f03d 3dad 353d
00000180: a688 0ebc 5002 893c 6cc5 9d3c 92d2 92bd
00000190: 4a28 0dbd a03e 013b cc76 c5bd f8d4 c4bd
000001a0: d801 1abc cd9e 6bbd 8316 65bd 4fd9 903d
000001b0: 5ce4 99bd 7616 d23c 06d7 cebc cb86 34bd
000001c0: 1a51 a0bc e81e 9bbc e870 ddbc d3e9 b83d
000001d0: 5eaf 2b3d b824 96bc e7a2 84bd 57d5 96bd
000001e0: 898f dbbc 2f43 b2bd 0b08 48bd 703b 133c
000001f0: f6bf 053d 75db 24bc aba4 af3d 60ea 4dbb
00000200: 0491 013c 808b 693c 5841 873c d7a9 8bbc
00000210: 3ee4 96bd bec6 a93d 8728 9b3d 679b 68bd
00000220: 487e bb3d 9647 533d e26c 82bd bd45 3fbd
00000230: fd3c d83c 0ed8 4d3d 3402 68bd 9031 0ebd
00000240: 8823 cabc 2043 bebc ee6b 6c3d e2a4 953d
00000250: 219b 01bc c51b 543c

layer3.weight f4 [100, 150]
0.07618426 0.0033820644 0.0056160465 -0.054485314 0.038701683 0.06567328 0.040239803 -0.040679656
-0.079878084 0.043319248 -0.066034146 0.05790162 0.004721187 0.049061567 -0.016771518 0.04253433
-0.08019848 -0.065884165 0.0093118325 -0.0026569813 0.041753083 0.0715013 -0.07302941 0.0538529
0.01751738 -0.021029502 0.028704762 -0.06775876 -0.07664549 0.077717975 0.050688222 -0.023940705
-0.04730129 0.071330816 -0.05578655 -0.037674345 0.04051552 0.07615411 -0.026771799 0.037426658
0.04232479 -0.030989777 -0.024287231 -0.052829284 0.0054431707 -0.051063024 0.016106986 -0.06715731
-0.061478205 -0.052258417 0.078246176 -0.042868085 -0.0767074 0.055324554 0.05898796 0.07368109
-0.0026153624 -0.07145826 0.05657892 -0.06704174 -0.05151066 0.0397712 -0.0039770305 0.00639794
0.023744628 0.0025957897 -0.047446635 -0.00095933676 -0.018489651 -0.079068735 0.059680536 -0.028258711
-0.021168575 -0.06259238 0.03711632 0.06656411 -0.010627963 -0.07811075 -0.0390509 0.028472036
0.060317874 -0.028488643 0.047723234 -0.045492385 -0.03625977 0.0066820234 -0.012680441 0.040938802
0.012151815 -0.081457585 0.050137684 -0.07378763 0.01699017 -0.073986575 -0.06608313 0.0054318234
-0.056941226 -0.01838009 -0.010241553 -0.020382885 -0.048318796 0.049348623 -0.07168073 -0.008648902
0.064322025 -0.06276089 -0.075467445 -0.05134944 -0.06650262 0.06663309 0.027907513 0.014722809
0.006652765 0.061776266 -0.024641812 0.063319534 -0.061788134 -0.018055767 -0.06422453 0.047517538
-0.04963551 0.051921844 -0.006100856 -0.069447555 -0.023938067 0.009576932 -0.024663877 -0.05044052
-0.045137193 -0.034068216 0.030091949 0.05755642 -0.006558627 -0.037525278 -0.012751892 -0.07645296
-0.033085726 -0.009365819 -0.071556285 -0.067326725 -0.01867079 -0.056260698 0.029516794 -0.028163217
0.072336555 0.07461913 -0.033446252 0.009282991 -0.052012224 0.062039077 -0.055134423 -0.03938845
0.015139672 0.008890183 0.05967249 -0.0017483417 -0.012431359 -0.024632676 0.005751632 -0.03246287
-0.022750445 -0.060247846 -0.010457795 0.07427248 0.05534026 -0.07585829 -0.039511085 -0.010262938
-0.06613736 -0.0449762 0.06043406 0.06851943 0.027075665 -0.07868587 -0.0033920791 0.004304629
-0.048788015 0.05488082 0.038545936 -0.07742728 0.032492206 0.0325674 -0.03034779 -0.0296483
0.07379046 -0.0011827904 0.0038385913 -0.05513969 -0.012411779 0.032219034 0.006849639 -0.018999748
-0.012092471 -0.07639432 0.051759787 0.05020222 -0.06585095 0.07006455 0.048204586 0.025224773
-0.022862893 0.04763829 0.05353603 0.0087062735 0.019021653 0.023010574 -0.02176511 -0.06092972
-0.010541968 0.038436998 -0.045889564 0.03812892 0.072961465 -0.04431768 0.06721277 -0.023259463
-0.038865983 -0.04753465 -0.08119531 0.026341766 0.0054827635 0.06955737 -0.02401494 0.031896718
0.019079898 -0.07721256 0.024400452 -0.029155042 -0.055809326 0.012352883 0.044145025 0.022614755
0.05261126 0.05149605 0.029785411 0.07308518 -0.03603888 -0.034984805 0.057106897 -0.02202757
0.044440262 -0.06771703 -0.011050195 0.0343547 -0.019945508 0.024408558 -0.0557653 0.026599798
-0.07689261 0.05401817 0.030216292 0.0494591 -0.040596154 0.050993994 -0.07733478 -0.081331305
00000000: 7e06 9c3d a0a5 5d3b d006 b83b fe2b 5fbd
00000010: a885 1e3d b67f 863d 7ed2 243d b69f 26bd
00000020: 1f97 a3bd 866f 313d e93c 87bd 402a 6d3d
00000030: 30b4 9a3b c8f4 483d 6c64 89bc 7a38 2e3d
00000040: 1a3f a4bd 47ee 86bd a890 183c c020 2ebb
00000050: 4805 2b3d 466f 923d 7190 95bd dc94 5c3d
00000060: 9c80 8f3c 1046 acbc 4026 eb3c 1bc5 8abd
00000070: 50f8 9cbd 9a2a 9f3d 749e 4f3d 4c1f c4bc
00000080: ffbe 41bd e415 923d 7080 64bd 6a50 1abd
00000090: 9af3 253d b0f6 9b3d 8850 dbbc b24c 193d
000000a0: c25c 2d3d 46de fdbc 04f6 c6bc 8563 58bd
000000b0: a05c b23b 7627 51bd ccf2 833c c689 89bd
000000c0: 92d0 7bbd ec0c 56bd 883f a03d 7296 2fbd
000000d0: c518 9dbd 009c 623d 5c9d 713d 1ce6 963d
000000e0: 8066 2bbb b558 92bd 4cbf 673d 2e4d 89bd
000000f0: d8fc 52bd 20e7 223d c051 82bb d0a5 d13b
00000100: 1884 c23c 201e 2a3b 6757 42bd 007c 7bba
00000110: 9c77 97bc caee a1bd 9473 743d d07e e7bc
00000120: b869 adbc 6f30 80bd 4807 183d c452 883d
00000130: e820 2ebc 87f8 9fbd d6f3 1fbd 303e e93c
00000140: e00f 773d 0461 e9bc 7079 433d 3956 3abd
00000150: 2085 14bd e0f4 da3b a0c1 4fbc 72af 273d
00000160: 6818 473c 3cd3 a6bd 2c5d 4d3d f81d 97bd
00000170: f82e 8b3c 4686 97bd 9856 87bd 70fd b13b
00000180: 343b 69bd d891 96bc 30cc 27bc 02fa a6bc
00000190: eee9 45bd c821 4a3d 59cd 92bd 20b4 0dbc
000001a0: 44bb 833d c888 80bd ad8e 9abd ca53 52bd
000001b0: 8732 88bd ee76 883d 4c9e e43c f037 713c
000001c0: 70ff d93b 1c09 7d3d a0dd c9bc acad 813d
000001d0: 8e15 7dbd b0e9 93bc 2688 83bd c0a1 423d
000001e0: 9b4e 4bbd 00ac 543d b0e9 c7bb 853a 8ebd
000001f0: c419 c4bc 90e8 1c3c e60b cabc b89a 4ebd
00000200: c7e1 38bd 1d8b 0bbd 6483 f63c 48c0 6b3d
00000210: c0e9 d6bb 1bb4 19bd 50ed 50bc 5f93 9cbd
00000220: e684 07bd 1873 19bc 1a8c 92bd 98e2 89bd
00000230: 7cf3 98bc 9e71 66bd 34cd f13c 8cb6 e6bc
00000240: 3025 943d ead1 983d f0fe 08bd b017 183c
00000250: c50a 55bd b01c 7e3d a2d4 61bd c955 21bd
00000260: 630c 783c 21a8 113c 246b 743d 9d28 e5ba
00000270: e6ac 4bbc 77ca c9bc 3078 bc3b c9f7 04bd
00000280: 245f babc 72c6 76bd 2c57 2bbc 2c1c 983d
00000290: 78ac 623d 975b 9bbd 60d6 21bd e225 28bc
000002a0: 0673 87bd f738 38bd b489 773d ea53 8c3d
000002b0: c9cd dd3c 0f26 a1bd a54d 5ebb d80d 8d3b
000002c0: f1d5 47bd b6ca 603d 58e2 1d3d 3292 9ebd
000002d0: 8c16 053d 6565 053d ee9b f8bc fee0 f2bc
000002e0: 741f 973d dc07 9bba e090 7b3b 28da 61bd
000002f0: c65a 4bbc 1bf8 033d f072 e03b 5ca5 9bbc
00000300: 801f 46bc a074 9cbd 1202 543d d8a0 4d3d
00000310: dddc 86bd 017e 8f3d 2c72 453d 2fa4 ce3c
00000320: f64a bbbc 5e20 433d 9948 5b3d c2a4 0e3c
00000330: 4cd3 9b3c ac80 bc3c be4c b2bc 7191 79bd
00000340: 38b8 2cbc 1d70 1d3d b2f6 3bbd 122d 1c3d
00000350: d26c 953d 7586 35bd d9a6 893d a18a bebc
00000360: f031 1fbd b1b3 42bd ba49 a6bd b0ca d73c
00000370: c1a8 b33b 1874 8e3d fbba c4bc 22a6 023d
00000380: 724d 9c3c 9e21 9ebd 75e3 c73c 8ed6 eebc
00000390: 5298 64bd bf63 4a3c 6ad1 343d 9442 b93c
000003a0: e87e 573d 86ed 523d 8900 f43c afad 953d
000003b0: 819d 13bd 3a4c 0fbd ece8 693d 2a73 b4bc
000003c0: fe06 363d 3aaf 8abd e10b 35bc 84b7 0c3d
000003d0: c364 a3bc 75f4 c73c 286a 64bd d2e7 d93c
000003e0: df79 9dbd 2842 5d3d 2888 f73c a095 4a3d
000003f0: 2748 26bd 14df 503d b261 9ebd 0791 a6bd

layer3.bias f4 [100]
0.055088118 0.00266052 0.0041912748 0.049212188 0.05396733 0.054205768 -0.040785667 -0.027508212
-0.012279496 0.04288304 -0.050992373 -0.031559862 0.07089457 0.072642535 -0.026238427 0.025159575
-0.004515996 -0.055577546 0.026994333 0.06331358 -0.022854246 -0.065197155 -0.07093307 -0.038934913
0.022610387 -0.07313727 -0.009608559 0.05655023 0.021843173 0.07600258 0.02974482 -0.052845657
-0.0754062 0.0046053724 0.089446254 -0.05735503 0.012979321 0.041523613 -0.030597307 0.06424873
-0.006515868 -0.050320074 -0.03630641 0.07625416 -0.03084653 0.07565564 -0.015349471 0.016374389
-0.052944086 0.040807426 -0.019451527 -0.052885693 -0.018149875 0.030330785 -0.06934543 0.082082085
0.073501304 0.0811243 0.051397312 0.070603706 0.062358234 0.07930262 0.0022129342 -0.051947348
-0.00089428574 -0.035465784 -0.00025725306 -0.056910094 -0.079617515 0.001501383 0.036421582 0.050729055
0.06721848 -0.021239126 -0.054883078 0.034539733 -0.040492617 -0.034095056 0.08022027 -0.019767234
-0.051392984 0.06406796 -0.07085352 0.008355245 -0.06564534 0.04082518 0.030393893 -0.0049533155
0.06876086 -0.056622095 -0.06587442 -0.028459325 0.078972265 -0.054453764 0.050361335 0.021931857
0.091215305 -0.06655781 0.004533544 0.024549112
00000000: 14a4 613d 1e5c 2e3b f656 893b b892 493d
00000010: d90c 5d3d de06 5e3d df0e 27bd e758 e1bc
00000020: f02f 49bc 20a6 2f3d 61dd 50bd ea44 01bd
00000030: 2c31 913d 9cc5 943d f8f1 d6bc 741b ce3c
00000040: ecfa 93bb 48a5 63bd 3823 dd3c 8daa 813d
00000050: d438 bbbc 1686 85bd 5b45 91bd 377a 1fbd
00000060: 6b39 b93c fec8 95bd 386d 1dbc 37a1 673d
00000070: 74f0 b23c 3ea7 9b3d 69ab f33c b074 58bd
00000080: 916e 9abd aae8 963b 992f b73d 1ced 6abd
00000090: 38a7 543c aa14 2a3d 34a7 fabc d794 833d
000000a0: 1083 d5bb 6c1c 4ebd 08b6 14bd 242b 9c3d
000000b0: ddb1 fcbc 58f1 9a3d 597c 7bbc 9523 863c
000000c0: e6db 58bd b025 273d cf58 9fbc ab9e 58bd
000000d0: 0caf 94bc 4478 f83c fa04 8ebd a71a a83d
000000e0: da87 963d 7f24 a63d fd85 523d ad98 903d
000000f0: 596b 7f3d 6969 a23d e006 113b bec6 54bd
00000100: 806e 6aba 9244 11bd ecdf 86b9 8f1a 69bd
00000110: 820e a3bd 0eca c43a cc2e 153d 45c9 4f3d
00000120: d8a9 893d adfd adbc 14cd 60bd 8979 0d3d
00000130: 96db 25bd 42a7 0bbd 864a a43d e5ee a1bc
00000140: 7381 52bd 1036 833d a61b 91bd 70e4 083c
00000150: 1071 86bd 4e38 273d 9dfc f83c 6c4f a2bb
00000160: 7ed2 8c3d 92ec 67bd 2be9 86bd 8823 e9bc
00000170: 36bc a13d e90a 5fbd b047 4e3d 70aa b33c
00000180: 17cf ba3d 764f 88bd 208e 943b 381b c93c

layer4.weight f4 [80, 100]
-0.033274256 0.043189235 -0.001779899 0.03826923 0.045664556 0.06513036 -0.03451188 0.010481954
-0.044105887 0.09363989 -0.005492866 0.083305635 0.0759931 -0.039075803 -0.066618755 -0.013790801
0.09186565 -0.027917251 -0.029422775 0.054366194 0.075210266 0.04878781 0.08062912 0.07670509
-0.04235828 -0.09527268 0.07763552 0.09778892 0.017553613 -0.0865513 -0.0953997 -0.012019098
0.06773517 -0.07322854 0.025627486 -0.018076539 -0.08170754 0.044381432 -0.008787848 0.06892107
-0.0643549 0.055063628 0.08628983 0.01092042 -0.09399438 0.037773095 -0.033428133 -0.0021801963
-0.06333138 0.044450738 0.01931648 -0.03309983 -0.0006931871 -0.027976848 0.046959646 0.039326183
0.010756552 -0.062495913 0.046573974 0.021352671 0.055888183 0.043567874 0.03370639 -0.0885824
0.049522303 -0.069258235 0.043906443 0.05657906 -0.051578272 -0.06612216 -0.0596038 0.041618444
-0.020161629 -0.07488756 0.026575439 -0.011796907 0.0113242045 0.09511281 -0.087837696 -0.036682114
0.02927775 0.091439284 -0.07250936 -0.08235399 0.028519817 -0.013646245 0.0008315444 -0.038729656
0.0184163 -0.014309004 0.055574603 -0.042051114 0.003121987 -0.05941688 -0.06586167 0.05570268
-0.041614164 -0.07181118 0.07189799 0.0686029 -0.08843281 -0.092746995 0.020142779 -0.034063175
-0.0639846 -0.097143196 0.083311476 0.058985986 0.057885893 -0.08881187 -0.016819514 0.0106639415
0.04577864 -0.05248834 -0.084109746 -0.0915729 0.050442643 -0.0057282895 -0.0390687 0.08506172
-0.07406602 0.0063238293 -0.06853594 -0.0019353479 -0.031726643 0.014788412 0.08346351 0.021943092
0.060721196 -0.098410025 -0.05382804 0.07954902 0.049431838 -0.06034428 -0.06991889 -0.03579452
-0.05488452 0.07665723 0.044101603 0.08332432 0.051788874 -0.016089357 -0.06697635 0.055371292
-0.052138843 0.05482138 -0.011568472 -0.039259937 -0.09290886 -0.07717441 -0.05020666 0.0045721084
0.0421324 0.048969023 0.07081466 0.06509752 -0.09788104 0.016948879 0.08885985 0.018753484
-0.09568377 0.04785178 -0.010040261 0.06754132 -0.096167825 0.07661135 -0.067058 -0.027043559
0.05627481 -0.066111475 -0.080470875 -0.09579362 0.07311589 -0.008044384 -0.030478023 0.04469887
-0.061295915 -0.065639794 -0.00033370405 -0.075032845 0.0952386 -0.055672478 -0.014509819 -0.039219
0.06174738 -0.083909705 -0.03001757 -0.010867134 -0.028688326 0.036273845 -0.038410306 0.052188717
0.04201535 0.019039467 -0.087154165 -0.069455326 0.0002893582 0.06797219 -0.0583946 0.056486852
0.08489736 -0.026066735 -0.040067483 -0.09025594 0.01794938 -0.09314175 -0.07568444 -0.006603278
0.05174496 -0.06523744 -0.056166388 -0.034964025 0.058482908 0.008426152 1.770258e-05 0.08374571
-0.0024798512 0.09976656 0.019243166 -0.081260875 -0.054616358 -0.09723022 -0.05475793 0.07867246
0.052372552 0.037100486 0.016053215 -0.09174716 0.020784043 0.09377504 0.02235695 0.0845756
-0.056326818 -0.01841686 0.028104313 -0.06580417 -0.06867494 0.016756967 -0.08629364 -0.09868101
-0.09238005 0.055490024 -0.06683555 -0.06173941 0.0038519725 0.0756842 -0.08915941 -0.07288525
-0.01688324 -0.06618588 0.024789274 -0.06786996 -0.06390612 -0.01920873 0.011143148 -0.07712555
00000000: 964a 08bd 32e7 303d 804b e9ba 32c0 1c3d
00000010: c20a 3b3d 1163 853d 545c 0dbd 80bc 2b3c
00000020: 60a8 34bd 45c6 bf3d 80fd b3bb 259c aa3d
00000030: 45a2 9b3d f30d 20bd 6a6f 88bd d0f2 61bc
00000040: 0f24 bc3d b8b2 e4bc 0808 f1bc 16af 5e3d
00000050: d707 9a3d bad5 473d e120 a53d 8f17 9d3d
00000060: e07f 2dbd 531e c3bd 5fff 9e3d 8f45 c83d
00000070: 98cc 8f3c cf41 b1bd eb60 c3bd c0eb 44bc
00000080: bdb8 8a3d d8f8 95bd bcf0 d13c 4015 94bc
00000090: 4856 a7bd 4ec9 353d e8fa 0fbc 7d26 8d3d
000000a0: 80cc 83bd 668a 613d b9b8 b03d 90eb 323c
000000b0: 2080 c0bd f6b7 1a3d f0eb 08bd a0e1 0ebb
000000c0: e2b3 81bd fa11 363d 983d 9e3c b093 07bd
000000d0: 00b7 35ba b42f e5bc c258 403d 7e14 213d
000000e0: 403c 303c b7fb 7fbd 5ac4 3e3d cceb ae3c
000000f0: 02eb 643d 3a74 323d b60f 0a3d b06a b5bd
00000100: e6d7 4a3d 43d7 8dbd 3ed7 333d 72bf 673d
00000110: bd43 53bd 0e6b 87bd 1d23 74bd 1a78 2a3d
00000120: 002a a5bc a65e 99bd bcb4 d93c d047 41bc
00000130: 2889 393c 81ca c23d 40e4 b3bd fc3f 16bd
00000140: e4d7 ef3c 8544 bb3d ca7f 94bd 35a9 a8bd
00000150: 64a2 e93c 8094 5fbc 00fc 593a fda2 1ebd
00000160: c8dd 963c 5070 6abc 32a2 633d ca3d 2cbd
00000170: 409a 4c3b 1d5f 73bd 7ce2 86bd 7e28 643d
00000180: 9d73 2abd bd11 93bd 413f 933d ad7f 8c3d
00000190: 431c b5bd 23f2 bdbd 7802 a53c d485 0bbd
000001a0: 5c0a 83bd 03f3 c6bd 359f aa3d 4a9b 713d
000001b0: c219 6d3d ffe2 b5bd 14c9 89bc d0b7 2e3c
000001c0: 6282 3b3d 03fe 56bd bb41 acbd 938a bbbd
000001d0: f29c 4e3d 60b4 bbbb 8006 20bd d734 ae3d
000001e0: edaf 97bd 2038 cf3b 925c 8cbd 80ab fdba
000001f0: ccf3 01bd 184b 723c ebee aa3d 00c2 b33c
00000200: cab6 783d 328b c9bd ca7a 5cbd 99ea a23d
00000210: 0a79 4a3d 902b 77bd a331 8fbd 469d 12bd
00000220: 97ce 60bd 77fe 9c3d e2a3 343d f1a5 aa3d
00000230: 9220 543d d4cd 83bc e62a 89bd 02cd 623d
00000240: 8a8f 55bd 628c 603d b089 3dbc 07cf 20bd
00000250: 0047 bebd 9e0d 9ebd 80a5 4dbd a0d1 953b
00000260: 0693 2c3d be93 483d 4707 913d d951 853d
00000270: db75 c8bd 60d8 8a3c 27fc b53d e8a0 993c
00000280: daf5 c3bd 3a00 443d e87f 24bc 1b53 8a3d
00000290: a3f3 c4bd 69e6 9c3d b455 89bd 748a ddbc
000002a0: 6a80 663d 7465 87bd eacd a4bd 722f c4bd
000002b0: c9bd 953d 98cc 03bc 0cad f9bc 2a16 373d
000002c0: 6d11 7bbd 286e 86bd 00f5 aeb9 d2aa 99bd
000002d0: 750c c33d d308 64bd 98ba 6dbc 1aa4 20bd
000002e0: d2ea 7c3d dad8 abbd 68e7 f5bc 100c 32bc
000002f0: c803 ebbc e293 143d 2054 1dbd d6c3 553d
00000300: 4a18 2c3d a8f8 9b3c e27d b2bd 983e 8ebd
00000310: 00b5 9739 0135 8b3d 2d2f 6fbd c25e 673d
00000320: abde ad3d e889 d5bc cd1d 24bd 1bd8 b8bd
00000330: 940a 933c 1ac1 bebd 7200 9bbd 5060 d8bb
00000340: 86f2 533d 359b 85bd ba0e 66bd 7036 0fbd
00000350: c68b 6f3d d80d 0a3c 0080 9437 df82 ab3d
00000360: 0085 22bb 6952 cc3d d8a3 9d3c 1a6c a6bd
00000370: 67b5 5fbd a320 c7bd da49 60bd 071f a13d
00000380: 9a84 563d aef6 173d 0882 833c efe5 bbbd
00000390: 4c43 aa3c 210d c03d ec25 b73c f935 ad3d
000003a0: f3b6 66bd f4de 96bc 043b e63c 56c4 86bd
000003b0: 72a5 8cbd e845 893c b8ba b0bd 4519 cabd
000003c0: c031 bdbd 8249 633d 14e1 88bd 77e2 7cbd
000003d0: 6071 7c3b 5100 9b3d 3599 b6bd dd44 95bd
000003e0: b84e 8abc 768c 87bd e012 cb3c 68ff 8abd
000003f0: 36e1 82bd a05b 9dbc c091 363c 00f4 9dbd

layer4.bias f4 [80]
-0.061182857 -0.088626586 0.05278749 0.08763509 -0.054124273 0.005362458 -0.021141741 -0.041362215
0.0051457197 0.07615725 0.08146734 0.05908094 -0.079893075 0.008795033 -0.036330007 0.09905473
0.08822756 0.00036592782 -0.022166615 -0.03026857 -0.04270409 -0.029782213 0.039846726 -0.055961713
0.022755032 0.030600095 -0.07800195 -0.07307792 0.037276857 -0.09204858 -0.016768977 0.06808069
0.08136996 0.045432482 0.090188466 0.030642323 0.061893128 0.0023553176 -0.055900898 0.060560532
0.08163961 -0.00842458 0.07453709 0.029709982 0.029252104 0.050248913 -0.080045186 -0.03364964
0.06356224 -0.08459993 -0.050856184 -0.027725538 -0.073171854 0.11440005 -0.029463723 -0.024915501
-0.057135753 -0.015309755 0.036273334 0.007872157 0.0049985424 0.005404964 -0.016214602 0.025902368
-0.085381486 -0.031656742 -0.04128952 -0.08748057 0.0787393 0.051444165 0.023171231 -0.0032324244
-0.07311694 -0.08013641 0.04658738 0.05196504 0.094415784 -0.046828 0.1020853 0.03424993
00000000: e09a 7abd db81 b5bd b237 583d 077a b33d
00000010: 6ab1 5dbd 8fb7 af3b 7231 adbc 6d6b 29bd
00000020: 6d9d a83b 55f8 9b3d 59d8 a63d dbfe 713d
00000030: fb9e a3bd 0b19 103c c6ce 14bd 35dd ca3d
00000040: a7b0 b43d 00da bf39 c396 b5bc cbf5 f7bc
00000050: 7cea 2ebd d4f9 f3bc 5236 233d 1c38 65bd
00000060: c368 ba3c 0dad fa3c 7dbf 9fbd e0a9 95bd
00000070: 9eaf 183d f783 bcbd 185f 89bc e46d 8b3d
00000080: 4ba5 a63d 6917 3a3d bbb4 b83d 9c05 fb3c
00000090: a683 7d3d ac5b 1a3b 57f8 64bd 520e 783d
000000a0: ab32 a73d 4007 0abc e7a6 983d 5962 f33c
000000b0: 1ca2 ef3c ced1 4d3d bbee a3bd 34d4 09bd
000000c0: eb2c 823d ba42 adbd 934e 50bd ab20 e3bc
000000d0: 20db 95bd 934a ea3d e85d f1bc 981b ccbc
000000e0: 2e07 6abd c4d5 7abc 5993 143d 38fa 003c
000000f0: d0ca a33b 201c b13b 7cd4 84bc 3431 d43c
00000100: 7ddc aebd 80aa 01bd 331f 29bd 0329 b3bd
00000110: 1242 a13d 1eb7 523d 98d1 bd3c 15d7 53bb
00000120: 56be 95bd 8f1e a4bd 69d2 3e3d 4bd9 543d
00000130: 105d c13d b8ce 3fbd 1912 d13d a849 0c3d

layer5.weight f4 [60, 80]
-0.108578324 0.02309975 0.101600915 -0.051206466 -0.011265591 0.05195289 -0.004122895 0.05315247
-0.09724493 -0.07210318 -0.013715534 0.023514327 -0.014870748 -0.08025934 0.06851779 -0.07210314
0.05930738 -0.057281908 -0.025132347 0.04435672 0.005983874 -0.089935996 0.01604855 0.090956986
0.043109655 -0.09616984 0.00022301129 0.017014354 -0.10921366 -0.11001051 0.073287174 0.07083032
0.023360651 0.0803011 0.102129065 -0.059471462 0.09190666 0.100621894 0.055495925 0.027794123
0.012499758 -0.039480463 0.10667819 0.03547581 0.102711394 0.016294524 0.08491321 -0.013254523
-0.089789346 -0.06861151 0.108086556 -0.10424796 -0.01877787 0.09865487 0.018125236 0.06216319
0.00875429 0.05329523 0.02091823 -0.035375305 0.05489625 -0.04165785 0.023068735 0.037698586
-0.09148746 -0.007766217 0.020733073 0.04379247 -0.029095374 0.12159785 -0.011304438 0.037504267
-0.037576668 0.029106485 -0.06831776 -0.023481622 -0.06927477 -0.057805594 -0.0041782665 0.016920865
0.0889249 -0.111397654 0.027312905 0.060647428 -0.052949 0.061903298 0.06680974 -0.10456889
-0.08664003 0.054139957 -0.0653727 0.005311385 -0.09169812 -0.108075835 0.050751016 0.04339704
0.094776556 -0.06194808 0.08173402 -0.08436656 -0.10578006 0.07735413 -0.110438116 -0.07412048
-0.102628544 0.036227852 0.09086992 0.08462387 -0.08299829 -0.09901996 -0.010186076 0.002068013
-0.035677694 -0.04407256 0.015626714 0.1023888 -0.094119735 0.06803225 -0.07721251 0.049929187
-0.047885664 0.026140243 0.019542232 -0.03941021 -0.038412683 -0.07566641 0.04309216 -0.003313303
-0.10776584 -0.056196567 0.04706657 -0.07540283 0.06848438 -0.07014764 -0.020730294 0.07075849
-0.085821405 -0.013513982 -0.09044574 0.09748009 0.085430875 0.0096169785 0.07048927 0.032766208
0.015903354 0.075069204 0.013192937 0.025247991 0.025617123 -0.06031328 0.024822071 -0.10533939
-0.016522527 0.063035935 0.08301014 0.027382359 -0.11074771 0.08285919 0.0024558082 -0.109542474
0.10070692 -0.085386366 0.043068945 -0.070774406 0.07254505 -0.02939664 -0.098280005 0.028486878
-0.042942986 -0.108433135 -0.008705913 0.058182966 -0.013528019 -0.035246104 0.105383515 0.016312575
0.03386095 -0.056794595 0.08070607 -0.06805309 0.08495777 -0.0029783696 -0.024559274 -0.05369968
-0.08378015 -0.031046474 0.03709525 -0.07063772 0.01142367 -0.038376182 0.0280824 -0.091039024
-0.01859448 -0.043434888 0.034518085 0.035455562 0.11882555 -0.06597108 0.021337748 -0.03764096
0.07206077 -0.06301647 0.024090827 0.031026544 -0.021924779 0.045153946 -0.014606275 0.0072747753
-0.07818976 0.08249846 -0.023602106 -0.017783709 0.09329927 0.055437695 -0.058313973 -0.06014772
0.11314021 0.0012877646 -0.044654965 -0.03705836 0.05449654 0.08461541 -0.037765007 -0.10508476
-0.08642743 -0.10512833 -0.090059936 -0.07440638 0.11284375 0.11635786 0.06193596 0.12848146
-0.031489953 0.04475832 -0.08561195 0.123708785 0.057431143 0.08146002 0.044653982 -0.06270598
-0.032715574 0.025786102 0.010118224 0.08468814 0.083574295 0.0606263 -0.111531824 -0.004672706
-0.07698743 -0.051297754 0.041277215 0.02373445 -0.10089247 -0.090754226 -0.10903173 -0.004705921
00000000: 505e debd b03b bd3c 2414 d03d dfbd 51bd
00000010: 5093 38bc 8ecc 543d 5a19 87bb 68b6 593d
00000020: 5a28 c7bd d5aa 93bd 1eb7 60bc 1ea1 c03c
00000030: 70a4 73bc 025f a4bd 0e53 8c3d d0aa 93bd
00000040: 4cec 723d 6fa0 6abd 5ae2 cdbc 64af 353d
00000050: 6014 c43b 5d30 b8bd 4078 833c a847 ba3d
00000060: c093 303d b1f4 c4bd 23d8 6939 b061 8b3c
00000070: 69ab dfbd 314d e1bd 9617 963d 7d0f 913d
00000080: d65e bf3c e774 a43d 0b29 d13d 5998 73bd
00000090: 8f39 bc3d da12 ce3d b24f 633d 80b0 e33c
000000a0: c9cb 4c3c 44b6 21bd 187a da3d 154f 113d
000000b0: 5a5a d23d 187c 853c fae6 ad3d 8029 59bc
000000c0: 7ae3 b7bd 3184 8cbd 7c5c dd3d f47f d5bd
000000d0: 0cd4 99bc 910b ca3d 607b 943c d49e 7e3d
000000e0: 276e 0f3c 194c 5a3d b55c ab3c b2e5 10bd
000000f0: e4da 603d 6ca1 2abd a5fa bc3c d569 1a3d
00000100: c75d bbbd c07b febb 68d8 a93c bc5f 333d
00000110: 6c59 eebc 4b08 f93d 4036 39bc 139e 193d
00000120: fee9 19bd b970 ee3c 2fea 8bbd 885c c0bc
00000130: eedf 8dbd 8fc5 6cbd d7e9 88bb a09d 8a3c
00000140: 421e b63d 7424 e4bd 50bf df3c 7069 783d
00000150: 0de1 58bd 508e 7d3d 8cd3 883d 3728 d6bd
00000160: 5470 b1bd dcc1 5d3d 1fe2 85bd 200b ae3b
00000170: 39cc bbbd dd56 ddbd 4ce0 4f3d 18c1 313d
00000180: 361a c23d 45bd 7dbd 2a64 a73d 60c8 acbd
00000190: 37a3 d8bd d86b 9e3d 612d e2bd 7acc 97bd
000001a0: ea2e d2bd a863 143d 021a ba3d 484f ad3d
000001b0: 02fb a9bd faca cabd 80e3 26bc 8087 073b
000001c0: c622 12bd 6e85 34bd 9803 803c 38b1 d13d
000001d0: d9c1 c0bd 7e54 8b3d 9821 9ebd 8c82 4c3d
000001e0: c223 44bd 1024 d63c 0817 a03c 9a6c 21bd
000001f0: 9e56 1dbd fef6 9abd 6881 303d 0024 59bb
00000200: 56b4 dcbd 5f2e 66bd e0c8 403d cd6c 9abd
00000210: 8a41 8c3d 91a9 8fbd 94d2 a9bc d4e9 903d
00000220: 22c3 afbd c069 5dbc 9e3b b9bd a4a3 c73d
00000230: 62f6 ae3d 8890 1d3c ae5c 903d dc35 063d
00000240: c047 823c e2bd 993d 3027 583c e0d4 ce3c
00000250: 00db d13c 0f0b 77bd a857 cb3c 2ebc d7bd
00000260: 405a 87bc fc18 813d 3801 aa3d f850 e03c
00000270: b2cf e2bd 14b2 a93d a0f1 203b ce57 e0bd
00000280: 6e3f ce3d 0cdf aebd 1069 303d 2cf2 90bd
00000290: 8092 943d 39d1 f0bc 0747 c9bd 505d e93c
000002a0: fce4 2fbd 3112 debd 3fa3 0ebc 4351 6e3d
000002b0: a0a4 5dbc 385e 10bd 50d3 d73d f3a1 853c
000002c0: c8b1 0a3d 73a1 68bd 3949 a53d 6b5f 8bbd
000002d0: 57fe ad3d c030 43bb 8830 c9bc 32f4 5bbd
000002e0: ed94 abbd 2d55 febc 30f1 173d 82aa 90bd
000002f0: 582a 3b3c 5830 1dbd 100d e63c ab72 babd
00000300: 7353 98bc c8e8 31bd d662 0d3d da39 113d
00000310: cf5a f33d d81b 87bd 80cc ae3c 682d 1abd
00000320: 9994 933d c70e 81bd 205a c53c 612b fe3c
00000330: 989b b3bc 58f3 383d 284f 6fbc 3d61 ee3b
00000340: f421 a0bd f4f4 a83d 3459 c1bc 24af 91bc
00000350: b013 bf3d a312 633d a2da 6ebd 755d 76bd
00000360: 0eb6 e73d 36ca a83a 20e8 36bd 82ca 17bd
00000370: c437 5f3d d84a ad3d 7baf 1abd ae36 d7bd
00000380: dd00 b1bd 864d d7bd 5871 b8bd 5f62 98bd
00000390: a01a e73d 084d ee3d 90b0 7d3d a590 033e
000003a0: 9cfb 00bd 8054 373d 5155 afbd 085b fd3d
000003b0: eb3c 6b3d 83d4 a63d 18e7 363d fe6b 80bd
000003c0: c400 06bd 603d d33c e8c6 253c fa70 ad3d
000003d0: 0029 ab3d 4853 783d cc6a e4bd 801d 99bb
000003e0: 96ab 9dbd 981d 52bd 4c12 293d c06e c23c
000003f0: b6a0 cebd 5add b9bd 074c dfbd 2034 9abb

layer5.bias f4 [60]
0.1015129 -0.110390306 0.033917606 -0.106931 -0.05476547 -0.08635969 0.023195822 0.050290037
-0.06271349 0.026412204 0.08816729 0.046877224 0.076726794 -0.0879337 -0.015020236 -0.05830874
-0.034465082 -0.018961644 0.09855864 -0.009647294 -0.043241553 0.073999114 -0.10339864 -0.09004587
-0.081895195 -0.045983918 -0.06750775 0.065249115 0.01895745 0.0075026527 0.038479704 -0.11083828
0.035609514 -0.0020200438 0.0054825693 -0.017525367 -0.03709343 -0.021199841 -0.06188491 0.08388064
-0.09328754 0.06900996 -0.08611253 -0.02007877 -0.055279143 0.0088481475 -0.09885541 0.035049625
-0.052275416 0.12343283 -0.06576152 0.0016845763 0.024850156 -0.08899852 -0.049063742 -0.07741736
-0.06560474 -0.08416027 0.1008106 -0.08456998
00000000: ffe5 cf3d 5014 e2bd 30ed 0a3d a4fe dabd
00000010: c251 60bd 59dd b0bd 2a05 be3c edfc 4d3d
00000020: ee6f 80bd 685e d83c 0d91 b43d 5502 403d
00000030: f022 9d3d 9516 b4bd 7017 76bc 25d5 6ebd
00000040: 422b 0dbd 7355 9bbc 1dd9 c93d af0f 1ebc
00000050: 0e1e 31bd d98c 973d abc2 d3bd f869 b8bd
00000060: abb8 a7bd a259 3cbd 8141 8abd 54a1 853d
00000070: a74c 9b3c d0d8 f53b e59c 1d3d 2eff e2bd
00000080: 48db 113d b662 04bb 20a7 b33b 5c91 8fbc
00000090: 48ef 17bd 4aab adbc 087b 7dbd 9dc9 ab3d
000000a0: 8a0d bfbd 1855 8d3d c45b b0bd 3c7c a4bc
000000b0: 626c 62bd d2f7 103c b574 cabd 3290 0f3d
000000c0: bf1e 56bd 5aca fc3d faad 86bd 00cd dc3a
000000d0: 8e92 cb3c db44 b6bd 10f7 48bd fe8c 9ebd
000000e0: c75b 86bd 385c acbd ca75 ce3d 0733 adbd

layer6.weight f4 [40, 60]
0.12062994 -0.106359966 0.11064875 -0.037896186 -0.048043713 0.12993696 -0.08177488 0.10518487
-0.029959926 0.04425031 0.062232535 0.13046314 -0.07539503 -0.035739113 0.08066261 -0.09908586
0.099218115 0.14819527 -0.08770562 0.10111442 0.09973284 9.466641e-05 -0.107077755 -0.029397726
0.088463604 -0.06165953 -0.07179376 0.1512566 0.12559128 -0.039293572 0.060640734 0.033949018
-0.015543029 0.15374218 0.06925786 -0.01508604 0.06662116 0.026745986 0.10937894 -0.0547076
-0.0070914724 0.120441265 -0.011229531 0.07993087 0.030968392 -0.05893506 -0.023146367 -0.094128415
-0.009939214 -0.053381447 0.09196703 -0.08989036 -0.08420777 -0.0029200763 -0.044314854 -0.010563485
-0.06049314 0.0060594976 -0.11222439 -0.040138233 0.10394712 0.050624505 -0.0945527 0.058510646
0.0464279 -0.07454472 0.12066718 -0.01673012 -0.06580899 0.05392115 0.09573247 0.11333759
0.016587257 -0.02286541 -0.072470985 -0.03647962 -0.03748613 -0.007017242 -0.07271755 -0.046014532
-0.03396319 -0.034658395 0.02221693 -0.10828631 0.043521374 -0.119959 0.00025372207 -0.02795153
-0.09881849 0.04466209 0.06750285 0.11133938 -0.068036586 0.09276131 0.052357886 -0.10338692
0.11175782 -0.073145665 -0.07864603 0.0057085445 0.034784 -0.08669903 -0.11712617 0.102211714
-0.12297341 0.013946654 -0.019082598 -0.0053302534 0.06804631 0.036755983 0.089018844 0.026007444
-0.06905465 -0.06502429 -0.06553336 -0.11496425 -0.06343234 0.06585792 -0.04733719 0.087334536
-0.07153072 0.02664867 0.011520024 0.08321683 0.08620897 0.015870713 0.0899031 -0.10159231
-0.04386899 -0.12169778 0.0030742094 0.06870715 -0.10564877 -0.05026516 -0.04279667 -0.018687345
0.108670324 0.0020407948 -0.02783636 0.08251629 -0.043354146 -0.062229484 -0.01650383 0.015790015
0.024752676 -0.08534378 -0.04743211 -0.05498284 -0.067920916 0.011236131 -0.04018083 0.0838211
-0.09488627 -0.0912745 0.12023201 -0.064616255 -0.06693286 -0.04085417 -0.060330547 -0.117532454
0.054843694 0.021380411 -0.107646346 -0.098524645 0.00549244 -0.0406076 0.022179373 0.021130813
0.003735182 0.035729162 -0.039170396 -0.07792409 -0.08416461 -0.10078721 -0.0306333 -0.12562886
0.008094445 0.12129216 -0.11317687 -0.063537806 0.022857603 0.10451305 -0.013293733 -0.026149668
0.041430548 0.0029860823 -0.10621679 0.004754106 -0.059265234 -0.042541757 -0.056483444 0.037996836
-0.12559442 -0.08195019 0.099529 -0.08539416 0.034767598 0.05667555 0.063535884 0.044785917
-0.038685746 -0.0649409 -0.10685793 0.009547263 0.07732414 -0.04672685 0.124598905 -0.11643516
-0.04515189 0.12353088 -0.098490335 0.02359581 -0.06245064 -0.038772386 -0.031233868 0.1243958
0.033158332 -0.07485353 -0.09820228 0.06661393 -0.00051314913 -0.04473202 0.034395278 0.10187514
0.04242415 0.013673043 -0.05824575 0.12563087 -0.07127995 -0.075149104 0.094968356 0.1207082
-0.0778996 -0.05707179 -0.11512573 -0.02538827 -0.08016901 0.04695852 -0.02348746 0.06835165
-0.06568258 -0.0028511584 -0.009466313 -0.05235011 0.05340141 -0.031399578 -0.06669061 0.10467836
0.058850303 0.00837107 -0.072749525 -0.09327148 -0.12803325 0.024544 0.023245722 -0.11973514
00000000: d40c f73d 41d3 d9bd d09b e23d 0839 1bbd
00000010: 7cc9 44bd 320e 053e 9779 a7bd 2a6b d73d
00000020: 856e f5bc d03f 353d 8be7 7e3d 2198 053e
00000030: b668 9abd 2d63 12bd 7032 a53d 87ed cabd
00000040: de32 cb3d 80c0 173e 019f b3bd 1415 cf3d
00000050: bb40 cc3d a487 c638 954b dbbd 80d3 f0bc
00000060: 682c b53d b48e 7cbd 9b08 93bd 03e3 1a3e
00000070: 009b 003e 4cf2 20bd 6b62 783d 200e 0b3d
00000080: 30a8 7ebc 976e 1d3e 11d7 8d3d 702b 77bc
00000090: ad70 883d 661a db3c 1102 e03d 1415 60bd
000000a0: 955f e8bb e9a9 f63d 11fc 37bc ccb2 a33d
000000b0: 6db1 fd3c e465 71bd 739d bdbc 66c6 c0bd
000000c0: 16d8 22bc 81a6 5abd 3659 bc3d 7018 b8bd
000000d0: 2075 acbd c05e 3fbb 7e83 35bd 7812 2dbc
000000e0: a8c7 77bd c08e c63b e7d5 e5bd fd67 24bd
000000f0: 3ae2 d43d a45b 4f3d d9a4 c1bd dca8 6f3d
00000100: 2f2b 3e3d e7aa 98bd 5b20 f73d 9b0d 89bc
00000110: ddc6 86bd 6cdc 5c3d 630f c43d 8a1d e83d
00000120: 00e2 873c 3e50 bbbc ab6b 94bd a76b 15bd
00000130: 0e8b 19bd e4f0 e5bb f0ec 94bd bc79 3cbd
00000140: fc1c 0bbd f6f5 0dbd 4700 b63c 37c5 ddbd
00000150: 7843 323d 10ad f5bd 0006 8539 9bfa e4bc
00000160: 5961 cabd 98ef 363d ef3e 8a3d e705 e43d
00000170: c456 8bbd a4f9 bd3d 3975 563d 86bc d3bd
00000180: 49e1 e43d 65cd 95bd 2b11 a1bd be0e bb3b
00000190: ab79 0e3d 438f b1bd d8df efbd 6054 d13d
000001a0: 7cd9 fbbd 8280 643c 1c53 9cbc 68a9 aebb
000001b0: dd5b 8b3d 718d 163d 834f b63d 900d d53c
000001c0: 866c 8dbd 742b 85bd 5b36 86bd 6072 ebbd
000001d0: d1e8 81bd 84e0 863d a4e4 41bd 73dc b23d
000001e0: b37e 92bd 504e da3c 7cbe 3c3c 966d aa3d
000001f0: 548e b03d 4c03 823c 1e1f b83d a10f d0bd
00000200: f8af 33bd b03c f9bd ad78 493b 56b6 8c3d
00000210: 625e d8bd d7e2 4dbd 904b 2fbd 3416 99bc
00000220: 8c8e de3d dbbe 053b 1409 e4bc 4dfe a83d
00000230: 1e94 31bd 58e4 7ebd 0a33 87bc 105a 813c
00000240: 20c6 ca3c b8c8 aebd 2c48 42bd b035 61bd
00000250: 1f1a 8bbd c017 383c a794 24bd 66aa ab3d
00000260: bc53 c2bd 20ee babd 333c f63d 8755 84bd
00000270: 1814 89bd b456 27bd 2a1d 77bd dbb4 f0bd
00000280: c8a3 603d f925 af3c b075 dcbd 4ac7 c9bd
00000290: edf9 b33b 2854 26bd 84b1 b53c 871a ad3c
000002a0: f5c9 743b be58 123d 2371 20bd aa96 9fbd
000002b0: 7f5e acbd 8669 cebd b0f2 fabc daa4 00be
000002c0: 909e 043c 0668 f83d 46c9 e7bd 1c20 82bd
000002d0: de3f bb3c f00a d63d f5cd 59bc d437 d6bc
000002e0: 14b3 293d 26b2 433b 3088 d9bd 55c8 9b3b
000002f0: 1ac0 72bd 4440 2ebd 2f5b 67bd 92a2 1b3d
00000300: d39b 00be 80d5 a7bd dcd5 cb3d 22e3 aebd
00000310: 7868 0e3d 9f24 683d 1a1f 823d 7071 373d
00000320: f274 1ebd bcff 84bd 55d8 dabd 206c 1c3c
00000330: 1e5c 9e3d a764 3fbd b62d ff3d 8f75 eebd
00000340: 30f1 38bd c2fd fc3d 4db5 c9bd 004c c13c
00000350: 3ecc 7fbd cbcf 1ebd 2bde ffbc 3ac3 fe3d
00000360: 08d1 073d cf4c 99bd 471e c9bd e26c 883d
00000370: db84 06ba ec38 37bd 10e2 0c3d eaa3 d03d
00000380: f2c4 2d3d e604 603c 1893 6ebd 61a5 003e
00000390: 39fb 91bd c6e7 99bd c57e c23d dc35 f73d
000003a0: d389 9fbd 1cc4 69bd 0ac7 ebbd 10fb cfbc
000003b0: a62f a4bd 9457 403d c668 c0bc f3fb 8b3d
000003c0: 9784 86bd 80da 3abb 9818 1bbc 126d 56bd
000003d0: 70bb 5a3d d89c 00bd 1695 88bd 9c61 d63d
000003e0: 040d 713d d026 093c b4fd 94bd 1e05 bfbd
000003f0: 261b 03be 8010 c93c d06d be3c b237 f5bd
