saved_models/model_T.pt (torch_old, 190423 bytes, 15 tensors)

layer1.weight f4 [100, 5]
0	0x3e401c08	0.18760693
1	0x3da43e98	0.08019751
2	0xbde37aec	-0.1110743
3	0xbdddea94	-0.10835758
4	0xbe939bdc	-0.2882985
5	0xbe12b186	-0.14325532
6	0x3ebaafa0	0.36462116
7	0x3de2c478	0.1107263
8	0x3eecd028	0.4625256
9	0xbe60b0c9	-0.21942438
10	0xbe5d1a49	-0.21592058
11	0xbec1e3b7	-0.37869045
12	0xbd7a44cf	-0.061100777
13	0x3ed1f48d	0.4100689
14	0x3e88ef60	0.2674513
15	0xbed40d06	-0.41416186
16	0x3e608b17	0.21928059
17	0x3ed77d92	0.4208799
18	0x3e6cddc9	0.2313148
19	0xba820ad5	-0.0009921441
20	0xbcc9977a	-0.024608362
21	0x3ee2b9b3	0.44282302
22	0xbe7fd518	-0.24983633
23	0xbd2c5a58	-0.042078346
24	0x3eca3d48	0.3949988
25	0x3e85138e	0.25991482
26	0x3e57dca1	0.21080257
27	0xbeac21f3	-0.3361965
28	0x3be93614	0.0071170423
29	0x3d98fac3	0.07469704
30	0x3e98a3be	0.29812425
31	0xbeb1f1c5	-0.34754768
32	0x3e17d570	0.14827514
33	0x3e04cd70	0.12968993
34	0xbeb11a58	-0.3459041
35	0x3e7aaa04	0.24478918
36	0x3edf03b8	0.43557525
37	0xbead8c5a	-0.33896142
38	0xbd2dfd57	-0.04247793
39	0x3d86f008	0.06588751
40	0x3e6bcc64	0.23027188
41	0xbddf2bd8	-0.108970344
42	0xbd1ef278	-0.038805455
43	0xbec0084a	-0.37506324
44	0x3e4433ac	0.19160336
45	0xbdd3f7d4	-0.10350004
46	0xbec8422a	-0.3911298
47	0xbea56e95	-0.3231093
48	0xbed6fbf7	-0.4198911
49	0x3e569ba4	0.2095781
50	0xbeb47fff	-0.35253903
51	0xbe4c22f6	-0.19935212
52	0xbc64e380	-0.013970256
53	0x3d4416b8	0.04787323
54	0xbed57854	-0.41693366
55	0x3e85a470	0.26102018
56	0xbeded348	-0.4352057
57	0x3c1db880	0.009626508
58	0x3e7e0940	0.24808216
59	0xbed29e7d	-0.41136542
60	0x3e10f0b0	0.14154315
61	0xbd2b92db	-0.0418881
62	0xbe0ac47e	-0.13551518
63	0x3e78e7df	0.24307202
64	0x3eeb577a	0.45965177
65	0xbe78c353	-0.2429326
66	0x3ec4b5ac	0.38419855
67	0x3e89793d	0.2685031
68	0x3e8beb7c	0.27328098
69	0x3ed5cca0	0.4175768
70	0xbe63aa34	-0.22232896
71	0xbdf68e94	-0.12038913
72	0x3e731b14	0.23740798
73	0x3e9193c8	0.2843306
74	0xbeafeea8	-0.34361768
75	0xbca81e10	-0.020522147
76	0xbca03f5e	-0.019561466
77	0x3ea3e3b7	0.3200967
78	0xbe1cfe34	-0.15331346
79	0x3ded791f	0.11595368
80	0x3cfec550	0.031099945
81	0xbdecf758	-0.115706146
82	0xbed0fa8a	-0.40816146
83	0x3ccb1f00	0.024795055
84	0xbee0739c	-0.43838203
85	0xbecf5be2	-0.4049979
86	0xbd3e3018	-0.046432585
87	0xbeddc122	-0.4331141
88	0x3ed7cdfc	0.4214934
89	0x3e6f7c88	0.23387349
90	0xbdd6c1cd	-0.10486183
91	0x3e70ee41	0.23528387
92	0xbdfd4f42	-0.12368633
93	0x3ec53823	0.3851939
94	0x3d9ea306	0.07745938
95	0x3e1fa7d4	0.15591365
96	0x3db8ef3b	0.090300046
97	0xbe9c848b	-0.30569872
98	0x3edb24b6	0.42801446
99	0x3ea7b978	0.3275869
100	0xbe6eb943	-0.23312859
101	0xbea11be7	-0.314666
102	0xbea05258	-0.31312823
103	0x3c9cc380	0.01913619
104	0xbe5327af	-0.20620607
105	0x3eb5adcb	0.35484156
106	0x3ee5f739	0.44915178
107	0x3da735fe	0.08164595
108	0x3ca03718	0.01955752
109	0xbe50e91a	-0.20401421
110	0x3e371930	0.17880702
111	0x3eebb301	0.46035007
112	0xbe88d480	-0.26724625
113	0x3e71cb1a	0.23612633
114	0xbce3fc7b	-0.027830353
115	0xbe584972	-0.21121767
116	0xbe4d5f3a	-0.20055857
117	0xbea88cd8	-0.32919955
118	0xbee1d1a1	-0.44105247
119	0x3e8533ac	0.26015985
120	0xbe06d326	-0.13166484
121	0xbe984734	-0.29741824
122	0x3e2eada0	0.1705842
123	0x3d0fa748	0.03507164
124	0xbe9e4c30	-0.309175
125	0xbe6595a2	-0.22420362
126	0xbdf8ffec	-0.12158188
127	0x3df89210	0.12137234
128	0x3d095aa8	0.033533722
129	0xbecf85f5	-0.4053189
130	0xbdc8e7f8	-0.098098695
131	0xbd98e2ea	-0.074651554
132	0x3ec4ab94	0.38412154
133	0xbec2a3eb	-0.38015684
134	0x3e3eb78d	0.18624707
135	0xbe52f16f	-0.20599912
136	0xbe580428	-0.21095335
137	0xbe5b5ee7	-0.21422921
138	0xbe057592	-0.13033131
139	0x3ee35990	0.44404268
140	0xbe3d5926	-0.18491039
141	0xbdf56826	-0.11982755
142	0xbcb7c29c	-0.022431664
143	0x3e7b380b	0.24533097
144	0x3eb40204	0.35157788
145	0x3ed54614	0.41655028
146	0xbe9511cf	-0.2911515
147	0x3e61fad9	0.22068347
148	0x3dcf1f00	0.10113335
149	0x3eb67269	0.35634163
150	0x3e017796	0.12643275
151	0x3ec0cc1e	0.3765573
152	0x3dad06f2	0.0844859
153	0x3e3bb659	0.18331279
154	0x3e87273c	0.2639712
155	0xbeb7609b	-0.35815892
156	0xbedff53b	-0.43741783
157	0xbe05b3ba	-0.13056841
158	0x3eb0ee42	0.34556776
159	0x3dede508	0.1161595
160	0x3eda58dc	0.4264592
161	0x3ed6b259	0.41932943
162	0x3ed2c35c	0.41164672
163	0xbd862bc6	-0.06551318
164	0xbec1a5a9	-0.378217
165	0x3a21b25f	0.0006168242
166	0x3e2dbbdb	0.16966192
167	0xbeda51e6	-0.4264061
168	0x3ece5c30	0.40304708
169	0x3d6e89c5	0.058236856
170	0xbbd7b840	-0.0065832436
171	0xbe61785d	-0.22018571
172	0xbe298378	-0.16554058
173	0x3ec37130	0.38172293
174	0xbea80ae0	-0.32820797
175	0xbea65543	-0.32486925
176	0xbe9156cc	-0.28386533
177	0x3ca66f60	0.02031678
178	0x3e0ff944	0.14059931
179	0xbec028d1	-0.3753114
180	0xbe1a9ccf	-0.1509888
181	0xbc937c80	-0.018003702
182	0x3e96de2f	0.29466388
183	0x3ec32577	0.3811452
184	0xbd882685	-0.06647972
185	0xbe8cbd5b	-0.27488217
186	0xbeb70a61	-0.35750106
187	0x3ee72e0c	0.45152318
188	0x3ea2ea15	0.31819215
189	0xbdb1ea78	-0.086872995
190	0x3e926cfe	0.2859878
191	0x3c448318	0.011994146
192	0xbdaba132	-0.08380355
193	0x3eb26a46	0.34846705
194	0xbeb71ce0	-0.35764217
195	0x3d67f6c7	0.05663183
196	0x3ebf06b0	0.3730979
197	0xbecc4b8c	-0.39901388
198	0xbc9f9be5	-0.019483516
199	0x3dec3a6d	0.11534581
200	0x3e82bf89	0.25536755
201	0x3e08b4d7	0.13350235
202	0x3dcd94d8	0.10038155
203	0x3e175fca	0.14782634
204	0xbed53ecd	-0.41649476
205	0xbda17b03	-0.07884791
206	0x3b37554d	0.0027974427
207	0xbe34cdb3	-0.17656593
208	0x3e9eb28c	0.30995595
209	0x3ed214cd	0.41031495
210	0xbe92e3ba	-0.28689367
211	0x3e4cd694	0.2000373
212	0xbc9daf80	-0.019248724
213	0x3de810d8	0.11331338
214	0xbdfe4b8c	-0.12416753
215	0xb9b87400	-0.00035181642
216	0xbe46261c	-0.19350475
217	0x3ecdf1b6	0.40223473
218	0xbe6f177c	-0.23348802
219	0xbeaac8e8	-0.33356404
220	0x3eb636ef	0.35588786
221	0xbc174a63	-0.009234044
222	0xbe901788	-0.28142953
223	0xbe999ffd	-0.30004874
224	0x3ebf34bb	0.37344918
225	0xbe9118cc	-0.2833923
226	0xbe99375c	-0.29925048
227	0xbee2ee35	-0.44322363
228	0xbe441842	-0.19149879
229	0xbec9f2d0	-0.39443064
230	0xbdfd898e	-0.12379752
231	0x3eaf4fc8	0.34240556
232	0xbe76f04e	-0.24115106
233	0x3ee9b064	0.45642388
234	0xbdac46e4	-0.08411959
235	0x3ec0f2b2	0.37685162
236	0x3e81ba34	0.25337374
237	0x3cc35deb	0.023848495
238	0x3ece17f8	0.40252662
239	0xbcf1a78a	-0.029498834
240	0x3e2ec2a8	0.17066443
241	0x3e29a994	0.16568595
242	0xbe316d2a	-0.17326799
243	0xbe95b9b3	-0.2924324
244	0xbe93ff82	-0.28905874
245	0xbe1b9259	-0.15192546
246	0xbd7c55c7	-0.06160524
247	0xbdb66d40	-0.089075565
248	0x3e0f0deb	0.13970153
249	0x3eda754e	0.4266762
250	0x3e7cc3e0	0.24684095
251	0xbebe6ab7	-0.37190792
252	0x3e97043f	0.29495427
253	0xbe8ca45f	-0.27469155
254	0x3eb8c86e	0.36090416
255	0xbe0f1394	-0.13972312

layer1.bias f4 [100]
0	0xbe32c5f8	-0.17458332
1	0x3db38f9b	0.08767625
2	0x3e9dd83e	0.30829042
3	0x3eda608c	0.42651784
4	0xbe8a8b92	-0.2705961
5	0xbe9d4cae	-0.30722564
6	0xbe7441c8	-0.23853219
7	0x3e13c7e9	0.14431728
8	0x3dacd510	0.08439076
9	0xbd166e38	-0.036726207
10	0x3ed0c004	0.40771496
11	0x3e82f51e	0.25577635
12	0xbe7ea83a	-0.24868861
13	0x3df6dfa6	0.12054376
14	0x3e4ff4b8	0.20308197
15	0x3aa242ba	0.0012379505
16	0xbe0dea44	-0.13858896
17	0x3da0ae68	0.07845765
18	0xbebba9b2	-0.36652905
19	0xbcfe30d6	-0.031029146
20	0xbec1ee5c	-0.37877166
21	0xbe98b6f4	-0.29827082
22	0x3ec55d13	0.38547572
23	0xbec4bcee	-0.38425392
24	0x3e9a6e56	0.30162305
25	0xbd6d7200	-0.057970047
26	0x3c92144a	0.01783194
27	0x3edc6c4c	0.43051374
28	0x3cc1f614	0.02367691
29	0xbeb7385a	-0.3578518
30	0xbea4a8e2	-0.32160097
31	0xbea3afcc	-0.3197006
32	0xbe1124a4	-0.14174134
33	0x3eda09d5	0.42585626
34	0x3eaaf66e	0.33391136
35	0xbee3ebbc	-0.4451579
36	0x3c463e42	0.012099804
37	0x3e9f4cd1	0.31113294
38	0xbe65242a	-0.22377077
39	0xbdb0864a	-0.086193636
40	0xbe914623	-0.28373823
41	0x3ea66f98	0.32507014
42	0x3e366070	0.17810225
43	0xbed1f180	-0.41004562
44	0x3d400906	0.046883605
45	0xbdfce520	-0.123483896
46	0x3d582fca	0.05277995
47	0x3eae8dde	0.3409261
48	0x3ee3fa3a	0.44526845
49	0xbe2ec99b	-0.17069094
50	0xbe806b41	-0.25081828
51	0xbe29a010	-0.16564965
52	0x3ec224a0	0.37918568
53	0x3e13b453	0.14424257
54	0x3e15074e	0.14553568
55	0x3e23e806	0.16006479
56	0xbb4f1a00	-0.003160119
57	0x3da306d5	0.079602875
58	0xbeda9960	-0.4269514
59	0xbeb330c1	-0.34998134
60	0xbea906f6	-0.33013123
61	0xbcc17210	-0.02361396
62	0xbe2af3e8	-0.16694605
63	0x3db283a8	0.08716518
64	0x3eaccde0	0.3375082
65	0x3ea11ffa	0.3146971
66	0x3eaf6ac0	0.3426113
67	0xbecd231e	-0.40065855
68	0x3ed0df62	0.40795428
69	0x3e9f4e9d	0.31114665
70	0x3ec11f79	0.37719324
71	0x3e8ac474	0.27103007
72	0x3dd1c490	0.102425694
73	0x3e8f2a75	0.2796208
74	0xbedd34f9	-0.43204477
75	0xbec6baf7	-0.38814518
76	0x3ebf2e4d	0.37340012
77	0x3dc2dc00	0.09514618
78	0xbdc82eee	-0.09774576
79	0x3eb6a1ec	0.35670412
80	0xbdbadd18	-0.091242015
81	0xbe24dd1c	-0.16099972
82	0x3e7bf2a2	0.24604276
83	0xbebedd4e	-0.37278217
84	0x3ee696df	0.4503698
85	0xbe04343c	-0.12910551
86	0xbe51c75f	-0.2048621
87	0x3e9a3e14	0.30125487
88	0x3e6a1cd3	0.22862558
89	0x3c9cd120	0.019142687
90	0xbe923884	-0.28558743
91	0xbe66dade	-0.22544429
92	0x3bccae40	0.006246358
93	0x3e9b34c2	0.3031369
94	0x3ecd42e8	0.40090108
95	0x3eb2195f	0.34784982
96	0x3eb8ee23	0.36119184
97	0xbeb28de2	-0.34873873
98	0xbe7c6045	-0.24646099
99	0x3e3c98ac	0.18417615

layer2.weight f4 [150, 100]
0	0xbda428e3	-0.08015611
1	0x3cdcf9be	0.026974555
2	0x3d3fe063	0.04684485
3	0xbdaa8866	-0.08326797
4	0x3d14cac6	0.036326192
5	0x3d60e427	0.054905083
6	0xbd8759b6	-0.06608908
7	0x3d8dfb7f	0.06932735
8	0x3ce06c44	0.027395375
9	0xbd875b02	-0.06609155
10	0xbcbdf12c	-0.023186289
11	0xbd41fd2d	-0.047360588
12	0xbcc5acc1	-0.024130227
13	0xbc1d1194	-0.0095867105
14	0xbdbf84e7	-0.09351521
15	0x3d9c88ba	0.07643266
16	0x3bbf7620	0.005842939
17	0xbda340ad	-0.0797132
18	0x3d1620e3	0.036652457
19	0x3d4061f5	0.04696842
20	0xbc4cb6d8	-0.012494765
21	0x3daf14e2	0.08548905
22	0x3ae405cd	0.0017396748
23	0x3d82fa21	0.063953646
24	0x3dad7e49	0.084713526
25	0x3c446fa8	0.011989512
26	0x3d449b73	0.04799981
27	0xbdca8d67	-0.098902516
28	0x3d9e8cab	0.07741674
29	0xbbcd9f3f	-0.006275087
30	0xbd7b613e	-0.061372034
31	0x3c3f8270	0.011688814
32	0xbb56ea9e	-0.0032793651
33	0x3da20e20	0.079128504
34	0x3d4168ea	0.047219194
35	0xbd1df1ad	-0.038560558
36	0xbd9204b3	-0.071298026
37	0xbdd40a2f	-0.10353505
38	0xbdd2285d	-0.10261605
39	0x3d919c72	0.07109918
40	0x3d89f0fc	0.06735417
41	0xbd566709	-0.052344356
42	0xbdb160e5	-0.08661059
43	0x3d624896	0.055245005
44	0xbd3c5e24	-0.045988217
45	0x3d7a155a	0.06105552
46	0x3d8086a8	0.06275684
47	0xbd4637cc	-0.048393056
48	0x3ce7cd74	0.02829621
49	0xbd5003d8	-0.050784916
50	0xbd18bfb0	-0.037292182
51	0xbd4896f9	-0.048972104
52	0x3c9a6034	0.018844701
53	0xbdc4e570	-0.09614074
54	0x3d7e9a70	0.062159
55	0x3dadff5d	0.08495972
56	0x3d2f2f8e	0.04276996
57	0xbca679c5	-0.020321736
58	0xbd55665d	-0.052099574
59	0x3d387efc	0.045042977
60	0x3d6082bd	0.05481218
61	0x3dacbf41	0.08434916
62	0x3c3b0b84	0.01141632
63	0x3d924811	0.07142652
64	0x3d26831b	0.040652376
65	0xbce90c2c	-0.028448187
66	0xbd955002	-0.07290651
67	0xbd8935cb	-0.06699713
68	0x3ce2ccbc	0.027685516
69	0x3c871a72	0.016492102
70	0x3d17d5f0	0.03706926
71	0x3d566f5e	0.0523523
72	0xbd4d3480	-0.050098896
73	0xbd3582d1	-0.04431421
74	0xbddd9dc3	-0.10821106
75	0x3cc20f72	0.023689006
76	0xbdc504ad	-0.096200325
77	0xbc012df0	-0.0078844875
78	0x3d6267b2	0.055274673
79	0xbb1e5ba0	-0.00241635
80	0x3cf766cc	0.030200385
81	0xbd26996d	-0.040673662
82	0x3c423917	0.011854432
83	0xbd8264cd	-0.063668825
84	0x3b11113c	0.0022135517
85	0xbda1ef04	-0.07906917
86	0xbcaf030d	-0.02136376
87	0x3d53e43a	0.051731326
88	0x3cadd966	0.021221828
89	0x3daf0b1d	0.085470416
90	0xbd2bbddd	-0.041929115
91	0xbd925a60	-0.07146144
92	0x3c849840	0.01618588
93	0x3c2bfdd8	0.010497533
94	0x3d90a9b9	0.07063622
95	0xbcc45a21	-0.023968758
96	0x3db0b2fe	0.0862789
97	0x3c97d5fe	0.018534657
98	0x3da44d6a	0.08022578
99	0xbdc6a145	-0.096987285
100	0x3d9b812f	0.07592999
101	0x3d9e3efa	0.077268556
102	0x3ddd4828	0.10804778
103	0x3d9831a8	0.07431346
104	0xbc1fb409	-0.009747514
105	0x3d90c244	0.07068303
106	0x3d2199e2	0.039453395
107	0x3cc6eff8	0.024284348
108	0x3c53d598	0.012929343
109	0xbdb39333	-0.087683104
110	0xbda849f8	-0.082172334
111	0xbc112028	-0.008857764
112	0xbd53e89e	-0.051735513
113	0x3cffe9f3	0.031239485
114	0xbc48ab30	-0.0122478455
115	0xbcc6b3ea	-0.024255712
116	0xbc059128	-0.008152284
117	0x3d8f05b1	0.069835074
118	0xbd279c4a	-0.040920533
119	0xbd99c571	-0.07508362
120	0xbba3e880	-0.0050020814
121	0xbd806e8d	-0.06271086
122	0x3d3ca49f	0.046055432
123	0x3d631a72	0.055445142
124	0x3cd9e5c4	0.026598819
125	0xbd43e95d	-0.047829974
126	0x3d8eb779	0.069685884
127	0xbda3de4e	-0.08001386
128	0x3de6fe9c	0.11279032
129	0xbcb46ad3	-0.022023594
130	0xbc8d8b9a	-0.017278481
131	0xbd1c3d0d	-0.03814416
132	0x3caff082	0.021476988
133	0x3ad7271f	0.0016414857
134	0xbd37f5d3	-0.04491217
135	0x3c80ea48	0.015736714
136	0xbd4eb521	-0.050465707
137	0xbd1bebdd	-0.038066734
138	0x3dec0f88	0.115264
139	0x3da0e4ac	0.07856116
140	0x3d184ed4	0.03718455
141	0x3b54be11	0.0032461921
142	0x3db231eb	0.08700927
143	0xbd581fda	-0.05276475
144	0x3cfc64e6	0.03080983
145	0xbd2a42a3	-0.041567456
146	0xbc80fa96	-0.015744489
147	0x3ddd5e55	0.10809008
148	0x3db2e143	0.087343715
149	0x3d24624a	0.0401328
150	0xbce512b5	-0.027963022
151	0x3decaf21	0.11556841
152	0xbdbae870	-0.09126365
153	0xbd523f4e	-0.051329903
154	0x3d875b69	0.06609232
155	0xbc3a296b	-0.011362414
156	0xbc9af6a8	-0.018916443
157	0xbafb120e	-0.0019155161
158	0x3cd6c844	0.026218541
159	0xbd78bc7d	-0.06072663
160	0xbcd8f144	-0.026482232
161	0xbd377dc0	-0.04479766
162	0x3c5b7643	0.013394895
163	0x3c2b4a00	0.010454655
164	0xbcf5e63a	-0.030017007
165	0xbd544afd	-0.051829327
166	0x3da019c9	0.07817418
167	0xbd248a6a	-0.040171064
168	0xbdb33c93	-0.08751788
169	0x3d397596	0.045278154
170	0xbc5a8cad	-0.013339204
171	0x3da9a29b	0.08282968
172	0x3c0bbd28	0.008528985
173	0x3d98bfae	0.07458435
174	0x3d1dea63	0.038553607
175	0x3cae5075	0.0212786
176	0x3dd727d1	0.10505641
177	0xbda75368	-0.08170205
178	0x3d7b41d2	0.061342068
179	0xbb98b7b0	-0.004660569
180	0xbdc10d47	-0.094263606
181	0xbd83f990	-0.06444085
182	0x3d933768	0.07188302
183	0xbd88fe6e	-0.066891536
184	0xbc4ecc6a	-0.012621978
185	0x3df03fdb	0.117309295
186	0x3d3756ce	0.044760518
187	0x3d084492	0.03326852
188	0xbcfb5b7c	-0.030683272
189	0xbd72235d	-0.059115756
190	0x3dc6c975	0.09706394
191	0xbd713325	-0.058886666
192	0xbca1a46c	-0.019731723
193	0xbc040728	-0.008058347
194	0x3dad97a3	0.08476188
195	0x3dc05a5c	0.09392235
196	0x3d663d56	0.05621084
197	0x3ddfb372	0.10922898
198	0x3d035aa3	0.03206886
199	0x3d945093	0.07241931
200	0xbd945768	-0.07243234
201	0x3d8406f1	0.064466365
202	0xbd9b7deb	-0.07592376
203	0x3da77e5d	0.08178399
204	0x3d7d65ba	0.061864592
205	0xb99cfb00	-0.00029941648
206	0xbd373a37	-0.044733252
207	0xbd89e3f6	-0.06732933
208	0xbdcb398d	-0.09923086
209	0xbdac9268	-0.08426362
210	0x3ccaabe0	0.02474016
211	0xbce3b668	-0.027796939
212	0x3d4485da	0.047979213
213	0x3dc2112b	0.09475931
214	0xbdc17b40	-0.09447336
215	0x3daf75cd	0.085673906
216	0xbab40080	-0.0013733059
217	0x3dcb166f	0.09916388
218	0xbd3c9c50	-0.04604751
219	0x3c7a2950	0.015268639
220	0x3da9a385	0.08283142
221	0xbdba035f	-0.09082674
222	0x3ce21664	0.027598567
223	0xbdafe5da	-0.085887626
224	0x3c22c5d0	0.0099348575
225	0xbd954eae	-0.072903976
226	0xbd7d4e30	-0.061842144
227	0x3c561518	0.013066553
228	0x3db363c5	0.08759264
229	0xbd8ac27d	-0.06775377
230	0xbd4e44c7	-0.05035856
231	0xbd8074f4	-0.06272307
232	0xbc774080	-0.015091062
233	0xbcff5540	-0.03116858
234	0xbdac8eb5	-0.08425657
235	0xbdb91133	-0.090364836
236	0xbd8527b0	-0.065017104
237	0x3c2aea10	0.010431781
238	0x3d2bc68e	0.041937403
239	0xbc401858	-0.011724554
240	0x3d9c95b5	0.07645742
241	0x3d638e3e	0.055555575
242	0xbd2026f0	-0.039099634
243	0xbd90cefa	-0.07070728
244	0x3b70b9c0	0.003673181
245	0x3cda3d0c	0.026640438
246	0xbd9346e3	-0.07191255
247	0x3d5d4fa2	0.054031022
248	0xbd65231a	-0.05594168
249	0x3d01487a	0.03156326
250	0x3c86e438	0.016466245
251	0x3dc15713	0.09440436
252	0x3d533ec2	0.051573522
253	0x3cf6f314	0.030145206
254	0xbd8bb0fd	-0.06820867
255	0xbd35e9fa	-0.04441259

layer2.bias f4 [150]
0	0x3d833990	0.064074636
1	0xbd7a16d5	-0.06105693
2	0x3d011bfe	0.031520836
3	0x3c83ded0	0.016097456
4	0xbc1fe1b2	-0.0097584
5	0xbd6be7e1	-0.057594184
6	0xbdc827ed	-0.0977324
7	0xbccb9152	-0.024849568
8	0x3d989124	0.074495584
9	0x3c487436	0.012234738
10	0xbacb0aa9	-0.0015490848
11	0x3b9b88c6	0.0047465293
12	0x3dc1679d	0.09443591
13	0xbd99b3f3	-0.07505026
14	0x3d1c9700	0.038229942
15	0xbd881276	-0.06644146
16	0x3cd8cf44	0.02646602
17	0x3db82217	0.08990877
18	0x3c874d28	0.016516283
19	0x3c9f1846	0.019420754
20	0x3d35cabe	0.044382803
21	0x3d269c07	0.040676143
22	0xbda0943e	-0.07840775
23	0x3c8f24ad	0.017473543
24	0x3bacf0a5	0.0052777105
25	0xbb156f40	-0.0022801906
26	0xbd549e0b	-0.051908534
27	0x3be9ce00	0.007135153
28	0x3d895ddf	0.067073576
29	0x3dadbb53	0.08482995
30	0x3d81668f	0.063183896
31	0xbc81f67d	-0.015864605
32	0x3da640a8	0.08117801
33	0xbd94ba76	-0.07262127
34	0xbc06fe00	-0.008239269
35	0xbcaf5e1e	-0.021407183
36	0x3c0b7790	0.008512393
37	0x3ce115c4	0.027476199
38	0x3d0395c2	0.032125242
39	0x3da6b3a5	0.08139733
40	0xbc51bc3f	-0.012801229
41	0x3cc07529	0.023493366
42	0x3d35ba42	0.044367082
43	0xbcaf1ccc	-0.021376036
44	0x3dba086f	0.0908364
45	0xbdbc4b32	-0.0919403
46	0xbd40785a	-0.046989776
47	0xbbfec0d0	-0.00777445
48	0xbd1b6f00	-0.037947655
49	0x3cdaf7d0	0.026729494
50	0xbda6ee72	-0.081509486
51	0xbc0b78a3	-0.008512649
52	0x3dcf4d7a	0.10122199
53	0xbc8f2d3c	-0.017477624
54	0xbbcb93ec	-0.006212702
55	0xbcbf36e1	-0.023341598
56	0xbd94e3e6	-0.07270031
57	0xbd93e8aa	-0.072221115
58	0xbdb67c5a	-0.08910437
59	0xbb9b6674	-0.004742438
60	0x3c8ebbbf	0.017423509
61	0x3de589f2	0.112079516
62	0xbd80a8ff	-0.062822334
63	0xbc82a60c	-0.015948318
64	0x3cc1c378	0.023652777
65	0xbdab1742	-0.083540455
66	0xbd79a980	-0.060952663
67	0xbd19fe47	-0.037596013
68	0xbc96d56f	-0.01841232
69	0x3d4cef36	0.050032817
70	0x3d9966fb	0.07490345
71	0xbc124176	-0.00892674
72	0xbc00f2a8	-0.007870354
73	0x3dc4dd8a	0.09612568
74	0xbd8334d3	-0.0640656
75	0xbdac5e4c	-0.08416423
76	0x3ce95a02	0.028485302
77	0xbcc6c31a	-0.024262954
78	0x3da0afe4	0.078460485
79	0x3d9a75b8	0.07541984
80	0x3c5e87d8	0.013582192
81	0x3da8bd2b	0.08239206
82	0xbd5ef42e	-0.054432087
83	0xbd42e332	-0.04757995
84	0xbdac201e	-0.08404563
85	0xbda6c266	-0.08142547
86	0xbd85024d	-0.064945795
87	0x3d8c40d4	0.068483025
88	0xbcbf6c60	-0.023367107
89	0xbd7f058d	-0.062261153
90	0xbdb74028	-0.08947784
91	0xbd05114a	-0.03248719
92	0x3b9eb3ba	0.0048432024
93	0x3d8952a2	0.06705214
94	0x3c250ec0	0.010074317
95	0xbda7248e	-0.08161269
96	0xbd9fb601	-0.07798386
97	0x3de25658	0.11051625
98	0xbd7dfd3a	-0.062009074
99	0xbdae3c49	-0.08507592
100	0xbd898aa0	-0.06715894
101	0xbd290336	-0.041262828
102	0x3dc7543f	0.097328655
103	0xbd9dc472	-0.077034846
104	0x3dc73cb5	0.09728376
105	0x3db27bb1	0.087149985
106	0xbd804475	-0.06263057
107	0x3d60aa42	0.05484987
108	0xbd422e68	-0.047407538
109	0xbd21fe5b	-0.039549213
110	0xbd8fe14a	-0.07025392
111	0x3d956577	0.072947435
112	0x3d0631f1	0.03276247
113	0x3d77cade	0.060496204
114	0x3d72c135	0.059266288
115	0xbb00a0a0	-0.001962699
116	0xbdc11c6d	-0.0942925
117	0x3d3bf008	0.04588321
118	0x3d20a91a	0.039223768
119	0xbcea8cf8	-0.028631672
120	0x3cc6f653	0.024287378
121	0x3d9c2a6b	0.07625278
122	0x3d5d390e	0.05400949
123	0x3d7173a2	0.058948167
124	0x3d97ba65	0.07408599
125	0xbdc34c02	-0.09535982
126	0xbcb53603	-0.022120481
127	0xbd6cb9f0	-0.05779451
128	0x3db53453	0.08847871
129	0xbd88520a	-0.06656273
130	0xbd8e7dfb	-0.069576226
131	0x3c11e518	0.008904718
132	0xbd858abf	-0.06520604
133	0x3d766662	0.060156234
134	0x3dc575b9	0.096415944
135	0x3d7505f8	0.059820145
136	0x3d557369	0.052112017
137	0xbd13a3a0	-0.036044717
138	0xbd70654c	-0.058690354
139	0x3d831901	0.064012535
140	0xbdb8218f	-0.08990776
141	0x3cfaf1c4	0.030632861
142	0x3c8052c8	0.015664473
143	0x3d73ee64	0.05955352
144	0x3d9d6fdf	0.07687353
145	0x3c9732a2	0.01845676
146	0xbd7e6ed7	-0.062117424
147	0x3c0c04f4	0.008546103
148	0xbd8b1bb0	-0.0679239
149	0xbd3a9523	-0.045552384

layer3.weight f4 [100, 150]
0	0xbcecc852	-0.028904114
1	0xbd818ffe	-0.063262925
2	0x3da586a4	0.08082321
3	0x3d4b7824	0.049675122
4	0x3bebc1a0	0.0071947128
5	0x3d88434a	0.06653459
6	0xbb8a7150	-0.0042249337
7	0xbd5484b8	-0.051884383
8	0x3d332734	0.04373856
9	0xbc745148	-0.014911957
10	0xbb28ea80	-0.0025774539
11	0xbd05a1ba	-0.032624938
12	0x3da5dd06	0.080987975
13	0x3bc2ca00	0.0059444904
14	0xbd48bb47	-0.049006727
15	0x3b09b460	0.0021012053
16	0xbd90e058	-0.0707404
17	0x3d606fd8	0.054794163
18	0xbd76e681	-0.06027842
19	0xbc3d2748	-0.01154501
20	0x3c66b850	0.014082029
21	0xbd8e9cfa	-0.06963535
22	0xbd2155bf	-0.039388414
23	0xbda5e6ca	-0.0810066
24	0xbd91cbd6	-0.07118957
25	0xbd90cc61	-0.07070232
26	0x3ba71b60	0.005099699
27	0xbc9e1864	-0.01929874
28	0x3c3266a0	0.0108887255
29	0x3d0cac2a	0.034343876
30	0xbd984482	-0.07434942
31	0x3d4f7124	0.05064501
32	0x3d30a71e	0.043128125
33	0xbd8e01dc	-0.069339484
34	0xbd29790c	-0.041375205
35	0x3d375d98	0.044766992
36	0x3d22eae0	0.039774776
37	0xbda1d82d	-0.079025604
38	0xbd5c7a20	-0.053827405
39	0x3c1459c0	0.009054601
40	0xbc016060	-0.007896513
41	0xbd9627c2	-0.07331802
42	0x3b9a3c80	0.004706919
43	0x3c1440f0	0.009048685
44	0x3cc76ccc	0.02434387
45	0xbd20906e	-0.03920024
46	0x3ca67134	0.020317651
47	0x3bcb5770	0.0062054917
48	0xbd3d4625	-0.046209473
49	0x3cebacb0	0.028768867
50	0xbcd69048	-0.026191846
51	0xbd0896eb	-0.03334705
52	0xbb756ac0	-0.003744766
53	0x3bfab4b0	0.007650934
54	0xbd9751f6	-0.0738868
55	0xbca35aac	-0.019940697
56	0xbd78b194	-0.060716227
57	0x3d90b90a	0.070665434
58	0xbd814608	-0.063121855
59	0x3d8bb47c	0.06821534
60	0xbd8cc44f	-0.068733804
61	0x3d1b6306	0.037936233
62	0xbd257f60	-0.040404677
63	0xbd9e1821	-0.07719446
64	0x3d35291c	0.044228658
65	0x3c26f3f8	0.010190003
66	0xbd9a9724	-0.07548359
67	0x3d379b38	0.044825763
68	0x3be3c310	0.0069507435
69	0xbd6557ea	-0.055992045
70	0xbd4e4654	-0.05036004
71	0xbc9edb8e	-0.019391801
72	0x3cd72be8	0.026266053
73	0xbcb22fea	-0.021751363
74	0x39a58600	0.0003157109
75	0x3d979bf4	0.074027926
76	0x3b75b6c0	0.003749296
77	0x3c4441b8	0.011978559
78	0x3d89ce44	0.06728795
79	0x3d841d18	0.06450862
80	0xbd64b42a	-0.05583588
81	0xbd18c493	-0.037296843
82	0xbcf80606	-0.03027631
83	0x3d885bbe	0.066581234
84	0x3d258dc2	0.040418394
85	0xbd17ae65	-0.03703155
86	0xbd72e0e2	-0.059296496
87	0xbc5efdf8	-0.013610356
88	0xbd8f1158	-0.0698573
89	0xbd8d47f4	-0.068984896
90	0xbd94731a	-0.072485164
91	0xbda02efb	-0.07821461
92	0xbd9442b0	-0.07239282
93	0xbd315692	-0.04329545
94	0x3d809fd6	0.06280486
95	0xbd867f7e	-0.06567286
96	0x3d90e426	0.07074766
97	0xbd4c0a2b	-0.049814384
98	0xbd6044ce	-0.054753117
99	0xbd034718	-0.032050222
100	0x3d3fab6c	0.04679434
101	0x3d54b680	0.051931858
102	0x3d3be92c	0.045876667
103	0x3d480478	0.048832387
104	0x3caf2148	0.021378174
105	0x3d9458e2	0.072435156
106	0xbd639cd0	-0.05556947
107	0xbca28a90	-0.019841462
108	0x3c896cfc	0.0167756
109	0x3d4af484	0.049549595
110	0xbca63b12	-0.020291839
111	0x3c301310	0.010746732
112	0xbc4ac508	-0.0123760775
113	0x3d79f0b0	0.061020553
114	0x3da6dfd0	0.081481576
115	0xbd9c17a6	-0.07621698
116	0xbd9173e9	-0.07102186
117	0xbd2b3f1a	-0.041808225
118	0x3d1aa2a8	0.037752777
119	0x3d965392	0.073401585
120	0x3afde0c0	0.0019369349
121	0xbd889857	-0.066696815
122	0x3da1f916	0.079088375
123	0x3d491560	0.04909265
124	0x3a6e2800	0.000908494
125	0x3d9c9266	0.07645111
126	0x3d32a378	0.043612927
127	0x3d7c5e8c	0.061613604
128	0x3d9f78ae	0.0778669
129	0x3c1ae140	0.009453118
130	0xbd55d4e7	-0.052204993
131	0x3cbc074c	0.022952698
132	0x3d16a152	0.03677494
133	0x3c66bd50	0.014083222
134	0xbda01f2c	-0.078184456
135	0x3d421040	0.04737878
136	0x3c9bdef0	0.019027203
137	0xbc43aed8	-0.0119435415
138	0x3cb8f878	0.022579417
139	0x3b1ee3a0	0.0024244562
140	0xbc3b5ca8	-0.011435665
141	0xbd87b712	-0.06626715
142	0xbd530f27	-0.051528122
143	0x3da35c40	0.0797658
144	0xbd5ac9ba	-0.053415038
145	0x3d8e20aa	0.06939824
146	0xbd924cdc	-0.07143566
147	0xbd9b2c70	-0.07576835
148	0x3d29d516	0.04146298
149	0x3c9fe7d4	0.019519724
150	0xbd33fbb5	-0.04394122
151	0x3d2e925d	0.04262005
152	0x3c9d4c88	0.019201532
153	0xbc0771db	-0.008266891
154	0xbc78a504	-0.015176062
155	0x3c72d615	0.014821549
156	0xbd634604	-0.055486694
157	0xb9fc4a48	-0.0004812053
158	0x3d8f0dff	0.069850914
159	0x3d655954	0.055993393
160	0x3d4d3b32	0.05010528
161	0x3d3e65f7	0.04648396
162	0xbd4fee7a	-0.05076454
163	0xbd6eef6a	-0.05833379
164	0x3d4164a1	0.047215108
165	0x3d259296	0.040423
166	0x3d790abc	0.060801253
167	0x3d6c4844	0.057686105
168	0x3d33dddc	0.043912753
169	0x3d6042b0	0.0547511
170	0x3caf6d74	0.021414496
171	0x3d7a3940	0.061089754
172	0x3d9f84f1	0.077890284
173	0x3da05f11	0.078306325
174	0x3cc00f84	0.023444898
175	0x3d8d5656	0.06901233
176	0xbca8a14e	-0.020584729
177	0x3c7974f8	0.015225641
178	0x3dbf5034	0.093414694
179	0x3c6e5928	0.014547624
180	0xbd0d59ea	-0.034509577
181	0x3d9f9b68	0.07793313
182	0xbcf70af8	-0.030156597
183	0x3d7ce25e	0.061739318
184	0x3d9b6010	0.07586682
185	0xbcd879bc	-0.026425235
186	0x3d014ffc	0.03157042
187	0x3d17f470	0.03709835
188	0x3d898712	0.06715216
189	0x3c9dcea9	0.019263582
190	0x3daea3f2	0.08527364
191	0xbc1950d6	-0.009357652
192	0xbd6bbec3	-0.05755497
193	0xbd2d4ad3	-0.042307686
194	0x3dc44c0d	0.09584818
195	0xbd8d00a7	-0.0688489
196	0x3bd1ff30	0.0064085945
197	0x39944e00	0.00028286874
198	0xbd08969f	-0.03334677
199	0xbd711b35	-0.058863837
200	0xbc0bde58	-0.008536898
201	0xbd290d9e	-0.041272752
202	0x3d52f1e2	0.05150021
203	0xb9d291b1	-0.0004016287
204	0xbcd10286	-0.025513899
205	0xbd4214d0	-0.04738313
206	0x3b146e00	0.0022648573
207	0x3ce963e8	0.028490022
208	0x3cd4c220	0.025971472
209	0x3d5dd6c2	0.054159887
210	0xbd418517	-0.047246065
211	0x3adfac1b	0.0017064841
212	0xbc3a6286	-0.011376029
213	0xbd9af156	-0.075655624
214	0xbcd3e090	-0.025863916
215	0x3d7a275f	0.061072703
216	0x3d0853c7	0.03328302
217	0xbd271c2b	-0.040798347
218	0x3db4cf43	0.088285945
219	0x3c713158	0.014721237
220	0x3d854886	0.065079734
221	0x3cbe363a	0.023219217
222	0xbd04f205	-0.03245737
223	0x3dba427b	0.090947114
224	0xbcb68cf5	-0.02228401
225	0xbd75e030	-0.060028255
226	0xbd6162ba	-0.055025794
227	0x3c5160c0	0.012779415
228	0xbc4e4981	-0.012590767
229	0xbd97b91e	-0.07408355
230	0x3c3402b0	0.010986969
231	0xbc19ad78	-0.009379737
232	0x3c56893e	0.0130942445
233	0x3da8b6ae	0.082379684
234	0x3da8b715	0.08238045
235	0xbcefaf90	-0.02925852
236	0x3c95568a	0.018229742
237	0x3ced5ef2	0.028975938
238	0x3d19343e	0.037403338
239	0xbd97297d	-0.0738096
240	0xbd3fe2be	-0.046847098
241	0xbd2d126a	-0.04225389
242	0x3cece0de	0.028915819
243	0xbc221fb6	-0.009895256
244	0xbc9f20fe	-0.019424912
245	0x3d98c317	0.074590854
246	0x3dbb5622	0.09147288
247	0xbcfc37a9	-0.03078826
248	0x3c972520	0.01845032
249	0x3cfd0c22	0.030889574
250	0xbd6c5c5c	-0.05770527
251	0xbd0367e6	-0.032081507
252	0xbcfe5c86	-0.031049978
253	0xbab849c0	-0.0014060065
254	0x3d9c392a	0.07628091
255	0xbd9e1bcf	-0.07720148

layer3.bias f4 [100]
0	0xbd0a3006	-0.033737205
1	0x3cddbc07	0.027067197
2	0xbd0487e9	-0.032356177
3	0x3d261b1b	0.040553194
4	0x3c565385	0.013081436
5	0x3d942f65	0.07235602
6	0x3d529310	0.05140978
7	0xbd06ce62	-0.032911666
8	0x3d098b5e	0.033580177
9	0xbc2a8d60	-0.010409683
10	0xbc7152b8	-0.014729194
11	0xbad85180	-0.0016503781
12	0xbd8579d0	-0.065173745
13	0xbcf6507a	-0.030067671
14	0xbd7dc896	-0.06195887
15	0x3d30ff65	0.043212313
16	0x3d8f52cd	0.06998215
17	0x3d6b7fbc	0.057494864
18	0x3db0af19	0.08627147
19	0xbd9fd36d	-0.07803998
20	0x3cf5cede	0.030005869
21	0x3b36a2ae	0.002786796
22	0xbbd3e940	-0.0064670146
23	0xbd8de4e2	-0.069284216
24	0xbbeaaabe	-0.0071614673
25	0xbd86c076	-0.06579678
26	0xbd7921a7	-0.06082311
27	0x3d322acd	0.04349785
28	0xbd2ae8a8	-0.041725785
29	0x3b1d3f40	0.0023993999
30	0x3cc0e30c	0.023545764
31	0x3cf9085f	0.0303995
32	0xbca0db75	-0.019635895
33	0xbd0da9f1	-0.034585897
34	0x3cbc8451	0.023012312
35	0x3ca3ab24	0.019979067
36	0x3cced455	0.025247732
37	0x3d28230b	0.041049045
38	0x3d61dcd4	0.05514224
39	0x3d3f0c54	0.046642616
40	0xbb85472d	-0.0040673227
41	0xbd857646	-0.065166995
42	0xbcf99ba8	-0.03046973
43	0xbc2db120	-0.010601312
44	0x3d83348a	0.064065054
45	0xbd52f324	-0.05150141
46	0xbd4d3b60	-0.050105453
47	0x3be94b97	0.0071196067
48	0x3d874806	0.06605534
49	0xbbaacac8	-0.0052121617
50	0xbcde549c	-0.027139954
51	0x3d953682	0.07285787
52	0x3db92022	0.09039332
53	0x3d6847c0	0.05670905
54	0xbd7eaec2	-0.06217838
55	0xbcc9fc4e	-0.024656441
56	0x3c4fa19f	0.012672811
57	0x3d2e333b	0.042529326
58	0xbc893c38	-0.016752347
59	0x3d5ea53e	0.054356806
60	0x3d1c27dc	0.03812395
61	0x3cd4accb	0.0259613
62	0x3d67cc21	0.056591157
63	0x3cdc0417	0.026857419
64	0x3d601629	0.054708634
65	0xbbb71e70	-0.005588345
66	0xbd9e7d6e	-0.077387676
67	0xbbbc27ea	-0.005742063
68	0x3bb98900	0.0056620836
69	0xbd6e4ae6	-0.058176897
70	0xbcec31f6	-0.028832417
71	0x3d8a4ebe	0.067533
72	0xbd8a2b37	-0.06746524
73	0x3d331a74	0.0437264
74	0xbd8fabfc	-0.07015225
75	0xbd856cb6	-0.065148756
76	0x3cf81461	0.030283155
77	0xbd0cc7f5	-0.03437038
78	0xbd402de7	-0.046918776
79	0x3d977c3a	0.07396741
80	0x3d7d7926	0.061883114
81	0x3c9301fd	0.017945284
82	0xbd77d401	-0.060504917
83	0xbda40f3c	-0.08010718
84	0xbd9d6f70	-0.07687271
85	0xbd12ec9f	-0.03587019
86	0xbad36307	-0.0016127535
87	0x3d1e7e8c	0.038694903
88	0xbd7670c1	-0.060166124
89	0x3d84de86	0.064877555
90	0x3d998923	0.0749686
91	0x3cbe9b1c	0.023267321
92	0xbd455d91	-0.048184935
93	0x3d99f834	0.07518044
94	0x3d614d54	0.055005386
95	0xbd9eb4b4	-0.0774931
96	0xbd482983	-0.048867714
97	0x3d8eb21f	0.06967568
98	0x3d2fe13a	0.042939402
99	0xbd99c92a	-0.07509072

layer4.weight f4 [80, 100]
0	0xbdc4cc10	-0.09609234
1	0x3d8f56c1	0.06998969
2	0x3d91186f	0.070847385
3	0x3da115c6	0.07865481
4	0xbd70c059	-0.058777187
5	0xba038690	-0.0005017305
6	0xbd212a07	-0.03934672
7	0xbd2a3fbc	-0.041564688
8	0x3b3e5da0	0.0029047504
9	0xbd8f14d8	-0.069863975
10	0xbd2d1e03	-0.04226495
11	0xbd0c2be4	-0.034221545
12	0x3dbd0279	0.09228987
13	0x3d78e567	0.06076565
14	0xbd248b20	-0.040171742
15	0xbd97b5e5	-0.074077405
16	0xbcb37004	-0.021904
17	0x3d468df2	0.048475213
18	0xbcb62d5b	-0.022238424
19	0x3da45e0d	0.08025751
20	0xbd1eace7	-0.03873911
21	0x3d4462f5	0.047945935
22	0xbd6abb47	-0.057307508
23	0xbdac31ca	-0.08407934
24	0x3d95bb7d	0.07311151
25	0xbcdbce0f	-0.026831655
26	0xbdc5dc5c	-0.09661171
27	0x3d3796fd	0.044821728
28	0x3d880adb	0.066426955
29	0x3ca77108	0.02043964
30	0xbd9898f5	-0.07451049
31	0x3d4d2650	0.050085366
32	0xbcd0b9dd	-0.025479252
33	0x3d244dc2	0.040113218
34	0xbda73fdb	-0.08166476
35	0xbd73f803	-0.059562694
36	0x3c28ada4	0.010295305
37	0xbd1c8a43	-0.038217794
38	0x3d9edbe1	0.07756782
39	0x3d36d8e6	0.044640444
40	0xbd9c17a8	-0.076216996
41	0xbbab56d0	-0.0052288547
42	0xbd019080	-0.031631947
43	0x3db048fd	0.086076714
44	0x3d9203f7	0.071296625
45	0x3dadedf5	0.08492652
46	0xbd36aa46	-0.04459598
47	0xbbe20160	-0.0068971366
48	0x3db46b1d	0.08809493
49	0xbc53fb1c	-0.012938287
50	0xbd96778b	-0.0734702
51	0xbc1fb2b7	-0.009747199
52	0xbdc65403	-0.09683993
53	0x3daac381	0.08338071
54	0x3da01512	0.07816519
55	0x3cc3c498	0.023897454
56	0xbd791864	-0.060814276
57	0x3d2f3be9	0.042781744
58	0xbc7cf558	-0.015439354
59	0xbd0ab159	-0.03386054
60	0x3dcbeef9	0.0995769
61	0xbc9dc5b8	-0.019259319
62	0xbd83ac54	-0.06429353
63	0x3d6fdc3e	0.05855965
64	0x3be0c17d	0.006859003
65	0x3d9aa201	0.07550431
66	0xbbf61320	-0.007509604
67	0x3db0f0a1	0.08639646
68	0xbdcbc428	-0.09949523
69	0xbc17d118	-0.00926616
70	0xbd5af49d	-0.053455938
71	0xbd429dcc	-0.047513768
72	0xbdad1967	-0.08452111
73	0xbd1b1583	-0.037862312
74	0xbda3d900	-0.08000374
75	0x3b6dde40	0.0036295801
76	0x3da28006	0.07934575
77	0x3d8e479c	0.06947252
78	0xbc8a5fe9	-0.016891437
79	0x3dc9eeab	0.098599754
80	0x3d848f05	0.06472591
81	0x3beb1bfd	0.0071749673
82	0x3d9f01ef	0.07764041
83	0x3d08353a	0.033253886
84	0xbdc26e8b	-0.09493741
85	0xbd13e5cc	-0.036107823
86	0x3d9ca7e2	0.076492086
87	0x3c4bd424	0.012440715
88	0x3d82a7f3	0.0637969
89	0x3c2d4b70	0.010577068
90	0xbd63047e	-0.055424206
91	0xbcf13100	-0.02944231
92	0x3c616900	0.013757944
93	0xbd054e04	-0.032545105
94	0x3ccae2b4	0.024766304
95	0xbc9f3dad	-0.019438589
96	0x3c9fb6f4	0.019496419
97	0x3cb0e904	0.021595486
98	0x3d5f098e	0.05445247
99	0x3d8e255b	0.06940719
100	0x3d8db59b	0.06919404
101	0x3cb84d6c	0.022497855
102	0x3d1bf50e	0.0380755
103	0x3d15bee2	0.036558993
104	0xbd85f682	-0.06541158
105	0x3d9226dd	0.07136319
106	0x3c088ca8	0.008334316
107	0xbd829fd8	-0.06378144
108	0x3d9271f9	0.07150645
109	0xbd9df4a3	-0.077126764
110	0x3ceebf54	0.029143967
111	0xbd6e6c80	-0.058208942
112	0xbcbbe828	-0.02293785
113	0xbc3bf380	-0.011471629
114	0xbd832e48	-0.06405312
115	0xbdb92d45	-0.090418376
116	0xbd305e87	-0.0430589
117	0xbdb849ca	-0.08998449
118	0x3da6233b	0.081121884
119	0xbd406913	-0.046975207
120	0x3dc9899f	0.09840702
121	0x3b878930	0.004136227
122	0x3dc4d70b	0.09611329
123	0xbd6f9257	-0.05848917
124	0x3aa960c0	0.001292251
125	0xbccec9cc	-0.025242709
126	0xbdbb8eaf	-0.09158074
127	0xbd46ebb0	-0.048564613
128	0x3cefa65c	0.029254131
129	0x3dc2e9cf	0.09517252
130	0x3d2422b2	0.04007215
131	0xbdb8b4c0	-0.0901885
132	0x3d392e0a	0.045209922
133	0xbce3ec34	-0.027822591
134	0xbd868e54	-0.06570116
135	0x3d6fef0a	0.058577575
136	0xbda69b2d	-0.08135066
137	0xbd229197	-0.039689627
138	0xbd05fcfc	-0.032711968
139	0xbd7f6987	-0.062356498
140	0x3d8df139	0.06930775
141	0xbd2b06e0	-0.041754603
142	0xbdb91685	-0.090374984
143	0xbd8125a4	-0.063060075
144	0xbd651ee3	-0.05593766
145	0xbd57ed23	-0.052716386
146	0xbc7e3d00	-0.015517473
147	0xbd3fd1ba	-0.04683087
148	0x3dcb3049	0.09921319
149	0x3d13746e	0.035999708
150	0x3dc3635f	0.09540438
151	0x3d56bac6	0.052424215
152	0x3d1ef1a2	0.038804658
153	0x3c9aab94	0.018880643
154	0x3d67f846	0.056633256
155	0xbcd2d220	-0.025734961
156	0xbdb36c42	-0.08760883
157	0x3d39e8ae	0.045387916
158	0xbc4db3d8	-0.012555085
159	0xbdbe051b	-0.092783175
160	0x3d013c62	0.031551726
161	0xbd61be77	-0.055113282
162	0x3d24dfa2	0.040252335
163	0xbbf718b0	-0.007540785
164	0x3cb90978	0.022587523
165	0xbd245bcd	-0.04012661
166	0xbd880eca	-0.06643446
167	0x3db90021	0.09033228
168	0xbd79b25d	-0.060961116
169	0x3d60647e	0.054783337
170	0xb9940d00	-0.00028238446
171	0x3cd99fbc	0.026565425
172	0xbdbabdd5	-0.09118239
173	0xbc7cb0a8	-0.0154229775
174	0xbd6a1733	-0.05715103
175	0xbd5bb8c3	-0.053643
176	0x3c8874ec	0.016657315
177	0xbda87e05	-0.08227161
178	0x3b4dbbc0	0.0031392425
179	0x3c1bbe40	0.009505808
180	0xbd5c2bdd	-0.05375277
181	0xbd057344	-0.03258063
182	0x3d19f5c2	0.03758789
183	0xbdb93fb8	-0.090453565
184	0xbd3485f7	-0.04407307
185	0xbd5947f0	-0.05304712
186	0x3d8c687f	0.068558685
187	0xbdb68fd8	-0.08914155
188	0xbacbf8c0	-0.0015561804
189	0xbd820898	-0.063492954
190	0xbc726658	-0.014794908
191	0xbd81f79c	-0.06346056
192	0xbda42df5	-0.08016578
193	0x3d753c2a	0.05987183
194	0xbcf07f28	-0.029357508
195	0xbd292383	-0.041293632
196	0x3ceac7fc	0.028659813
197	0xbba550e0	-0.0050450414
198	0xbc9f8c94	-0.019476213
199	0x3d7e4672	0.0620789
200	0x3cbff8d4	0.02343408
201	0xbdc45a50	-0.09587538
202	0x3c41fcb2	0.011840032
203	0x3d862139	0.065493055
204	0x3d9dddc5	0.07708315
205	0xbd6ded09	-0.058087382
206	0x3bc5d2a0	0.0060370713
207	0xbd3d2b5a	-0.04618392
208	0x3d02fcf2	0.03197951
209	0x3ce86de6	0.028372716
210	0x3d7f1542	0.062276132
211	0x3dc12eaf	0.09432732
212	0x3ccdf25a	0.025139976
213	0xbced052f	-0.028933136
214	0x3d887b05	0.06664089
215	0xbd902267	-0.07037812
216	0xbdbe347d	-0.09287355
217	0x3cdcabc4	0.026937373
218	0x3dc56ad6	0.09639518
219	0xbcb2bc4c	-0.021818303
220	0x3cbc7345	0.023004184
221	0xbd36cff3	-0.04463191
222	0x3d57f336	0.05272218
223	0x3c9f0ff4	0.019416787
224	0x3d846bea	0.064658955
225	0xbc0ba1e8	-0.008522488
226	0x3d5ef8e3	0.054436576
227	0xbdb47dfa	-0.088130906
228	0x3b543340	0.003237918
229	0xbcaeaaec	-0.021321736
230	0x3ce6e13c	0.028183572
231	0x3d3709ef	0.044687208
232	0x3d95a4c1	0.07306815
233	0xbd372843	-0.04471613
234	0x3c444630	0.011979625
235	0x3d87de11	0.06634153
236	0x3c9122fc	0.017716877
237	0xbd8e7291	-0.069554456
238	0xbd3b5ec0	-0.045744658
239	0xbd48fe90	-0.049070895
240	0xbd1793b6	-0.037006103
241	0x3daa48b9	0.08314652
242	0x3dc728d3	0.097245835
243	0xbd75b1a0	-0.05998385
244	0x3d01c6b2	0.03168363
245	0xbd85482e	-0.06507908
246	0x3ac2072d	0.0014803164
247	0x3d5fd232	0.054643817
248	0x3d94c2fb	0.07263752
249	0x3da664be	0.08124684
250	0xbd81e515	-0.06342522
251	0xbd8bbffd	-0.06823728
252	0x3db043a1	0.08606649
253	0xbd309287	-0.04310849
254	0xbc8933ee	-0.016748395
255	0x3d2dee0e	0.042463355

layer4.bias f4 [80]
0	0xbdc963b5	-0.09833471
1	0x3bc89950	0.006121792
2	0x3c0da78b	0.008645902
3	0xbda3bf93	-0.07995524
4	0x3dadb611	0.08481992
5	0x3d90aa1b	0.07063695
6	0xbdb7a097	-0.08966177
7	0x3dcc0b24	0.099630624
8	0xbdcbd9c8	-0.09953648
9	0x3dcad883	0.099045776
10	0xbd661b0d	-0.05617814
11	0x3cfb3ea8	0.030669525
12	0xbceff319	-0.029290723
13	0x3d86f239	0.06589169
14	0x3d9e1459	0.07718725
15	0x3cfae677	0.030627472
16	0xbc43e476	-0.011956325
17	0x3d31bc9b	0.04339276
18	0x3d24b6ff	0.04021358
19	0x3dd6a356	0.104803726
20	0x3de1ac73	0.1101922
21	0x3d747aca	0.059687413
22	0xbdb74972	-0.089495555
23	0x3cbc3861	0.022976102
24	0xbb8e3f30	-0.0043410286
25	0x3d03f0ef	0.032212194
26	0xbcbe4334	-0.023225404
27	0x3dbed084	0.09317115
28	0xbca0d274	-0.019631602
29	0xbcd07909	-0.025448339
30	0x3d703536	0.058644496
31	0xbd8802fc	-0.06641194
32	0xbdbdd9ef	-0.09270083
33	0x3c4f9a59	0.012671077
34	0xbd89a51e	-0.06720947
35	0x3da6dbaf	0.0814737
36	0x3ced3904	0.028957851
37	0xbd1b071a	-0.03784857
38	0xbd217500	-0.03941822
39	0xbd61f93a	-0.05516932
40	0xbda9fd7b	-0.08300301
41	0x3d08a9dc	0.033365116
42	0xbd938230	-0.07202566
43	0x3ba1b702	0.0049351463
44	0xbbc8cd00	-0.0061279535
45	0xbd61edf0	-0.055158556
46	0x3d3d8c06	0.046276115
47	0xbd8618d2	-0.06547703
48	0x3c2cb8d8	0.010542117
49	0xbd8637fe	-0.065536484
50	0xbcae03e3	-0.021242088
51	0x3d43333a	0.047656275
52	0x3d8566d5	0.06513754
53	0x3d8e1a3b	0.06938597
54	0x3db06e9b	0.08614846
55	0xbd707346	-0.058703683
56	0x3dbd4a4c	0.09242687
57	0xbda9ee60	-0.082974195
58	0xbc98b458	-0.018640682
59	0x3dab317f	0.0835905
60	0x3da5a740	0.08088541
61	0x3cb139a6	0.021633934
62	0x3d9d52d4	0.07681814
63	0xbcd3d19f	-0.025856791
64	0xbdcefc5d	-0.10106728
65	0xbda61423	-0.081093095
66	0xbd4e38ea	-0.050347246
67	0x3ddf708d	0.10910139
68	0x3ca3acae	0.019979801
69	0xbd42fbd2	-0.047603436
70	0xbd984663	-0.074353
71	0xbda8019a	-0.082034305
72	0x3c925580	0.017863035
73	0xbb95c47f	-0.0045705433
74	0xbd8f08fd	-0.06984136
75	0xbda8caf9	-0.08241839
76	0xbc95a696	-0.01826791
77	0xbcba9491	-0.02277592
78	0x3cfb0c1f	0.030645428
79	0x3dc811f8	0.09769052

layer5.weight f4 [60, 80]
0	0x3c55e730	0.013055608
1	0x3cab1b78	0.020887122
2	0xbc2495c8	-0.010045476
3	0xbdc8820a	-0.09790428
4	0xbd4e57a0	-0.050376534
5	0xbd25f938	-0.040520877
6	0xbceeba14	-0.029141463
7	0xbdde4533	-0.108530425
8	0x3d8eb988	0.06968981
9	0xbbbed0f0	-0.005823247
10	0x3dd30414	0.10303512
11	0xbdb5bdee	-0.08874117
12	0x3dbb20e6	0.09137134
13	0xbd8a62c4	-0.06757119
14	0x3c9e0700	0.019290447
15	0x3dc55926	0.09636144
16	0xb9c2d700	-0.0003716275
17	0x3cbee728	0.023303583
18	0xbc709900	-0.014684916
19	0xbcba4d98	-0.022742078
20	0xbd6ccf7a	-0.057815053
21	0x3d289e10	0.041166365
22	0xbd8cf825	-0.06883267
23	0x3c445778	0.011983745
24	0xbdac386d	-0.084092
25	0xbd7dd955	-0.061974842
26	0x3db5a286	0.088688895
27	0xbc8d7284	-0.01726652
28	0xbddbdebe	-0.10735844
29	0x3d186148	0.03720215
30	0x3d959cc4	0.07305291
31	0x3d84df1a	0.06487866
32	0x3d711e14	0.058866575
33	0x3c653010	0.01398851
34	0x3d2d6fd4	0.042342976
35	0xbda73fd3	-0.081664704
36	0x3dd98252	0.1062056
37	0xbc176f70	-0.009242877
38	0xbb3c3160	-0.0028715953
39	0xbbcf6430	-0.006329082
40	0xbd969c82	-0.0735407
41	0xbddfa33e	-0.10919808
42	0xbdaf3f54	-0.08557001
43	0x3d8ba156	0.06817882
44	0x3d84b58e	0.06479941
45	0x3dc985d8	0.09839982
46	0xbcadfcf0	-0.021238774
47	0xbd3dbbc8	-0.04632166
48	0x3d69b578	0.057057828
49	0x3c5a9700	0.013341665
50	0xbdc945c2	-0.09827758
51	0x3de1f504	0.11033061
52	0xbd73f923	-0.059563767
53	0xbd7342f4	-0.059390023
54	0x3cce8260	0.025208652
55	0xbca7d92c	-0.020489298
56	0xbd91147e	-0.07083987
57	0x3ca473b0	0.020074695
58	0x3ca71570	0.020395964
59	0xbcc92f3c	-0.024558656
60	0x3d9807ca	0.07423361
61	0xbdb8f8c5	-0.09031824
62	0x3dc8aeec	0.09798989
63	0xbcd513c4	-0.026010402
64	0xbdd59474	-0.10428706
65	0xbd384694	-0.044989184
66	0xbc3fba88	-0.011702187
67	0xbdde6d63	-0.108607076
68	0xbd638d4a	-0.055554666
69	0xbd903368	-0.07041055
70	0xbd5aa080	-0.05337572
71	0xbd0f8d02	-0.035046585
72	0x3ceb3308	0.028710857
73	0x3c0c72b0	0.0085722655
74	0x3d122280	0.035677433
75	0x3de07016	0.10958879
76	0x3b8af220	0.0042402893
77	0xbd032e72	-0.032026716
78	0x3b39d5a0	0.002835609
79	0xbd470ca2	-0.048596032
80	0x3dd94e55	0.10610644
81	0x3d83731e	0.06418441
82	0x3c8b078a	0.016971368
83	0xbc3efdf6	-0.011657229
84	0xbd881938	-0.06645435
85	0xbc2071a8	-0.009792723
86	0x3d6ddd32	0.058072276
87	0x3d58506b	0.052811068
88	0x3d3d85bc	0.046270117
89	0x3dbe69e0	0.09297538
90	0xbb6a3260	-0.0035735592
91	0x3db1e6d6	0.086866066
92	0xbcc7ed7b	-0.024405232
93	0xbcdc51a1	-0.026894392
94	0xbd5b5e9f	-0.053557035
95	0x3dd1032f	0.10205685
96	0xbde246ae	-0.11048637
97	0xbdc393e4	-0.09549692
98	0x3d7097bf	0.058738466
99	0xbda23449	-0.07920129
100	0xbdb1d838	-0.086838186
101	0xbd820007	-0.063476615
102	0xbdbacc11	-0.09120954
103	0x3db67bea	0.089103535
104	0x3d50aecc	0.05094795
105	0xbc0805d8	-0.0083021745
106	0x3ddaad88	0.1067763
107	0xbc91d4ed	-0.017801726
108	0x3dba211c	0.09088346
109	0x3d2ef0d5	0.042710144
110	0x3d98d234	0.07461968
111	0x3d2f2534	0.04276009
112	0x3dc4089c	0.095719546
113	0xbd0034c1	-0.03130031
114	0xbc41b780	-0.011823535
115	0x3c9aef29	0.018912869
116	0xbd48360c	-0.048879668
117	0x3c0f2148	0.008735962
118	0xbd4608e4	-0.048348323
119	0xbdb5bef6	-0.088743135
120	0xbd47ab2c	-0.048747227
121	0xbcccbf23	-0.024993485
122	0xbd146af0	-0.036234796
123	0xbde2a5cb	-0.11066779
124	0x3c2dd8f8	0.010610811
125	0x3d7a8614	0.061163023
126	0xbc2fdb7a	-0.01073348
127	0x3d82bb8c	0.06383428
128	0x3d370170	0.044679105
129	0xbd732f27	-0.05937114
130	0xbcb2d2fe	-0.021829125
131	0xbd4cfc64	-0.050045386
132	0xbc2252b9	-0.009907418
133	0x3cd4e8b1	0.025989862
134	0x3cda4f8f	0.026649265
135	0xbc8fc19f	-0.01754838
136	0xbd98e65d	-0.07465813
137	0x3dd88dba	0.10573907
138	0x3d636ec8	0.05552557
139	0x3d52753d	0.05138134
140	0xbdb704ee	-0.08936487
141	0xbd81b95c	-0.063341826
142	0x3dad4091	0.08459581
143	0x3de1d2e3	0.110265516
144	0xbd17340b	-0.036914866
145	0xbc1786e5	-0.00924847
146	0x3dcd2f88	0.100188315
147	0xbd209ae9	-0.039210234
148	0xbdd29e54	-0.10284105
149	0xbc974ed6	-0.01847021
150	0x3d931a5e	0.071827635
151	0x3d990d15	0.07473198
152	0x3ddb1e43	0.10699131
153	0xbd4d05ba	-0.05005429
154	0x3d72c9a3	0.059274327
155	0x3d0f157a	0.03493259
156	0x3d58182c	0.052757427
157	0xbd2619da	-0.040551998
158	0xbc9623c8	-0.018327609
159	0x3d7fdf80	0.062469006
160	0x3d81bcc1	0.0633483
161	0xbca01fb4	-0.019546367
162	0x3db70d1f	0.089380495
163	0x3c42087f	0.011842846
164	0x3c480170	0.012207374
165	0x3ce254c8	0.027628317
166	0x3da4738c	0.08029851
167	0x3d0d1bcc	0.034450337
168	0x3dab64e4	0.08368853
169	0x3cc2b9d8	0.023770258
170	0x3d8154ba	0.063149884
171	0xbdad5271	-0.0846299
172	0x3d939a5e	0.072071776
173	0xbd4c144e	-0.04982405
174	0xbd3deece	-0.04637032
175	0x3cb0c8b0	0.02158007
176	0x3d1e01de	0.038576
177	0x3dca14bc	0.09867236
178	0xbd716b16	-0.058940016
179	0x3b181132	0.0023203609
180	0xbd830d94	-0.06399074
181	0xbd551702	-0.052023895
182	0xbd8d4c28	-0.06899291
183	0x3dc3b21d	0.09555457
184	0xbd292560	-0.04129541
185	0x3de35a8f	0.11101257
186	0x3d9cb41c	0.07651541
187	0xbdbe98f3	-0.093065165
188	0xbdbe77b4	-0.09300175
189	0xbd43c699	-0.04779682
190	0x3dba53c6	0.0909801
191	0x3d940bd8	0.072288215
192	0xbdb1f584	-0.086894065
193	0x3dbc4465	0.09192733
194	0xbde2a51f	-0.110666506
195	0x3de43586	0.11143021
196	0xbd220dd6	-0.039563976
197	0xba818640	-0.0009881929
198	0x3d9972fa	0.07492633
199	0xbc3e5868	-0.011617757
200	0xbd22dc56	-0.03976091
201	0x3dc826bf	0.09773015
202	0x3d08eb9a	0.033427812
203	0xbc8ae726	-0.016955923
204	0x3d54f2e4	0.05198945
205	0x3dd43cd6	0.10363166
206	0xbda93203	-0.08261492
207	0xbd87e45e	-0.066353545
208	0x3c1659b8	0.009176664
209	0xbd987d0d	-0.074457265
210	0x3c9f50ec	0.019447766
211	0x3ddd5c6c	0.10808644
212	0xbce2f60c	-0.027705215
213	0x3d1df90b	0.038567584
214	0xbd9d5c4a	-0.07683618
215	0x3d338bd4	0.043834522
216	0xbc674500	-0.014115572
217	0x3dbbba58	0.091664016
218	0x3d32be80	0.043638706
219	0x3d8b4d3e	0.06801842
220	0x3d8c711c	0.068575114
221	0xbd0851d9	-0.03328118
222	0x3cfc4b95	0.03079776
223	0xbd7640a0	-0.060120225
224	0xbce60b10	-0.028081447
225	0x3d683cb8	0.05669853
226	0x3c76b900	0.015058756
227	0x3dd2f4e8	0.103006184
228	0x3d9e2e4f	0.077236764
229	0x3da67cc4	0.08129266
230	0x3d9536fe	0.072858796
231	0x3ddd0a38	0.10792965
232	0x3dda230f	0.10651218
233	0x3d01bb13	0.03167255
234	0xbdc08a94	-0.09401432
235	0xbd2434f2	-0.040089555
236	0xbd952897	-0.072831325
237	0xbd1ff1da	-0.039049007
238	0xbdc33869	-0.09532244
239	0xbd8f4e6b	-0.06997379
240	0x3bfe8ac9	0.0077680093
241	0xbdbad31a	-0.09122296
242	0x3d2a07d7	0.041511383
243	0x3b81cf2f	0.003961466
244	0x3cb91788	0.022594228
245	0x3d9f5260	0.07779384
246	0xbd7f58d7	-0.062340584
247	0xbd44c6c8	-0.048041135
248	0xbdcfd979	-0.101489015
249	0x3da0d760	0.078535795
250	0xbdd1f40b	-0.102516256
251	0xbdbbf5fe	-0.09177779
252	0xbcf91ccc	-0.03040924
253	0x3da86844	0.08223012
254	0x3cf32380	0.029680014
255	0x3d8971d0	0.06711161

layer5.bias f4 [60]
0	0xbd9c958d	-0.07645712
1	0xbca42367	-0.020036412
2	0xbd17444c	-0.036930367
3	0x3c07b22d	0.0082822265
4	0x3d260145	0.040528554
5	0x3d0528a1	0.03250945
6	0x3ae47722	0.0017430524
7	0x3d410ecf	0.047133263
8	0x3d29d75d	0.041465152
9	0x3d13dc64	0.036098853
10	0x3d36d960	0.0446409
11	0x3c48ba92	0.012251513
12	0x3d4a5fa0	0.0494076
13	0x3d9af520	0.07566285
14	0x3da2ccd7	0.07949226
15	0xbdaa7afb	-0.08324238
16	0xb818a000	-3.6388636e-05
17	0x3d032bc7	0.03202417
18	0xbd5b2082	-0.0534978
19	0xbd78812c	-0.060670063
20	0xbdb1640e	-0.08661662
21	0x3c40b6c0	0.011762321
22	0x3cb87e12	0.022521053
23	0x3de564ed	0.11200891
24	0xbd056784	-0.032569423
25	0x3c67ddf5	0.01415204
26	0xbdda65d2	-0.10663952
27	0x3dc4051b	0.09571286
28	0x3c926b0e	0.017873313
29	0x3d6610cc	0.056168362
30	0xbb3ecd9d	-0.0029114254
31	0x3d5fb031	0.05461139
32	0x3daa5b50	0.08318198
33	0xbd29c267	-0.041445162
34	0x3da868cb	0.08223113
35	0xbd07be36	-0.033140384
36	0xbd392196	-0.045198046
37	0x3c1ae805	0.009454732
38	0x3d52a0c1	0.051422838
39	0x398dea00	0.0002706796
40	0x3da47a86	0.08031182
41	0x3d766bb5	0.06016131
42	0x3acacc40	0.0015472248
43	0x3d935979	0.071948
44	0x3ddd142c	0.10794863
45	0x3d6972a3	0.05699409
46	0xbdb264dc	-0.08710644
47	0x3dc21b40	0.09477854
48	0x3dad2950	0.08455145
49	0x3cb0af88	0.021568075
50	0x3d6719eb	0.0564212
51	0x3cfa0907	0.030521883
52	0x3d9325bb	0.07184931
53	0xbd412e44	-0.047163263
54	0xbda57a4b	-0.08079966
55	0x3dc1a976	0.0945615
56	0x3c633fc7	0.013870186
57	0xbc872378	-0.016496405
58	0xbbb8b879	-0.005637225
59	0x3d587515	0.052846033
