saved_models/model_PFE.pt (torch_old, 190423 bytes, 15 tensors)

layer1.weight f4 [100, 5]
00000000: 8d58 7d3e 8823 e33b 8a09 fbbd 1313 743e
00000010: e9cb f53c b996 803e 4449 103e 014c afbe
00000020: 27c5 823e da92 e93c c4a5 bdbe 2468 b1bd
00000030: fe29 44be b037 773d 80c2 613d b2ad 4cbe
00000040: 448d 743e f4fd ba3e a8f7 2ebe 36ea a5be
00000050: 0d0a 8c3e 3e87 cbbe e6ff b6be a27b 8d3c
00000060: b0ea 9d3e 97f0 d7be 14e5 99be 3cd9 e9bd
00000070: 6d0a 5ebe ff5f 4dbe 2ca8 1abe 904e ddbd
00000080: 36fb 83be 7c56 4d3e b0c8 883c 1237 d63e
00000090: 5734 b93e 5b1e 603c 1671 c6be 9727 123d
000000a0: f693 ac3e 7bb3 653d 37fc 553e f4cb 533e
000000b0: 0139 c03d 10fe e3be 3c63 b73e ec75 d2bd
000000c0: 1405 b2bd 8028 06bc 6b9b 34bd 9841 be3e
000000d0: c01c 9f3d cf29 66be 4d53 c2be b85c 6fbe
000000e0: 1488 90be a46c 123e 7003 53bd d829 3bbd
000000f0: 703a eb3c d876 15be e36a cfbe 28b1 893d
00000100: 72eb 82be def7 e23e 0de4 da3c 2435 de3e
00000110: ace1 96bd daee 843b 8060 4cbe a158 9cbe
00000120: 9840 c63e a7fb 1a3d f2a7 f23d 305b cabc
00000130: 9afe d5be 78f5 e3be 0851 c83d 181b bd3e
00000140: 5fcf 973d 23b8 8ebe 5ca1 54bb 7234 ba3e
00000150: 9429 e23e b8e0 7d3e 1a31 3d3e d924 98bd
00000160: ddee 50be 17b5 a83d 0f57 6fbe 32e5 babe
00000170: 142d 95be 4841 66bd 2fc2 a9be d425 18be
00000180: 1c2d b7bd f758 afbe 5067 4f3d e819 963e
00000190: 4e87 27be 0c09 29be 2086 96bd 6794 c1be
000001a0: 705c d83d cf3d c1be 48f0 9b3d 285c 89bd
000001b0: 2f1b 75be 2486 9e3e 4b00 4dbe 60a0 cc3c
000001c0: 2e2b 6bbe 5eac bc3e 42d0 cbbe 956f 213e
000001d0: a1a0 db3e 3bc0 17be 2c7c d23e d0d1 4b3e
000001e0: 46ba 9e3e 1473 bebe 612a b63e 508d 263e
000001f0: b25b c83e 6f52 9f3c eb4a aa3e 17c2 ab3e
00000200: fcfb 95be 2f53 1a3e 7ce8 b13d 9255 cf3e
00000210: e428 083d 5414 3bbd 621e af3e 380e 9c3d
00000220: 305e 793d 1271 e03e 85da debe 0473 87be
00000230: a4dd 983e b016 313e 3d86 db3d 634d b03d
00000240: f4f5 963e ca83 d2be acaa 6d3e 2036 593c
00000250: fc6b cdbd 5826 8abe a366 c43e 200c 02bd
00000260: e128 d4be df1f cc3e a85e 5e3e a52b d1be
00000270: b4a1 803e 6017 583e 2411 8c3e e568 b8be
00000280: f1b0 4ebd 0efe a33e d620 bdbd 28bb cb3e
00000290: 5ac4 4bbe dc92 aebe e6fe d73e d1e7 ab3e
000002a0: d66f edbd 1ebb 8c3e 884d b9be c83b a4bd
000002b0: 606c a7bc bad3 55be 959c 8abe cdcf 703e
000002c0: 1eee a3be 68bd 993e 10a8 aebd 7818 82bd
000002d0: 1ef7 963e 5e63 e93d 76be a63c fb3b f43b
000002e0: 36e5 8cbe 05ac c33e 7e9e d93d 302e c23d
000002f0: bb7c 43be fdcb d1be 56b9 1b3e 1978 d73e
00000300: 4017 de3e 576e e53e a26f 4d3e 3a3d a8be
00000310: b773 e4be 8054 5dbd d003 95be e003 cd3e
00000320: 95e9 b5bd cbc6 283e 24e7 773e d452 df3e
00000330: 66a8 503e 225f 9dbe c08c a03d ba07 12be
00000340: 7b03 5ebe 8c26 d0be 9846 92bd 0035 873a
00000350: 15de 8cbe 58c9 3dbe b25a d2be a464 86bd
00000360: 50d7 96bc d341 75be ffc7 69be 36e3 d4be
00000370: 48e6 10be a6ed 8abe cbc4 d5be 9040 a63c
00000380: 5e74 0fbe f375 8c3d f4d2 463e 28af d6be
00000390: 1567 083e 1b4c ae3e 8852 d73e b197 953e
000003a0: 6281 aabd d1ba 8abe 7ec0 133d c64a 9d3e
000003b0: e795 9abe 44cb 25be 80f1 6c3b 8025 ee3b
000003c0: db26 cbbd 6cd1 653e a4cd 253e 862d 5fbe
000003d0: 5933 ad3e 95d4 c83e 4358 56be e4fc 183e
000003e0: 6d58 cebe a184 b93e cb8c 913a c02e 7b3e
000003f0: 449c 9a3d e3b9 c1bc 4037 42bd 18b1 d93e
0.2474081 0.006931726 -0.12257679 0.23835401 0.030004459 0.25114992 0.14090449 -0.34237674
0.2554104 0.028512407 -0.37040532 -0.086624414 -0.19156644 0.060355842 0.05511713 -0.19988135
0.23882014 0.36521876 -0.17086661 -0.3240525 0.27351418 -0.3975162 -0.3574211 0.017270867
0.30843115 -0.42175743 -0.30057585 -0.11418387 -0.21683665 -0.20056151 -0.15103215 -0.10806
-0.25777596 0.20052522 0.016697258 0.4183889 0.36172745 0.013679112 -0.38758153 0.035682287
0.33706635 0.05607937 0.20896994 0.2068327 0.09385873 -0.44529772 0.35817897 -0.10276398
-0.08692375 -0.008188367 -0.04409353 0.3715942 0.077691555 -0.22476886 -0.37954178 -0.23375213
-0.2822882 0.14299256 -0.05151695 -0.045694202 0.028714389 -0.14596117 -0.40511236 0.06723243
-0.25570256 0.44329733 0.026720071 0.43399918 -0.07367262 0.0040567936 -0.19958687 -0.30536368
0.38721156 0.03783765 0.11848439 -0.024701685 -0.41795808 -0.44523215 0.097810805 0.36934733
0.074126 -0.2787486 -0.003244481 0.36368138 0.44172347 0.24792755 0.18475762 -0.07428903
-0.20403619 0.08237665 -0.23373054 -0.36502987 -0.29135954 -0.0562146 -0.33155963 -0.1485818
-0.08944151 -0.34247562 0.050635636 0.2931664 -0.16360208 -0.16507357 -0.07349801 -0.37808535
0.10564506 -0.3774247 0.076141894 -0.067070305 -0.23936151 0.30961716 -0.20019643 0.024978817
-0.2296569 0.36850256 -0.39807326 0.15765221 0.42895988 -0.14819424 0.4111036 0.19904256
0.3100149 -0.37197173 0.35579208 0.16264844 0.39132458 0.019448487 0.33260283 0.33546516
-0.2929381 0.15070795 0.08686921 0.40494972 0.03324212 -0.045673683 0.34202868 0.076198995
0.06088084 0.43836266 -0.43526092 -0.26454937 0.29856598 0.17293811 0.10718963 0.0860851
0.29484522 -0.41116172 0.23209637 0.013257533 -0.10030362 -0.2698238 0.38359556 -0.031749845
-0.41437438 0.39868066 0.21715796 -0.4085361 0.2512337 0.21102667 0.27356827 -0.36017528
-0.050461713 0.32029766 -0.092347786 0.39791226 -0.19899121 -0.3409642 0.4218666 0.335753
-0.11593597 0.2748651 -0.36191964 -0.08019215 -0.02043742 -0.20881549 -0.27072588 0.2351677
-0.32017606 0.30027318 -0.08528149 -0.06352323 0.2948541 0.11395906 0.02035449 0.0074534393
-0.27518624 0.38217178 0.10625933 0.09481466 -0.1909055 -0.40975943 0.15207419 0.42083815
0.43377113 0.44810745 0.20062116 -0.32859212 -0.44619533 -0.054035664 -0.2910447 0.4004202
-0.08882443 0.16482083 0.24209267 0.4361788 0.20376739 -0.30736643 0.07839346 -0.1426076
-0.21681015 -0.4065441 -0.07142371 0.0010315478 -0.27513185 -0.18533838 -0.4108482 -0.065621644
-0.018413216 -0.23950891 -0.22830199 -0.41579598 -0.14150345 -0.27134436 -0.41751704 0.020294458
-0.14009234 0.068584345 0.1941641 -0.4193051 0.13320573 0.3404244 0.42055154 0.29217294
-0.08325459 -0.27095655 0.036072247 0.3072111 -0.3019249 -0.16190821 0.0036154687 0.007267654
-0.099195205 0.2244317 0.16191727 -0.2179471 0.33828238 0.39224687 -0.20932107 0.1494022
-0.4030184 0.36234 0.0011104582 0.24529552 0.075493366 -0.023648208 -0.04741597 0.42517924

layer1.bias f4 [100]
00000000: 6631 a73d 7273 c13e 2067 5a3e 3054 3fbd
00000010: 4f9b cf3e f1f8 bdbe 9c2c b6be 580b c0be
00000020: 6efa 723e 002c a63d ee5a b13e c004 143e
00000030: 4136 b0be 954b 103d 95ce 8e3e 0098 c2ba
00000040: 150a bb3e 28fe ce3e 1aa5 dc3e e395 b7be
00000050: 1a23 0dbe 6eab 04be a49f 303e 90a2 223e
00000060: 0ed2 8fbd b8f3 99be aca0 613e 887d dfbe
00000070: b61f 05be 40a1 a8be 2161 d4be c438 b7be
00000080: 41ed 533e f9fb d3bd 9a06 db3e 98a5 db3e
00000090: 3fa4 f93d 1589 ae3e 913e 9c3d 96c3 b83e
000000a0: cb6a ca3e 96a2 cbbe 4a43 873e 7eae d33e
000000b0: 7456 bcbe 0ef8 db3e 2a56 b4bd c00c ef3d
000000c0: ba87 273e 0a8a dfbe 0372 a5be d241 63be
000000d0: 23bf b8be 0cfd a2be 7c21 48be d2cc adbe
000000e0: 3814 0f3e 38ab bbbe 09a3 23be 4727 9a3e
000000f0: 3070 81be b07d b53e 30ed ebbc aca5 763e
00000100: 7753 b63e aedc 0c3e 29f1 803e d025 b0be
00000110: b525 1a3d eeb9 25be b1c8 ad3e 3521 d7be
00000120: 697a be3e 709e 833c 6ed2 b7be 65c8 223e
00000130: d69d 8fbe d8fc e23e 2aa1 1abe 372c ebbc
00000140: 505e 463e c3c9 d2be fc3a c43e 61fa 57be
00000150: 84f2 d83e e8e8 413e 6d60 943e 6af3 a2be
00000160: 2bfa cf3e a9af dc3e 6a16 50be a6f6 cbbe
00000170: 9577 0b3e 3c76 263e f22c 963e 14a2 8e3e
00000180: f5b9 a4be 20c2 e53d a0a2 e5bd 37b3 273e
0.08163719 0.3778339 0.21328402 -0.046711147 0.4054818 -0.3710399 -0.3558091 -0.37508655
0.23728344 0.08113861 0.34639686 0.14454937 -0.34416392 0.03522833 0.27891985 -0.0014846325
0.3653113 0.4042828 0.43094712 -0.35856542 -0.13782921 -0.1295602 0.17248398 0.15882325
-0.070224866 -0.30068755 0.22033948 -0.4365046 -0.13000378 -0.32935524 -0.41480353 -0.35785496
0.20695974 -0.10350794 0.42778474 0.42899776 0.121895306 0.3408896 0.07629121 0.3608672
0.39534602 -0.3977248 0.26418525 0.41344064 -0.36784708 0.42962688 -0.08805497 0.11672354
0.1636037 -0.43660003 -0.32313547 -0.22193077 -0.36083326 -0.31833684 -0.19544023 -0.33945328
0.13972557 -0.36654067 -0.15980162 0.3010809 -0.25280905 0.35447454 -0.028799623 0.24086636
0.35610554 0.13756058 0.2518399 -0.3440385 0.037633616 -0.16184208 0.33942178 -0.42017522
0.37202767 0.01606676 -0.35902733 0.15896757 -0.28050107 0.4433353 -0.15100542 -0.028707607
0.19371915 -0.41169557 0.38326252 -0.21091606 0.42372525 0.18936503 0.28979817 -0.31826335
0.4062055 0.43102768 -0.2032105 -0.39836615 0.13619836 0.1625604 0.29331166 0.2785803
-0.32173124 0.11218667 -0.11212659 0.16376959

layer2.weight f4 [150, 100]
00000000: 5969 69bd aa80 903d 8c96 bf3c 5d9f 923d
00000010: 8b20 38bd 4c71 efbc 3b82 b83d b918 5abb
00000020: ab11 2bbc 0a63 0f3d bab2 823d e2a5 553d
00000030: 1937 9f3d 9642 21bd 1e69 8cbd f342 6bbd
00000040: 49e9 0fbd ddfb ee3c a0b3 80bb c495 0fbd
00000050: 4759 23bd 3813 cb3c 403b 9ebd 5b09 85bd
00000060: 34f2 cfbc cfe8 953d 97f0 b23d f091 2fbd
00000070: 3cdd 683d 243a f63c 055e b03d 7cca f03c
00000080: c238 e53d ce64 ac3d 2754 c8bd f5a3 83bc
00000090: fdae 923d 20cc e73c f0d2 e03d bd35 973d
000000a0: 9c5d 3b3d 001e 15bb 48de b0bc 7957 833d
000000b0: 6229 223d a254 763c c958 323c 380f ae3c
000000c0: cd29 e0bc 8cf5 c9bc 82c6 76bd 73f9 a8bd
000000d0: c0eb cbbd 30d7 90bd 9df9 993d aa90 cabd
000000e0: cf1d ac3a 16ab 8cbd 6351 563b 0440 43bd
000000f0: 9a85 393d f39b 453c 1e91 a5bd 0330 b2bd
00000100: 5c90 903d 0582 453d f59b 563c 7aa7 713d
00000110: 8ef1 ce3d 03e1 c33d fba1 603c 12d4 4c3d
00000120: fe17 663d ba65 9abd b461 b33c 8666 2fbc
00000130: 6c12 b43c a317 053c c47d e33d b6c0 db3d
00000140: 9a93 54bd 4846 6a3d 1879 343c c51d 503d
00000150: 39b1 a13d 0780 3ebd 9a9f 09bd c359 9dbd
00000160: 6227 193d 7f29 4bbd cd98 903d d38c 2a3d
00000170: 9d41 97bc 3394 b33d bb9a 9a3c 4c11 f3bc
00000180: c06c 66bb f71f 44bd ab74 9cbc 5da5 f73c
00000190: cf8c 083d 57c0 003d a026 bdbd d12d b33d
000001a0: e5c4 0fbd 929d 193d 09e6 9f3d 29a2 eb3b
000001b0: 0407 d4bc 9fb3 873d 7eb3 943d 5825 063c
000001c0: 3c27 09bd 9904 9f3d cea1 333c f0bb 1fbc
000001d0: 9545 a4bd 57b6 be3c a2bf 123d b1ab c43d
000001e0: fb11 92bd 30f0 1dbc 26cd 85bd a870 673d
000001f0: 4f55 743d 70a0 713c df6a 88bd 7a21 7cbd
00000200: d26b b2bc 35d3 b3bd 4546 a1bb d759 7bbd
00000210: 184f b93d 7753 a9bd 9fc8 9c3d 6066 603c
00000220: aa14 a33d 7701 2cbd 47db bb3d a369 a23d
00000230: 3af0 b6bd ad4b cbbd 7bd6 b03d f89d 843c
00000240: fdd8 19bd 97f0 483c e4b3 6dbd e220 673d
00000250: c801 c0bd d7d5 a83b 6e74 0c3d 13b0 6cbd
00000260: b4ad f03c e0eb 70bd 0358 a13d 809c 08bc
00000270: 2337 8e3d c079 3d3b 4b0c ccbd 30d6 903d
00000280: 47e7 64bd 688a 02bb 32eb 7e3d cd1d 81bd
00000290: 92ad d0bd a4b4 633d 9abb 213d 806b 02bc
000002a0: 6fa8 7ebd 299c 5dbd 5398 743d 9af6 4f3d
000002b0: 0a53 ddbc 9258 703d 8b51 8f3d 2f03 163b
000002c0: dd9a 9bbd bedf 603d fbfd e839 2a5c 95ba
000002d0: 1a01 aebd 41b0 cdbb 49e0 c03d 1c32 953d
000002e0: c952 6abd b805 9abc 0737 e83c a645 c8bd
000002f0: 9e99 b3bd 6050 283d 0245 3ebd e4aa ea3c
00000300: 60ff b9bd 2b2c c7bd 2037 633d b025 99bb
00000310: 677b 2ebd 4584 823d 60f9 203c d985 c2bd
00000320: d936 bc3d d8e5 dfbc 60cf 423b e24b 90bd
00000330: 62cf 123d d845 96bc bad1 abbd 828c 4c3d
00000340: 16c2 283d a3ec 94bd 02eb a3bd 7936 ab3d
00000350: 2ac2 143d dabc 333d 9062 10bd a624 173d
00000360: 5c16 0abd 209d f0bc aab1 14bd fba6 9cbd
00000370: 7fc6 bc3d 4294 96bd 60c6 3c3b 9d5c bf3d
00000380: e619 13bd 2d89 23bd e371 5ebd f283 c2bd
00000390: ccce 913c b156 bc3d d61b 86bd c0e4 05bb
000003a0: 0376 3bbd e065 e9bc c066 67bd 487b 86bd
000003b0: ff54 a53d 0268 0c3d 74fb 91bc 909d 10bc
000003c0: 5d39 b33d 3288 8cbd d963 ae3d ddb2 6fbd
000003d0: 7d27 993d 7221 043d 15ce acbd 3855 b03c
000003e0: b2dd 7a3d 6048 46bb a501 90bd d0fe b43b
000003f0: 46a0 4c3d 7f35 be3d bdb4 b9bd 3539 b83d
-0.056985233 0.07055791 0.023387216 0.071593024 -0.04495291 -0.029228829 0.090092145 -0.0033278896
-0.010441224 0.03500656 0.06381746 0.05216015 0.07774181 -0.039370142 -0.06855987 -0.057436895
-0.035134587 0.029172832 -0.003927663 -0.035054937 -0.039880063 0.024789438 -0.07726145 -0.06495925
-0.025384046 0.07319795 0.08737295 -0.042863786 0.05685161 0.03005702 0.08611683 0.029393427
0.11192466 0.084176645 -0.09781676 -0.016069392 0.071622826 0.028295577 0.10977733 0.07383297
0.04574357 -0.0022753477 -0.021590367 0.064131685 0.039590247 0.0150348265 0.010885426 0.021247491
-0.027363682 -0.024653219 -0.060247906 -0.08250704 -0.09957075 -0.07072294 0.07518313 -0.09890874
0.0013131442 -0.068685696 0.003270232 -0.047668472 0.045293428 0.012061107 -0.080843195 -0.08700564
0.07058784 0.0482197 0.0130987065 0.05899761 0.10104667 0.09564402 0.013710494 0.050006934
0.056175224 -0.07538934 0.021897174 -0.010705596 0.02198144 0.008123311 0.11107972 0.10730116
-0.051898576 0.05719593 0.011015199 0.05080964 0.07895131 -0.046508815 -0.033599474 -0.07683136
0.037391074 -0.04960012 0.070603944 0.041638207 -0.018463904 0.08768501 0.01887261 -0.029671334
-0.0035160035 -0.047882047 -0.0190986 0.030230219 0.03333741 0.03143343 -0.09235883 0.08748973
-0.035099883 0.037503786 0.078075476 0.007190962 -0.025882252 0.06626057 0.07260798 0.008187614
-0.033484682 0.07764549 0.01096387 -0.009749398 -0.08021084 0.023280306 0.035827287 0.0960306
-0.07132336 -0.009639785 -0.065332696 0.05650392 0.05965167 0.014747724 -0.06661009 -0.061555363
-0.021779928 -0.08780519 -0.004921707 -0.061364975 0.09048289 -0.08267873 0.07655453 0.013696283
0.07962926 -0.041993584 0.09172683 0.07930305 -0.08932538 -0.099265434 0.08634659 0.016188607
-0.03756045 0.012264392 -0.058032885 0.056427844 -0.0937534 0.005152445 0.034290724 -0.057785105
0.029379703 -0.058818698 0.07878115 -0.008338094 0.0694411 0.002891168 -0.09963282 0.07072103
-0.055884626 -0.0019918922 0.06223602 -0.06304512 -0.10189356 0.055592194 0.03948555 -0.0079602
-0.06217235 -0.054104004 0.05971558 0.050772287 -0.027017135 0.058678217 0.06997975 0.002289008
-0.07597897 0.054900877 0.00044439718 -0.0011395265 -0.08496304 -0.0062771146 0.09417779 0.07284948
-0.057207856 -0.018801555 0.028346552 -0.097789094 -0.087695345 0.041092277 -0.04645253 0.02864594
-0.09081912 -0.09725221 0.055472493 -0.004673682 -0.042598154 0.06372885 0.009825081 -0.09498186
0.09190149 -0.027331278 0.0029725656 -0.070457235 0.035842307 -0.018343851 -0.083896115 0.049938686
0.04120072 -0.07271697 -0.080038086 0.08359999 0.03631798 0.043881275 -0.035250247 0.036900185
-0.03371273 -0.029371798 -0.036302246 -0.076490365 0.092175476 -0.07352497 0.0028804764 0.093438365
-0.03591337 -0.039925743 -0.05430783 -0.09497823 0.017798804 0.091962226 -0.06548278 -0.0020430535
-0.04576684 -0.02849096 -0.056494474 -0.06566483 0.08072852 0.034278877 -0.017820098 -0.008826628
0.087511756 -0.06861915 0.08515138 -0.058520187 0.07478235 0.03225846 -0.084377445 0.02152501
0.06124658 -0.0030255541 -0.07031564 0.00552354 0.049957536 0.09287547 -0.09067676 0.089952864

layer2.bias f4 [150]
00000000: 2487 2cbd c6d3 c5bd 2c7c f13c d003 c23b
00000010: 4eeb 27bd d515 82bd abce 38bb 2dd1 95bd
00000020: 77d8 9a3b 761d 6c3d e774 b33d 1bd0 62bd
00000030: b63b b63d b0d9 a9bb 00fa f23b 3fbf 3d3d
00000040: 3976 d8bd faef a8bd a083 cebd edf2 6c3d
00000050: c6e4 0d3d 4815 4cbd 4513 db3c 3483 f0bc
00000060: 98d3 babc 6a95 61bd 314a 8d3d df79 0d3d
00000070: eb85 983d 145d 903d 3494 e13c ba79 a13c
00000080: 96de 9ebd 7515 1abd 7164 c13d 2185 7d3d
00000090: 35e4 d6bc 5db5 50bd 0932 443d 1da1 e93d
000000a0: 62c8 293d d830 4e3c 131c 5f3d 2c34 073d
000000b0: a2ab a4bd 7548 8cbd a56e c23d 5c08 d53c
000000c0: c254 b8bd 21d5 5b3c 1121 2ebd f52c c7bd
000000d0: e514 40bd 7339 adbd c0ca 9d3a dbe0 af3d
000000e0: b2ee b7bd 249a ec3a fe58 88bd 7a14 3cbd
000000f0: 663c 88bd afff 5cbc b134 dabc 0b10 b63d
00000100: 20b0 a4bd c083 00bc f8dd aabd 6dba 39bd
00000110: 1152 da3d 7365 85bd a8e0 9e3d e21c a5bd
00000120: 8ebe d83c 3d80 cfbb 8e87 743d 6dbf 023d
00000130: f444 b43d 8270 433d 0b32 a0bc 97a3 ba3d
00000140: ed78 833d 3916 ea3b c4c0 c03d d5f1 cabd
00000150: c042 643b d51d c5bc dde7 86bd 8baf abbd
00000160: 9c14 133c ef47 343d 36a6 253d 40e5 0fbd
00000170: 979f c0bd bd3c bebd 584c 263c 506b ec3d
00000180: b9d4 b83d 384e c93c 9ac0 623d e491 9e3d
00000190: 096e cc3d 1074 063d dfeb 3d3d f04d 3a3d
000001a0: 587f e5bc 101d a93d 5c9f 273d f85e 9d3d
000001b0: 2c5c 183d 4a31 873d 0f22 a0bc 6a3a 683d
000001c0: 5b1e 883d 336f 95bc 3530 d7bb 400b 78bc
000001d0: 5cd2 04bd e355 be3d e701 ccbc d893 643c
000001e0: 8026 b33a 1063 2dbd 2879 e53c 3050 a6bb
000001f0: 169d 183d 5be2 ac3d 24fa 54bc 7f6c 9b3d
00000200: 28a2 ebbc 2781 45bd 001e f639 2682 a6bd
00000210: 74a9 00bd 7efe a5bd 81dc 883d bafe 92bd
00000220: 58e8 ffbc 5dd7 92bd 12b5 28bd 6084 aa3c
00000230: 8603 0f3d 387e 4b3d 26b8 493d a065 bdbc
00000240: 65db e13d a362 873d c09b 35ba 85a0 16bc
00000250: 1639 a13d 5616 523d
-0.042121068 -0.09659533 0.029478155 0.0059208646 -0.04099589 -0.063518204 -0.0028199356 -0.07315288
0.0047255117 0.057645284 0.08762532 -0.055374246 0.08898108 -0.005183421 0.007415056 0.046324965
-0.10569424 -0.08248897 -0.10083699 0.05784886 0.034642003 -0.049824983 0.026742587 -0.029359438
-0.022805974 -0.055074133 0.068989165 0.034540053 0.07447418 0.07049003 0.02753649 0.019711364
-0.07757299 -0.03761812 0.09442986 0.06189454 -0.026231864 -0.05095421 0.04789928 0.11407683
0.041450866 0.012584887 0.054470133 0.03300874 -0.08040549 -0.068497576 0.0949376 0.026004963
-0.09000541 0.013417513 -0.042512003 -0.09725372 -0.046894927 -0.08458223 0.0012038574 0.0858781
-0.089810744 0.0018051309 -0.06657599 -0.045917965 -0.06652145 -0.013488694 -0.026636453 0.08889779
-0.08041406 -0.007843912 -0.083431184 -0.045343805 0.10660184 -0.065134905 0.077576935 -0.080621496
0.026458051 -0.006332426 0.059699588 0.03192084 0.08802214 0.047714718 -0.019555112 0.091132335
0.06419549 0.0071437624 0.09411767 -0.09909407 0.0034829825 -0.024062077 -0.06587193 -0.083830915
0.008977082 0.044013914 0.040441714 -0.03513074 -0.09405439 -0.09288929 0.010150038 0.11543906
0.090249486 0.02457343 0.05535946 0.0774267 0.09981925 0.03282553 0.046367522 0.045484483
-0.028014824 0.08257496 0.04092346 0.076841295 0.037197277 0.06601198 -0.01954749 0.056696333
0.06646415 -0.0182415 -0.006567026 -0.015139401 -0.032427177 0.09293725 -0.02490325 0.013951264
0.001366809 -0.0423308 0.028011873 -0.005075477 0.037259184 0.084416114 -0.012999091 0.07589053
-0.028763846 -0.048218872 0.00046943128 -0.081302926 -0.031411603 -0.08105181 0.06682683 -0.071774915
-0.03123872 -0.071699835 -0.041188307 0.020815074 0.03491547 0.04968092 0.049247883 -0.023119748
0.11028174 0.0661061 -0.00069278106 -0.009193544 0.078722164 0.051290832

layer3.weight f4 [100, 150]
00000000: b7ec 523d 040b 94bd 6841 bf3c 28bf 9fbd
00000010: 5523 49bc a49a 93bd 3e33 013d bcd7 6a3b
00000020: d95f 473d bafa 12bd 7179 30bd 9515 68bc
00000030: ed36 25bd 2440 563d e4e8 cc3c 0233 ffbc
00000040: 6638 b93d 5b53 81bd 8cf4 44bd 7a87 e6bb
00000050: 21b7 ae3c ccd3 aebc e514 893b 78a2 30bd
00000060: 63b6 9cbd 9e44 1cbd 292f 85bd 1cd2 823d
00000070: d762 703d 7f72 8d3d 1cf6 313d afba 01bc
00000080: 54f7 c83c 6085 35bc 6b81 9fbd 4ce6 e23b
00000090: 1816 4ebd 6898 3fbd 6ea3 8c3c a652 30bc
000000a0: 5008 7b3d c014 e6bb 5476 913d be4e 2cbd
000000b0: 4e9f 8cbd 10a2 8e3b b177 9abd 645e 553d
000000c0: 84d5 c4bc 9dbd b03d e63d 7b3d 1825 553c
000000d0: aaaa f739 b00c 4e3d 600e 0f3c 9eab 2e3c
000000e0: a014 533d b914 a53d 701c ebbc de09 12bd
000000f0: d0ef 98bc d55f 0f3d 94d2 44bc 7a52 50bc
00000100: 56f2 883d 406f 2ebd 9764 a3bd 40b0 0bbc
00000110: 1e65 ac3d 9640 dcba c13e ad3d 9f7a 9fbd
00000120: 642a cfbc 9511 40bd 55a5 51bd 2f52 30bd
00000130: 2e8b 15bb 8c9d 64bd c4d4 94bc 7cba 1e3d
00000140: fe9d 86bd 6c5a 963d 1412 813b a8b9 313d
00000150: e5a2 94bd f00c 2abc 55c8 873d 4817 763d
00000160: 4c92 18bd 857e 27bd a22e 9e3d d169 a3bd
00000170: b706 1bbd c355 92bd 4041 903c c1cf ba3c
00000180: 8242 143d 2c78 1cbd 88f3 13bd f599 313d
00000190: 2b47 96bd aff4 bd3d edf4 923d 5573 a83d
000001a0: 24a3 95bc 739b 08bd a445 72bd a597 9c3d
000001b0: 3c25 143d 7cc9 cb3d b4c6 bf3d 85d3 a4bd
000001c0: 6caf 76bd 189d 0f3d bdd4 0c3c 3eaf 0e3d
000001d0: 10bc 97bb 30d7 e03c 0fe6 bf3d f593 7bbd
000001e0: e642 8d3d e34f c4bc cfc4 663d 70ee 213c
000001f0: 1a57 023d a0d9 b23c d9ef 833c 86e7 52bd
00000200: 2bd6 74bd d084 563d 1ab1 91bd 022a 6fbd
00000210: 5881 e03c 2ab7 ccbc 90f5 483c 84ba a5bd
00000220: 77d8 073d 1020 cdbb 11ae 13bd 0892 293c
00000230: c368 4e3d c489 0ebd 4a1b 64bd 116d 1cbd
00000240: fdd5 173b 92ae 2b3d 5bd6 253d d57f 343d
00000250: e704 863d 0ca9 75bd 2e75 50bd 8078 6dbc
00000260: 8a7e a4bd 00f7 9abc 30cb 0b3d 80d3 3c3c
00000270: adb3 9bbd 50e8 8a3d 983a 01bc 643c eabc
00000280: c20e 7dbd 202d 2abc c0d9 ef3a f851 543d
00000290: 7efa 803d 6228 96bd bccc 4f3d 8c05 8abd
000002a0: a671 bebc c489 7abd ff34 7fbd a56a a3bd
000002b0: 3115 06bd e4e3 cc3c 56df 993d e626 d0bc
000002c0: 1c14 783d e825 bf3c e0aa 8e3c 57d0 00bd
000002d0: 600d 6ebc 745a 82bd a429 c4bc 44b2 ee3c
000002e0: ec63 4f3d 0e0c 973d b4b7 8a3d b8e0 743c
000002f0: 20f3 2e3d b613 f9bc a8ed 293d e63c 6fbd
00000300: 01cf 67bd e604 933d be0b 68bd c4e6 f73c
00000310: ac25 31bd 5510 37bd a87a 793d a4d3 e53c
00000320: 3c5b 553d 88d3 a23d 30b3 5b3c 4e78 e4bc
00000330: 5046 8fbb 2c45 c3bc 3afc 2c3d dce7 6c3d
00000340: 5815 fa3c 4069 d8ba 68db d2bc 72ba 82bd
00000350: b253 823d e5b0 6bbd f2e8 39bd 801c 993a
00000360: 8e87 e4bc d6f0 853d c46a 533d 8378 2fbd
00000370: dc2c 7b3d e08c a4bc 92cb 973d c050 413d
00000380: f220 7bbd 58fc 69bd 18f4 bc3c d0bf 923d
00000390: 846d 913d 3c48 a53d 5a46 013d 987b 493d
000003a0: 580b 9e3c c068 e1ba 6a02 acbc 88ac 96bc
000003b0: 9bf2 a5bd a6b5 69bd 3e2d a0bd c074 203c
000003c0: c89d fb3c de7d a1bd 30c3 463d 48d4 a63d
000003d0: c0f9 10bd 792c a3bd cc62 2a3d 8680 b7bc
000003e0: c07e 683d d4ce c43c 251c 99bd bcf1 67bd
000003f0: 2857 333c 4693 833d f08a 0abd 17b5 4cbd
0.05149528 -0.072286636 0.023346618 -0.07800132 -0.01227649 -0.0720723 0.03154301 0.0035834154
0.04867539 -0.035883643 -0.043084566 -0.014165302 -0.040335584 0.052307263 0.025013395 -0.031152252
0.0904396 -0.06314727 -0.04808478 -0.007035193 0.021327557 -0.021341227 0.004183399 -0.043123692
-0.07651975 -0.038151376 -0.06503136 0.063877314 0.05868801 0.06906604 0.0434476 -0.007918044
0.024531998 -0.011079162 -0.077883564 0.006924426 -0.05031404 -0.046776205 0.017167773 -0.010761892
0.061287224 -0.0070215166 0.071026474 -0.042067282 -0.068663225 0.0043528154 -0.075423606 0.05209197
-0.024027593 0.08629916 0.061338328 0.013009332 0.00047238666 0.05030507 0.008731455 0.010661034
0.05153334 0.08060593 -0.028700083 -0.03565394 -0.018669039 0.035003502 -0.012013096 -0.012714976
0.06686847 -0.042586565 -0.0797817 -0.008525908 0.08417724 -0.0016803916 0.08459235 -0.0778706
-0.025288768 -0.046891768 -0.051183064 -0.043047126 -0.0022818553 -0.05581431 -0.01816786 0.038752064
-0.06573103 0.07341465 0.0039389227 0.043389946 -0.07257632 -0.010379061 0.06630007 0.060080796
-0.037248895 -0.040892143 0.07723738 -0.07979167 -0.0378482 -0.07145264 0.017609239 0.022804143
0.03619624 -0.038200542 -0.03612092 0.043359715 -0.07337793 0.09275185 0.07175622 0.08225123
-0.018266268 -0.033351373 -0.059148446 0.076461114 0.036168322 0.099505395 0.093640715 -0.08048157
-0.06022589 0.035061926 0.008595643 0.034835093 -0.004630573 0.02744636 0.09370052 -0.0614204
0.068975255 -0.023963874 0.056340035 0.009883508 0.031821348 0.021832287 0.01610558 -0.05149033
-0.05977456 0.052372754 -0.071138576 -0.05838967 0.027405426 -0.024989683 0.012265578 -0.08092216
0.03316542 -0.0062599257 -0.036054675 0.010349758 0.050392877 -0.034799352 -0.055690087 -0.03818995
0.0023168318 0.04191453 0.04048763 0.044067223 0.06543904 -0.05997567 -0.050893 -0.0144940615
-0.08031948 -0.018916607 0.03412932 0.011525035 -0.0760263 0.06782591 -0.007887505 -0.02859325
-0.061781652 -0.010386735 0.0018299147 0.051835984 0.062977776 -0.07331921 0.05073236 -0.06739339
-0.023247551 -0.06116654 -0.0623064 -0.07979325 -0.032735053 0.02501101 0.07513301 -0.025409173
0.060566053 0.023333505 0.017415464 -0.03144869 -0.014529556 -0.06364909 -0.023945637 0.029137738
0.050632402 0.07375346 0.0677332 0.014946155 0.04271233 -0.030404907 0.041486412 -0.058407687
-0.0565939 0.07178669 -0.056651823 0.030261405 -0.043248817 -0.04469331 0.06090799 0.02805502
0.05208896 0.07950503 0.013409421 -0.027889397 -0.0043723956 -0.023836695 0.04223273 0.057838306
0.030527756 -0.0016510859 -0.025739387 -0.06383218 0.0636362 -0.057541747 -0.04538817 0.0011681467
-0.027896669 0.065400764 0.05161549 -0.04283954 0.061322078 -0.020086706 0.07411875 0.04719615
-0.061310716 -0.05712542 0.023065612 0.071654916 0.071009666 0.08070418 0.031561233 0.049190134
0.019292518 -0.0017197356 -0.020997245 -0.018392816 -0.08102914 -0.057058 -0.07821129 0.00979346
0.030714884 -0.078853354 0.04852599 0.08145958 -0.03539443 -0.07967467 0.041598126 -0.022400152
0.056761503 0.024024405 -0.07476071 -0.05662702 0.010946073 0.064245746 -0.033823907 -0.04997739

layer3.bias f4 [100]
00000000: 1c29 703d 521e fabc fc3a dd3c e0c5 bb3a
00000010: 81d3 8f3d c0bb e93a 00e3 763d c0cd 283b
00000020: a1ea 1ebd 5466 a73d acea 793c cd34 abbc
00000030: 79c3 7fbd 8c40 b33d c955 803d ffa0 19bd
00000040: 0142 fdbb 18dd e5bc a681 89bd e5b2 4cbd
00000050: d1fb 2b3d 145d 933c 594d 8f3d 908f bd3c
00000060: 8413 443d 594b 4f3d 37c9 03bd ce6f a53d
00000070: 4eee 3fbd 7aab b13d df74 18bd f0fc ef3b
00000080: 7a63 443c bcef b43d 7729 743c d014 8d3c
00000090: b6cf 1f3d b042 913d aece 37bd b41a 7c3d
000000a0: 0814 043d 5402 ce3c 8069 94bd 18fc 6f3d
000000b0: 3b4d ae3d 5bc1 bb3b b335 0c3d 5091 283c
000000c0: 38d2 643d 3ed1 03bd 603f d83b 4e1e b7bc
000000d0: c1b6 8abd d5cf 79bd dcd4 78bd 3830 68bd
000000e0: e419 8d3c c178 2c3d da4e a83d e440 d4bc
000000f0: 289f ce3c 98b2 56bd 5023 d73b d5c1 97bd
00000100: bce7 e23c 0414 c8bc f6ad fabc 8e14 a23d
00000110: 34b5 663d 8169 983d f0c1 123c 1e65 903d
00000120: 5948 90bd fa69 9ebd f4af cd3c 3e62 9a3d
00000130: c14e 133d e1e0 863d d372 b93a 04bd 73bd
00000140: e942 9dbd 80b2 95bd b7a0 473d a838 503c
00000150: 8382 6a3c 9c71 8a3c 5049 32bd f555 0dbd
00000160: 6543 9abd 2ff4 923c 926f 00bd 58fc 86bd
00000170: 4499 92bc e0d2 983c 105d 44bd 92cd 5e3c
00000180: 2ee8 9f3d 80ae f1bc 96b4 52bd bfdf a6bd
0.058632955 -0.030532036 0.027005665 0.0014325939 0.07022763 0.0017832443 0.060275078 0.0025757402
-0.03879798 0.081738144 0.015253704 -0.0208992 -0.062442277 0.08752546 0.06266362 -0.037507053
-0.0077288155 -0.028059527 -0.067141816 -0.049975295 0.041988198 0.017988719 0.06997175 0.023139745
0.047870174 0.050608966 -0.032174315 0.08077966 -0.046858124 0.08675285 -0.037220832 0.0073238537
0.011986608 0.08834788 0.014902464 0.017221838 0.039016448 0.07092798 -0.04487484 0.061548904
0.032245666 0.025147595 -0.07246685 0.058590025 0.08510824 0.005729837 0.0342309 0.010288551
0.055864543 -0.03218197 0.0065993518 -0.022353318 -0.06773139 -0.06098922 -0.060749874 -0.05668661
0.01722426 0.042107347 0.08218165 -0.025909849 0.025222376 -0.052416414 0.006565489 -0.074100174
0.02769839 -0.024423607 -0.03060053 0.07914077 0.056325153 0.07441998 0.008957371 0.070505366
-0.07045049 -0.07735057 0.025108315 0.075382695 0.035963777 0.06585861 0.00141486 -0.05950643
-0.07678778 -0.07309437 0.048737254 0.01270882 0.014313343 0.016899876 -0.043526947 -0.034505803
-0.07532386 0.017938701 -0.0313564 -0.065910995 -0.017895348 0.01865524 -0.047940314 0.0135988165
0.07807957 -0.029502153 -0.05144175 -0.08148145

layer4.weight f4 [80, 100]
00000000: d590 f33a 2c60 f13c 00e6 89bc 2b00 833d
00000010: ee63 95bd a29d 463d 9794 943d a0ec d93b
00000020: dcd4 b7bd 5e43 883d cd71 023d 5272 863b
00000030: 12cd c43d 1117 ef3b c866 a0bb 12e6 18bd
00000040: e1d3 983c dd1b a03d 28d1 f8bc 4372 983d
00000050: c9f3 bf3d be24 6a3d fbd6 a43c 201f 55bd
00000060: a7b3 703d a9cb 693c 83e0 483d e11b d13d
00000070: 86c2 f53d 700c 7c3d 99ea c0bd de40 153d
00000080: 37c8 b23c 6ae2 a7bc 8175 003d bd41 6fbd
00000090: e3a9 1ebd c238 f93c 9867 ba3c 308a 0bbd
000000a0: 5aa4 ba3d af45 663d e26e b2bd 453c b33c
000000b0: e03b 8f3c e629 cf3b 588d b1bc c011 263b
000000c0: a2b7 3c3d e2c0 bcbd 52be 343d fcf6 7a3d
000000d0: 5a53 4b3d 236b a5bd 818d a53d 90fb acbd
000000e0: 0bc7 a83d 54cc 9e3d d5f5 c23d ee50 0d3d
000000f0: 8042 ca3c 4fca 303d 2076 92bb 59a2 1c3d
00000100: 33f9 963c 6177 ac3d 1105 c73d 3374 30bd
00000110: 2308 3f3d 597d 03bc 1151 a73d 96fc 92bd
00000120: b3bb 9fbd b1ec 833d 8895 90bd 09b1 ce3d
00000130: 62fc 86bd a634 01bd 7bc9 b0bd 3f94 a13d
00000140: ed39 bbbd 607a 91bd e00d 3c3d c88c bbbc
00000150: d6c3 ed3d 1ce5 33bc 57b0 5ebd b802 c23c
00000160: 570c b2bd 56c1 0cbd dd86 85bd 128a a43c
00000170: 99e7 9a3d 707e 5cbd 25ee ae3d 4884 753d
00000180: 336f 5f3d 0a5c 34bd 5f7a b73d ba7b 36bd
00000190: dd0e 36bd 6809 05bc e307 23bd c869 c4bc
000001a0: 438e 54bd 49cf 823d cfcf a93d e733 bdbd
000001b0: a0a8 cc3b ea08 403d d68e 0fbd 9254 6c3d
000001c0: b5b5 c2bd 2aba 53bd 8cd7 a3bc 3dd8 4bbd
000001d0: d38e 76bd de1f 783d 2b7d 8a3d 425a 9ebd
000001e0: b407 953c 529e 9ebd e56e c3bd d3ea cb3d
000001f0: 84a4 fc3c 5293 2b3d 9335 ca3d 03db 5fbd
00000200: 10be 0cbc 608b 703b 7489 dfbc 7e13 733d
00000210: 34a7 bfbc c039 5bbb 3398 8fbd e241 123d
00000220: d233 1e3d c19e b53d b6e5 063d d897 c43c
00000230: a088 c13b 2802 6c3c 0089 123c 5eeb 223d
00000240: 4064 443c 4f53 bc3d 9d33 57bd 80b7 d83b
00000250: 80c4 b0bc d184 ad3d 25ad ba3d c83d cb3c
00000260: b05d 9abd a8a5 6fbc 43d4 c5bd a85c 143c
00000270: 1ed9 93bd 6887 cdbc c5db 863d 0b9b b4bd
00000280: 7002 66bc c054 f13a 3e14 6f3d b048 45bd
00000290: 0066 bdb9 b349 26bd 525f b1bd 9078 96bd
000002a0: 19a0 c43d 7205 703d f0e0 51bd 7350 7bbd
000002b0: 1224 5d3d 58ad c03c 464d 1e3d e8d4 b7bc
000002c0: 3527 afbd f3c5 cabd 68c2 6b3c b317 27bd
000002d0: 2330 58bd ad0c 983d 47f1 63bd 2859 623c
000002e0: a6b5 613d 1683 7a3d 43aa b4bd cbcc 823d
000002f0: 926f 103d a050 26bb e0f1 a63c 3047 693c
00000300: 8077 e0ba ef78 c9bd f8dd b2bd 9a1e c4bd
00000310: 0845 91bc 80fe 063c 047c 05bd 2845 a9bd
00000320: 6b46 95bc aa32 423d f301 bbbd cfee c4bd
00000330: 4bec b1bd 0020 dc39 694b f43b 5032 dfbb
00000340: a10b dfbc 0fa7 953c 51b3 51bd 25a0 ba3d
00000350: 5f70 773d 1db2 9e39 290e 7d3d 72c0 8abb
00000360: 85c8 93bc 4e43 90bc 348a c43c 055d 80bd
00000370: 6def 3dbd e068 a23b 73e3 acbd 2bb6 ae3d
00000380: da82 84bd 0ee0 b73d 5638 443d 357d aabd
00000390: cf90 c7bd 0be6 47bc 6b88 16bd 6b5c 9b3d
000003a0: d5db 84bd f944 b53d f8df 8e3d ab07 babd
000003b0: 820d 1a3c fd49 29bc ee27 523d 0ea9 9c3d
000003c0: 3fa7 c8bc 3edf a43d 37c5 26bd 305e 2c3b
000003d0: 8956 aa3c 3fc7 25bc b3a6 bb3d 0954 b33d
000003e0: 75b7 8e3d eb80 97bd b7ec 7bbd db6c bb3d
000003f0: 0608 1e3d 798c a43d 429f 203d 9d6c 75bd
0.0018582592 0.029464804 -0.016833305 0.063965164 -0.07294451 0.048490174 0.07254904 0.0066505224
-0.089761466 0.06653474 0.03184681 0.0041029835 0.096094266 0.007296451 -0.004895065 -0.037328787
0.01865572 0.078178145 -0.030373171 0.07443669 0.0937267 0.057163946 0.020122042 -0.052031636
0.05876508 0.014269748 0.049042236 0.102103956 0.11999993 0.0615353 -0.09419746 0.036438815
0.021823986 -0.020493705 0.03136206 -0.058412302 -0.038736235 0.030422572 0.022754475 -0.034067333
0.09113379 0.0562188 -0.087125555 0.021879325 0.017484605 0.0063221334 -0.021673843 0.002534017
0.046073563 -0.09216477 0.044126816 0.0612707 0.049640037 -0.08077075 0.0808363 -0.08446419
0.082410894 0.07753816 0.09519545 0.03450101 0.024689913 0.043161687 -0.004469648 0.038240764
0.018429374 0.08421207 0.09717763 -0.043079566 0.04663862 -0.008025491 0.08169759 -0.07177083
-0.07799473 0.0644163 -0.07059771 0.100923605 -0.06591107 -0.03154435 -0.08632179 0.07889604
-0.09141908 -0.07103419 0.04591167 -0.022894278 0.11609618 -0.010979917 -0.05436739 0.023682937
-0.0869376 -0.034364067 -0.06519864 0.020085368 0.07563705 -0.053831518 0.08541516 0.059940606
0.054549407 -0.044033088 0.08958887 -0.04455159 -0.04444777 -0.008119918 -0.039802443 -0.023976222
-0.051893484 0.06387193 0.082915895 -0.09238415 0.0062456876 0.0468835 -0.03504833 0.05769784
-0.09507314 -0.05169121 -0.020000242 -0.049766768 -0.0601948 0.060577266 0.06762155 -0.07732059
0.01819215 -0.07745041 -0.09542636 0.099568985 0.030840166 0.041888542 0.098735 -0.054652225
-0.008590236 0.0036704168 -0.027287222 0.05934476 -0.023395158 -0.003345117 -0.070114516 0.035707362
0.03862364 0.088681705 0.032933913 0.023998186 0.0059061795 0.014404811 0.008943796 0.039775245
0.011986792 0.09195577 -0.052539457 0.006613672 -0.021578074 0.08472598 0.09115056 0.024809733
-0.07537401 -0.014626898 -0.09659626 0.009055294 -0.07219146 -0.02508898 0.065848865 -0.088186346
-0.014038667 0.0018412098 0.058368914 -0.048165023 -0.00036124885 -0.04059763 -0.08660759 -0.07347214
0.09600849 0.058598943 -0.051239908 -0.06135602 0.053989477 0.023520157 0.038647912 -0.022440389
-0.085524 -0.09901037 0.014389612 -0.040794086 -0.05278028 0.07424293 -0.055650022 0.013815202
0.055104874 0.06116017 -0.08821537 0.063867174 0.03526265 -0.0025377646 0.020379007 0.014238164
-0.0017125458 -0.098375194 -0.087337434 -0.09576149 -0.017733112 0.0082393885 -0.032588974 -0.08265144
-0.018222054 0.0474116 -0.09131231 -0.096158616 -0.086876474 0.00041985512 0.0074552787 -0.0068114176
-0.027227225 0.018268136 -0.0511964 0.091125764 0.0604099 0.00030268813 0.061781082 -0.004234367
-0.018039951 -0.017610218 0.023991682 -0.06267742 -0.046370912 0.0049563497 -0.0844182 0.085308395
-0.064702705 0.08978282 0.04790529 -0.083246626 -0.09744417 -0.012200843 -0.036751192 0.07585987
-0.06487242 0.08851046 0.069763124 -0.09083494 0.009402635 -0.010332582 0.05130761 0.07649432
-0.024493812 0.080503926 -0.040715422 0.0026301257 0.020793216 -0.010118305 0.09162655 0.08756263
0.069685854 -0.07397636 -0.061505046 0.09151622 0.03858187 0.080346055 0.03921438 -0.059918035

layer4.bias f4 [80]
00000000: eaaf 1e3c 5ebd a9bd 5b63 b03d 9fef c3bd
00000010: e309 b6ba 60ca d6bb c545 5cbd 0226 7f3d
00000020: 4d35 3e3d c885 543c 0860 52bd 0df4 5a3d
00000030: 04a5 823c cd49 49bd 5348 103d dcbc aabd
00000040: 240b 983d 394a 1bbd 96f6 453d d657 59bd
00000050: ff57 e53d 2dda 3d3a 7a7b 973d 318e 253d
00000060: 8208 123d 243d ac3d 6096 803d 08a7 acbc
00000070: 6ce2 81bd 8222 7e3d 80c4 a73d 809b bebd
00000080: d097 683d 9ba2 d3bc f9c9 babd d003 72bd
00000090: 4acd a7bd 6df1 eb3d 5a0b acbb f037 7b3c
000000a0: 92e0 7a3d 9b9f ca3d bb3b adbd 4cd2 993c
000000b0: 7366 3dbd 2fa4 563b 7b29 6cbc 1b63 0f3d
000000c0: f1c2 0abd f022 1abd 8d18 2dbd 8276 89bd
000000d0: ec35 87bc e22c b5bd d319 e23c a291 b23d
000000e0: 07b4 763d 2d10 62bd d919 723d 8075 e73c
000000f0: 2090 8bbd 34a6 b73d e90a a73b 2ae9 0ebc
00000100: ddbf 9dbd b126 14bd 2629 473d 3645 963d
00000110: bba0 8a3d 8798 c23d 6f4f d23d e3a3 a0bd
00000120: fb4d 98bd 8bf8 acbd 6a4c 92bd c5fa 93bd
00000130: f2b0 2a3d 9b5e d5bd a202 a2bd a16a bc3d
0.009685496 -0.08288072 0.086127006 -0.095671885 -0.0013888445 -0.0065548867 -0.053777475 0.062292106
0.04643755 0.012971349 -0.051361114 0.0534554 0.015947826 -0.049142648 0.035225224 -0.08336803
0.07424 -0.03791258 0.048330866 -0.053062283 0.111984245 0.00072422886 0.07396598 0.040418807
0.035652645 0.08410099 0.06278682 -0.02107574 -0.06342015 0.062044628 0.08191776 -0.09307003
0.056785405 -0.025834372 -0.091205545 -0.059085667 -0.08193453 0.11520658 -0.0052503766 0.015333161
0.061249323 0.098937236 -0.08458658 0.018777035 -0.04624028 0.003275167 -0.014414187 0.035006624
-0.033877317 -0.037630975 -0.04225974 -0.06712057 -0.016505204 -0.08846451 0.027600205 0.087191835
0.06023028 -0.055191208 0.05910668 0.02825427 -0.06814599 0.089672476 0.005097736 -0.008722583
-0.07702611 -0.03616971 0.048623227 0.0733742 0.06768938 0.095017485 0.10269057 -0.07843759
-0.074367486 -0.08445843 -0.07143481 -0.07225565 0.041672654 -0.10418435 -0.079106584 0.09200025

layer5.weight f4 [60, 80]
00000000: 5300 563d 90b7 df3d 5e9f aebd e351 2d3d
00000010: ac3c 24bd fcb9 183d b199 b33d 5ce0 b23d
00000020: 65d3 873d 30c0 893c 5a96 e73c a43e a93d
00000030: 8a0f b23d 4beb fd3d caa8 a1bd 7cc9 e83c
00000040: b924 dc3d aa47 343d 0ee9 333d 12ae 983d
00000050: 8d5e a73d 708e 45bd 7469 5b3d 843a 7e3d
00000060: d005 073e 566d 913d b2fa 0cbd 4f17 4cbd
00000070: de2e ae3d 20b1 86bd 7151 f73d ca86 ae3d
00000080: bef7 cebd c519 b93d 7647 a4bd d6f7 c9bd
00000090: 00a8 18ba be50 863c 7ee0 fe3d c2a2 9b3d
000000a0: b208 be3d b39d 4bbd 2ce0 013d 605a 453b
000000b0: c8f5 ddbc e577 33bd 3138 663d a74b bbbd
000000c0: 8574 863d 8472 9f3d da4f 5e3d e27a 2f3d
000000d0: a9e0 df3d 49df 673d de68 093e 28ab 023e
000000e0: db7e 393c 1fc0 8dbd 4be6 a7bd 40c3 9bbd
000000f0: 7061 1abc 9e4d aa3d 4e41 d5bd a2eb 28bc
00000100: b79f babd da85 fdbc a282 883d 64f2 86bc
00000110: 3e9a 21b9 0bf7 75bd b974 be3d be0e 1cbd
00000120: 546b 99bc e4d8 c13d 4ea9 943d 8f70 a83d
00000130: 3c64 8fbc 08d7 fabc 2038 88bd 9882 94bd
00000140: 13cf 99bd 744a 2f3d c031 bf3d 1059 ec3d
00000150: b56b 9c3d f02c 623c 191a 7b3c 486f 973d
00000160: 03fa 1abd 5fb4 bdbd 4af2 e23d 6f00 54bd
00000170: a12c da3d c4dd ce3d 6d1f 13bd b111 233c
00000180: 6857 d53d 9b75 b2bd b668 843c 02ee 02bd
00000190: 58f7 05bd f525 ad3d 30dc 3f3d 7c79 2abd
000001a0: 798a 373d 5899 08bd 08f1 f33c c425 b3bd
000001b0: ee33 8abd 8f31 67bd f6a4 eb3d 1eb6 0dbd
000001c0: f7fe a1bd 9714 cd3d d7c5 c83c aed8 04bd
000001d0: e88b 9f3c 2019 d7bc 0765 4cbd 90e3 70bc
000001e0: a88b d9bd a307 66bd 409f 503d 88a6 5ebd
000001f0: 887e 1b3c 7944 72bd 1601 1c3d 15b8 87bd
00000200: ef49 ee3d 7094 d63d 7086 bc3c 5ae7 74bb
00000210: 1ced 31bd 03d4 963d 5fd0 363d 1f24 bd3d
00000220: a91b 02bc d6ac c6bc 86e3 69bd 356f 27bc
00000230: 584e c03d 5c92 74bd 0cfa 5c3d 1ded 223d
00000240: cd95 993c f1e5 023d bc1b 7c3c 6896 6fbd
00000250: 1815 c23c 017a e0bc e74e d63d 9924 443c
00000260: 05bd 07bd 8b06 a9bd 405a 773d c768 d03c
00000270: f4c0 4bbd d01a 8fbb a414 693d 5772 1ebd
00000280: 7e08 8fbd f4b5 023d 3dad 433d 5b86 62bd
00000290: da47 5fbd 706b c33c d465 6fbd 3897 323d
000002a0: 1161 363c cf7c 66bd 3a00 173d 62b7 83bd
000002b0: f86d 6ebd 3740 a53d acbc ad3d bbe0 bf3d
000002c0: 5b5d f0bd f84b 92bd 7c71 19bd 3a89 443d
000002d0: f4a7 6c3d 1f74 8dbd 619c b93d 4031 05bd
000002e0: 1413 b33d 9bac 84bd 90c5 49bc d8f1 583d
000002f0: d96e 9f3d f877 543d 852b b03c 542d 743d
00000300: 2cc7 4e3d 3cb1 afbd 7423 e0bc 4849 a5bd
00000310: 4093 b43c 4dfb e6bc b086 983c eb34 79bd
00000320: 20f5 6abb 12ec 81bd d166 95bd 000e 92bd
00000330: 30dd febc 4f69 35bb fc79 8b3c dc98 aabd
00000340: d513 84bd a2d7 b23d b68e 873d 9a75 823d
00000350: de7f 533d f4a8 1d3d 7e72 b53b 9bce 74bd
00000360: 1873 583c a1e7 553d a69b cdbd 7e1b db3c
00000370: 4c8d 7b3d bf6a 6f3d bf8e 2abd edf2 c33d
00000380: fab3 0abd 1294 cb3d a3d9 07bd bed7 2e3d
00000390: 8d6b 403d 7a97 dabc 71ce e2bd 54f5 90bd
000003a0: 51fb 893d 90f5 6c3c 40cc 6f3d 8025 c3bd
000003b0: e885 d5bc d118 da3c 4e4e a43d 5186 d0bd
000003c0: 7c72 b5bd 7cc2 073d 6227 8abd c03a c8bd
000003d0: 18e4 b63d e46e 563d 8fa9 8abd f851 eb3c
000003e0: 581b 903c 6bed 67bd f0f3 713c b07e 613c
000003f0: 5c39 2c3d 64e3 eabc d4e1 debd fe65 10bd
0.052246403 0.10923684 -0.08526491 0.04231442 -0.040096924 0.037286744 0.08769549 0.087341994
0.06632117 0.016815275 0.028269935 0.08263901 0.0869437 0.12398394 -0.07893522 0.028416388
0.10749192 0.044013657 0.04392343 0.07455076 0.08172331 -0.048231542 0.053567365 0.062067524
0.13185811 0.07100932 -0.03441877 -0.049826916 0.08505033 -0.06576753 0.120760806 0.08521803
-0.10105847 0.09038118 -0.080214426 -0.09861724 -0.0005823374 0.016395923 0.12445162 0.07599403
0.09279002 -0.04971094 0.031707928 0.0030113682 -0.027094737 -0.043815512 0.056205932 -0.09145289
0.06565193 0.07785514 0.05427537 0.0428418 0.109315224 0.056609426 0.1341891 0.12760603
0.011321749 -0.0692141 -0.08198222 -0.076056 -0.009422645 0.083155856 -0.104128465 -0.0103100855
-0.091124944 -0.030947614 0.06665541 -0.016473003 -0.00015411616 -0.06005005 0.09299607 -0.038099997
-0.018727936 0.09465197 0.07258855 0.08224594 -0.01750385 -0.030620113 -0.0665133 -0.07251471
-0.075101994 0.042795613 0.09335661 0.11540425 0.07637731 0.013804659 0.015326046 0.07394272
-0.037836086 -0.09262919 0.11081369 -0.051758226 0.106530435 0.10100892 -0.03591864 0.009952948
0.10417062 -0.08713838 0.016163211 -0.031965263 -0.03270659 0.08454505 0.046840847 -0.041619763
0.044809792 -0.033349365 0.029778019 -0.087474376 -0.06748186 -0.056443747 0.11506073 -0.03459751
-0.07909959 0.10013693 0.0245084 -0.032433204 0.019475892 -0.026257098 -0.049901035 -0.014702693
-0.106223404 -0.056159627 0.050933123 -0.054358035 0.009490617 -0.059147332 0.038086973 -0.06626908
0.116351955 0.10477531 0.023013324 -0.0037369342 -0.043439016 0.07364657 0.044632312 0.09235405
-0.007941165 -0.024252336 -0.05710175 -0.010219385 0.09389943 -0.05970989 0.0539494 0.03977691
0.018748188 0.03195757 0.015387472 -0.058493048 0.023691699 -0.027401926 0.10464268 0.011971616
-0.033139247 -0.08253201 0.060388803 0.025440587 -0.04974456 -0.00436721 0.05690445 -0.03868326
-0.06984042 0.031911805 0.047772635 -0.055303913 -0.054511882 0.023854941 -0.05844672 0.043601245
0.011131541 -0.05627137 0.03686545 -0.06431462 -0.058210343 0.08068889 0.08483252 0.09369036
-0.11736556 -0.07143396 -0.037461743 0.047982432 0.05777736 -0.06906914 0.0906303 -0.03251767
0.08743873 -0.064782344 -0.012315169 0.052965015 0.077848144 0.051872224 0.021505127 0.05961354
0.050482914 -0.08578727 -0.027360655 -0.08070618 0.02204287 -0.028196001 0.018618912 -0.060841482
-0.0035851672 -0.06343855 -0.07295001 -0.071315765 -0.03111133 -0.0027681177 0.01702594 -0.08329937
-0.06449095 0.08732535 0.06619017 0.06370087 0.051635616 0.038491204 0.00553733 -0.059767347
0.013211034 0.05222285 -0.10039453 0.026746508 0.061414048 0.05845141 -0.04164004 0.09567819
-0.033863045 0.099403515 -0.03316654 0.042686217 0.04697757 -0.026683558 -0.11074532 -0.070780426
0.06737388 0.014462844 0.058544397 -0.09528637 -0.026064828 0.026623162 0.08022748 -0.10181869
-0.08859727 0.03314446 -0.06745793 -0.09776831 0.08930224 0.052351847 -0.06770622 0.02872561
0.017591164 -0.056622904 0.014767632 0.013763115 0.04204689 -0.028672881 -0.10882917 -0.035253517

layer5.bias f4 [60]
00000000: f089 c7bd 598f 34bc 610d 873d 1ec0 b7bd
00000010: f4d9 e63d 4f2c d03d d46d edbc 7b19 b33d
00000020: 2ee9 883c d44b ebbd 017e 46bd a7b0 20bb
00000030: 79f1 a0bd 09b5 bb3d 0cca bc3c 8d79 a53d
00000040: 077f ae3d 8204 2d3d d99c 8fbc 62c0 c1bc
00000050: d06e b4bd 98e3 1bbd 5c34 7a3d f2b9 17bc
00000060: 612a 4a3a 4bce 4fbd 4414 d5bc 3bb0 a8bd
00000070: c1f3 c7bd 6ed2 9ebd 2a25 033d f76d 82bd
00000080: b4bf 6abd 5c44 f33d dbf7 55bd b96e b63d
00000090: f3b8 b93d dbcf d73d 62d0 b0bd 7fa3 4bbb
000000a0: 4d31 6bbd 2856 54bc 8d7d ff3d cbdc 513d
000000b0: 4ac6 eb3b 3de7 7bbd 23a8 ac3d 5b66 823c
000000c0: d464 72bc 1d97 7abd 456b f83d ef9e 14bc
000000d0: e422 ec3d 64a3 b13d 6180 66bd db63 f83d
000000e0: cacc 273d a2ed cd3d 7918 eb3d 3d5d b9ba
-0.09743106 -0.011020505 0.06594349 -0.0897219 0.1127204 0.10164701 -0.028983034 0.087450944
0.016712751 -0.114890724 -0.04846001 -0.0024519356 -0.07858557 0.09165389 0.023045562 0.080798246
0.08520322 0.042240627 -0.017530845 -0.023651306 -0.08810198 -0.038058847 0.06108509 -0.009260641
0.00077120034 -0.050733846 -0.02601064 -0.08236738 -0.09763289 -0.0775498 0.032017864 -0.063686304
-0.05731173 0.11878273 -0.052238327 0.089078374 0.090684794 0.10537692 -0.08633496 -0.0031072793
-0.057420064 -0.012959994 0.12475119 0.051235955 0.0071952688 -0.061499823 0.08430507 0.015917948
-0.014794547 -0.06117927 0.12129835 -0.009071096 0.11530092 0.086737424 -0.056274775 0.12128421
0.040966786 0.100550905 0.11479277 -0.0014142167

layer6.weight f4 [40, 60]
00000000: 6fa8 d23d 6f1f 413c c7f9 d1bc 7832 91bc
00000010: 3235 933d 209d 9a3d 3e62 ea3d e48b 68bd
00000020: 674b 893c 04c8 46bc 843b 213c e963 aebd
00000030: da78 a83c c266 593d 1e16 113e 5445 8dbc
00000040: ad68 e1bd fc4f 0e3e 16e4 293d e41a 88bd
00000050: c449 b0bd 3c6a 313d 4240 47bd 409e cf3d
00000060: cc2a 903d e25c c13d 24e6 dabd 015b cbbd
00000070: e472 4a3d 101c b1bd b3e9 553c 0260 ddbd
00000080: 9567 a1bb 06ee f6bc a286 0fbc 6196 f03d
00000090: 464a b93d 8967 67bc 06dd f83d e519 f43d
000000a0: c9e6 093e 7418 a13d bf97 ec3d d5c9 773d
000000b0: 8cb7 bf3c 6a2b d93d 830d 7cbc 2b83 ff3d
000000c0: 4a60 15bd 4cbd 8b3d b7fd d83d 5d20 03be
000000d0: 72e4 d43c 9127 e33d 20cf 8d3d 3a6f e5bc
000000e0: ad5c 5b3d 61d6 d23c 1e9a df3d ca4a a5bd
000000f0: 8f87 afbc 6195 da3d fa79 fd3d 0ea0 54bd
00000100: 88bf 8cbc 309c afbd be8a a3bd 9004 dcbd
00000110: 474c dabd c8b1 f7bd 1499 e6bc 0899 e33c
00000120: 87fd 3b3b c994 fbbd ba30 c43d 1866 063d
00000130: a4eb 673d c3bb fa3d 78ae 653d 84b5 5bbd
00000140: 76b7 d03d a06f b63d 2523 d7bd 342a c5bc
00000150: a283 ba3d 9535 b93d a834 b63d 64ff be3d
00000160: f02a ad3c ba2d fc3d adcb 973c 4021 19bb
00000170: 306a e23c 80bf b1bd 427f 073d e878 9a3c
00000180: 6e06 e4bd 5bd3 803d 3ad1 983d 33de 023e
00000190: 454f 18bd aca9 e6bd 45df bf3d 1d5b 0ebd
000001a0: 02c6 fb3d 853b 8d3d ad0d ddbd 1078 d13d
000001b0: 4086 de3c 58cd b43c 8f31 5e3d 76c5 e9bd
000001c0: b008 00be 6dd4 e7bd f457 fb3d ddb5 3cbd
000001d0: 75c3 56bd c023 9abd 64a0 a93d fcad 03be
000001e0: 8823 9a3c ab6b 123d 9583 89bd 167b e0bd
000001f0: e02e fcbd 126b 4e3d c8af f9bd 5fee a63d
00000200: 3863 e8bd 3897 f43c 6cc6 0b3d 6c93 d33b
00000210: 69d3 033e 738c c9bc 9897 813c 56c3 01be
00000220: 5488 0fbc ab8b b03d cfae 71bc 9a40 853d
00000230: 50e2 2ebd 64dd dcbc 4b1f 5f3c 53be d33d
00000240: e431 6d3d 1732 92bc 9098 1d3c 1261 853d
00000250: c450 c43d 3656 01be 2d5a cbbd 0269 dc3d
00000260: b0fd ce3d a3cb debd bd02 89bd 3b1c 3ebd
00000270: d80b 53bd 28a3 a03a 004b 7eba 4a65 da3d
00000280: 9450 273d 981d 5bbd 1e45 b13d bb7c c1bc
00000290: 4855 91bd ce39 13bd aecb d83c 8202 b3bd
000002a0: b8b7 87bc 18fa c73c cd36 01be 6e4d 753d
000002b0: 8247 10bd 32f2 59bd 7939 033e e4d5 80bd
000002c0: bea5 1c3d 1d4a 10bd e566 853c 4930 fc3d
000002d0: d852 1ebc fc50 cabc 98f3 9e3c 8064 18bc
000002e0: a6b4 8f3d 8eb8 d9bd 9314 d1bd 408e 9c3b
000002f0: d001 debb 51a5 003e 0254 1cbd 55a4 c9bd
00000300: 7060 8dbd 18ee 21bc 8e58 5ebd f848 823d
00000310: 388c 13bd 00aa f33a aa40 5cbd 8e2c 8b3d
00000320: f45b 763d edc8 babd ca5e 993d a033 c53c
00000330: 40bf c8bb 485c a83c 81fd b9bd 0088 09bb
00000340: dabd 883d 3070 583d 90db 76bd 404c d03c
00000350: c429 c23d 2d63 013e ccbb 61bd 00b4 7e39
00000360: cac1 f7bd 520f f03d 9280 aa3d b0a8 8a3c
00000370: 8030 373d f0ee be3d d0f7 0fbc 3370 84bd
00000380: 6efd cb3d c86d 323d 4399 fdbd 0a27 c7bd
00000390: 9d6d c8bd 2ada ae3d b822 c33d 88c6 dc3c
000003a0: e2d6 e0bd 018d bfbd 1808 e53c b0c4 6cbd
000003b0: a9e4 afbd 98f2 a03d 981e 72bd e4dc 7a3d
000003c0: f6ed 9abd 97ba 2bbb a249 863c f825 e43c
000003d0: 9aa8 2cbd 49ee 003e ee03 8bbd 4367 fabd
000003e0: c000 bbbd 38e3 9cbd f0c2 ab3c ce0c 51bb
000003f0: 9c15 073d 85e0 a9bd 7c20 263d 5d18 6e3d
0.102860324 0.0117872795 -0.025631798 -0.01772426 0.071878806 0.075495005 0.114445195 -0.056774035
0.016759587 -0.012132648 0.00984085 -0.0851515 0.020565439 0.053076513 0.14168593 -0.017244972
-0.110062934 0.13897699 0.041477285 -0.06645754 -0.0860782 0.043314204 -0.048645265 0.10137606
0.07039413 0.09441544 -0.10688427 -0.09929467 0.049425974 -0.086479306 0.0130562065 -0.10809328
-0.004925678 -0.030142795 -0.008760126 0.117474325 0.0904737 -0.014123806 0.12151532 0.119190015
0.13466944 0.07865992 0.11552381 0.060495216 0.023402952 0.10603984 -0.015384081 0.1247619
-0.03646878 0.06823215 0.10595267 -0.12805314 0.025987837 0.11091531 0.069242716 -0.028007139
0.05355518 0.02573699 0.109180674 -0.080709055 -0.021426944 0.10673023 0.12376781 -0.051910453
-0.017181173 -0.08574712 -0.07985447 -0.10743058 -0.1065908 -0.12094456 -0.028149165 0.027782932
0.002868505 -0.12284238 0.09579606 0.032812208 0.05662121 0.12242844 0.05607459 -0.053639904
0.101912424 0.089080095 -0.1050475 -0.024067976 0.09107138 0.09043423 0.08896762 0.09326056
0.021138638 0.12313409 0.018529737 -0.0023365766 0.027638525 -0.08679104 0.033080347 0.01885648
-0.11134039 0.06290313 0.07461782 0.12780075 -0.037184972 -0.11262831 0.09368757 -0.03475486
0.12293626 0.06896118 -0.10793624 0.10227978 0.027163625 0.022070572 0.05424648 -0.11414616
-0.12503314 -0.11319814 0.12272635 -0.046071876 -0.052432496 -0.0752635 0.08282545 -0.12859339
0.01881577 0.03574721 -0.067145504 -0.10960977 -0.12313628 0.05039508 -0.12191731 0.081509344
-0.113470495 0.029857263 0.034124777 0.006456783 0.12873615 -0.024603104 0.015819356 -0.12672171
-0.0087605305 0.086203896 -0.01475115 0.065064624 -0.042696297 -0.026961036 0.013618301 0.10339036
0.057908908 -0.01784615 0.009618893 0.06512655 0.09585717 -0.12630543 -0.09929309 0.10762216
0.10106981 -0.10878684 -0.066899754 -0.04641364 -0.051524967 0.0012255656 -0.0009700507 0.106638506
0.04084833 -0.05349502 0.08655761 -0.023619046 -0.07096344 -0.0359438 0.02646431 -0.08740713
-0.016567096 0.024411246 -0.12618561 0.059888296 -0.035224445 -0.05320949 0.12814893 -0.062907964
0.038244 -0.03522693 0.016284415 0.12313897 -0.009663306 -0.02469682 0.019403264 -0.009301305
0.07016878 -0.10630904 -0.10209002 0.0047776997 -0.0067751184 0.12563063 -0.038166054 -0.09845797
-0.069031596 -0.009883426 -0.05428367 0.06361574 -0.036022395 0.0018590093 -0.053772606 0.067956075
0.060146287 -0.09120355 0.07488783 0.024072468 -0.0061263144 0.020551816 -0.09081555 -0.0020985603
0.06676836 0.052841365 -0.060267985 0.025426984 0.094806224 0.12635489 -0.055110738 0.00024290383
-0.12097509 0.11721672 0.08325304 0.01692614 0.044723988 0.093229175 -0.00878711 -0.06466713
0.09960447 0.043561727 -0.12382748 -0.09724243 -0.09786532 0.08537705 0.095281065 0.026950136
-0.10978486 -0.09353066 0.027957961 -0.057804763 -0.08588535 0.07858771 -0.059111208 0.061245814
-0.07564919 -0.0026203746 0.016392533 0.027850136 -0.04215298 0.12590899 -0.06787859 -0.12226727
-0.091310024 -0.07660526 0.020966977 -0.0031898501 0.032979593 -0.08294777 0.040558323 0.058128703
