saved_models/model_WFC.pt (torch_old, 190423 bytes, 15 tensors)

layer1.weight f4 [100, 5]
00000000: 246a 0b3e a11d b4be 2e1d a3be 60b7 28be
00000010: d8ed c13d 7272 0d3d 066b b83e f383 a0be
00000020: 3d13 a43e 1222 723d 5404 2f3e f8d9 b63d
00000030: 0199 a8be f8c5 68bd b9e4 a8be 0c05 163e
00000040: 787a fa3d 3b81 613e a0ee 85be 8920 8a3d
00000050: 5818 673e cb19 a1be 789f e13d b6ab cfbe
00000060: 0083 923b 9a93 9dbe 0026 c63e 5dbb e83e
00000070: 0b4b 2dbe 452e a33d b06d eebd 37ad 58be
00000080: 2893 8b3e 9c6b 0b3e 7204 e3be 751e b4bd
00000090: 045a 49be 62f1 863e cb1b 9c3e 60e1 d43e
000000a0: bff9 783d ade9 ad3d a18d 823e f8a1 d43e
000000b0: 0f7d 3cbe ae10 8b3e 95ba 9a3e 5f43 c5be
000000c0: afc5 3abe 805a b03e 7ff1 cb3d ba59 923e
000000d0: d74e 813e da0f 133e b1da ca3d d182 aa3e
000000e0: 3b20 34be 8272 8bbd 736e 183e 5ac2 c4be
000000f0: f276 56be 3418 a33c 3302 c83e dba8 1f3e
00000100: 505a 0e3e d49b a2bd 1682 d73d 27a2 a2be
00000110: f4e4 df3e bc36 4fbe a68d ef3d 9c58 55be
00000120: f88d 4a3e 5c4a 523e 897b f8bc 3d18 b3be
00000130: 7076 b9be 40c6 6abd 00a5 cbba f06b fd3d
00000140: 340e 163e baa0 71be 34c1 5e3e 9696 c7be
00000150: a864 fc3d 882c 06be 6a78 233e 28a1 e43c
00000160: 02b3 b33d 27fc e33e 4840 2c3d 501d 4d3d
00000170: 9823 7f3e d883 55be 9e6c acbe 7702 483e
00000180: 5d96 6b3e 81bd bb3e 7eef 403d dac7 18be
00000190: 4e2d 673d e589 ea3e d75b 16be be79 1e3e
000001a0: 8f3e 8c3d a66c 943e 32f5 27be 9e5a a8be
000001b0: d139 a5be 4185 73be 2878 b63d bba7 d1be
000001c0: c0b7 623e 245c fbbd 24a6 b5be 3a50 44be
000001d0: b49d c6be 40c2 05be c06d 9c3c 42b1 9e3e
000001e0: c056 bbbe 73a7 b9be 8880 d63d 7067 91be
000001f0: a16b c2be e031 173c bde1 6abe 1c6f 41be
00000200: 0865 eebd 0d9e a2be f25b e93e 0d2c d83e
00000210: 6c2d 74be 4a8f 973e 9f1a 623e e2e9 653e
00000220: 2ac4 a3bd 1a4b 89be a128 d3bd c117 893e
00000230: cc68 eb3d 44e8 c03e fea2 d0be a3c1 6dbe
00000240: 827b cabd 34aa debd 47fe b8be a0fb 01be
00000250: 00a7 99bb 6db0 82be 88eb aabe f0b0 25bd
00000260: 28ef dc3d 7039 33bd 3d21 b2be 0c21 e53e
00000270: fc3a b4be baa9 f03d e1fe 37be 247d babe
00000280: f61b bd3e 50bb 41bd 9ba6 513e 88ff 2ebe
00000290: 5547 363e 3019 5bbd bc86 bbbe 50f5 293e
000002a0: 8979 68be 9c92 5e3e 30fc 37bc 3501 1dbe
000002b0: f5d0 7ebe 34f5 e63e c6c6 5a3d dce3 0e3e
000002c0: 28fc d9be ea57 943e 49a3 c4be 7c69 643e
000002d0: 3cd7 dfbd c41a 7ebe fc61 b73e bd9d 9fbe
000002e0: be97 98be 44c2 163e 80bf 29bc 960e 05be
000002f0: 42a0 c7be 055d 65be 5b25 2f3e fef7 54be
00000300: 41a0 72be 090a 153e 9b46 9b3e bd30 9a3e
00000310: d4df 66be 6c19 7b3e 5513 bfbd 7b32 bbbd
00000320: 2818 3a3d d8c0 ff3d 8235 73be a59d 55be
00000330: a7cf 363e 0474 7bbe fa20 2bbd b437 a13e
00000340: 958d 8d3e b704 4f3e ad97 bd3e 455f b33e
00000350: fbda 77be 1009 cf3e b0b9 9ebe 421b f93d
00000360: 3f29 6fbe 22f3 44be 2a0d d2be 4258 df3e
00000370: 93f8 a93e d5eb c6be 4e8a d63e 53ae 6b3e
00000380: b7f1 2c3e e810 bb3d 3dbd cf3e b5c5 6bbe
00000390: b3b0 643e 6163 d03d 98e9 80be bc23 e43e
000003a0: cc3d d13e d869 95be 1cf4 abbe 6649 41bd
000003b0: 49dc d23e e7cf 563e 12a2 333e f3b8 213d
000003c0: 60f4 da3e 12cd 9fbe 3e25 e3be 1a6c 21be
000003d0: 3855 3b3d 6c95 c53e 72e3 293e 21aa 553d
000003e0: 052f b2be dcd5 c3bd dd57 a53c ca0f ef3d
000003f0: 87a7 dc3d e699 df3e c562 0d3d 183b 70be
0.13614708 -0.35178855 -0.318582 -0.16476202 0.09469193 0.03453297 0.36019152 -0.3135067
0.32045928 0.059114523 0.17091495 0.08928293 -0.32929233 -0.056829423 -0.32987002 0.14650363
0.1223039 0.22021954 -0.2615862 0.06744487 0.2256788 -0.3146499 0.110167444 -0.40560693
0.004471183 -0.30776674 0.38700867 0.45455447 -0.16923158 0.079678096 -0.11642015 -0.21159826
0.2726071 0.13615268 -0.4433933 -0.08794872 -0.19663244 0.26356035 0.30489954 0.41578197
0.06078505 0.08491836 0.2549868 0.41529822 -0.18407081 0.27161163 0.30220476 -0.38527963
-0.18239473 0.34444046 0.09958171 0.2858408 0.25255463 0.14361516 0.09904993 0.3330293
-0.1759042 -0.0680895 0.14885883 -0.38429528 -0.20943812 0.019909002 0.39064178 0.15591757
0.13901639 -0.07939878 0.10522859 -0.31764337 0.43729365 -0.20235723 0.11696939 -0.20834583
0.1978072 0.20536178 -0.030332344 -0.3497943 -0.36223173 -0.057317972 -0.0015536845 0.12374103
0.14653856 -0.23596469 0.21753389 -0.38982075 0.12323886 -0.13102925 0.15963903 0.027908877
0.087743774 0.44528314 0.04205349 0.050076783 0.24915922 -0.20851076 -0.33676618 0.1953219
0.23006578 0.36668018 0.047103398 -0.14919987 0.05643969 0.4580833 -0.14683472 0.15476128
0.068478696 0.28989142 -0.16402128 -0.32881635 -0.32270673 -0.23781301 0.08909637 -0.4094828
0.22140408 -0.12273434 -0.35478318 -0.19171229 -0.38792193 -0.13062382 0.019095302 0.30994612
-0.36589622 -0.36260566 0.10473734 -0.2839923 -0.3797274 0.0092282 -0.22937675 -0.18890041
-0.11640364 -0.31761208 0.4557796 0.42221108 -0.23845452 0.29601508 0.22080468 0.224525
-0.079964 -0.2681511 -0.10310484 0.26775935 0.11494598 0.37677205 -0.40749353 -0.23218398
-0.098868385 -0.108723074 -0.36131498 -0.12693644 -0.0046890974 -0.25525227 -0.3338282 -0.040451944
0.10787803 -0.04375595 -0.34790984 0.44751775 -0.35201252 0.11751123 -0.17968322 -0.364236
0.36935395 -0.047297776 0.20473711 -0.17089665 0.17800649 -0.053490818 -0.36626232 0.16597486
-0.22702612 0.21735615 -0.01122956 -0.15332492 -0.24884398 0.4510895 0.05341222 0.13954109
-0.42575192 0.28973323 -0.38405827 0.22305864 -0.109297246 -0.24814898 0.35816944 -0.31175032
-0.2980327 0.14722544 -0.010360599 -0.12993845 -0.38989455 -0.22398765 0.17104094 -0.20797727
-0.23693945 0.1455461 0.30327305 0.3011531 -0.22546321 0.24521416 -0.09329859 -0.09140488
0.045433193 0.12487954 -0.2375088 -0.20860918 0.1785265 -0.24555975 -0.041779496 0.3148781
0.2764708 0.20216642 0.37029782 0.35033622 -0.24204628 0.40436602 -0.31001043 0.12163402
-0.23355578 -0.19233373 -0.41025668 0.43622023 0.3319746 -0.388518 0.41902393 0.23015718
0.16889082 0.09134084 0.40574065 -0.23024638 0.2233303 0.10175205 -0.25178218 0.44558513
0.4086746 -0.29182315 -0.33584678 -0.04718914 0.4118369 0.20977746 0.17542294 0.039483022
0.42764568 -0.31211144 -0.4436435 -0.15763894 0.045735568 0.38590562 0.1659067 0.0521642
-0.34801498 -0.09562275 0.020183498 0.116729334 0.10774141 0.43672103 0.034518022 -0.23460042

layer1.bias f4 [100]
00000000: 803e 9b3d 4b69 aebe e2dd 97be 1497 a0be
00000010: 1807 583d 10c9 d73e 74d5 7a3e 08d0 cc3e
00000020: 26df c53e 139f 373c 9750 073e c799 ba3d
00000030: 5553 0d3e be08 ae3e ec9f c9be 085b a23d
00000040: 583b d8bd fe3f 903e f7b5 c9be 5cb0 78bd
00000050: 6d24 de3e 001e e8ba 4a84 e33e d02a efbd
00000060: 74ae 84be aa32 cd3e 55a7 b53e 39c5 afbe
00000070: c079 723e f0d2 ef3c 4e14 56be 5510 b73e
00000080: 01d2 d43e 5f33 6cbe e6f6 e33e 2d87 cdbe
00000090: b4cf 0e3e e096 f63c 8c26 3bbd 72b3 7a3e
000000a0: 5e40 f23d 520f 34be 0091 d9bd 1c93 063e
000000b0: 44db 4cbd 073e 943a 7e5b e2be 5949 e8bd
000000c0: 4672 823e d392 53be e23c 2d3e f9c3 aa3d
000000d0: dc1b 5a3e 8e4c b0be 739f a93e e721 8b3e
000000e0: 7962 3fbe 2ca5 8d3e 4a9a b33e 78fa ad3d
000000f0: 1567 a2be 28b1 85be 892b adbe 6cda bc3e
00000100: b468 2b3e 1e1d 0b3e 29b7 98be c637 9cbe
00000110: c7ad b33c 9fbd b3bd b5b6 f2bd 62e3 58be
00000120: 6909 b6bd b1d2 2b3e 7456 413e 0052 da3e
00000130: 4db8 d73e 8ae8 133e 7be9 bfbe 53fd e23e
00000140: 9029 9c3e 6df6 adbe d9c5 a73e 209f f2bd
00000150: 05a3 9f3e 6001 06be d6e2 38be 2bba bfbe
00000160: 15b6 63be 7887 a8be b8f4 da3d 1aa8 963e
00000170: 0f6e 2b3e 983a 273d 4e3d 443e 56aa a83e
00000180: 628e e2bc fa10 87be b2f9 be3d fa45 e53e
0.0758028 -0.34064707 -0.2966147 -0.31365263 0.05274114 0.42145586 0.24495488 0.40002465
0.3864681 0.01120736 0.13214336 0.09111362 0.1380132 0.33991045 -0.39379823 0.07927519
-0.10558194 0.28173822 -0.3939664 -0.060715064 0.43387166 -0.0017709136 0.44436866 -0.11678088
-0.25914347 0.40077716 0.35479227 -0.34330156 0.23679256 0.029275388 -0.20906183 0.35754648
0.4156647 -0.23066472 0.44524306 -0.40142193 0.1394642 0.03010124 -0.045691058 0.24482515
0.11828683 -0.17583969 -0.1062336 0.13142055 -0.050013795 0.001130999 -0.44210428 -0.11342115
0.2547781 -0.20661478 0.16917756 0.0833816 0.2129969 -0.34433407 0.33129463 0.27174303
-0.18689908 0.2766508 0.3507865 0.08495039 -0.3171927 -0.26111722 -0.33822277 0.36885393
0.1673916 0.13585326 -0.2982724 -0.30511302 0.02193345 -0.08776402 -0.11851255 -0.2118049
-0.088885136 0.16779591 0.18880635 0.42640686 0.42132798 0.14444175 -0.3748282 0.44333896
0.3050046 -0.3397707 0.32768133 -0.11846757 0.31179062 -0.13086462 -0.18055281 -0.37446722
-0.22237428 -0.32915854 0.10691208 0.29425126 0.16741203 0.040827364 0.19164011 0.32942456
-0.027655784 -0.2638014 0.09324969 0.4477995

layer2.weight f4 [150, 100]
00000000: d8ce a5bc e8b3 af3c 60ce 4ebb 2c67 ab3c
00000010: 401b ba3a e5da 843d 3579 8a3d 11a2 ac3d
00000020: 98bc 0a3c 8025 713c a937 c93d 88f0 a1bc
00000030: fe5e 2c3d 85ba 873d 15f6 b3bd c24e 8cbd
00000040: 8994 af3d 34ca b7bc cbcd 923d 4157 803d
00000050: 20f8 b2bd 749a ecbc 002b f43b f944 b03d
00000060: ca11 81bd c21e ccbd b3ae 95bd e393 bf3d
00000070: 5065 a5bb 8468 d43c b357 63bd 69e3 883d
00000080: cce7 e03c 72b0 493d 28db b73c f2f9 023d
00000090: 3d8f c03d ec98 18bd e660 423d 4084 18bc
000000a0: fb95 94bd 0a90 c8bd a6c2 8cbd 3080 43bd
000000b0: 7251 793d 5513 81bd 6c01 973c f01a 2cbc
000000c0: 03ad 5dbd 03cd be3d 803b f73a 48d9 9dbc
000000d0: 4ad9 5fbd e0c2 f6bb c5fe c0bd 401e 59bc
000000e0: 7ab0 39bd 603c 013b d43b aebc 0e11 423d
000000f0: 5d7c 58bd f0bb 26bd 5d89 89bd 4b77 b03d
00000100: 18bb 99bc c594 b83d 4837 a7bc 74e6 82bc
00000110: 7ebf 8fbd 359e 8ebd 4093 8a3c 38ab a0bc
00000120: 6cca ef3c e35c 903d be8d 543d d641 a2bd
00000130: 6002 36bb 151b bf3d 8d0e 24bd 1ea4 7b3d
00000140: 4c45 0fbd 20fa 923b c731 4abd 4c5d 953c
00000150: ef8d 803d 777e bf3d 561d 2b3d 1300 813d
00000160: c04c b43a 2aaf 103d 30e9 26bd 8e89 383d
00000170: 601c aebd f31e a8bd 120c 363d 9e51 733d
00000180: e8dc 1b3c 0a4f 6abd 0212 663d db1b b0bd
00000190: ec93 a93c 4ffe 8d3b 439a c1bd 179e af3c
000001a0: 1a76 5fbd f5c3 31bd d8f9 f6bc fbef bc3d
000001b0: e799 6bbd ca72 c53d e0bb 173d 86cd 10bd
000001c0: 8ffe 143d 6baf 583d 5ad2 813d a0ab 46bb
000001d0: 5ade 08bd f0a0 783d acce 8c3c eb42 97bd
000001e0: 021f da3c a87b d5bc 8a89 96bd a010 c73c
000001f0: a533 9d3d e8f7 a6bc 802c 073d 57bd 443d
00000200: 2559 90ba a0fd abbb d0b5 91bd 0c29 b0bd
00000210: 892b 963d 21cf c83d 7d5b e9bc d727 c0bd
00000220: 5a07 21bd 20fd 8a3c 33cd 593c ca61 ae3d
00000230: f3e3 61bd 00e9 883b fc5b a73d 3c10 203d
00000240: 2390 80bd 55f6 f13d c5e3 cb3d 4e47 c73d
00000250: 37eb 26bd 15eb c93b c2d2 9bbd 6d9f ca3c
00000260: 33ce 5a3c 4778 553d eb7f 88bd 1a85 aa3d
00000270: 0ac2 9b3d 6ad8 80bd 3ba2 c7bd 59fa b83d
00000280: 4f05 69bd b990 a03c 18d6 f4bc bce4 d5ba
00000290: aaad aa3c 85e1 da3d 5834 c9bc dd41 61bd
000002a0: d338 7fbd 5291 9cbc 7128 0cbd fa72 103d
000002b0: 5895 02bd 8d02 0b3c 661a a6bd f01b 3fbd
000002c0: 56c0 f3bb 8022 73ba bbc6 98bd 454e a3bd
000002d0: 3b3a bbbd 223f b43d acd8 133d ac3f 163c
000002e0: 6c66 c93d 1a67 623d a0ce fc3b b8d7 293d
000002f0: 50b9 49bc 13c7 953d b047 a2bb 4642 2bbd
00000300: 168a a2bc 5f90 ce3d f1a9 b63d 5ff1 c23d
00000310: a730 ab3d e560 a6bd d53f 01bd 500a 09bd
00000320: 3cae d53c 54df 81bd f2d2 2c3d 4d17 8a3d
00000330: 5330 7cbd 1bef afbd 07c0 36bd 6416 fc3c
00000340: def6 8cbd 7572 b6bd 50d7 4dbd 309d da3b
00000350: 24b1 dc3c 17ca c33d 6af8 80bd 3dde 76bd
00000360: c9f7 923d f325 abbd 70db 22bc 17ee c03d
00000370: 75ec 9abd 3d3a 41bd abff 8cbd f170 903d
00000380: c827 c6bc a30d 90bd 000a 9539 7e05 5f3d
00000390: e008 e93b 1e13 99bd 7e02 1f3d ad4a c83d
000003a0: 339b aa3d f311 bfbd b2c8 723d ae48 9fbd
000003b0: 1d0f 20bd 0c09 0fbd c0e4 85bd a3b2 34bd
000003c0: 19fe ba3d fbdc 8cbd c722 b83d e52d c6bd
000003d0: c4ca 87bd 9cb7 84bd c510 93bd 6559 a2bd
000003e0: 69ef 873d 74fd db3c 307c 953b e6c9 a9bd
000003f0: 41b2 9e3d 307b 9e3b aebe 273d ec17 c73c
-0.020240232 0.02144809 -0.0031556115 0.02092322 0.0014198795 0.06487063 0.067614 0.08429349
0.008467816 0.014718413 0.098250695 -0.019768015 0.04208278 0.06627373 -0.08787171 -0.06850959
0.08573253 -0.022435285 0.07168158 0.06266642 -0.08738732 -0.028882243 0.007451415 0.086069055
-0.06302221 -0.09966804 -0.07308712 0.09354379 -0.005047478 0.025928743 -0.05550356 0.06684
0.02745428 0.049240537 0.022443369 0.031976648 0.094023205 -0.037255213 0.04745569 -0.009308875
-0.07255169 -0.09793098 -0.06873064 -0.04772967 0.060868688 -0.063025154 0.018433295 -0.010504469
-0.054120075 0.09316447 0.0018862337 -0.019268647 -0.054650582 -0.007530555 -0.094235934 -0.013251841
-0.045334317 0.0019719824 -0.021268763 0.047379546 -0.052852977 -0.040706575 -0.06715653 0.08616503
-0.018765971 0.090127505 -0.020412102 -0.01597903 -0.07018946 -0.06963769 0.016915917 -0.019612893
0.029271327 0.07048967 0.05189299 -0.079227135 -0.0027772412 0.09331337 -0.04005294 0.06143581
-0.034978196 0.0044853836 -0.049363878 0.018232964 0.06277072 0.09350293 0.041776024 0.06298842
0.0013755783 0.0353233 -0.04074973 0.045053057 -0.08501506 -0.08209028 0.044445105 0.059404008
0.009513117 -0.057204284 0.056169517 -0.08599063 0.020700417 0.0043332945 -0.09453251 0.021437688
-0.05455599 -0.04339977 -0.030148432 0.0922546 -0.05751982 0.09641035 0.037044406 -0.035352252
0.03637558 0.052901667 0.063389495 -0.0030314699 -0.033415176 0.060700357 0.017188393 -0.073858105
0.026626114 -0.02605994 -0.07350452 0.02429992 0.07675866 -0.020381883 0.033001423 0.04803213
-0.0011012895 -0.0052487403 -0.07114756 -0.08601579 0.073325224 0.09805132 -0.028486008 -0.09382599
-0.03931365 0.016966403 0.013293552 0.085147455 -0.05514903 0.0041781664 0.081718415 0.039077982
-0.06277492 0.11814562 0.09955553 0.09730397 -0.040751662 0.006162057 -0.07608558 0.024734223
0.013354826 0.05211666 -0.066650234 0.08326168 0.076053694 -0.06291278 -0.0974774 0.09032125
-0.05688983 0.01960026 -0.029887244 -0.0016318779 0.020834763 0.10687546 -0.024561092 -0.054994453
-0.06231005 -0.019112263 -0.034218255 0.0352659 -0.031880707 0.008484495 -0.08110504 -0.046657503
-0.0074386997 -0.0009274855 -0.0745978 -0.07973913 -0.09141966 0.08801104 0.036095306 0.009170454
0.098339885 0.055274107 0.0077150613 0.04146549 -0.012312248 0.07313361 -0.0049523935 -0.04181125
-0.019841235 0.1008613 0.089191325 0.09518694 0.08358889 -0.0812395 -0.031555016 -0.0334571
0.026084058 -0.063414246 0.04219336 0.067427255 -0.061569523 -0.085905276 -0.044616725 0.030772395
-0.06883024 -0.0890855 -0.050254166 0.0066715702 0.026939936 0.0956003 -0.06297381 -0.060270537
0.071761675 -0.083568476 -0.009940013 0.09420412 -0.07564632 -0.04717468 -0.06884702 0.07052792
-0.024188891 -0.07033851 0.00028426945 0.054448597 0.0071116537 -0.074743494 0.038820736 0.09779868
0.08330383 -0.093295954 0.05927343 -0.077775344 -0.039076913 -0.034920737 -0.06537771 -0.044115674
0.091304965 -0.06878086 0.08991008 -0.096767224 -0.06630471 -0.06480333 -0.07180933 -0.07927207
0.06637461 0.026854254 0.0045619234 -0.08290462 0.07748843 0.0048364624 0.04095333 0.024303399

layer2.bias f4 [150]
00000000: 1807 8d3c ae2e 0a3c 3353 853d 3d50 b33d
00000010: ddeb 34bd a1dc 413d c0a6 5fbc aafe 213d
00000020: 52c9 d63d 73a7 aebd 37d9 24bd 8232 7d3d
00000030: ba56 c93c 03d5 84bd 0d65 57bd c56a b8bd
00000040: bdf8 c93d c673 3cbd 69b0 34bd a189 71bd
00000050: 7eaf ce3d a8be 7fbd 3fa4 e43c b6cd 053d
00000060: c9f9 a3bd fcc7 a63d b432 943d f642 c53d
00000070: d20c c73c 765b 9abd 8c0b e2bc 8c9c 353c
00000080: 018c 393c aa3b 1a3d 351e 883d b926 5cbc
00000090: edec 9c3c 9316 06bd 9ad7 343d 7814 28bd
000000a0: 8330 91bd 101a 44bd e268 d93d 94b0 c13d
000000b0: d48f 793c 3217 f83c d662 f63c cd2d b1bd
000000c0: 6292 9dbd 1848 3f3d da1d acbc a0c0 5cbd
000000d0: 73ca eb3a eb74 ea3c 382d 953c f54e da3d
000000e0: a55c bd3d 7e4d 66bc 2878 b9bd d895 a9bc
000000f0: a413 bebd 4c0c ce3c 8ed8 d6bc 0b31 dd3d
00000100: 7ea7 b53d 8096 56ba 5651 d23c 8282 5c3d
00000110: 86aa 0bbd 0c76 85bc 283e 9bbd 0ea1 973d
00000120: e305 3cbd 3e55 513c e7ec f93c df8c 9f3d
00000130: dd0e e4bc 3dc8 563d 27a7 de3d 682f 653c
00000140: a507 87bd 2194 613d a465 edbc 4ce1 75bd
00000150: 7a63 12bd a674 3b3d 3527 84bd e8e4 7d3d
00000160: fdcb 23bd 609a 8e3c d7e9 b6bd df0a b43d
00000170: 3b99 04bd cf19 9d3d b0d0 103c fe41 793d
00000180: 5734 d83d e3af aa3d d028 993d ce4b ba3d
00000190: 5d4d 56bd ae0e efbc 2582 833d 7608 ad3d
000001a0: 3623 9d3c 3e39 b03d 72c5 1fbd 43b6 963d
000001b0: 04ea 12bd 42db 773d 77f7 4ebc 2eb2 a83d
000001c0: efe3 0e3d 3044 8cbd 8047 9b3c 8b07 943d
000001d0: 7d9a 993c 0dff bd3d 9b23 6dbd 9ed7 66bd
000001e0: 885a bfbd e044 c73d 7b85 373d 9735 28bc
000001f0: c567 733d c146 a93d ac1e 94bc a6f3 f93c
00000200: f713 703d 78fb cd3c a62a 303d da79 03bd
00000210: fd27 de3d 129a 0c3d e157 97bc df94 5cbd
00000220: 4847 bcbd 8bb0 6e3d c6ff f83c ad96 bfbc
00000230: 7354 9dbd 7fac 5d3d ec43 b43d 54ab ed3c
00000240: bc1d dd3c 3952 933d 46c8 5e3d aca7 6fbd
00000250: 37ac c53d aa00 b5bb
0.017215297 0.008433981 0.065100096 0.087555386 -0.04417025 0.04732955 -0.013650596 0.039549507
0.104876176 -0.08528032 -0.040246215 0.061815746 0.024577487 -0.06485941 -0.052586604 -0.0900474
0.09861896 -0.046008848 -0.04411355 -0.058969144 0.10092066 -0.062437683 0.02791035 0.032666884
-0.08006627 0.08143613 0.07236233 0.096319124 0.024298105 -0.07536976 -0.027593397 0.011084687
0.011324883 0.037654556 0.066463865 -0.013436967 0.019155944 -0.032736372 0.044150926 -0.041035146
-0.07089331 -0.047876418 0.10615708 0.09457508 0.015232045 0.030284498 0.030076426 -0.08651314
-0.07693936 0.046699613 -0.021010328 -0.05389464 0.0017989412 0.028620204 0.018210039 0.10659591
0.09246186 -0.0140565615 -0.09056121 -0.020701334 -0.0928109 0.025152348 -0.026226308 0.1080037
0.08869837 -0.00081858784 0.02567355 0.0538354 -0.03409817 -0.01629164 -0.07580215 0.074037656
-0.04590405 0.012776671 0.030508472 0.07790541 -0.027839119 0.052437056 0.108717255 0.013988353
-0.06593255 0.055072907 -0.02897913 -0.060029313 -0.0357394 0.04576554 -0.06452791 0.06198588
-0.03998946 0.017407596 -0.0893132 0.08791136 -0.032372694 0.07670938 0.0088388175 0.06085395
0.10556858 0.08334329 0.074784875 0.0909649 -0.052319873 -0.029181805 0.064213075 0.084488794
0.019181829 0.08604668 -0.039006658 0.073589824 -0.035867706 0.060511835 -0.012632242 0.0823711
0.034885343 -0.06848943 0.018954992 0.07228001 0.018750424 0.09277163 -0.057895284 -0.056357972
-0.09343439 0.09729934 0.04480503 -0.010266683 0.059425134 0.08265448 -0.018081032 0.030511688
0.05861279 0.025144324 0.043009423 -0.03209863 0.10847471 0.03432662 -0.018474521 -0.053852912
-0.09193283 0.058273833 0.0303954 -0.023387277 -0.07682123 0.054119583 0.088020176 0.02901236
0.026991718 0.07193417 0.054390214 -0.058509514 0.09651988 -0.005523761

layer3.weight f4 [100, 150]
00000000: 7e75 65bd 3825 4c3c d9fe 86bd 8c42 85bd
00000010: f7d7 9abd 94f5 163d 3a81 073d d833 20bc
00000020: 440b 983c 8e57 1e3d f098 cfbb 688b 273d
00000030: 00fc 2dbb 581f 4a3d b8e8 25bc 56c4 0c3d
00000040: 8298 893d 84c2 8d3d 30c0 09bc fc18 563d
00000050: c27e 22bd dab9 73bd a08c 6e3d 442e 893d
00000060: 2dd7 23bd a824 023c e0dd 81bd 6ed9 b8bc
00000070: e899 7e3d d0d5 533d 9241 a53d fc8f 513d
00000080: 138e 21bd 5e23 84bd 456f a6bd f800 503d
00000090: 3b36 1dbd 6b73 76bd 7cf9 9dbd f852 2abd
000000a0: a252 89bd 47c0 2ebd 12d3 89bd 1116 13bd
000000b0: 5e4f 5bbd 6f3e 91bd f04d f5bc 6ae6 62bd
000000c0: 3839 4a3d a080 b8bb d8ff 3d3c 917c 7cbd
000000d0: cadb 16bd 4a7d 973d 9095 a0bc 4094 5ebc
000000e0: b7c5 87bd d83c 153c a0cd 20bd c4ed 0fbd
000000f0: 269b 37bd f3c9 a3bd 363c 7dbd 2b72 a0bd
00000100: ac94 3c3d 1e3f e3bc 80b3 853d 70f5 913d
00000110: 43cf 3cbd 7450 973d 8c62 933d 281d 6f3c
00000120: db88 48bd 0099 353d beb3 3abd 0c11 a2bd
00000130: 5430 0f3d 68f1 7d3c 6484 90bd 14ef a23d
00000140: a0d7 903b 2282 9abd e089 a33d 905a 00bc
00000150: bc0d f13c 3c0d 7abd 426b 24bd 6a78 12bd
00000160: 007c 4aba f8df 35bc 6042 c4bb 0093 c63a
00000170: 9459 3dbd 0450 da3c ce7d 213d e8b8 a0bd
00000180: a820 73bd 6420 3c3d 1806 343d 5886 43bd
00000190: ce35 babc 921d a5bd e0ab 9f3d 488f f03c
000001a0: 8cb4 063d ae9c f1bc b0a4 b73c f19f 8cbd
000001b0: 0c0a a5bc 6861 86bc 3b0f 9abd 1417 24bd
000001c0: 2033 42bb 6eec 8b3d 830a 00bd a103 81bd
000001d0: 507e 683d ecf2 95bc 686d 473d 58dd c8bc
000001e0: 3e23 eabc 2070 333d 98dc a43d 4c09 253d
000001f0: c0dd 5dbd c4fd cfbc dc8e 953d d089 973b
00000200: e89a 89bc 5780 0cbd 1e7b 55bd 14ad 9abc
00000210: f8f3 80bd eeaa 8cbd 22d9 b9bc 24c7 de3c
00000220: 2abe 98bd dc32 943d 6ce9 3dbd 223c 92bd
00000230: c0e5 e83c 1ce6 e83c 50ac c6bc c040 fb3a
00000240: da5b 223d 486b 9f3d 2870 73bc 6ccb a23c
00000250: fdd9 1dbd bc23 793d f898 3f3d ba50 0dbd
00000260: 44a5 d63c d067 733d 38f7 35bc 1f3b 1fbd
00000270: 10b6 bd3b 407c 1a3d e18d 03bd d32b 23bd
00000280: eab9 debc 5840 8e3d a2c2 ad3d a862 553d
00000290: 84e7 a03d 7aa5 a4bc 185c e4ba d918 37bd
000002a0: 89bb 3d3c 5d98 66bc 5f2d 2abd 099b 0d3d
000002b0: c1ee c53c 2c29 a63d 8f2d 9a3d 3681 eab9
000002c0: c859 2fbc 60c3 8f3d e635 913c 73d9 143d
000002d0: c0b7 1f3c 5f01 76bd d5c6 a23d 44c2 ebbc
000002e0: 608c 85bb 503e 4d3d a594 203c 5440 10bd
000002f0: db7c d8bc 03e2 003d e184 4c3d c7e4 81bd
00000300: 0cc9 acbc aebe 1bbd 7211 aeb9 4cd4 e83c
00000310: 6d23 0d3d 565a 123d 3ff9 873d d071 b33d
00000320: a5bb 8d3d 3b6a ab3d 4f3d bf3c bb17 3bbd
00000330: f0c7 82bb c184 57bc 8d4e d03c ecd2 29bd
00000340: 70d0 d5bb 0800 43bd d76e 2abd 24f9 7bbd
00000350: a1bd 923d c337 99bd 0bf2 84bd 7bb5 40bd
00000360: ae35 bc3d 2af7 79bd b29d 2d3d 930d c93c
00000370: 2084 813d 094c c23d b130 08bd 0a43 b83c
00000380: 092d 82bd 600e 5abc 7b8c 1fbc cf21 54bc
00000390: 8c12 64bc f04e a53d 2d00 913c 6311 21bd
000003a0: d9b2 863c 9cdf 3f3d 02a2 2e3d 21f2 88bd
000003b0: 4096 543d 4396 003d 80a9 56bb 73e9 8d3b
000003c0: 1080 dd3c d478 303d 912d 08bc 41d4 63bd
000003d0: 389b 173c cf6f 12bd c0e0 54bd 46be 67bd
000003e0: 3fcf 9c3d 40cc 3cbd 1275 51bd 9f6f 2b3d
000003f0: f2ae d5bc d693 973d 28d2 b03d 327d 183d
-0.056020252 0.0124600455 -0.06591577 -0.065068334 -0.07560723 0.036855295 0.033082224 -0.0097779855
0.01856006 0.038657717 -0.0063353702 0.040904433 -0.0026547909 0.049346298 -0.010126285 0.034366928
0.06718542 0.069218665 -0.0084076375 0.05226992 -0.039671667 -0.059503414 0.05823958 0.066982776
-0.04000013 0.00794331 -0.063411474 -0.022564616 0.062158495 0.05171758 0.08069147 0.051162705
-0.039442133 -0.06452058 -0.08126692 0.050782174 -0.038381796 -0.060168665 -0.07713601 -0.04158303
-0.06705214 -0.04266384 -0.067297116 -0.035909716 -0.053542487 -0.070919864 -0.02994439 -0.05539552
0.049370974 -0.0056305677 0.011596642 -0.061642233 -0.0368307 0.07396944 -0.019602567 -0.01358515
-0.06629508 0.009108745 -0.0392586 -0.03513886 -0.044825695 -0.07997503 -0.061825 -0.07834276
0.046040222 -0.027740058 0.065283775 0.071268916 -0.046096098 0.07388392 0.07196531 0.014594354
-0.04895864 0.044335365 -0.04558157 -0.07913408 0.0349582 0.01549945 -0.070565015 0.07955757
0.0044202358 -0.07544352 0.07985282 -0.007834092 0.029425494 -0.061047778 -0.04014135 -0.035759367
-0.0007724166 -0.011100762 -0.005989358 0.0015150011 -0.046228006 0.026649483 0.039426617 -0.07847768
-0.059357315 0.045929328 0.043951124 -0.047735542 -0.022730734 -0.08062281 0.077964544 0.029365197
0.032887027 -0.029493656 0.022417396 -0.06866444 -0.020146392 -0.016403869 -0.07522436 -0.04006107
-0.0029632524 0.06832205 -0.031260025 -0.0629952 0.056761086 -0.01830431 0.048688322 -0.024519607
-0.028581258 0.043808103 0.080498874 0.04029207 -0.054166555 -0.02538956 0.07302639 0.004624583
-0.016797498 -0.034302082 -0.052119367 -0.018881358 -0.06296533 -0.0686854 -0.022686545 0.027194567
-0.07458146 0.07236263 -0.046365187 -0.07140376 0.028429866 0.028430037 -0.024252087 0.0019169077
0.039638378 0.07784134 -0.014858283 0.01987239 -0.038537968 0.060825095 0.04677674 -0.034500815
0.026201852 0.059425175 -0.011106305 -0.03887474 0.005789526 0.03771615 -0.03211773 -0.039836716
-0.02718826 0.06945866 0.08484389 0.05209604 0.07856658 -0.020098437 -0.0017422466 -0.04470143
0.011580356 -0.014074412 -0.041547175 0.03457168 0.024161698 0.08113322 0.07528221 -0.00044728228
-0.010702558 0.07019687 0.017725896 0.03634019 0.009748399 -0.0600599 0.079480805 -0.028779157
-0.004075572 0.050108254 0.009801065 -0.035217598 -0.026426723 0.03146554 0.04993141 -0.06342464
-0.02109196 -0.038023643 -0.00033200864 0.028421544 0.034457613 0.035730682 0.06639337 0.087619424
0.06920556 0.08369871 0.023344664 -0.045676928 -0.0039911196 -0.01315421 0.02542808 -0.041460916
-0.006525092 -0.04760745 -0.04160961 -0.061516896 0.07165075 -0.07481339 -0.064914785 -0.047048073
0.09189926 -0.06102673 0.042386718 0.024542606 0.06324029 0.09487159 -0.03324956 0.022492904
-0.06356246 -0.013309091 -0.009738083 -0.012947514 -0.013920438 0.08071697 0.01770028 -0.039323222
0.016442703 0.04684411 0.04263497 -0.066868074 0.051901102 0.0313933 -0.0032754838 0.004330808
0.027038604 0.04308398 -0.008311645 -0.055622343 0.009253316 -0.03575116 -0.05197215 -0.056577943
0.076567166 -0.046093225 -0.051137038 0.041854497 -0.026084397 0.07401244 0.08633834 0.03722877

layer3.bias f4 [100]
00000000: 0eee 143d 4714 af3c 4f3a 8fbd 94f2 ec3c
00000010: 7662 f8bb 36e2 a5bc 68b6 c53c 4338 253d
00000020: 3c6d e2bc b1ee 98bd 2841 2cbd e334 9cbd
00000030: 3719 87bc 3a6a 61bd a88e 923c 2e17 053d
00000040: db0b 85bd 2769 d43b 13db a5bd b2d9 e1bc
00000050: a4ff 633d 2466 37bd e74e 7cbc e678 ac3b
00000060: cd80 83bd 6032 8bbc daef 2b3c 300e fdbc
00000070: 9b29 b83d 8ef8 27bd 8ad8 50ba 26d1 1ebd
00000080: 6ed1 973a b54a 4d3d eeab 943d d4c1 4dbc
00000090: 4888 683c 9302 95bd 7c81 80bd 7f89 be3d
000000a0: be1b 5bbd ea76 7b3c 9a68 2e3d edad 833d
000000b0: 205c 2f3d 601a bcbc 78cf 76bd 406b 21bb
000000c0: ec51 403d 24ed 43bd c683 e93b e8ef ee3c
000000d0: f6aa 943d d9ce 07bd 0d36 513d 003e 9a3a
000000e0: be73 223d e75f 463d 598f 773d e88a 5fbc
000000f0: 9069 f339 2c52 92bd b0ec bd3b 3571 943d
00000100: 85f1 43bd 9e91 e6bc a0c4 733c c601 0f3c
00000110: 56c9 2f3d 3dd2 763c d4e9 0dbd f4a8 8c3d
00000120: 8f4c 0abd 5881 403d a36a 0ebd d5aa 32bd
00000130: 1734 f4bb 895a 693d ac5f 2abd 5fa6 8cbd
00000140: f711 e73c 60d3 ee3c 92ae 383d e7ca 87bd
00000150: d6cc 2cbd f59f e8bb cd21 933d da32 843c
00000160: 68a6 273c 8cf3 1dbc e0a3 d53c 77c4 dcbc
00000170: 5813 02bd d277 c53c 3dac b6bb d572 aebc
00000180: 7817 013c fa5d 0b3d 8c95 57bd 5fe2 2abd
0.03635984 0.021371974 -0.06993543 0.028924264 -0.007580097 -0.020249467 0.02413483 0.04033686
-0.027639978 -0.07467402 -0.042054325 -0.07627275 -0.016491516 -0.055032946 0.01789029 0.03249281
-0.06496402 0.0064822617 -0.08098426 -0.027569626 0.05566372 -0.044775143 -0.015399671 0.0052634357
-0.06421051 -0.016991794 0.010494197 -0.030890554 0.089923106 -0.041008525 -0.0007966837 -0.03877368
0.0011582801 0.050120074 0.072593555 -0.012558419 0.014192648 -0.072758816 -0.06274697 0.09303569
-0.053493254 0.015348176 0.042580225 0.06429658 0.042812467 -0.022961795 -0.06025645 -0.0024630576
0.046953127 -0.047833577 0.0071263043 0.02916713 0.07259171 -0.03315625 0.051076937 0.0011767745
0.03966116 0.048431303 0.06043944 -0.013643958 0.00046427222 -0.07144579 0.0057960376 0.07248155
-0.047837753 -0.028145608 0.014878422 0.00872845 0.04291662 0.015064773 -0.034646824 0.06868163
-0.03376442 0.04699835 -0.034769665 -0.04361995 -0.0074524987 0.056971107 -0.041595146 -0.0686767
0.028206808 0.029153526 0.04508836 -0.066304974 -0.042187534 -0.0070991465 0.07184181 0.01613753
0.010232545 -0.009640586 0.026079118 -0.02694915 -0.03175673 0.024104986 -0.0055747316 -0.02129499
0.007879131 0.03402517 -0.052632853 -0.04171979

layer4.weight f4 [80, 100]
00000000: bf60 b83d c842 983c f4bd 953c c098 abbc
00000010: 9b11 5a3d e4d4 10bd e712 9a3d cc9a 01bd
00000020: 2e96 4fbd b067 a53b 0c3d d03c 2bb4 983d
00000030: b88b 87bc 39a9 a83d c62d 1a3d b2d7 4e3d
00000040: e823 bbbc 8059 cbbb 3361 0bbd 0c51 933c
00000050: e2c8 4d3d b6c3 803d ed64 6c3d 8ed2 c53c
00000060: cdae 753d 6d0d a5bd dbb8 bebd 7725 4abd
00000070: 59f4 3a3d f44f f03c 6f0e a53d c7e5 593d
00000080: 884d a83d 0c10 b73c b080 373d 9c8c 833d
00000090: 2523 cabd cb32 b73d 145f a23c 122a aa3d
000000a0: a957 133d a5f9 e1bc 00a2 9b3b e212 263d
000000b0: 1447 6bbd 46b8 8a3d 453c 2fbd 1055 54bc
000000c0: ccd7 af3c 8262 743d 673a 4a3d 60e9 bd3b
000000d0: 6594 ad3d 8a5e 513d e96c b63c 55ed 81bd
000000e0: 06f0 7cbd 003d c8bd 5410 bfbd a18a c53d
000000f0: 3366 54bd 78df c3bc 00f7 42ba 0a33 0dbd
00000100: 6c6d e6bc b3a8 47bd 3afd b4bd 3487 f13c
00000110: 01b2 9cbd 14bb f83c d06f e13b 6841 81bd
00000120: 0f9f 6e3d 74d6 af3c 6a85 4b3d 620d 86bd
00000130: 1d5c 27bd e80f 2a3c 0b38 c3bd 2beb 1abd
00000140: 5d1e 9e3d a015 8abc 3ac5 833d a749 77bd
00000150: 0859 bdbd 806c 5abd 8379 b23d 54bf 08bd
00000160: 099f 883d 0374 76bd 9ead 96bd 1bbf 98bd
00000170: 6c6e 0cbd 1c8f de3b 5c2f b9bd 8ead 8cbc
00000180: f49b 16bd 5321 4abd 7ff0 c2bd 8514 763c
00000190: 90a9 aabd 3a6a 203d 4691 8dbd cac5 cabd
000001a0: 42a3 29bc 2089 d7bb c0b7 75bc f456 b63b
000001b0: 26d9 c6bc ae15 313d 5686 283c a8d4 9ebd
000001c0: ac62 bd3c b5e3 bebd d732 1ebd d66e 823d
000001d0: 3bbc a0bd 2d80 883d a5c0 7f3d 085a 85bc
000001e0: 6834 7cbc 9174 c9bb e8a4 fdbc f77a 8ebd
000001f0: 1785 f5bc 1b3c abbb f5c9 7ebd 3bb6 8c3d
00000200: 7f69 94bd a382 27bd 0cc5 b4bc 5c47 c6bd
00000210: 672c 80bc d7e3 bbbd a26f 16bd 08c0 203d
00000220: 8280 5e3d db59 adbd b8c2 e6bc 9a68 2f3d
00000230: b7d5 cabd 0d91 a5bd 597f f7bc 567b 0ebc
00000240: 57e8 bcbd 5d9c 0bbc f14a a73d ce4b 073d
00000250: ea4f 63bd 60e7 a2bc 728a c43c 853a 87bd
00000260: 7292 003d 8d09 ab3d 35ad 34bd 13d4 cabd
00000270: 6780 843d f8e3 793d 776e 6f3c 273e a83d
00000280: 1ac0 82bd a23b a7bd 328a 5e3d 0584 bfbd
00000290: ec65 ffbc 0e6b bd39 4226 393d 1887 66bc
000002a0: 3fa8 2cbd 1044 2ebd 5310 1bbd 7525 813d
000002b0: 3829 45bc 808f bbbc 28db c7bc c6ff 823d
000002c0: 6054 583b 2d00 b5bc b0e8 24bc e04f 183d
000002d0: 8a79 87bd 50e5 ac3b 154c 16bc ef30 36bd
000002e0: 18fc 203d d329 a23d 7bab 713c 20d7 d8bc
000002f0: f08f 35bc 2ad9 5a3d 4ee6 3b3d 48ef d5bc
00000300: 2a20 3e3d da58 36bd 68cc d8bc d319 a7bc
00000310: 334d c4bd 4067 b13a 3e4a 9b3d dda6 46bd
00000320: a8d6 093c 2383 14bd 68cc 9f3d 2819 c4bd
00000330: d866 cc3a b047 203c 828c 283d 255a ca3d
00000340: a149 e23d 9d4b 1dbd 087a 87bd 343f c13c
00000350: 9b2d 1bbd d093 b9bb c6ba 6f3d 81a9 12bc
00000360: 77e1 25bd 87ce 993d 1620 4c3d da38 3e3d
00000370: a80c 2c3c 87d9 da3c 3ac7 72bd ccad 633d
00000380: 8c89 463c da00 043c d92b b63d 4003 75bd
00000390: 77c3 823d 6ae0 60bd 4df3 b53d a4cd d3bb
000003a0: b173 8e3d 9c3a adbd 6a3a 92bc 258f be3d
000003b0: 9a24 aabd 1073 21bd 89af ba3d de03 0a3d
000003c0: 30ac fabc 7c6e 4fbd 2d3f 93bd 8b4c 90bd
000003d0: 10f0 fabc 7ec9 ac3d 650b 88bd b3bf a73d
000003e0: 90c3 4abd 9d7b ac3d 63dc a6bc 80ce ef3a
000003f0: 9969 a63d 78b9 d93d a81f afbd e604 6c3d
0.09002828 0.018586531 0.018279053 -0.02094686 0.053239446 -0.03535928 0.075231366 -0.031641766
-0.050680332 0.005047761 0.025419734 0.07456239 -0.016546115 0.08235402 0.03764131 0.05049867
-0.02284427 -0.0062057376 -0.034028243 0.017982982 0.050240405 0.06287329 0.057713438 0.024148252
0.059981156 -0.080592014 -0.09312602 -0.049352136 0.045643184 0.029335 0.080593936 0.05319765
0.08217913 0.022346519 0.04480046 0.064233035 -0.098699845 0.08945235 0.019820727 0.083088055
0.03597227 -0.02758486 0.0047495365 0.04054535 -0.057440832 0.067734286 -0.042782087 -0.012959734
0.021465205 0.059664257 0.049372103 0.0057956427 0.0847557 0.05111555 0.02226873 -0.063440956
-0.06175234 -0.0977726 -0.09329286 0.09645582 -0.051855277 -0.02391027 -0.00074373186 -0.034472503
-0.028128348 -0.04874487 -0.08837362 0.029483415 -0.07651139 0.030362643 0.006879784 -0.063113034
0.05825716 0.021464564 0.04968778 -0.06545521 -0.04085933 0.010379769 -0.09532174 -0.03782193
0.07720635 -0.016856015 0.06434102 -0.060372975 -0.09245497 -0.05332613 0.08714583 -0.03338559
0.066709585 -0.06016923 -0.073573336 -0.074583255 -0.034284994 0.0067919623 -0.09042236 -0.017172601
-0.036769822 -0.049348187 -0.09518527 0.015019541 -0.08333123 0.039163806 -0.06912474 -0.099010065
-0.010353865 -0.006577626 -0.014997423 0.005564565 -0.024273466 0.043233566 0.010285934 -0.07755405
0.02311834 -0.093207754 -0.038622703 0.063687965 -0.07848402 0.066650726 0.06243958 -0.016278282
-0.015393354 -0.006147929 -0.030962422 -0.069570474 -0.029970689 -0.005225671 -0.06220432 0.06870695
-0.07246684 -0.04089607 -0.022066616 -0.096815795 -0.015646173 -0.091743164 -0.036727555 0.039245635
0.054321773 -0.08464404 -0.028169021 0.042824365 -0.09904044 -0.08084307 -0.030212091 -0.008696398
-0.09224003 -0.008521167 0.08168591 0.033031277 -0.055496134 -0.019885719 0.023991797 -0.066029586
0.03138966 0.08351431 -0.044110496 -0.09903731 0.06469803 0.061008424 0.014613739 0.082149796
-0.06384297 -0.08165671 0.054331012 -0.093513526 -0.03117653 0.0003612865 0.0452025 -0.014070295
-0.04215264 -0.04254538 -0.037857365 0.063059725 -0.012033753 -0.022895575 -0.024396494 0.06396441
0.0033009276 -0.02209481 -0.010065243 0.03718555 -0.066149786 0.0052763596 -0.009173413 -0.04448026
0.039302915 0.079181336 0.014750357 -0.026469767 -0.011081681 0.05342976 0.045873933 -0.026115075
0.046417393 -0.04451833 -0.026464656 -0.020398056 -0.09585037 0.0013534799 0.0758252 -0.048498977
0.008412994 -0.036257874 0.07802659 -0.09575111 0.0015594615 0.009782717 0.041149624 0.09880475
0.110492 -0.03840219 -0.066150725 0.023589708 -0.03788529 -0.0056633726 0.05852773 -0.008951546
-0.040498223 0.07510095 0.049835287 0.046440937 0.010501064 0.026715053 -0.05927203 0.055585667
0.012117755 0.008056844 0.08895082 -0.059817553 0.06384938 -0.054901518 0.088842966 -0.0064637233
0.0695566 -0.084584445 -0.01785012 0.093046464 -0.083077624 -0.039416373 0.09115512 0.033695094
-0.030599684 -0.050642475 -0.07189784 -0.070458494 -0.030632049 0.08436869 -0.06642798 0.081908606
-0.04950291 0.08422015 -0.02036876 0.0018295795 0.0812561 0.106310785 -0.0855096 0.05762186

layer4.bias f4 [80]
00000000: 2228 9cbd e26c 803d 89bb 18bd c3c6 6bbd
00000010: 0c8b 833d 78e5 ae3c 1bc3 92bd 1d67 43bd
00000020: 167f 213d 20df 613d 347b a3ba d0c3 e2bc
00000030: 7360 7ebc 04ea 03bc 6066 31bc 8563 63bd
00000040: 97ad 76bd 819b 4cbc 084b 92bc 7895 80b7
00000050: 0088 35bd 84c8 5cbc ff78 5abd 3341 003b
00000060: 9c76 f93c f3d2 3abb 914f b03d b26a 513d
00000070: 90cc 93bd dc93 893c ec35 81bc b8e1 8ebd
00000080: a401 f53c ac7a b83c 54b9 2abd b52c c43d
00000090: 22c1 843d c935 db3c f155 9b3d 2345 a5bc
000000a0: b776 573c 4032 7d3d c89f 10bd 4b1f 03bd
000000b0: 7012 c6bd 9b6b c1bc 361a 3cbd 2585 acbd
000000c0: 3daa b03c cca6 82bc d313 c83b 3ce0 963d
000000d0: c4ee 753d 65c6 d1bc dd18 7abc 7b69 38bd
000000e0: da80 63bd dc30 8fbc 30da 44bc aed3 edbc
000000f0: bd5b 093c 8081 a03d dd07 e5bc 50fe c8bd
00000100: 2929 b8bd d370 d7bc 395b 8d3c 48c6 323d
00000110: 8460 863d 4991 863d 72dc b2bd 0b67 8fbd
00000120: 2a70 9ebd 7a62 263d 45c1 563d a74e 05bd
00000130: 2150 23bd 095a f13c 4e73 81bc ed4e 44bd
-0.07624842 0.06270768 -0.037288222 -0.0575626 0.064230055 0.021349654 -0.0716612 -0.04770576
0.03942784 0.05514443 -0.001247263 -0.027681261 -0.015525925 -0.008051399 -0.010827631 -0.05551483
-0.060224142 -0.012488247 -0.017858043 -1.532839e-05 -0.044319153 -0.013475541 -0.053338047 0.0019570112
0.030452065 -0.0028507083 0.08608926 0.051127143 -0.072167516 0.016794138 -0.015772782 -0.06976646
0.029908009 0.022519432 -0.04168065 0.0957884 0.0648215 0.026759045 0.075847514 -0.020174569
0.013150862 0.0618155 -0.03530863 -0.032012265 -0.096714854 -0.02361088 -0.045923434 -0.08423833
0.021565551 -0.015948676 0.006105879 0.07366988 0.060042158 -0.025607297 -0.015264717 -0.04502247
-0.055542804 -0.017479353 -0.012014911 -0.0290316 0.0083836885 0.078372 -0.027957851 -0.09814131
-0.08992226 -0.026298916 0.017255412 0.043646127 0.06561378 0.0657068 -0.08733453 -0.07002076
-0.07736237 0.04062126 0.05243041 -0.03254571 -0.03987134 0.029461877 -0.015802052 -0.047926832

layer5.weight f4 [60, 80]
00000000: f408 c7bd 4d32 a0bd da17 87bd 379c 6cbd
00000010: e5ca 363c dc2b ab3d 3218 d93d 72fd 84bd
00000020: 6fd5 9e3d a947 b83d f8e8 ea3c 168f d3bd
00000030: ee36 8b3c 8d1e 53bd 664c c3bd 6ff8 d73c
00000040: b01b ab3d 1c7f 8b3d 42ad d33d 493b b33d
00000050: 2259 5cbd 572b 70bc 9bef 3d3c ad07 dabd
00000060: 88de cebd 20a5 84bd 4161 de3d 9016 723c
00000070: 8e73 db3d 5792 653c 90e9 f93c 4932 b73d
00000080: eaab 9bbd 44e3 87bc 8349 a4bd 1857 e83c
00000090: 0423 e73c 8eb1 bc3b 6883 e4bd 6f9a cbbd
000000a0: 21c0 c2bd 2797 c8bd 34c7 173c d4b6 c3bb
000000b0: 4048 823d 28fb e03d 50ab a43c 99c7 bbbd
000000c0: db4c c53c c0f9 793b 2a6f c53d 8abf 52bd
000000d0: e31a 63bc f52e a9bd ffc9 033d a904 633d
000000e0: 8098 793c 0e81 573d cc1a cbbd 5f2b d43d
000000f0: a138 7abc 777f b5bd c9d5 003d 7ea4 9a3d
00000100: a03b b13b d74a e23c c4fa adbd 184a b5bd
00000110: e9a8 d43d 6f6a 0a3d e046 49bd 00e6 63b9
00000120: b881 963c de6e b33d 0c15 c1bd 6319 c03d
00000130: e329 8c3a 9d86 703a a205 a73c 2082 c83c
00000140: 69df 0b3c 6c6b 363d 1225 f43d 8c94 cbbd
00000150: 867f 00bd fc53 183d 9a1b b13d 50c0 4f3c
00000160: 744d 5f3c f4c5 b5bd 30e2 e23c 2db4 1ebd
00000170: 6c04 e93d ad4a 013d b74f 943d 339c f63d
00000180: fc18 493d 2ab6 4a3c 4aeb 94bd 03a3 373d
00000190: 0819 cbbc f573 cb3d 0b93 963d 1fde 813d
000001a0: 92d4 9c3d 23ce 243c 0be5 4ebd 3ada e0bd
000001b0: 7c5d 92bd 2e9d fe3d 0a22 d83d 2e36 cfbd
000001c0: 7adb 37bc ac1a 513d 2f86 f13d 92ae 9bbd
000001d0: dd45 15bc d9f0 e83b e8ac b53d 3e00 9bbd
000001e0: 34ab 933c 6328 ca3d 3383 813d 3946 8abc
000001f0: 2d25 2bbd 44f1 babc e30a e93d 54fa 6ebd
00000200: aac8 1abd 1ea5 d9bd 915a aebd 9ea9 ba3b
00000210: 59c5 f53d c311 053d 7a1d 84bd 0086 d53c
00000220: 2042 bebd c310 e9bb 4ffb e3bd d851 ae3d
00000230: a16c be3d 0ede 023d 5e2c aa3d dae6 0bbd
00000240: 81de cc3d 916a 533d 883d 11bd d3cf b2bd
00000250: e5dc 163d 0469 1ebd a641 cdbd 225e b5bd
00000260: b25c 8ebc eaa2 78bd f070 053d ee40 c33d
00000270: f9e3 f13d 4e34 a23d a2d6 04bd b4be 94bc
00000280: 6f10 9fbd 0b58 d4bd f9bf b43d d8b5 de3c
00000290: b87d b13d 7071 a83c d42c a43d ba39 963d
000002a0: 3e38 c2bd e4da 973d b60b 54bd 8061 3cbd
000002b0: d5f8 983d f3d3 223c e1e5 93bc 361c e73d
000002c0: 8a37 abbd 3149 1fbd dacd a9bd 2362 0cbd
000002d0: d41f 7fbd a462 06bd 0ac7 64b8 f294 723d
000002e0: e444 11bd a5e6 38bd 3ea3 a33c 2d42 9f3d
000002f0: 24b1 dabd 4982 1f3d 046c 373d 0eac 7fbd
00000300: 578a 843d 0c57 e33d 9746 c2bd 040b 5b3d
00000310: 576b bf3d eb47 aabd 2ca0 933c 2ede 8e3d
00000320: e416 debd 316c c83c 1425 d03c 6090 b9bd
00000330: 6bd5 113d e61c c9bd 8005 a43d b0d8 a53c
00000340: d3dc d83c 7819 1c3d bf1a 523d b76d 9e3d
00000350: 4685 23bb 0987 aebd d114 aa3a ac85 3ebc
00000360: e489 a5bd 710b b13b 20d5 98bd 008d 8abd
00000370: f05e 86bd fda8 d4bd e012 2e3d 0038 013c
00000380: 2866 d3bd a753 d73d 85ae a3bd ce22 823d
00000390: 78aa cc3c 2507 54bd 8892 1e3d 30ce e33c
000003a0: 3cb2 403d 1b32 89bc 5b77 ef3b c38f 463d
000003b0: 382e 72bd 968f bd3d 505f c13d 1b14 b4bd
000003c0: 60b6 a33d 114a 8bbd f0cf 323d 78ea aebc
000003d0: a252 d0bd 529d 00bd 44ae 1a3d 94d1 cbbc
000003e0: 4830 babc e0e2 2ebd 88a6 c93c 1409 1b3d
000003f0: 50d2 803c ec54 9ebd f84e aebc e49a 3abd
-0.097185045 -0.07822094 -0.06596346 -0.057766166 0.011156772 0.08357975 0.10600318 -0.06493653
0.07755553 0.08998043 0.028675541 -0.10330026 0.016993966 -0.051542807 -0.09536056 0.02636358
0.0835489 0.068113536 0.10335781 0.08751542 -0.05379594 -0.0146587705 0.011592771 -0.10645995
-0.10101038 -0.064768076 0.108583935 0.014775887 0.107154 0.014011941 0.03050688 0.08945138
-0.076011494 -0.01658786 -0.08021834 0.028361842 0.028214939 0.005758471 -0.11157876 -0.09941565
-0.09509302 -0.09794455 0.009263802 -0.0059727225 0.06361437 0.10985404 0.02010122 -0.091689296
0.0240845 0.0038143247 0.096403435 -0.051452197 -0.013861391 -0.082609095 0.03217506 0.055424366
0.015234113 0.05261331 -0.099172205 0.10359835 -0.01527229 -0.088622026 0.03145388 0.07550906
0.005408719 0.027623577 -0.08495095 -0.08852023 0.103837796 0.03379291 -0.049139857 -0.00021734089
0.018372402 0.087613806 -0.094278425 0.09379842 0.0010693636 0.00091753324 0.020388428 0.024476111
0.008537152 0.04453604 0.11921133 -0.099404424 -0.031371616 0.03718947 0.08647843 0.012680128
0.013629306 -0.08875647 0.027695745 -0.038746048 0.113777965 0.031565357 0.07241767 0.120415114
0.049096093 0.012372533 -0.0727144 0.044833194 -0.02479221 0.099342264 0.07352265 0.06341194
0.07657732 0.010058912 -0.0505114 -0.109791234 -0.07146737 0.124323234 0.105533674 -0.10117756
-0.011221761 0.051050827 0.117931716 -0.07601656 -0.009110895 0.0071087894 0.0887087 -0.075684056
0.018025972 0.098709844 0.063238524 -0.016879188 -0.0417835 -0.022820123 0.113790296 -0.0583442
-0.037789024 -0.10627197 -0.08513368 0.0056964895 0.12000532 0.032487642 -0.06450935 0.026064873
-0.09289956 -0.007112594 -0.11131918 0.08511704 0.09298063 0.03195005 0.083092436 -0.034155704
0.10003377 0.0516153 -0.03545907 -0.087310456 0.036831755 -0.03867437 -0.10022287 -0.08855845
-0.017378185 -0.060702242 0.03257841 0.09533869 0.118110605 0.079201326 -0.032431252 -0.01815734
-0.07766806 -0.10368355 0.088256784 0.02718632 0.08666557 0.020561904 0.08016363 0.07335229
-0.094833836 0.07414797 -0.05176898 -0.04599142 0.07469336 0.009938228 -0.01805395 0.11284678
-0.083602026 -0.03888816 -0.08291216 -0.034273278 -0.062286213 -0.032808915 -5.4544806e-05 0.059224077
-0.03546609 -0.045141835 0.0199753 0.07776294 -0.10678318 0.03894261 0.044780746 -0.062419944
0.06471699 0.11100587 -0.0948612 0.053477302 0.09346645 -0.083144985 0.018020712 0.06975971
-0.1084421 0.024465652 0.025408305 -0.090607405 0.03560392 -0.09819965 0.080088615 0.020244926
0.026472485 0.038110226 0.05129504 0.0773577 -0.0024951263 -0.0852185 0.0012976174 -0.01162855
-0.08082941 0.0054029753 -0.07462525 -0.06765175 -0.06561077 -0.103837945 0.04249847 0.007886887
-0.10322219 0.10514002 -0.07992271 0.06354295 0.02498363 -0.051764626 0.03871396 0.027808279
0.047044978 -0.016747525 0.0073079295 0.048476946 -0.05912611 0.092559025 0.094420075 -0.08792897
0.0799377 -0.068012364 0.043655336 -0.021352038 -0.10172011 -0.031400032 0.03776385 -0.024880208
-0.0227281 -0.042696834 0.024615541 0.037850454 0.015725285 -0.07731041 -0.02127789 -0.04555787

layer5.bias f4 [60]
00000000: 4d3c dd3c 2b4d 39bd eb8a d83d 1068 7dbd
00000010: dd0d 793d b239 c1bd 64bb 8cbd ea44 66bd
00000020: fc90 b6bd e69a 8bbd c5b3 a63d 96b5 e63d
00000030: 923e 463d e14b a4bd a7bb a03d 18ee 29bc
00000040: 62f3 f4bc 8a5f 6fbd dbd2 873d 00cc 7b3c
00000050: bebb 3c3d c60a ba3d f066 213d 3efe b8bb
00000060: 7cc3 df3c 4fdd e63c 2eee 61bc 785a 203c
00000070: 3b2b 0b3d 4e8e a5bd 2b79 4fbd 28be 2abd
00000080: 3421 98bd b9eb ec3d ec51 a63d 388d 22bc
00000090: 9b2d 573d 9a37 e53d ebab 313d 8497 4ebd
000000a0: b09d 933b 4e6f 923d 1570 b1bd 945a 2db7
000000b0: 8013 c33a 482c 6abd 6e29 adbd 4af0 223c
000000c0: 79c0 c9bc e049 4ebc b42c 1dbd 3011 523d
000000d0: 03ca b03c 3cfa 6c3c 5368 e53d cc36 7e3d
000000e0: e345 ed3d 10b7 debb b315 18bd 09aa 6f3d
0.027006293 -0.04523961 0.105733715 -0.06186682 0.060804237 -0.09434833 -0.068716794 -0.056218065
-0.08914372 -0.06816654 0.08139757 0.112651035 0.048399515 -0.08022285 0.07848292 -0.010371707
-0.02990121 -0.058440723 0.06632014 0.015368462 0.046077482 0.09084086 0.03940481 -0.0056455424
0.027314894 0.0281817 -0.013789697 0.009787194 0.033976775 -0.08083783 -0.050652664 -0.041685253
-0.07428208 0.11568398 0.08121094 -0.0099213645 0.052533727 0.11192246 0.043376844 -0.050437465
0.004504882 0.07150136 -0.08663956 -1.0332693e-05 0.0014883131 -0.057171136 -0.08455168 0.009944985
-0.02462791 -0.012590855 -0.03837271 0.051285923 0.021580702 0.014463957 0.11201539 0.062063977
0.115855955 -0.006796725 -0.03713007 0.058511768

layer6.weight f4 [40, 60]
00000000: 2396 c0bd d73f 5e3d aef9 fc3d 72da ba3d
00000010: 415c 003e d4c5 e4bb cb5e 76bd 05ed 9abd
00000020: 9ce9 383b 5c1c e63d f53a 833d 48ff 333c
00000030: 3445 d2bd 500a fcbd bed8 c13d ac06 613d
00000040: 0005 d63c 1cb5 693d fced f1bd 9db6 cebd
00000050: 001d 5a3c cfd8 0e3e 0ec0 dd3d 9ced bb3d
00000060: 3014 02bd 6358 a43c 5a18 4abd c61e d83d
00000070: e98e 22bd a873 95bc dcec 1a3d 7b5b e5bd
00000080: 085f f9bd 4770 0e3e 4971 b23c 6d7a ecbd
00000090: 3ae5 0cbd b915 a8bd 6681 94bc 44c3 923d
000000a0: 7037 73bc 5483 0c3e a200 083e 7490 ea3d
000000b0: a4c0 c53d 5544 a5bd ba46 c33d 2c15 79bd
000000c0: a747 a73d 1041 3b3c ad08 b13d 2ea7 073e
000000d0: 088c ccbc d8b2 023e 1ec0 873d f881 8c3d
000000e0: d783 863d 08e5 48bc c51b 51bd b86e d8bc
000000f0: c0b5 90bb 93b6 dabd b6a0 923d 5881 be3c
00000100: 14d0 a73d 2acd a7bd 0e82 36bd 8a23 a7bd
00000110: fa21 01be 7b71 ebbd 2ebf c83d 54fa 6cbd
00000120: 58f5 9f3d e288 993d a8b5 97bd a0ac 033c
00000130: 40b3 353c 3e0f 89bd 72d4 3fbd 12bd 8d3d
00000140: ce1d 5bbd c52e fdbd ea8e 5fbd a7db fbbd
00000150: 70f0 8bbb 6872 ec3c 0625 22bd a8ef b6bc
00000160: c0c5 4fbb 20a4 be3c 3398 d3bd 0a37 b23d
00000170: d070 663d 4043 223d 6a62 17bd a88e 83bd
00000180: 38b4 543d 6137 033e 706d 5d3c 82ae 853d
00000190: 9cc8 dd3d 2eab 10bd b8b7 6dbd f914 bfbd
000001a0: d465 edbc 471a a1bd 6e8c fb3d 1944 86bd
000001b0: b04b 703d 9410 8a3d fa16 bb3d def8 d8bd
000001c0: 246a 6cbd aa8b fdbd 6a9e d7bd c864 dcbd
000001d0: 2cef a03d 6072 323d e0d3 3b3c c495 adbc
000001e0: 20ae 123d c00b 15bb 8048 a2bd 08b2 9d3d
000001f0: 54a2 8e3d e879 e63c 808c 17bd 40ff e23d
00000200: b880 cf3c 54db 8fbd f01c 723d 163c 88bd
00000210: 20b7 5f3d c451 2dbd 475c e4bd 105f 8d3c
00000220: 6035 873c 785f e53c 8c7a 473d 27ce f7bd
00000230: d2c3 f1bd 401e fe3b 4e78 c1bd 527d a23d
00000240: 08fd ffbd 14ab 9b3d cc64 4b3d 5afb d0bd
00000250: 70c5 b63c 8058 28bb 5c34 74bd 00c4 ebbd
00000260: dd4c e7bd 98a2 29bc 8d0f 003e f065 823d
00000270: 00e7 13bb bc91 ae3d 5bf9 fcbd c05b d83b
00000280: ae7e 35bd a73b fabd 3804 583d dccd 74bd
00000290: f82c e3bc 4cab bd3d de03 7cbd 0c68 a0bd
000002a0: f675 fdbd 90b1 983c 1209 acbd 4ac7 f73d
000002b0: 480c 4dbc 3e0e b73d 5c7a 833d 407a 733d
000002c0: bac6 99bd 90ca 2d3c a4f5 7d3d 3609 c73d
000002d0: 5986 193d d789 053e 5ff1 45bd c0ed a03c
000002e0: d2f7 8dbd 66c2 c1bd fa9c ef3d 403b 983d
000002f0: dca6 e93c 0ed5 01be e7e8 3c3d 48a9 c63c
00000300: 049c a5bd 00b5 eb3b 676c c8bd 9036 a93c
00000310: aa8a dbbd e8f5 df3c 52bc f03d ec1d 2d3d
00000320: e2a5 803d 9519 a2bd 1672 863d c2af a7bd
00000330: b263 81bc 0076 dabd 8634 b3bd 3c2c cd3d
00000340: a1e8 3fbd a271 f23d 7471 78bd 5f11 063e
00000350: a2f6 8dbd dace 113d dbee 77bd c0e6 7f3b
00000360: 74fa eebd c446 d6bd 4ce2 823d 8562 d8bd
00000370: 9ff1 95bd f13d 073e 090e 59bd cac4 7c3d
00000380: 708d 9d3d b006 c7bd 9b54 e93d b699 f03d
00000390: d17b 37bd 50fd 3cbc 8e70 f93c 020d 6a3d
000003a0: 0cef b63d 6cc3 0d3e b684 b4bd 133a b53c
000003b0: f518 f63d f018 a3bd 4db4 143e b65a 743c
000003c0: 266e b23d 2c77 8cbd 6f83 933d 3282 b63d
000003d0: 6fe9 823d 41dc 05bb 60ba aebd bc27 83bc
000003e0: a4de 0f3d 5706 d1bd f2f3 d6bd af33 c23d
000003f0: ebbe 2f3c 281a 0abd 0093 6a3c 3c7d f2bc
-0.09403636 0.0542601 0.1235231 0.091236964 0.12535192 -0.0069815908 -0.060148995 -0.07564739
0.0028215414 0.11235878 0.064077295 0.010986157 -0.10267106 -0.123066545 0.094651684 0.054938003
0.026125431 0.057057485 -0.1181297 -0.100934245 0.013312578 0.13949893 0.10827647 0.0917618
-0.031757534 0.020061677 -0.04933963 0.105527446 -0.03968707 -0.018243626 0.037823543 -0.11199089
-0.12176329 0.13910018 0.021782534 -0.11546788 -0.034398295 -0.08207268 -0.018128108 0.0716615
-0.01484476 0.13721973 0.13281491 0.114533335 0.09655884 -0.08069674 0.095349744 -0.060811207
0.081679635 0.011429086 0.08644233 0.13247368 -0.024969116 0.12763536 0.0662844 0.06860727
0.06568115 -0.012261637 -0.051051874 -0.026419982 -0.0044161975 -0.106793545 0.071595594 0.023255035
0.08193985 -0.08193429 -0.044557624 -0.081610754 -0.12610617 -0.11496254 0.0980209 -0.05785592
0.078104675 0.074968114 -0.07407695 0.0080367625 0.0110901 -0.0669236 -0.046833463 0.06920828
-0.05349522 -0.12362436 -0.054579653 -0.12297755 -0.0042706057 0.028863147 -0.03958609 -0.022331074
-0.0031703562 0.02327162 -0.10331764 0.08701904 0.05625993 0.039614916 -0.03695909 -0.06423694
0.051929682 0.12814094 0.013514861 0.06527425 0.10829279 -0.0353195 -0.058036536 -0.09330172
-0.02897922 -0.0786634 0.12282644 -0.06555957 0.05866593 0.06741443 0.09135242 -0.10594343
-0.05771841 -0.123801544 -0.10528262 -0.1076141 0.078581184 0.043566108 0.011464089 -0.021189578
0.03581059 -0.00227426 -0.079239845 0.076999724 0.069645554 0.028134301 -0.036999226 0.11083841
0.025329933 -0.070242554 0.05910963 -0.066520855 0.054618 -0.042314306 -0.11150413 0.017257243
0.016504943 0.027999625 0.048700854 -0.12099867 -0.11804928 0.007755071 -0.094467744 0.07934059
-0.12499434 0.0760099 0.049656674 -0.102041915 0.022310942 -0.0025687516 -0.059620246 -0.115119934
-0.112939574 -0.010353707 0.12505932 0.06367099 -0.0022568107 0.085238904 -0.12352248 0.0066027343
-0.044310264 -0.12218409 0.0527384 -0.059766635 -0.027731404 0.09261188 -0.061527126 -0.07832345
-0.12376015 0.018639356 -0.084001675 0.12098558 -0.012515135 0.08938263 0.064198226 0.05944276
-0.07508607 0.010607377 0.06200184 0.09718554 0.03748164 0.13040863 -0.048325893 0.019644618
-0.069320336 -0.09460907 0.11699863 0.07433176 0.028521948 -0.1267893 0.04612055 0.024250641
-0.08086398 0.0071932077 -0.09786301 0.0206559 -0.107198074 0.027338937 0.11754669 0.042264864
0.0628164 -0.07915036 0.06564729 -0.0818782 -0.015794609 -0.10667038 -0.087502524 0.10018203
-0.04685271 0.1183808 -0.060655072 0.13092564 -0.06931807 0.03559766 -0.060530525 0.003904745
-0.11668864 -0.10462716 0.06390819 -0.10565666 -0.07321476 0.13207223 -0.0529919 0.06171111
0.07692993 -0.097180724 0.1139309 0.11748068 -0.044795815 -0.011535004 0.030449178 0.05714131
0.08932313 0.13844079 -0.08814375 0.022122419 0.12016479 -0.07963741 0.14521904 0.014914205
0.087124154 -0.06858668 0.07202803 0.089115515 0.0639218 -0.002042547 -0.08531642 -0.016010158
0.035124436 -0.10206287 -0.104957476 0.09482514 0.010726671 -0.03371635 0.014317274 -0.029600732
