saved_models/policy_network.pt (torch_old, 5282 bytes, 7 tensors)

conv1.weight f4 [2, 1, 1, 2]
00000000: 6c15 0d3e 22f0 5abd 8858 a8bc 9d51 16bf
0.13777703 -0.053451665 -0.020550027 -0.5871828

conv1.bias f4 [2]
00000000: d146 bc3e f3dd d43e
0.3677278 0.41575584

conv2.weight f4 [48, 2, 1, 5]
00000000: f9ab ce3d dff8 873e 8d77 10be 8a55 82be
00000010: cc95 933e 2760 4fbe 8807 2fbe 0d22 2dbe
00000020: f214 3ebd e423 1fbe 53d5 8a3e 93ef 2e3e
00000030: 66b9 93be 2632 a8be 9435 7a3e 5956 21be
00000040: 901e 7b3e 9cd5 4b3e cbd5 fd3d 258d 543e
00000050: 408a 87bd a401 df3c 2e1b 23be 0b34 5b3e
00000060: 94f1 f4bd c28a dd3d c32b e9bd 6b8b 533e
00000070: 6642 79be 9a90 fb3d 0046 803e 3076 2f3d
00000080: 1f97 12be cda3 81bd 862f 0b3e eef9 973e
00000090: 8145 1cbe c383 4dbe 3de2 9bbd c9d4 cabd
000000a0: 0664 56be 27f7 9ebe 438e 953e 90c9 6cbe
000000b0: 9fe9 9b3e 409f 1ebc 80f1 10bc 0c40 2c3e
000000c0: dc81 2d3e 2c61 72be 0379 22be 59fe adbe
000000d0: 29cc 833e f44a b1be 3387 223e ce0e 9e3d
000000e0: c3d8 703e 21d2 3cbc a723 09be 5de8 cfbd
000000f0: 96e4 58be c78b 933e 68bd 013d 6d44 19be
00000100: 4a38 5bbe 0ae0 443e 4306 8dbe d4be 95bd
00000110: 7ab6 89be d85b 463d e21b be3d f0c2 0cbe
00000120: 0086 9dbb 39d0 9dbe 5f10 90be 8c0f 663d
00000130: 4306 7b3d a787 443e 3dd1 3f3e b894 a6bd
00000140: 9532 47be 7a2c fa3d d311 d1bc 228c 863e
00000150: 5e93 833d 4f14 9abd 495d 87be 5092 663e
00000160: 8d61 3ebe c191 433e ca1b 8abd 60f6 97be
00000170: 5bd7 9b3e 1cbf 81bd 8b2a 9abe c523 9abe
00000180: d135 94be da87 113e 166e 2e3e 0f03 3fbe
00000190: 1478 903d ae33 253e e0de 52be 0052 c4bb
000001a0: 56bd 413e c208 19be 7086 833d 9220 7f3e
000001b0: ac17 8abe d0b4 1f3e 98ff 5e3e 5978 12be
000001c0: 5318 9c3e 488b 21be 17a2 0cbe 2824 8dbe
000001d0: 4daf 943e 7be5 72bd dc64 90bd dbaf 0c3d
000001e0: 51a5 1fbe bf9d 6b3e 724c 893e b3d0 313e
000001f0: d367 c23c 23e7 52be 8cfe 86be 7834 b33d
00000200: 2346 953e 1201 3dbe 1532 df3d b622 17be
00000210: 1c78 00be a2e6 4a3e 9d9e 95be 744f 833e
00000220: 7e72 66be e367 143e 3ed2 dc3d dab2 9dbc
00000230: 2b97 633e c4dd 203a 35be 493a 3e97 aa3e
00000240: a7cc 993e 4c63 a13e cfc5 d83d 7655 93be
00000250: dca5 a0be 6be3 733e feaa 803e ed47 65be
00000260: a891 053d dabe d4bd 8396 b0bd e5b1 3ebe
00000270: 74cc fd3b 985b 05be 8ede 6dbe 3e68 553d
00000280: 2f27 84be 94b8 003d b391 553d 5a9e eabd
00000290: 41a8 313e ead7 633d 8258 87bd 52d5 18be
000002a0: 3ea0 6bbd 7adb 4dbe 0075 1a3e 41d4 943e
000002b0: 627d 593d 1426 89bd dbc8 7c3e 7175 6abe
000002c0: 2c2e adbd df19 083e 18be 89be 8f89 8e3e
000002d0: 0205 903e ca4b 40be 2023 1e3e 8690 8e3e
000002e0: 12bc 53be 1688 e2bc 05b7 5e3e 824b 66be
000002f0: 6625 90be 830d 493e 8d9b 8e3e 9a96 04be
00000300: 2c00 e4bd 0a69 4c3e d832 87be 00b7 b03c
00000310: c87e 33bd 1aee 36be d0c0 0a3d 086f bb3d
00000320: a43a ef3d 8899 30bd 748c 913d 9a92 373e
00000330: e1ae 7fbe 3069 fdbc 8f2f 96be 8472 8bbd
00000340: 246f 0d3e 0041 483c 3198 d43d 463b c73c
00000350: cfc5 523e 8641 b3ba 4b6c e33d 2826 26be
00000360: 4644 4c3e 6ce8 933d a356 96be 7087 3a3e
00000370: 160f 463e 3522 83be d04c f23d 20b6 49bd
00000380: ba92 373e 30b0 27be 0887 3ebe 9098 803d
00000390: 9026 533d ac2f d93d e0db 7d3e 2ab7 893d
000003a0: 8c9c 9ebe 53fa 913e bb6f 0d3e 596c 053e
000003b0: 802f 853d ce31 ed3c 395a 92bc 3cad 763e
000003c0: 3095 dcbc 172f 703d 14da 55bd c61c 06be
000003d0: 7da0 10be 52eb 8d3e 086c 89bd e1a4 153e
000003e0: 1163 673d 9b29 87bd 8fbd a6be e178 0fbe
000003f0: 19cb ba3c 1f83 273e 67b5 813e 209f 1d3e
0.10091395 0.2655706 -0.14108105 -0.25455886 0.28825223 -0.20251523 -0.17092717 -0.1690752
-0.046406694 -0.15541035 0.27115878 0.17083578 -0.28852385 -0.3285076 0.24434501 -0.15755595
0.24523377 0.19905704 0.123942934 0.20756967 -0.06618166 0.027222462 -0.15928337 0.21406572
-0.1196014 0.108174816 -0.113853 0.20658652 -0.24341735 0.1228344 0.25053406 0.04283732
-0.1431546 -0.06330071 0.13592348 0.2968287 -0.15260889 -0.20069794 -0.07611511 -0.09903867
-0.20936593 -0.31047937 0.292101 -0.23123765 0.30451676 -0.009681523 -0.008846641 0.16821307
0.16944069 -0.2366988 -0.15866475 -0.33983114 0.257417 -0.34627497 0.15871887 0.077176675
0.23520188 -0.011524708 -0.13392507 -0.10151742 -0.21180949 0.2881758 0.031674773 -0.14967509
-0.21408191 0.19226089 -0.2754384 -0.07311788 -0.2689703 0.048427433 0.09282662 -0.13746238
-0.004807234 -0.30822924 -0.2813749 0.05616717 0.06128527 0.19192372 0.18732162 -0.081338346
-0.1945289 0.122155145 -0.025521195 0.26278788 0.064245924 -0.07523405 -0.26438358 0.22516751
-0.185919 0.1909857 -0.067435816 -0.29680157 0.3043774 -0.06335279 -0.30110583 -0.30105415
-0.2894731 0.1421198 0.17034182 -0.1865351 0.07054153 0.16132995 -0.20592833 -0.0059912205
0.18919882 -0.14944747 0.06422126 0.24914768 -0.26971185 0.15596318 0.21777189 -0.14303721
0.30487308 -0.15775788 -0.13733707 -0.27566648 0.29039994 -0.05930088 -0.070504874 0.034347396
-0.15590407 0.23009394 0.26816136 0.17364769 0.023731148 -0.20595984 -0.2636608 0.08750242
0.29155073 -0.1845744 0.10898224 -0.14759335 -0.12545818 0.19814542 -0.29222575 0.25646555
-0.22504613 0.14492755 0.10782288 -0.019250322 0.22225635 0.0006136561 0.00076958846 0.33318514
0.3003895 0.3152107 0.10584604 -0.2877614 -0.3137654 0.23817222 0.25130457 -0.22390719
0.03260961 -0.103879645 -0.08622458 -0.18622549 0.00774532 -0.13023221 -0.23229429 0.052101366
-0.25811145 0.031426027 0.052140903 -0.114559844 0.1734934 0.055625834 -0.066086784 -0.14925125
-0.057525866 -0.20103255 0.15083694 0.29068187 0.05309809 -0.06696716 0.24685995 -0.22896363
-0.08456072 0.13291119 -0.26902843 0.27839324 0.2812882 -0.18778911 0.15443087 0.27844638
-0.20677212 -0.027652781 0.21749504 -0.22489741 -0.28153533 0.1963406 0.2785305 -0.12948075
-0.11132845 0.19961944 -0.26405978 0.021571636 -0.04382208 -0.17864266 0.033875287 0.09152037
0.11681107 -0.04311517 0.071068674 0.17927018 -0.24969055 -0.030933946 -0.2933316 -0.068089515
0.13811928 0.012222528 0.10380591 0.024320256 0.2058327 -0.0013676144 0.111046396 -0.16225493
0.19947919 0.07222065 -0.29362974 0.18215728 0.19341692 -0.25612035 0.11831057 -0.049245954
0.17927065 -0.16375804 -0.18606198 0.06279099 0.051550448 0.10604796 0.24790907 0.06724389
-0.3097881 0.28511295 0.13812153 0.13029613 0.065032005 0.028954413 -0.017865287 0.24089521
-0.026926607 0.05863866 -0.05220993 -0.13096914 -0.14123721 0.27718598 -0.067100585 0.14613678
0.05649096 -0.065997325 -0.32566497 -0.14010955 0.022801923 0.16358612 0.25333712 0.15392733

conv2.bias f4 [48]
00000000: 5894 363e e532 af3b 3507 513d 693b 943c
00000010: ea0d 26be 4dca 1b3e 44d6 ad3d ba4f 093e
00000020: 8c01 443e d45a b23d c8c3 7bbe e581 7f3e
00000030: f511 9cbe cf9a 643e c78c 963e 1e37 863e
00000040: 1dec 0a3d 224f 80be 0a5d 273d 89d1 32be
00000050: 95a3 8ebe 6f08 98be bafe 4fbe 9c03 1a3e
00000060: cc54 9cbd 0d59 193d ad78 913d 65dc bd3d
00000070: f0a5 8ebe b653 9b3d 01f3 143e fc1c 343e
00000080: d172 8abe 4886 07bd 7e2f 643e 82c2 2e3e
00000090: 3779 4bbe 6096 aa3d f031 fb3c 6d44 3a3e
000000a0: e06f 52bd 6901 823e 1a5e 8c3b 6dd2 19bd
000000b0: da04 ccbd c19e 6ebe 8046 863d 5b6c 9b3d
0.17830026 0.0053466433 0.051032264 0.018094735 -0.16216245 0.1521389 0.084881335 0.1340932
0.19141215 0.0870873 -0.24586403 0.24951895 -0.3048245 0.2232468 0.2940428 0.26213926
0.03391658 -0.25060374 0.040860213 -0.17462744 -0.27859178 -0.29693934 -0.20312014 0.1504044
-0.07633361 0.03743844 0.07103095 0.092705525 -0.27860975 0.07584326 0.14545824 0.17589182
-0.27040723 -0.033087045 0.22283742 0.17066386 -0.19870459 0.08329463 0.03066346 0.18190165
-0.051376224 0.253917 0.0042836787 -0.037554193 -0.09961863 -0.23302747 0.065564156 0.075890265

conv3.weight f4 [1, 49, 1, 1]
00000000: 8b34 20be af74 b23d a3fa 4a3c 59a8 f5bd
00000010: 6a00 c7bd d531 483a eef5 babd 49b9 2d3d
00000020: d57b 21be 0ed1 98bd 5a39 d93d 9a5d 27be
00000030: 4346 d83d 4a05 8f3c bdb7 e9bd 6a4e 9bbd
00000040: 2901 023c be54 163d bea4 923d 5ca1 343d
00000050: 2637 2abd da1d 4b3d 4cb0 91bd 67d3 8b3d
00000060: 0e7b ca3c 8ce4 043d 2a5d c4bc 2fc6 23be
00000070: 70fd 86bd 01f6 803c 0df9 bf3d bfc9 b13a
00000080: 8acd 68bd e8d2 ad3d 98e2 933d cbba bebd
00000090: e386 a4bd 520b e33c 30ce 273c d6f3 83bd
000000a0: a01a 0dbd b601 57bd 77b6 b53c f60f cf3d
000000b0: 33b6 ebbd b096 8bbc c0be 413d 8113 06bd
000000c0: 9df2 11be
-0.15645044 0.08713662 0.012388858 -0.119950004 -0.09716876 0.000763682 -0.091289386 0.04241303
-0.15769894 -0.07461749 0.10606642 -0.163443 0.10560276 0.017458577 -0.114119984 -0.07583316
0.007934847 0.03670191 0.07160328 0.044099197 -0.0415565 0.049589016 -0.07113704 0.06827431
0.02471688 0.03244452 -0.023970205 -0.1599357 -0.06591308 0.015742304 0.093736745 0.0013564153
-0.056836642 0.08487493 0.07220954 -0.09312972 -0.0803354 0.027715359 0.01024203 -0.064429924
-0.03444922 -0.052491866 0.022181733 0.10110466 -0.11509361 -0.017039627 0.047301054 -0.032733444
-0.14252706

layer1.weight f4 [20, 20]
00000000: f637 1fbd 267a 03be 3343 793e feef dfbc
00000010: 4496 463e e29b 153e e54f 97bd 9887 4e3e
00000020: 83df 513e d48e 093d 10f2 533e d6bf 073e
00000030: 8f18 51be 5861 08be ee7a 683e 8abe 0cbe
00000040: f0c0 133e 3b52 94bd eff1 c8bd 8c9b 113e
00000050: 5e77 0e3d e3d7 52bd 9af5 c9bd 5895 733b
00000060: a815 36be b0e1 4bbe 44a9 edbd 875b 1a3c
00000070: ff27 1cbd 6f19 da3d 2f3e 10be 8fa7 733d
00000080: 5e1f 923d 721a 19be 5c87 c3bd 43be 353e
00000090: 990d babd 3309 13be e1bf 933d d1a7 743e
000000a0: f290 773d 577d 9bbd 053a d2bd 0e18 dfbd
000000b0: d734 df3d e035 8cbd b3c3 3a3e 3b40 193e
000000c0: 7f02 043d 302c 2abd 2f50 cfbd a189 1cbe
000000d0: b750 3dbe 1c5c 0dbe b87a 61be 044a 103b
000000e0: 1419 e43d b8a9 ff3d d466 d8bd d7fa 313e
000000f0: bffd 9fbd 3e7f 2d3e 8236 593e 59e6 a73d
00000100: d2bf 35be 0204 2fbe 68a4 763e 096c 2cbc
00000110: e119 0d3e d061 99bc f4c8 a8bd 09d0 6b3e
00000120: c470 053d ce59 aabd 49ff 21be d25e 22be
00000130: 8e6b 97bd f1cf 20be c644 46be 9dd5 9c3d
00000140: 950e f6bd 878f 29be 1563 3d3e f149 3b3e
00000150: 789b 353e b528 39bd db65 3f3e f792 093e
00000160: 6930 163e 57cb 003e 940d 5fbe 11a4 64be
00000170: 6510 3bbe f216 1e3e 2291 113e 1070 9e3d
00000180: 4a20 563e f5c7 723d e927 0cbe c3b5 423d
00000190: 99bc 933d 639f 1bbe ba47 f5bd 87c2 4bbe
000001a0: d9a9 533e 9df8 29be 7d5c 0abe cb13 d43d
000001b0: f337 cd3c ecf5 2e3e 2e59 3c3e 5c40 803d
000001c0: 2697 663d 9950 483e e33a 55be 7c2d 303e
000001d0: 39e5 8e3d a63e 0abe 0311 1fbe 3e00 16bd
000001e0: 4d30 50bd 88df cfbd a003 a7bd d46c b5bd
000001f0: cc62 103e b955 4bbe e6d0 dfbd cbe1 943d
00000200: 6109 f63d a8d5 20be e34f 5bbd 4e20 41bd
00000210: 5cf1 b7bd 42c4 563d 9de0 913d 2cf1 053e
00000220: 2dfc a83c c9ff 0c3e 2d29 b8bd 022d 19be
00000230: 7b03 9439 8618 a5bd db02 3abe 26e8 f0bd
00000240: c002 a93b 5f62 d2bc 3dd8 d5bc 111a 60bd
00000250: 8901 af3d 40e4 0b3b 2c3f 503e 1a38 f3bd
00000260: a3b1 bb3d 247d b0bd 8d69 48be 22a5 0c3e
00000270: 455c 1ebd 90c9 21be dee8 ab3d eb38 1e3e
00000280: 81ce fdbc e2e8 85bd 5542 79bd a887 a73d
00000290: 1110 37be 4fd5 ae3d 9dc3 283d 7d12 383e
000002a0: 100d 0e3e e703 4bbd 9459 173d 406b bbbd
000002b0: bfd0 a5bd 892c 013e 53d4 0d3e f63b a53d
000002c0: 62f3 6dbe 5c88 66be 1bca 4ebe 560b f6bd
000002d0: b8e3 1fbe cded 483d acfa 09be 24a6 f23c
000002e0: a434 18bd 540a 4dbe 5e01 b8bd dfa4 133e
000002f0: 4ed5 bc3d 8eab 45bc d647 24be 0cc8 c6bd
00000300: 7daa 2d3d 2b3a 1bbd fe6e 0b3e 916a 4f3e
00000310: 4c35 883b 21c9 2a3d fc78 073e 095a ec3d
00000320: 2dfb 933d 36e9 0e3e 280f 373e c07f 0f3e
00000330: f961 e4bd 3ef9 c5bb c9f8 cebd 5d72 31be
00000340: 01de c8bc e719 dbbb 2c4c 4c3e b46d 123e
00000350: ca33 5bbc f0ec a5bd a0d8 45bd cce2 1f3e
00000360: 556f 383e 18db db3c 7495 dcbc 4101 c2bc
00000370: 2ca8 afbd b797 1c3e bcce 853c ee76 823d
00000380: 4f9f 223e c5da 093e 4679 27be 4fdb 0abe
00000390: 8edb 5abe e718 2e3d e8e4 ab3c 2673 5c3e
000003a0: 16d5 083e 9dd3 df3d 6884 c4bb cfd5 d83d
000003b0: 4386 04be ef1b d23b 6e52 243e e141 1b3e
000003c0: bc6e 953c 167b 163e 4151 aebd 3202 d53d
000003d0: 49ab ed3d bbf1 55be 3936 d83d 6a37 093e
000003e0: e7b4 54be 4815 0e3e 8947 0c3e fabf bdbd
000003f0: 6e4c 3c3e 31ab 51bd 160f 9b3c 7866 ffbc
-0.038871728 -0.12839565 0.2434204 -0.027336117 0.1939326 0.14610246 -0.073882855 0.20168912
0.20495419 0.033583477 0.20697808 0.13256773 -0.20419525 -0.13318384 0.22703144 -0.1374456
0.14429069 -0.07242247 -0.0981177 0.14219493 0.034781806 -0.051475417 -0.09861298 0.0037167873
-0.17781699 -0.19910312 -0.116045505 0.009421236 -0.03812408 0.10649382 -0.14086221 0.05948597
0.07134889 -0.14951494 -0.09547302 0.1774836 -0.09084625 -0.14358978 0.07214332 0.23892142
0.060440965 -0.07592266 -0.102649726 -0.1089326 0.1089875 -0.06846213 0.18238716 0.14965908
0.032228943 -0.041546047 -0.10122716 -0.15286876 -0.18487822 -0.13804668 -0.2201947 0.0022016773
0.11137596 0.12483543 -0.10566488 0.17380844 -0.0781207 0.1694307 0.212122 0.08198232
-0.17748955 -0.17091373 0.24086154 -0.010523804 0.13779403 -0.018723398 -0.08241454 0.23028578
0.032578245 -0.0831791 -0.1582004 -0.15856484 -0.07393561 -0.15704323 -0.19362172 0.07657931
-0.120145 -0.16558658 0.18494828 0.18289925 0.17735088 -0.045204837 0.18691199 0.13434969
0.14666905 0.12577568 -0.21782523 -0.22328211 -0.18267973 0.1543844 0.1421552 0.07736218
0.20910755 0.059272725 -0.136871 0.047536623 0.072137065 -0.1519752 -0.119765714 -0.19898425
0.2067026 -0.16598745 -0.13511844 0.10355338 0.025051093 0.17085999 0.18393394 0.062622756
0.05629649 0.19561996 -0.20823245 0.17204851 0.069773145 -0.13500461 -0.15533833 -0.036621325
-0.050827313 -0.10150057 -0.08154988 -0.08858648 0.14100188 -0.1985692 -0.10928516 0.07269629
0.12013508 -0.15706503 -0.053542983 -0.04714995 -0.089815825 0.05243326 0.0712292 0.13080281
0.02062806 0.1376945 -0.08992229 -0.14958575 0.00028231353 -0.08061318 -0.18165152 -0.11763029
0.0051577985 -0.025681673 -0.026104087 -0.05471236 0.08545215 0.0021345764 0.20336598 -0.11875935
0.09164741 -0.08617619 -0.19571514 0.13734868 -0.038662214 -0.15799546 0.08394025 0.154514
-0.030982258 -0.065385595 -0.060854275 0.08180171 -0.17877223 0.08536779 0.041202176 0.17975803
0.1387217 -0.04956427 0.036950663 -0.09151316 -0.08096456 0.12614645 0.13850527 0.08068077
-0.23237374 -0.22512954 -0.20194285 -0.12013881 -0.15614212 0.04905491 -0.1347453 0.029620238
-0.037159577 -0.20023471 -0.08984636 0.14418362 0.09220372 -0.012064828 -0.16043028 -0.09706125
0.04239892 -0.03789727 0.13616559 0.20255496 0.004156744 0.041695718 0.13229746 0.1154061
0.07225642 0.1395615 0.17876875 0.14013577 -0.11151499 -0.006041675 -0.10106046 -0.17328782
-0.024519922 -0.0066864374 0.19950932 0.14299661 -0.013379047 -0.08101833 -0.048302293 0.1561386
0.1801122 0.02683787 -0.026926734 -0.023682239 -0.08576998 0.1529225 0.01633393 0.0637034
0.15881084 0.1346236 -0.16354856 -0.13560222 -0.21372816 0.042504217 0.020983174 0.215283
0.13362536 0.10929034 -0.0059972294 0.10587656 -0.12941842 0.0064120214 0.1604707 0.1516185
0.018241279 0.14695391 -0.08511592 0.10400809 0.11604936 -0.20892994 0.10557217 0.13400045
-0.20772134 0.13875306 0.13699163 -0.09265132 0.1838853 -0.05118865 0.018928092 -0.03117679

layer1.bias f4 [20]
00000000: 9a6b c03b df0e 48bd a3c7 f4bd edbc 803d
00000010: 605c a3bd 2289 95bd 9a63 2ebe 6453 52be
00000020: 6f00 ce3d 477f 8bbe 11e8 95be e7f6 6fbe
00000030: 8398 11be f8ae 433d 4c20 913e 4fbc ed3b
00000040: d84e cbbc ad02 2a3e 908d 61bd e049 2abe
0.005872202 -0.048842307 -0.1195214 0.06286035 -0.079766035 -0.07301547 -0.17030182 -0.20539623
0.100586765 -0.27245542 -0.29278615 -0.2343403 -0.14218335 0.047774285 0.28344953 0.007255114
-0.024817869 0.16602583 -0.055066645 -0.16629744
